checkpoints/GAT/best_recall_score/checkpoint1.pt (torch, 156441 bytes, 50 tensors)

model.gnn.gnn_layers.0.gat_conv.attn_l f4 [1, 8, 8]
-0.12248113 0.555485 0.222259 0.0011678014 0.23629554 -0.41746625 0.1820568 0.0249682
-0.019541815 0.18324012 0.026389025 -0.09711211 -0.34018785 -0.013436392 0.3081304 0.59072244
-0.30984554 -0.34629035 0.14391573 -0.115584135 0.5948143 -0.06871472 0.0015482756 -0.033966642
0.027475856 0.037452508 -0.4136115 0.1655376 0.0011060623 -0.3058364 -0.33194017 0.23216161
0.2791545 -0.0077597727 -0.05128698 0.30230814 0.030973794 0.18907084 0.010349592 0.23794255
0.113630906 -0.13002117 -0.2090457 0.27785102 -0.2810286 0.36025745 -0.28027198 -0.33924896
-0.044426173 0.36184552 0.0076111276 0.16427432 -0.1185302 -0.022845859 5.829067e-05 0.15618357
-0.3119667 0.16499054 -0.040528063 -0.21654208 -0.015550285 0.05488276 0.17429061 0.086310044
00000000: 63d7 fabd 4434 0e3f dd97 633e ea10 993a
00000010: 75f7 713e 23be d5be 196d 3a3e 1c8a cc3c
00000020: 2816 a0bc 4ca3 3b3e cc2d d83c b7e2 c6bd
00000030: 1a2d aebe 5024 5cbc 45c3 9d3e 9639 173f
00000040: 13a4 9ebe f84c b1be a55e 133e 60b7 ecbd
00000050: c045 183f 4eba 8cbd 82ef ca3a 9b20 0bbd
00000060: 0c15 e13c cd67 193d e3c4 d3be b082 293e
00000070: 4bf9 903a 9796 9cbe 10f4 a9be c6bb 6d3e
00000080: 57ed 8e3e b145 febb 4c12 52bd 22c8 9a3e
00000090: c1bc fd3c c99b 413e 5691 293c 36a7 733e
000000a0: 52b7 e83d 4524 05be 1310 56be 7d42 8e3e
000000b0: fbe2 8fbe aa73 b83e cf7f 8fbe 0ab2 adbe
000000c0: 38f8 35bd d143 b93e c466 f93b 8737 283e
000000d0: f6bf f2bd 3d27 bbbc 217d 7438 96ee 1f3e
000000e0: 19ba 9fbe 48f3 283e c100 26bd 35bd 5dbe
000000f0: 9fc6 7ebc bfcc 603d 3d79 323e 52c3 b03d

model.gnn.gnn_layers.0.gat_conv.attn_r f4 [1, 8, 8]
0.18431395 -0.088465564 0.05724099 -0.30788958 -0.19030416 0.10118343 0.12399322 -0.16183136
0.33072996 -0.04689913 0.10601929 -0.054334234 0.30896708 0.08735571 -0.6113748 -0.14548187
0.021519978 -0.070627145 -0.19290012 -0.21308576 -0.09611638 0.3145677 0.022132285 -0.2579466
-0.026836203 -0.008921078 0.44489992 0.13739023 0.40450314 -0.50681084 -0.11708627 0.0022767892
0.0767719 -0.06934507 0.43766358 -0.1891477 0.037268206 0.14288932 -0.28519568 0.21034843
-0.25863954 0.41895682 -0.25392905 0.10110932 0.02954913 -0.050750036 -0.097382925 -0.01416892
0.014880422 -0.29593277 0.38970178 0.535986 -0.19886376 -0.08263469 -0.21451275 0.211453
-0.16636975 0.017327182 0.16035226 -0.20672701 -0.1432827 0.019804332 0.39502203 -0.16015205
00000000: ccbc 3c3e 6f2d b5bd 8775 6a3d b4a3 9dbe
00000010: 18df 42be 4239 cf3d 28f0 fd3d 1fb7 25be
00000020: 7055 a93e 4d19 40bd a420 d93d 938d 5ebd
00000030: ef30 9e3e 8de7 b23d 0f83 1cbf 33f9 14be
00000040: aa4a b03c f7a4 90bd 9c87 45be 2733 5abe
00000050: aad8 c4bd 040f a13e c44e b53c 9411 84be
00000060: 99d7 dbbc b729 12bc ecc9 e33e 06b0 0c3e
00000070: 091b cf3e 5bbe 01bf edca efbd 2f36 153b
00000080: 963a 9d3d ca04 8ebd 7115 e03e efaf 41be
00000090: 8ca6 183d 9451 123e 2b05 92be 9465 573e
000000a0: 676c 84be 8281 d63e fd02 82be 6712 cf3d
000000b0: 0411 f23c 45df 4fbd b370 c7bd c224 68bc
000000c0: 03cd 733c 8084 97be fe86 c73e 6136 093f
000000d0: f1a2 4bbe 603c a9bd 3ba9 5bbe 2387 583e
000000e0: d55c 2abe bcf1 8d3c 6233 243e 3fb0 53be
000000f0: b3b8 12be b23c a23c 5440 ca3e e6fe 23be

model.gnn.gnn_layers.0.gat_conv.fc.weight f4 [64, 30]
0.2646458 0.16663836 -0.22644287 0.11939219 -0.13923971 0.14174534 -0.012939153 -0.028680285
-0.021810919 0.06860665 -0.14921707 0.08086088 0.015760465 0.20755503 -0.24464811 -0.6826363
0.1017971 -0.12540887 -0.22877826 0.434593 0.18791613 0.5086793 0.13779914 0.41368768
0.042175792 -0.1932674 0.37501803 -0.2314159 -0.46550483 0.16449217 -0.17421375 -0.19763915
-0.13719124 -0.3596634 -0.14407218 -0.13952608 0.08442193 0.30352584 -0.10333973 -0.22715281
0.57150716 -0.45824254 -0.03115204 -0.20824932 0.14415112 0.09038651 -0.015628457 -0.23026723
0.3391309 -0.33854744 -0.37914965 -0.018571628 -0.014062611 0.05533515 0.1500784 0.09544468
-0.08587333 -0.1382858 -0.61640286 0.07823943 -0.09241405 0.20364259 -0.095807254 -0.0025856833
-0.20948651 -0.34426272 -0.02265375 -0.17270863 -0.2232504 -0.07713607 -0.30594304 -0.009055039
-0.29960892 -0.13444848 -0.035367675 0.2004032 -0.031872805 0.19947283 0.21793845 -0.026532965
0.022540577 -0.20026729 0.121305786 0.06515955 0.18821828 -0.19503637 0.077931955 0.27916846
0.20807093 -0.008008776 0.030515159 0.12652156 0.0092447875 0.16511545 -0.14552663 -0.06588353
0.016067093 0.2529361 0.063809894 -0.2969941 0.08657379 0.0019658993 -0.021703154 0.07234427
0.37659508 0.019057972 0.02725276 -0.13418859 0.24087423 0.08946041 -0.16273838 0.05583422
0.17104368 -0.37667155 0.26808283 -0.022466553 -0.04768592 -0.31761426 0.051229797 -0.07668419
-0.16192107 0.012627698 0.08972548 -0.09199868 0.05640636 -0.33114982 -0.11836032 0.15072732
-0.022861112 0.2707939 0.07845079 -0.2171019 0.5667661 0.18161613 -0.2859984 -0.10455058
0.19607899 0.051338032 -0.10014239 0.03620982 0.20148487 0.15860395 0.030048324 0.10381021
-0.40322444 0.3979303 0.22411309 -0.17871086 -0.055591956 0.45854548 0.17031384 -0.13868503
-0.028111821 -0.33485305 0.2005074 0.29882318 0.07653476 -0.118951544 -0.09033359 0.010102754
0.14393052 0.13065574 0.19803496 0.17678483 0.25194544 0.054196984 0.09402092 0.07890932
0.14591955 -0.2993962 0.059151437 0.082607895 0.08577598 0.09383735 -0.07175416 0.024221037
-0.39626446 -0.10744747 -0.08358415 -0.074489065 -0.21479313 -0.39091378 -0.046636403 0.08943349
-0.35170123 0.011660347 -0.213757 -0.090251036 -0.27953315 0.03498021 -0.055507526 -0.17992823
0.18234587 -0.0505695 0.27218968 -0.3648089 0.1880154 -0.10290825 0.030494053 -0.22117008
-0.025800932 0.047312446 0.35893267 0.008986882 -0.0737633 -0.33264896 -0.10821218 -0.07690947
0.3597599 0.043222677 -0.32450283 -0.042049654 0.05909461 -0.2682414 0.07649422 -0.31288633
0.043465596 0.07834095 0.35967693 0.02133168 0.25251368 0.20981917 -0.21095902 0.009622009
-0.48773503 -0.2062675 -0.1416543 -0.21546486 -0.25439152 -0.18460113 -0.021947708 -0.09485692
-0.120509796 0.24909484 -0.043426722 -0.24281844 -0.039358694 0.26167077 -0.013149494 0.060372464
0.3746526 0.18930697 0.2504766 0.46575168 -0.21425326 0.19390005 -0.34272626 -0.09947462
0.13264535 -0.013463582 0.24507205 0.63931024 0.36765036 -0.035337508 -0.11844043 0.09602064
00000000: a87f 873e 3fa3 2a3e a4e0 67be e483 f43d
00000010: db94 0ebe b125 113e befe 53bc ebf2 eabc
00000020: d0ac b2bc a581 8c3d 5ccc 18be 649a a53d
00000030: 171c 813c 4e89 543e 0985 7abe 41c1 2ebf
00000040: ff7a d03d 2f6b 00be d944 6abe f982 de3e
00000050: 166d 403e ce38 023f 381b 0d3e dfce d33e
00000060: 86c0 2c3d e4e7 45be 5d02 c03e 4af8 6cbe
00000070: a656 eebe a370 283e 1765 32be eb61 4abe
00000080: dc7b 0cbe cd25 b8be a887 13be eddf 0ebe
00000090: 68e5 ac3d bd67 9b3e c8a3 d3bd bf9a 68be
000000a0: 4b4e 123f c49e eabe 9032 ffbc 4f3f 55be
000000b0: 5a9c 133e 901c b93d 4007 80bc 2ccb 6bbe
000000c0: 91a2 ad3e 1756 adbe e71f c2be 8723 98bc
000000d0: de66 66bc 1ca7 623d 27ae 193e 8078 c33d
000000e0: 5bde afbd cb9a 0dbe 94cc 1dbf ff3b a03d
000000f0: 9443 bdbd af87 503e 9836 c4bd 9174 29bb
00000100: a283 56be 3443 b0be 5b94 b9bc 88da 30be
00000110: c19b 64be 84f9 9dbd 91a4 9cbe 965b 14bc
00000120: 5766 99be ddac 09be b2dd 10bd 7f36 4d3e
00000130: 0f8d 02bd 9b42 4c3e 422b 5f3e a95b d9bc
00000140: 04a7 b83c de12 4dbe 2b6f f83d 5f72 853d
00000150: 4bbc 403e 9db7 47be ca9a 9f3d 2bef 8e3e
00000160: 8c10 553e 3e37 03bc edfa f93c de8e 013e
00000170: 7377 173c 0614 293e ef04 15be f2ed 86bd
00000180: 239f 833c d780 813e c3ae 823d 9c0f 98be
00000190: 994d b13d 51d6 003b d0ca b1bc 3c29 943d
000001a0: 12d1 c03e 771f 9c3c 2e41 df3c bc68 09be
000001b0: bca7 763e 0537 b73d e4a4 26be 6cb2 643d
000001c0: 1326 2f3e 18db c0be 2742 893e c70b b8bc
000001d0: 5052 43bd 569e a2be 56d6 513d 9a0c 9dbd
000001e0: a3ce 25be 67e4 4e3c fec1 b73d ce69 bcbd
000001f0: 5b0a 673d 788c a9be e566 f2bd 4358 1a3e
00000200: 3a47 bbbc 80a5 8a3e cfaa a03d f64f 5ebe
00000210: 9517 113f 94f9 393e 626e 92be 9d1e d6bd
00000220: eec8 483e d447 523d 7417 cdbd c050 143d
00000230: 0d52 4e3e 1369 223e e727 f63c 739a d43d
00000240: 6f73 cebe 85bd cb3e e77d 653e fbff 36be
00000250: 64b4 63bd 79c6 ea3e c066 2e3e 7303 0ebe
00000260: c34a e6bc dc71 abbe d051 4d3e 5aff 983e
00000270: 42be 9c3d de9c f3bd d100 b9bd 0686 253c
00000280: 8662 133e 9eca 053e adc9 4a3e 1507 353e
00000290: fefe 803e a8fd 5d3d 0a8e c03d 369b a13d
000002a0: ef6b 153e 754a 99be c748 723d 542e a93d
000002b0: 51ab af3d cc2d c03d d8f3 92bd 326b c63c
000002c0: 2de3 cabe 6b0d dcbd 2b2e abbd b98d 98bd
000002d0: bbf2 5bbe da25 c8be d005 3fbd e828 b73d
000002e0: 2f12 b4be 0a0b 3f3c 1de3 5abe 89d5 b8bd
000002f0: f81e 8fbe 6947 0f3d dc5b 63bd 1b3f 38be
00000300: e0b8 3a3e f721 4fbd 725c 8b3e 3bc8 babe
00000310: 1c87 403e 90c1 d2bd aace f93c 697a 62be
00000320: 7a5c d3bc b2ca 413d 06c6 b73e b73d 133c
00000330: 3711 97bd f750 aabe 599e ddbd b682 9dbd
00000340: 7332 b83e 430a 313d 3c25 a6be 423c 2cbd
00000350: 310d 723d f056 89be 00a9 9c3d a332 a0be
00000360: fb08 323d 3871 a03d 9327 b83e c6bf ae3c
00000370: 7949 813e d6da 563e a405 58be a1a5 1d3c
00000380: 68b8 f9be ca37 53be d30d 11be d2a2 5cbe
00000390: 9b3f 82be 1408 3dbe aecb b3bc 5844 c2bd
000003a0: d7cd f6bd b812 7f3e 38e0 31bd 66a5 78be
000003b0: 9536 21bd b6f9 853e fa70 57bc 1e49 773d
000003c0: 77d2 bf3e b0d9 413e 783e 803e 0177 ee3e
000003d0: 3565 5bbe bc8d 463e d179 afbe 59b9 cbbd
000003e0: 2fd4 073e 5b96 5cbc 2bf4 7a3e d6a9 233f
000003f0: ab3c bc3e 10be 10bd e590 f2bd 78a6 c43d

model.gnn.gnn_layers.0.gat_conv.res_fc.weight f4 [64, 30]
0.13885367 -0.18902919 0.36039737 -0.17307337 0.23797312 -0.18702188 -0.12455302 -0.040249635
0.43319705 -0.45037204 0.012806797 0.13069834 0.042828556 0.02060196 0.014008468 0.2909205
0.04254044 0.14019223 0.11345288 -0.04436522 -0.051752336 -0.15679571 -0.09158091 0.16822372
-0.06620458 0.26846328 0.029473772 -0.35924366 -0.27626327 -0.12223593 -0.27155995 -0.32487988
0.16669929 0.14458343 -0.23027952 0.15027866 0.31639978 0.15591754 0.3567011 0.071142234
-0.18061323 -0.09984507 0.20585418 0.059378825 0.1374571 0.11010692 -0.2926868 0.3480071
-0.36355737 -0.01106911 -0.16333753 -9.169855e-05 -0.2031864 0.103178695 0.32493165 -0.06655594
0.10037427 -0.3055854 0.13406967 -0.24428527 -0.19685593 0.4956477 -0.035713505 0.11878425
-0.14054716 0.042878214 0.011917098 -0.13918626 -0.041238066 0.10354759 0.14305174 0.26989067
0.051211845 -0.110314906 0.2567964 0.3514261 -0.22473493 0.0034940422 0.10195321 0.055781007
-0.097720616 -0.19487691 0.037007347 0.08252728 -0.001006585 -0.21932562 -0.106054075 -0.083170325
-0.13553633 -0.11602601 0.0657593 -0.11430639 -0.10407046 0.036545612 0.04189414 -0.10731657
-0.14844438 0.019738585 -0.042635664 -0.11993657 0.14959525 -0.12321058 -0.15489842 0.0499549
-0.29988518 0.22357784 0.2714978 -0.32203278 0.2669826 -0.017369123 -0.09065457 -0.03665245
-0.063832656 0.3622677 0.34821543 -0.24405372 0.088811874 0.06967706 0.049100075 -0.11613757
-0.1097808 -0.13152081 -0.26311806 -0.3056027 0.073557414 -0.23794997 -0.10997037 0.051023897
0.15782756 0.24324411 0.052226115 -0.36914977 0.23604055 -0.1760743 0.06726887 -0.0026842633
-0.042632744 0.0028811516 -0.060243234 0.032844435 0.004655125 0.073751435 -0.042338006 0.2648103
0.017548827 -0.096994445 -0.04550732 -0.15589981 0.32298124 0.06865304 0.021869594 0.10046419
-0.18554464 0.123927556 -0.24386656 0.09152644 -0.09227627 -0.2063088 0.11958022 0.37141293
0.109240785 -0.24184495 -0.086079 -0.18583097 0.22508453 0.11852941 0.108587645 0.2909426
-0.17713493 -0.17557068 -0.2039118 -0.05286865 -0.035429616 -0.07900847 0.090042405 -0.46588504
-0.057695422 0.21269575 -0.14639698 -0.050816644 -0.047893453 -0.15486622 -0.41488194 0.41476873
0.05813812 -0.002844365 -0.0028706838 -0.12941203 0.043332707 -0.0342208 0.15472339 0.35543272
-0.24672107 -0.2014466 -0.14088708 0.32549113 -0.070808075 -0.48424548 0.18227543 0.02400031
-0.23894016 0.16567375 0.08320076 -0.23778626 0.023530068 -0.028189171 -0.36245534 0.07136894
-0.2677565 0.025183631 0.036549002 -0.5667052 0.04543301 0.096805274 0.3049417 -0.033373155
-0.18231054 0.03273024 0.13655096 0.46219346 -0.120893285 0.1934691 -0.12593874 0.37775832
0.0706177 0.17418045 0.06695591 0.38289735 0.090326026 0.39462668 0.012517125 0.2441675
0.16075426 0.06082519 0.342255 -0.19082919 0.17923507 0.13867736 0.1788287 0.07046027
-0.05467399 -0.12457422 0.5038904 0.15182409 0.10723905 -0.17507024 -0.22295868 0.00875646
-0.1707539 -0.287734 -0.29029286 -0.086624734 -0.3108927 0.09736568 -0.27181268 -0.03427354
00000000: a82f 0e3e de90 41be 0186 b83e 253a 31be
00000010: 3aaf 733e aa82 3fbe a715 ffbd cddc 24bd
00000020: 01cc dd3e 2a97 e6be 9ad3 513c c9d5 053e
00000030: ff6c 2f3d 71c5 a83c c683 653c 88f3 943e
00000040: e23e 2e3d 8d8e 0f3e fc59 e83d 4eb8 35bd
00000050: 42fa 53bd 0e8f 20be c68e bbbd d742 2c3e
00000060: 4496 87bd 0574 893e fb72 f13c c9ee b7be
00000070: 6172 8dbe d556 fabd e809 8bbe a856 a6be
00000080: 38b3 2a3e ae0d 143e 65ce 6bbe a6e2 193e
00000090: 27ff a13e d9a8 1f3e 87a1 b63e 05b3 913d
000000a0: adf2 38be 927b ccbd 70cb 523e 3637 733d
000000b0: 8ec1 0c3e bd7f e13d 0bdb 95be fd2d b23e
000000c0: 3124 babe 365b 35bc f441 27be 494e c0b8
000000d0: 1810 50be 5a4f d33d 715d a63e 7b4e 88bd
000000e0: 0691 cd3d b175 9cbe 8f49 093e eb25 7abe
000000f0: 9a94 49be 89c5 fd3e 5348 12bd 2845 f33d
00000100: 98eb 0fbe 11a1 2f3d ef3f 433c d886 0ebe
00000110: 3fe9 28bd c210 d43d 287c 123e 1c2f 8a3e
00000120: 83c3 513d c8ec e1bd d17a 833e 1fee b33e
00000130: ea20 66be 4dfc 643b d8cc d03d a07a 643d
00000140: bf21 c8bd d08d 47be 0495 173d 1004 a93d
00000150: 63ef 83ba e596 60be e132 d9bd 3455 aabd
00000160: 09ca 0abe 0b9f edbd d0ac 863d 7819 eabd
00000170: e522 d5bd dab0 153d 3199 2b3d cac8 dbbd
00000180: ce01 18be d0b2 a13c bca2 2ebd 4ea1 f5bd
00000190: 7f2f 193e d455 fcbd b19d 1ebe 829d 4c3d
000001a0: 8d8a 99be 97f1 643e c201 8b3e 7be1 a4be
000001b0: f1b1 883e b149 8ebc 1aa9 b9bd e120 16bd
000001c0: b2ba 82bd 277b b93e 4b49 b23e 38e9 79be
000001d0: 00e3 b53d d9b2 8e3d 291d 493d 89d9 edbd
000001e0: c2d4 e0bd 64ad 06be 69b7 86be f577 9cbe
000001f0: 45a5 963d 28a9 73be 2538 e1bd 6ffe 503d
00000200: 8c9d 213e fc14 793e 0deb 553d 3301 bdbe
00000210: 9db4 713e d24c 34be 43c4 893d 77ea 2fbb
00000220: ac9f 2ebd b4d1 3c3b 9cc1 76bd e387 063d
00000230: 058a 983b fe0a 973d 9e6a 2dbd 3795 873e
00000240: 8fc2 8f3c 06a5 c6bd e265 3abd 33a4 1fbe
00000250: cc5d a53e f799 8c3d dd27 b33c 2bc0 cd3d
00000260: 6aff 3dbe bbcd fd3d 28b8 79be 3772 bb3d
00000270: 57fb bcbd 9d42 53be 79e6 f43d d629 be3e
00000280: a2b9 df3d 34a6 77be 304a b0bd 794a 3ebe
00000290: 8f7c 663e 8cbf f23d 3363 de3d 6ef6 943e
000002a0: dc62 35be cdc8 33be 41ce 50be cc8c 58bd
000002b0: a51e 11bd 31cf a1bd 2768 b83d 7c88 eebe
000002c0: 0952 6cbd eacc 593e 17e9 15be 1d25 50bd
000002d0: ed2b 44bd 4095 1ebe 686b d4be 915c d43e
000002e0: 3d22 6e3d 8768 3abb 1522 3cbb 9684 04be
000002f0: a37d 313d 1c2b 0cbd cf6f 1e3e 47fb b53e
00000300: 73a4 7cbe 0448 4ebe b444 10be c6a6 a63e
00000310: d303 91bd 06ef f7be 69a6 3a3e 4c9c c43c
00000320: bbac 74be 61a6 293e 2965 aa3d 3e7e 73be
00000330: 21c2 c03c faec e6bc bf93 b9be e129 923d
00000340: 6117 89be e74d ce3c 68b4 153d 9813 11bf
00000350: f717 3a3d d841 c63d 5221 9c3e 4ab2 08bd
00000360: 9daf 3abe 2510 063d 04d4 0b3e 9fa4 ec3e
00000370: e696 f7bd c41c 463e 16f6 00be 8a69 c13e
00000380: 03a0 903d 5c5c 323e 2e20 893d 1f0b c43e
00000390: dafc b83d 820c ca3e a114 4d3c 0c07 7a3e
000003a0: c49c 243e d623 793d 0c3c af3e ba68 43be
000003b0: 6689 373e 7001 0e3e df1e 373e 794d 903d
000003c0: d5f1 5fbd c520 ffbd f6fe 003f c677 1b3e
000003d0: 26a0 db3d 9d45 33be 484f 64be 4177 0f3c
000003e0: 1cda 2ebe df51 93be 44a1 94be 4f68 b1bd
000003f0: 542d 9fbe a867 c73d 082b 8bbe 6962 0cbd

model.gnn.gnn_layers.0.gat_conv.res_fc.bias f4 [64]
0.0024163874 -0.02053076 -0.03547539 -0.026142104 0.04349199 -0.015077591 0.0042667654 -0.041391388
-0.019569306 0.004463683 -0.036625315 0.031997323 0.022313645 -0.0069946623 0.04057464 -0.035544034
0.0020144535 0.03402784 -0.05895228 -0.01068169 0.030769855 0.012603494 0.040202465 -0.017373197
-0.05896979 0.03380617 -0.050152488 -0.0024969375 0.0012918045 -0.046902712 0.030365346 -0.01706779
-0.013178606 0.045474194 0.010923413 0.06492612 0.042618044 -0.009711711 -0.013385964 -0.0006408883
-0.014196006 0.04054455 -0.027007377 -0.029515387 -0.01125845 0.0042225895 -0.037869498 -0.030785976
-0.022678712 0.07504444 -0.019408427 -0.008238434 0.0495444 -0.05778164 0.032133836 0.04235004
-0.06289933 -0.021039713 -0.0049160705 -0.013727153 0.06602626 0.044491146 0.021126263 -0.019224174
00000000: 415c 1e3b 2030 a8bc a44e 11bd f727 d6bc
00000010: a824 323d 0008 77bc 39d0 8b3b 048a 29bd
00000020: cf4f a0bc 1644 923b 6d04 16bd a00f 033d
00000030: 1bcb b63c 7b33 e5bb 9831 263d 9f96 11bd
00000040: ec04 043b c760 0b3d f277 71bd 4102 2fbc
00000050: 1011 fc3c e37e 4e3c 57ab 243d 3c52 8ebc
00000060: 4e8a 71bd 5778 0a3d b26c 4dbd a9a3 23bb
00000070: c451 a93a 0f1d 40bd bfc0 f83c c0d1 8bbc
00000080: 14eb 57bc 2643 3a3d 1df8 323c fcf7 843d
00000090: 4290 2e3d de1d 1fbc cd50 5bbc 4901 28ba
000000a0: 5d96 68bc 0b12 263d 933e ddbc 41ca f1bc
000000b0: 5d75 38bc a65d 8a3b 0c1d 1bbd df32 fcbc
000000c0: b5c8 b9bc e6b0 993d 6cfe 9ebc 7ffa 06bc
000000d0: 12ef 4a3d 71ac 6cbd c59e 033d 3c77 2d3d
000000e0: 5dd1 80bd 7a5b acbc fd16 a1bb dae7 60bc
000000f0: c738 873d 593c 363d fc10 ad3c 047c 9dbc

model.gnn.gnn_layers.1.gat_conv.attn_l f4 [1, 8, 8]
-0.107969716 -0.029634971 0.06238171 -0.14949106 -0.2601933 -0.023145169 0.15243103 -0.5702936
-0.3774664 -0.2864837 0.080603845 -0.076799415 0.36711258 0.3474385 0.17370611 0.07993416
0.3552342 -0.58400154 -0.3570873 -0.15020281 0.1412109 0.2544345 0.17586224 -0.43316454
-0.03928106 0.29458222 -0.36099455 -0.06064843 0.20801227 -0.40380847 0.66818064 0.15241025
-0.29538873 0.22787303 -0.30968368 0.18728347 -0.04623866 -0.4370716 0.18613309 -0.035155572
0.3513902 0.2706489 -0.3656983 -0.3864204 -0.06033993 0.18441926 -0.19853048 -0.41417158
0.17335851 0.37118062 -0.31076044 -0.024754213 -0.29391617 0.189694 0.00077255827 -0.060773075
0.2109131 0.07339914 0.19832711 0.15415123 0.18524179 0.13046506 0.16235471 0.5736391
00000000: 3a1f ddbd 0ac5 f2bc f783 7f3d 2f14 19be
00000010: 0e38 85be f09a bdbc e116 1c3e c3fe 11bf
00000020: 4743 c1be fead 92be a113 a53d 0349 9dbd
00000030: 2ef6 bb3e 76e3 b13e 04e0 313e 85b4 a33d
00000040: 42e1 b53e 2081 15bf 26d4 b6be c4ce 19be
00000050: 9799 103e 3d45 823e 3b15 343e bec7 ddbe
00000060: 2de5 20bd 7bd3 963e 47d4 b8be 7d6a 78bd
00000070: 2b01 553e fcbf cebe e30d 2b3f 6f11 1c3e
00000080: 313d 97be 8c57 693e dc8e 9ebe 3dc7 3f3e
00000090: c064 3dbd d9c7 dfbe ac99 3e3e 4aff 0fbd
000000a0: 6be9 b33e 7e92 8a3e cf3c bbbe e5d8 c5be
000000b0: 0127 77bd 67d8 3c3e 934b 4bbe 4c0e d4be
000000c0: e584 313e 630b be3e fe1b 9fbe 59c9 cabc
000000d0: 2e7c 96be 253f 423e 8285 4a3a 30ed 78bd
000000e0: 9bf9 573e 4a52 963d 4316 4b3e d2d9 1d3e
000000f0: 06b0 3d3e a298 053e 5040 263e 03da 123f

model.gnn.gnn_layers.1.gat_conv.attn_r f4 [1, 8, 8]
0.534595 0.24237984 -0.12938093 0.11787966 -0.49735054 0.20003727 0.03570879 -0.17629799
-0.3579997 0.57578254 -0.14466767 -0.094953574 -0.37146628 -0.12509954 0.106924936 -0.031269416
-0.18292163 -0.10383758 -0.12663595 0.12442279 -0.017248293 -0.18080084 0.13260606 0.10008488
-0.4989244 0.0072960746 0.11965155 0.16258709 0.0518559 0.14423728 0.24242947 -0.025403481
-0.38680643 -0.3666306 -0.031518005 0.39615193 -0.0905932 -0.28556257 -0.30505055 0.29771405
-0.1832651 0.24938117 -0.24185969 0.20377594 0.0708625 0.14860159 0.0867515 -0.09131765
0.13808355 -0.3476361 0.0025456266 0.05641123 -0.10807686 -0.15864626 -0.39117876 -0.07336723
0.29261738 0.12166565 -0.068819806 -0.07475675 0.3556862 -0.043095082 0.22762741 -0.2375726
00000000: 38db 083f 6c32 783e 6f7c 04be e46a f13d
00000010: bba4 febe 92d6 4c3e 6143 123d 7687 34be
00000020: bd4b b7be 7c66 133f c323 14be 0577 c2bd
00000030: d430 bebe 181a 00be 76fb da3d 5c14 00bd
00000040: cf4f 3bbe cca8 d4bd dbac 01be 60d1 fe3d
00000050: 4b4c 8dbc db23 39be e2c9 073e 4df9 cc3d
00000060: 0573 ffbe e913 ef3b df0b f53d 3b7d 263e
00000070: da66 543d f0b2 133e 6e3f 783e f61a d0bc
00000080: 7e0b c6be 02b7 bbbe 0619 01bd 6dd4 ca3e
00000090: ed88 b9bd 4235 92be 962f 9cbe fa6d 983e
000000a0: d9a9 3bbe c75d 7f3e 11aa 77be a4aa 503e
000000b0: 5c20 913d 042b 183e c5aa b13d c004 bbbd
000000c0: c665 0d3e 5cfd b1be 87d4 263b 760f 673d
000000d0: 6757 ddbd 2a74 22be 9548 c8be 8f41 96bd
000000e0: f2d1 953e d72b f93d 66f1 8cbd 111a 99bd
000000f0: 801c b63e 7884 30bd 2917 693e 3b46 73be

model.gnn.gnn_layers.1.gat_conv.bias f4 [64]
-0.021309149 0.051255006 -0.041551337 0.015914321 0.0593218 -0.013398653 -0.0026773757 -0.011505926
-0.021309149 0.051255006 -0.041551337 0.015914321 0.0593218 -0.013398653 -0.0026773757 -0.011505926
-0.021309149 0.051255006 -0.041551337 0.015914321 0.0593218 -0.013398653 -0.0026773757 -0.011505926
-0.021309149 0.051255006 -0.041551337 0.015914321 0.0593218 -0.013398653 -0.0026773757 -0.011505926
-0.021309149 0.051255006 -0.041551337 0.015914321 0.0593218 -0.013398653 -0.0026773757 -0.011505926
-0.021309149 0.051255006 -0.041551337 0.015914321 0.0593218 -0.013398653 -0.0026773757 -0.011505926
-0.021309149 0.051255006 -0.041551337 0.015914321 0.0593218 -0.013398653 -0.0026773757 -0.011505926
-0.021309149 0.051255006 -0.041551337 0.015914321 0.0593218 -0.013398653 -0.0026773757 -0.011505926
00000000: 8690 aebc c5f0 513d bc31 2abd c05e 823c
00000010: 6afb 723d 0686 5bbc e976 2fbb 5a83 3cbc
00000020: 8690 aebc c5f0 513d bc31 2abd c05e 823c
00000030: 6afb 723d 0686 5bbc e976 2fbb 5a83 3cbc
00000040: 8690 aebc c5f0 513d bc31 2abd c05e 823c
00000050: 6afb 723d 0686 5bbc e976 2fbb 5a83 3cbc
00000060: 8690 aebc c5f0 513d bc31 2abd c05e 823c
00000070: 6afb 723d 0686 5bbc e976 2fbb 5a83 3cbc
00000080: 8690 aebc c5f0 513d bc31 2abd c05e 823c
00000090: 6afb 723d 0686 5bbc e976 2fbb 5a83 3cbc
000000a0: 8690 aebc c5f0 513d bc31 2abd c05e 823c
000000b0: 6afb 723d 0686 5bbc e976 2fbb 5a83 3cbc
000000c0: 8690 aebc c5f0 513d bc31 2abd c05e 823c
000000d0: 6afb 723d 0686 5bbc e976 2fbb 5a83 3cbc
000000e0: 8690 aebc c5f0 513d bc31 2abd c05e 823c
000000f0: 6afb 723d 0686 5bbc e976 2fbb 5a83 3cbc

model.gnn.gnn_layers.1.gat_conv.fc.weight f4 [64, 64]
-0.33261183 -7.7350205e-06 -0.27042463 -0.23858488 -0.0026954967 0.054278895 0.22477742 -0.02944792
-0.14048836 -0.09734883 0.09204662 -0.21788967 -0.07461936 0.15693378 -0.079536095 -0.09583196
0.08121058 0.15974924 0.1608789 0.2203734 -0.18409662 -0.11533646 -0.33165103 -0.0060919877
-0.14516476 -0.00822223 -0.12518066 0.11328452 -0.19158836 -0.45935816 0.13971666 -0.0627899
0.12127943 -0.033387937 0.21438596 -0.22981994 -0.0055886866 -0.123328 -0.06615232 -0.17031112
0.2828739 0.15417281 0.063339286 0.08127982 -0.063500814 -0.3215355 0.05167186 0.2948436
0.11388965 -0.14396656 0.15084818 0.14060138 -0.28145665 0.026926497 -0.24686068 0.08409591
-0.025806569 0.073747024 0.12345371 0.05048088 -0.09427206 0.07896317 0.10699291 -0.0020938169
-0.14194162 -0.08996265 -0.12070955 -0.023451013 -0.09093795 -0.16259977 0.10167015 0.040923
-0.17930306 0.04396777 0.2673037 0.14404753 0.026041947 0.3889574 -0.0060552876 0.20380427
0.077099144 -0.08024891 0.1718368 0.05336137 0.13622524 0.1096077 0.015919233 -0.037247308
-0.051208246 0.055827636 -0.0374747 -0.22469178 -0.0068776775 0.19118495 0.1204996 0.0035555242
-0.19656914 -0.10002864 0.42477635 0.29104328 -0.27168834 -0.3849365 0.24083175 0.08470324
-0.40474236 -0.06389084 -0.1622542 0.023651388 0.09651926 0.15600228 0.1117099 0.08467838
-0.011149499 -0.14760353 0.32393283 -0.40381542 -0.17699164 -0.033106443 0.12644374 0.023774628
-0.29184514 0.22619174 0.11333446 0.23078524 0.052474014 0.21486953 0.009796044 0.18315952
-0.051352676 0.24742839 -0.22816613 -0.28697425 0.06853542 -0.1097445 -0.119089074 0.005837173
-0.008880371 -0.16957168 0.13221638 -0.06781942 0.039139513 -0.30246153 -0.018220512 -0.1466855
-0.11567407 0.108477086 -0.39433083 0.23189269 0.16295362 -0.080094784 -0.06111753 -0.010303975
0.037249092 0.17154872 -0.16136791 -0.0937849 -0.052487914 -0.1877605 -0.0382473 -0.231754
-0.02615835 -0.16033076 -0.04199247 -0.19990763 -0.19235443 0.17807195 0.18900195 0.045541666
-0.13135527 0.19456762 0.05576167 -0.020780694 0.13269734 0.070748486 0.043372963 0.23718572
0.14285083 -0.0550039 0.034677707 0.19448574 0.049049634 0.44551444 0.09449217 -0.16676164
0.31075948 -0.24721955 -0.1688803 0.09426228 0.20396759 0.22304158 -0.2777416 0.17017259
0.20437089 0.09271149 -0.24824484 -0.033913255 0.049165454 0.050359555 -0.0355001 0.14588912
-0.051746655 -0.11229473 0.018749984 -0.06693924 -0.014507015 -0.236733 0.14366415 -0.2981271
0.047916844 0.059626274 -0.024748446 -0.17545918 0.22449827 0.26601064 0.21268322 -0.37405348
-0.09815283 0.060551375 -0.0936948 0.0050734053 -0.08479819 -0.29068282 0.047702394 -0.07586979
-0.0032192229 -0.37622672 0.060466405 -0.14753307 -0.244131 -0.006587822 -0.08108296 0.13059108
-0.07113732 -0.06325374 -0.019291464 -0.13116339 -0.09948082 -0.21931477 0.10154223 0.028476696
0.17168106 0.17575468 0.26834455 0.29217666 0.12488746 0.42460778 0.02186063 0.09097367
-0.09521181 0.26599053 0.15189877 0.16850682 0.09787613 0.09579873 0.2670771 -0.0978098
00000000: 194c aabe a9c5 01b7 1975 8abe 984f 74be
00000010: eea6 30bb 8c53 5e3d 0d2c 663e c43c f1bc
00000020: 2edc 0fbe d35e c7bd f082 bc3d 781e 5fbe
00000030: 09d2 98bd 40b3 203e d2e3 a2bd 8c43 c4bd
00000040: bc51 a63d 4e95 233e 70bd 243e 91a9 613e
00000050: d383 3cbe 8635 ecbd 2ace a9be 4c9f c7bb
00000060: 12a6 14be 88b6 06bc 5c2f 00be b701 e83d
00000070: bd2f 44be fe30 ebbe e211 0f3e fe97 80bd
00000080: 5a61 f83d cac1 08bd fe87 5b3e eb55 6bbe
00000090: 4d21 b7bb 6493 fcbd de7a 87bd 0a66 2ebe
000000a0: d9d4 903e 7adf 1d3e 07b8 813d 0976 a63d
000000b0: b70c 82bd 4da0 a4be dfa5 533d bef5 963e
000000c0: fa3e e93d f86b 13be f277 1a3e cff9 0f3e
000000d0: 161b 90be f594 dc3c 0cc9 7cbe 7a3a ac3d
000000e0: 4c68 d3bc ae08 973d 4cd5 fc3d 0ac5 4e3d
000000f0: b611 c1bd 71b7 a13d 191f db3d 6b38 09bb
00000100: 2559 11be 563e b8bd 9236 f7bd 571c c0bc
00000110: ad3d babd 8e80 26be 7138 d03d e09e 273d
00000120: 399b 37be 8c17 343d 08dc 883e 3281 133e
00000130: ec55 d53c 6d25 c73e 6f6b c6bb 11b2 503e
00000140: 28e6 9d3d 8a59 a4bd fcf5 2f3e 7491 5a3d
00000150: a17e 0b3e 007a e03d 0d69 823c a290 18bd
00000160: bdbf 51bd 85ab 643d 127f 19bd 9a15 66be
00000170: 245e e1bb fdc5 433e 7fc8 f63d cc03 693b
00000180: 6c49 49be d1db ccbd 497c d93e a003 953e
00000190: bc1a 8bbe 6616 c5be 999c 763e e478 ad3d
000001a0: 643a cfbe 33d9 82bd f725 26be 8ec0 c13c
000001b0: e4ab c53d 10bf 1f3e 29c8 e43d dc6b ad3d
000001c0: 63ac 36bc 6125 17be 86da a53e e5c0 cebe
000001d0: 4c3d 35be 9f9a 07bd 787a 013e 02c3 c23c
000001e0: ba6c 95be cf9e 673e e61b e83d f752 6c3e
000001f0: feee 563d c206 5c3e 967f 203c 2b8e 3b3e
00000200: 2f57 52bd de5d 7d3e 62a4 69be 4aee 92be
00000210: 4c5c 8c3d b9c1 e0bd f9e4 f3bd c245 bf3b
00000220: fa7e 11bc 33a4 2dbe bb63 073e e8e4 8abd
00000230: c150 203d 3ddc 9abe 2f43 95bc b934 16be
00000240: 87e6 ecbd 3c29 de3d bbe5 c9be 4775 6d3e
00000250: 50dd 263e bc08 a4bd 6056 7abd 01d2 28bc
00000260: 8192 183d 78aa 2f3e a13d 25be 4c12 c0bd
00000270: 91fd 56bd 4a44 40be 33a9 1cbd ec50 6dbe
00000280: 094a d6bc bf2d 24be 4c00 2cbd 96b4 4cbe
00000290: 8ff8 44be 7e58 363e ba89 413e e689 3a3d
000002a0: ff81 06be bc3c 473e 5966 643d 463c aabc
000002b0: d0e1 073e 95e4 903d d9a7 313d d0e0 723e
000002c0: 7d47 123e c54b 61bd 360a 0e3d 4527 473e
000002d0: 45e8 483d 781a e43e 1c85 c13d 90c3 2abe
000002e0: de1b 9f3e 1f27 7dbe f5ee 2cbe 950c c13d
000002f0: e1dc 503e 0365 643e 2634 8ebe b941 2e3e
00000300: 9a46 513e 86df bd3d e533 7ebe a0e8 0abd
00000310: b761 493d d245 4e3d 8e68 11bd f563 153e
00000320: 4df4 53bd c8fa e5bd 9199 993c 7117 89bd
00000330: d5ae 6dbc 236a 72be b21c 133e 1ea4 98be
00000340: 7444 443d ae3a 743d 41bd cabc 92ab 33be
00000350: e0e2 653e 8c32 883e a1c9 593e f083 bfbe
00000360: 5a04 c9bd b804 783d 0fe3 bfbd cf3e a63b
00000370: acaa adbd 61d4 94be 9663 433d 9f61 9bbd
00000380: 99f9 52bb caa0 c0be 9fab 773d e912 17be
00000390: 7afd 79be a8de d7bb d30e a6bd abb9 053e
000003a0: 71b0 91bd 2d8b 81bd 2209 9ebc b24f 06be
000003b0: 9abc cbbd 0d94 60be 5ff5 cf3d f647 e93c
000003c0: 29cd 2f3e 09f9 333e 7564 893e 2e98 953e
000003d0: ffc4 ff3d 3166 d93e 1015 b33c 6750 ba3d
000003e0: 69fe c2bd e92f 883e 5a8b 1b3e 0d8d 2c3e
000003f0: 4873 c83d 2032 c43d 54be 883e 8150 c8bd

model.readout.weight_and_sum.atom_weighting.0.weight f4 [1, 8]
-0.104690254 -0.18909301 -0.42431962 -0.2255165 -0.03323855 0.093563184 -0.031660907 -0.14781556
00000000: d867 d6bd 99a1 41be 6c40 d9be cced 66be
00000010: 2525 08bd 0e9e bf3d deae 01bd f65c 17be

model.predict.predict.1.weight f4 [128, 16]
-0.20112087 -0.07395401 0.09517771 0.18123107 -0.2671784 -0.20135391 -0.10110031 -0.12039189
0.16951026 0.15892306 -0.0929204 -0.15733261 -0.21213466 0.2573544 -0.078579016 0.18135692
0.13984475 0.08614671 0.20970541 0.087935165 -0.15213004 0.086820625 0.22850478 0.019817607
-0.113772996 -0.0077346005 -0.16537508 -0.09844983 -0.09718193 -0.072843134 -0.013012443 -0.27307764
0.17274162 -0.034097355 -0.081715174 -0.051216602 -0.2067834 0.0830292 0.015846651 0.04038911
0.15616073 0.1578636 -0.10706954 -0.17532381 0.19369304 0.06961901 -0.26308694 0.09466601
0.19653718 -0.21785356 -0.20905407 0.047222972 -0.17698519 -0.23219888 0.09078661 -0.25947517
0.0068533593 0.016026683 0.17721215 -0.17155379 0.2338649 -0.058105927 0.042567782 -0.09955206
-0.033864025 -0.27085745 0.106623545 -0.035365347 0.16571482 -0.15013511 0.13032678 -0.06768008
-0.07810809 0.12099354 -0.26903498 -0.061762907 0.049512286 0.21681327 0.013940605 -0.104005836
-0.00061697396 0.08765163 0.06810871 -0.13496572 -0.21773851 0.15324752 0.027119303 0.07777615
-0.18482532 0.1168295 -0.24089137 -0.048011266 -0.05046645 0.23535638 0.07831611 0.17262158
0.21803445 -0.24211034 -0.013916309 -0.1480999 -0.0805206 -0.10737928 -0.20361137 -0.0827586
-0.086684376 -0.14094767 0.05445064 -0.22749078 0.085176304 0.25336826 0.28750962 0.11068325
0.01404548 0.18689443 0.10102822 0.10233561 0.092918 -0.1352181 -0.2218933 0.07383234
0.029867258 -0.16521509 0.26128986 0.024010768 0.15715946 -0.21505232 -0.24140003 -0.05945344
0.21676357 -0.122744106 -0.15243392 -0.19053815 -0.119722284 0.19763471 -0.10355426 -0.012254062
-0.17356542 0.09516131 0.14933974 -0.19147678 0.0740342 -0.14573368 0.1770041 -0.14815858
0.0065124803 0.12761712 -0.12151184 0.24125414 0.24925955 0.22490402 -0.18266833 -0.2283714
0.076776564 0.099179015 0.21076728 0.32788032 -0.12625463 0.057764713 0.11665496 0.033823036
-0.17060818 -0.26001042 -0.12414795 0.10173239 -0.270076 -0.18667354 -0.18186681 -0.1756912
-0.090369016 -0.25393555 -0.15526345 -0.037368573 0.018467912 -0.10598832 -0.27247366 -0.06898325
0.18262552 0.1400667 -0.040447783 0.08801747 -0.25887263 0.08279907 0.1610567 0.08996778
-0.022578035 -0.024339452 0.08918596 0.013801965 0.1824634 -0.026357602 0.078597635 -0.024119634
0.09090975 -0.21439478 0.2019732 -0.1109139 0.08621922 0.22015455 0.20702162 -0.060540497
-0.10069683 0.046779007 0.20970482 -0.116452694 -0.20723012 0.15336263 -0.09622869 -0.10648593
-0.1626717 -0.17995152 0.030541964 -0.15982375 0.12344069 0.30806482 -0.08449489 -0.023633234
-0.08829386 -0.05255243 -0.1399903 -0.028359666 0.11360673 0.10514576 -0.19759531 0.03698629
0.09147982 -0.019517004 -0.11709036 -0.0838562 0.10114013 0.03996062 0.1658159 -0.13353196
-0.16861667 0.23155563 -0.07514022 0.04572093 -0.13042466 0.2130568 -0.056497015 0.054355085
0.20637532 0.1528206 0.18988296 -0.24451824 0.05531964 -0.03637715 0.071670115 -0.08510629
0.14946155 0.08079051 0.0111966655 -0.20100836 0.23080969 -0.12711489 0.09372735 0.02770351
00000000: a1f2 4dbe 3375 97bd 88ec c23d a394 393e
00000010: 9bcb 88be b82f 4ebe ae0d cfbd 0690 f6bd
00000020: 1994 2d3e babc 223e 0d4d bebd cd1b 21be
00000030: d439 59be f5c3 833e 09ee a0bd a1b5 393e
00000040: 7633 0f3e b06d b03d 04bd 563e 5a17 b43d
00000050: fac7 1bbe 03cf b13d 28fd 693e 8958 a23c
00000060: d101 e9bd 8872 fdbb 1658 29be 11a0 c9bd
00000070: 5207 c7bd c82e 95bd 2432 55bc d5d0 8bbe
00000080: 2ee3 303e aba9 0bbd 495a a7bd 80c8 51bd
00000090: 07bf 53be 370b aa3d d6d0 813c 0d6f 253d
000000a0: 99e8 1f3e ffa6 213e 4647 dbbd 1688 33be
000000b0: 7857 463e 6994 8e3d 55b3 86be 41e0 c13d
000000c0: 0b41 493e 0115 5fbe 4512 56be e06c 413d
000000d0: 9b3b 35be 8bc5 6dbe 55ee b93d eed9 84be
000000e0: 2592 e03b 644a 833c 1a77 353e ccab 2fbe
000000f0: 487a 6f3e 7b00 6ebd 8e5b 2e3d f3e1 cbbd
00000100: 01b5 0abd d4ad 8abe 725d da3d 41db 10bd
00000110: 25b1 293e 05bd 19be 6274 053e db9b 8abd
00000120: 22f7 9fbd 76cb f73d f4be 89be 1afb 7cbd
00000130: 65cd 4a3d 4c04 5e3e 2367 643c 0301 d5bd
00000140: 6cbc 21ba b382 b33d 947c 8b3d 7434 0abe
00000150: d8f6 5ebe ebec 1c3e 4d29 de3c 1a49 9f3d
00000160: d942 3dbe 4e44 ef3d 3aac 76be 76a7 44bd
00000170: e9b5 4ebd 4301 713e 3264 a03d b6c3 303e
00000180: 6c44 5f3e c6eb 77be 3b01 64bc 80a7 17be
00000190: fce7 a4bd abe9 dbbd 807f 50be 577d a9bd
000001a0: 9487 b1bd 9654 10be a207 5f3d 58f3 68be
000001b0: ea70 ae3d 7cb9 813e 7634 933e e6ad e23d
000001c0: 031f 663c 4161 3f3e e2e7 ce3d 5595 d13d
000001d0: cb4b be3d 9d76 0abe ff37 63be 6935 973d
000001e0: 2eac f43c 252e 29be c9c7 853e 3bb2 c43c
000001f0: 69ee 203e ad36 5cbe 9231 77be 7385 73bd
00000200: 45f7 5d3e 4361 fbbd a317 1cbe 6f1c 43be
00000210: f530 f5bd c160 4a3e 4214 d4bd 43c5 48bc
00000220: 22bb 31be efe3 c23d 84ec 183e 7d12 44be
00000230: 3e9f 973d 363b 15be 9040 353e e2b6 17be
00000240: a566 d53b 10ae 023e 33db f8bd 530b 773e
00000250: e53d 7f3e 3d4d 663e 680d 3bbe 31da 69be
00000260: 083d 9d3d 5e1e cb3d 61d3 573e eedf a73e
00000270: e548 01be b19a 6c3d cce8 ee3d 068a 0a3d
00000280: e9b3 2ebe 1620 85be 4841 febd 1259 d03d
00000290: 6747 8abe 5927 3fbe 4b3b 3abe 65e8 33be
000002a0: 6413 b9bd d703 82be 62fd 1ebe ca0f 19bd
000002b0: 054a 973c 6810 d9bd ab81 8bbe 1747 8dbd
000002c0: 2f02 3b3e a56d 0f3e 93ac 25bd 8142 b43d
000002d0: f48a 84be 8f92 a93d 0cec 243e 0741 b83d
000002e0: 92f5 b8bc 8863 c7bc 21a7 b63d a321 623c
000002f0: afd7 3a3e e6eb d7bc ccf7 a03d 8a96 c5bc
00000300: e42e ba3d 4e8a 5bbe 10d2 4e3e d426 e3bd
00000310: b493 b03d 3270 613e 7afd 533e 50f9 77bd
00000320: 243a cebd 589b 3f3d dcbc 563e c07e eebd
00000330: 2234 54be 180b 1d3e 8c13 c5bd 4c15 dabd
00000340: 6993 26be 3645 38be 2433 fa3c d6a8 23be
00000350: 79ce fc3d acba 9d3e a80b adbd 7c9a c1bc
00000360: 69d3 b4bd 3841 57bd 9e59 0fbe 8852 e8bc
00000370: a5aa e83d a956 d73d 6d56 4abe f07e 173d
00000380: c659 bb3d 20e2 9fbc 12cd efbd cdbc abbd
00000390: 8e22 cf3d bfad 233d a5cb 293e 9abc 08be
000003a0: d9a9 2cbe eb1c 6d3e 1ee3 99bd df45 3b3d
000003b0: 0b8e 05be 902b 5a3e 6a69 67bd 70a3 5e3d
000003c0: 0d54 533e 017d 1c3e ae70 423e fd62 7abe
000003d0: d996 623d 3500 15bd c8c7 923d 354c aebd
000003e0: 730c 193e 7f75 a53d 3872 373c 23d5 4dbe
000003f0: 6059 6c3e 682a 02be 20f4 bf3d 79f2 e23c

model.predict.predict.1.bias f4 [128]
-0.03332588 -0.1046693 0.18417472 0.038843732 -0.13241002 0.1276869 -0.14827524 -0.032835398
-0.19344178 -0.11398113 -0.23301141 0.09403262 -0.13594946 -0.16519836 0.036381315 0.20871983
-0.16347113 -0.099313095 -0.19921176 0.25801492 -0.049581364 0.103564315 -0.11990828 0.019453894
0.21221852 0.17233586 0.032754768 -0.16450146 -0.18674022 0.06926018 0.033050798 0.029456563
0.14726932 0.1438282 -0.19165914 -0.043149922 0.11304394 0.1182271 -0.113603085 0.14551494
-0.1910685 0.076135896 0.22623482 -0.048397295 -0.10182696 -0.2867232 -0.09724809 -0.12941398
-0.004694432 -0.012526202 -0.034096334 -0.24113089 0.23882452 -0.22208261 0.12873738 0.024519818
-0.018031895 0.04290884 -0.19781844 0.12501217 -0.25219205 0.0052480237 0.18021214 0.03889112
0.16008107 -0.10764435 -0.015468355 0.20327045 -0.20572174 -0.11943181 0.15054531 -0.11569238
0.2558738 0.11524234 -0.09180498 0.017430866 0.037738424 0.063667886 -0.30753186 0.12156069
-0.19509129 -0.074704565 -0.1727864 0.21284007 0.0040948666 0.11029485 0.21589153 -0.1687881
-0.12956706 -0.008012468 0.08500413 0.20457652 0.23514709 -0.08832841 -0.04141275 -0.09414782
0.132735 -0.13159254 0.14912686 -0.056459755 0.11795632 0.108129025 0.14258346 -0.005504337
0.16504423 0.14724872 0.08738424 -0.04778879 0.2383112 -0.053501837 0.20444787 0.19725159
-0.007118476 -0.361448 0.17310098 -0.18106689 -0.056533366 0.033745877 -0.12666617 -0.121954
-0.051506065 -0.17528643 -0.13571034 -0.21540432 -0.048538692 0.21681248 0.08816857 0.20140015
00000000: b880 08bd dc5c d6bd 4c98 3c3e 9b1a 1f3d
00000010: 7e96 07be 5bc0 023e 77d5 17be 697e 06bd
00000020: 9a15 46be f06e e9bd 8b9a 6ebe 2d94 c03d
00000030: 5636 0bbe c229 29be 9304 153d a7ba 553e
00000040: fa64 27be aa64 cbbd 2bfe 4bbe 881a 843e
00000050: d415 4bbd 8719 d43d 7992 f5bd c65d 9f3c
00000060: d04f 593e d078 303e dd29 063d 1273 28be
00000070: d438 3fbe 48d8 8d3d 4660 073d e44e f13c
00000080: c5cd 163e b347 133e 4b42 44be f9bd 30bd
00000090: 9583 e73d 0d21 f23d bca8 e8bd de01 153e
000000a0: 76a7 43be 23ed 9b3d 1aaa 673e 3e3c 46bd
000000b0: a78a d0bd 62cd 92be 022a c7bd 1985 04be
000000c0: c0d3 99bb b33a 4dbc 99a8 0bbd 04eb 76be
000000d0: 6a8e 743e a069 63be bbd3 033e c9dd c83c
000000e0: a0b7 93bc 2ec1 2f3d eb90 4abe 3103 003e
000000f0: 511f 81be 9df7 ab3b 8889 383e 4c4c 1f3d
00000100: 4bec 233e a474 dcbd fc6e 7dbc 2126 503e
00000110: b8a8 52be aa98 f4bd 8d28 1a3e 20f0 ecbd
00000120: e401 833e 2d04 ec3d 4004 bcbd 2dcb 8e3c
00000130: 9b93 1a3d 4f64 823d d174 9dbe d0f4 f83d
00000140: 03c6 47be b5fe 98bd ebee 30be bff2 593e
00000150: 3b2e 863b 44e2 e13d ab12 5d3e cad6 2cbe
00000160: 3aad 04be ba46 03bc a516 ae3d 827c 513e
00000170: 66ca 703e 87e5 b4bd 6aa0 29bd 92d0 c0bd
00000180: afeb 073e 32c0 06be b6b4 183e 5842 67bd
00000190: 1593 f13d c072 dd3d 6601 123e ba5d b4bb
000001a0: 5b01 293e 5ec8 163e 82f6 b23d 2ebe 43bd
000001b0: da07 743e be24 5bbd c85a 513e 52fc 493e
000001c0: 1b42 e9bb b60f b9be 6241 313e 9969 39be
000001d0: 888f 67bd 1e39 0a3d c7b4 01be 05c3 f9bd
000001e0: 06f8 52bd 497e 33be a7f7 0abe f392 5cbe
000001f0: 82d0 46bd 1704 5e3e b991 b43d d73b 4e3e

model.predict.predict.3.weight f4 [128]
0.9708237 0.9626775 0.9826112 1.0035712 0.9784738 0.83414114 0.99107975 0.921819
0.99524033 0.979047 1.0048194 0.98180914 1.0 1.00053 0.98496336 0.9884038
1.0035466 0.9725271 0.9898705 1.0055985 1.0025482 0.90039134 0.96132153 0.9196872
0.99250317 0.96275574 0.9881401 1.0016927 0.99392 0.87865245 0.9766188 0.9699047
0.9837363 0.93156534 0.9962084 0.9816936 0.96384245 0.87426597 1.0058063 0.9382404
0.9924075 0.99378896 0.97620785 0.9604175 1.0085772 1.0102887 0.9217469 1.1000156
1.0 0.9900473 0.9866262 0.9883012 0.80678827 0.9817582 0.99125135 0.98577154
0.96304893 0.9840871 1.0019106 1.0148349 0.9645532 1.0426579 0.983953 0.9982844
0.91441494 0.98944324 0.96503204 0.9664042 0.965801 0.993696 0.9339805 0.9901995
0.96297103 1.0074068 1.0076214 1.0010856 0.9892823 0.9783333 1.0115353 0.9707205
1.0500212 0.85340077 0.950409 0.9723164 0.8730638 0.92701554 0.9606026 0.97307116
0.99247646 1.0346925 0.99568 1.0095323 0.9214656 0.9930832 0.9768327 1.0297673
0.98803544 1.0219622 0.996064 0.9978332 0.9765717 0.9824903 0.8933369 0.9926888
0.92027175 0.9923203 1.0007411 0.9612418 0.9704503 0.99166137 0.9956423 0.9861987
1.0641265 0.965131 0.9949595 0.9816147 0.9416301 0.9429713 0.8346102 0.96020013
0.9360801 0.97433794 0.9802096 0.89026177 0.95904607 0.9743573 0.9978139 0.9461046
00000000: e787 783f 0872 763f 688c 7b3f 0575 803f
00000010: 427d 7a3f 468a 553f 67b7 7d3f 54fc 6b3f
00000020: 12c8 7e3f d3a2 7a3f ec9d 803f d857 7b3f
00000030: 0000 803f 5e11 803f 8f26 7c3f 0808 7d3f
00000040: 3774 803f 89f7 783f 2768 7d3f 74b7 803f
00000050: 8053 803f 0c80 663f 2b19 763f 9f70 6b3f
00000060: b014 7e3f 2977 763f c0f6 7c3f 7737 803f
00000070: 8b71 7e3f 5eef 603f b103 7a3f ad4b 783f
00000080: 24d6 7b3f 117b 6e3f 8407 7f3f 4650 7b3f
00000090: 61be 763f e5cf 5f3f 43be 803f 8630 703f
000000a0: 6b0e 7e3f f468 7e3f c2e8 793f ecdd 753f
000000b0: 0f19 813f 2451 813f 9bf7 6b3f 50cd 8c3f
000000c0: 0000 803f bd73 7d3f 8993 7c3f 4f01 7d3f
000000d0: ad89 4e3f 8154 7b3f a6c2 7d3f 865b 7c3f
000000e0: 608a 763f 22ed 7b3f 9b3e 803f 1ce6 813f
000000f0: f5ec 763f d075 853f 58e4 7b3f 918f 7f3f
00000100: 1917 6a3f 274c 7d3f 570c 773f 4466 773f
00000110: bc3e 773f dc62 7e3f 5919 6f3f b77d 7d3f
00000120: 4585 763f b5f2 803f bdf9 803f 9323 803f
00000130: 9b41 7d3f 0d74 7a3f fd79 813f 2481 783f
00000140: 1867 863f 7978 5a3f 014e 733f bae9 783f
00000150: 1c81 5f3f e450 6d3f 0dea 753f 311b 793f
00000160: f012 7e3f ce70 843f e2e4 7e3f 5b38 813f
00000170: 2be5 6b3f b33a 7e3f b511 7a3f 6acf 833f
00000180: e4ef 7c3f a8cf 823f 0dfe 7e3f ff71 7f3f
00000190: 9a00 7a3f 7c84 7b3f bab1 643f da20 7e3f
000001a0: ee96 6b3f b408 7e3f 4918 803f f113 763f
000001b0: 6e6f 783f 85dd 7d3f 6ae2 7e3f 8577 7c3f
000001c0: 4c35 883f d312 773f aab5 7e3f 1a4b 7b3f
000001d0: ac0e 713f 9166 713f 04a9 553f adcf 753f
000001e0: f2a2 6f3f 366e 793f 04ef 7a3f 32e8 633f
000001f0: 0b84 753f 7b6f 793f bb70 7f3f e933 723f

model.predict.predict.3.bias f4 [128]
-0.028215924 0.026796684 0.024072278 0.025548322 -0.020361418 0.029117173 -0.023440832 0.021170935
-0.03971224 -0.024786904 0.029948233 -0.021006452 3.339023e-07 0.016107293 0.02595294 0.030733483
-0.027591769 -0.02699761 -0.022880014 -0.026833437 0.0006367256 -0.0009777922 0.022303717 -0.016689584
6.0047023e-05 -0.008428358 -0.028092055 -0.026686318 -0.01880549 -0.00070830784 -0.022963293 -0.027348634
-0.019663671 0.025918566 -0.026928438 0.02589989 0.014256614 -0.01320648 -0.027004773 0.021635845
0.020122066 0.025490575 -0.024384737 -0.023707516 0.022460517 0.027895376 -0.0045451876 0.04067384
-0.009207864 0.03368657 0.026563268 -0.025810093 0.028885853 -0.031379413 -0.025269777 0.024767436
0.0251607 0.002717977 0.029820148 0.029769715 0.028120363 -0.029809585 0.025121327 0.026141373
-0.016068902 -0.02352327 -0.023542944 0.02144427 0.02573647 0.024970764 0.027166972 0.0248646
0.024787644 -0.024420034 -0.0254998 -0.015613195 0.054168697 -0.027123407 -0.024198113 0.025510626
0.027868535 -0.0025404089 0.024169689 -0.029450735 0.046029128 -0.0125027215 0.023183815 0.0246567
-0.026122736 0.038124215 -0.020432986 0.03194038 -0.0152105065 -0.027041808 0.022539081 0.035823595
-0.009474201 -0.030946046 0.030094147 0.03666965 -0.0065080663 -0.004730408 0.0040709735 0.024605388
-0.0154908355 0.02944915 0.02552639 -0.028218659 0.023432024 1.5371342e-08 0.019636407 0.038002435
0.032417253 0.024744727 0.026529726 -0.012252404 -0.018948536 0.004195144 -0.015434447 0.012296998
0.011056039 -0.024628945 0.025790025 0.008394243 0.02315132 0.026837617 -0.026900137 0.013629825
00000000: 1525 e7bc b884 db3c 3a33 c53c b74a d13c
00000010: fdcc a6bc 2387 ee3c fd06 c0bc ab6e ad3c
00000020: 4da9 22bd e80d cbbc ff55 f53c b915 acbc
00000030: 2f43 b334 71f3 833c 439b d43c c9c4 fb3c
00000040: 2208 e2bc 182a ddbc de6e bbbc ccd1 dbbc
00000050: efe9 263a 4329 80ba 49b6 b63c 98b8 88bc
00000060: 00db 7b38 1817 0abc 4f21 e6bc 449d dabc
00000070: f90d 9abc bcad 39ba 841d bcbc 3e0a e0bc
00000080: b515 a1bc 2c53 d43c 0799 dcbc 022c d43c
00000090: 9394 693c fe5f 58bc 1d39 ddbc a83d b13c
000000a0: 08d7 a43c 9cd1 d03c 80c2 c7bc 4436 c2bc
000000b0: 1eff b73c d884 e43c ccef 94bb 9d99 263d
000000c0: 95dc 16bc eefa 093d 369b d93c b06f d3bc
000000d0: 06a2 ec3c b387 00bd 9002 cfbc 14e5 ca3c
000000e0: d01d ce3c 1620 323b 6249 f43c 9edf f33c
000000f0: ad5c e63c 3b33 f4bc 3ecb cd3c 6f26 d63c
00000100: eea2 83bc dfb3 c0bc 22dd c0bc e5ab af3c
00000110: 4ad5 d23c 7d8f cc3c 458d de3c d8b0 cb3c
00000120: 750f cb3c 860c c8bc f5e4 d0bc 7cce 7fbc
00000130: ffdf 5d3d e831 debc 1f3b c6bc a9fb d03c
00000140: 8e4c e43c fd7c 26bb 83ff c53c ab42 f1bc
00000150: 0a89 3c3d 37d8 4cbc fceb bd3c d9fc c93c
00000160: 59ff d5bc 2328 1c3d 1463 a7bc ead3 023d
00000170: 7d35 79bc c886 ddbc e1a3 b83c c3bb 123d
00000180: ae39 1bbc 9082 fdbc 0088 f63c ea32 163d
00000190: 9e41 d5bb 8a01 9bbb cd65 853b 3d91 c93c
000001a0: 46cd 7dbc 583f f13c b81c d13c d12a e7bc
000001b0: 84f4 bf3c f009 8432 88dc a03c 71a8 1b3d
000001c0: f4c7 043d 74b5 ca3c de54 d93c 4fbe 48bc
000001d0: f639 9bbc 6b77 893b c3e0 7cbc 5979 493c
000001e0: 6324 353c a4c2 c9bc 9a45 d33c 0288 093c
000001f0: d6a7 bd3c 90da db3c ad5d dcbc a14f 5f3c

model.predict.predict.3.running_mean f4 [128]
2.1519718e-07 4.761068e-05 8.9090565e-07 0.00022055797 8.036225e-05 2.820672e-11 6e-45 6.5385637
6e-45 11.357718 2.079245e-16 0.00014819417 0.0 0.00018410756 2.545234 2.8897142
1.2903535 1.6735203 5.3439537e-05 1.8380976 9.4051255e-05 1.3014566 3.4612014 3.7193747
7.875926e-33 4.2607675e-07 4.2713366 8.92073 9.487465e-05 11.169344 0.00017672383 1.0090803
0.00011851771 8.164251 8.679824 1.4720545e-09 2.0666795 2.1027467 1.3569908 2.2621627
6.80257 1.962604e-05 3.3085647 5.5067484e-09 0.31767753 0.66952175 2.9498305 2.6384431e-24
0.0 1.8605077e-08 4.2744975 6.1690346e-09 1.3507404 3.1366541 7.139242 0.00012303548
0.4261608 7.683141e-05 5.282342e-07 5.047973 3.1388574e-08 4.2151766 3.7139802e-08 6e-45
5.0767546 7.3902707 1.1285018 0.23813446 3.8083997 3.144053e-05 1.2531965 3.015669e-15
9.463634 1.341544 9.197331 1.1984844 7.7595864e-08 2.9312732 9.4574016e-30 1.811177e-09
2.8342557 3.002573 4.5458326 5.0519056 1.5482305 0.00023996207 5.551055 3.8967957
7.1874976 8.572435e-05 2.710239e-17 2.1766667 12.709031 6.418475 1.9215118e-20 0.0019153394
6.667309e-05 0.00018035727 9.233715e-05 1.8178743e-16 5.17299e-05 1.1218173e-17 11.170121 1.6974188
4.9815593 4.1922455 3.0148149 6.776312 0.42262116 6e-45 5.7620935 2.493049e-07
1.0648877e-06 5.116087 0.00010570083 6e-45 0.00013963415 4.931739e-09 2.6785808 2.720105
1.3315957 7.9319645e-10 4.2521873 2.0868754 0.00022449536 1.9094063e-07 2.3215923 0.6487826
00000000: f310 6734 94b1 4738 9226 6f35 9445 6739
00000010: 2888 a838 e31b f82d 0400 0000 ea3b d140
00000020: 0400 0000 37b9 3541 7bb8 6f25 9264 1b39
00000030: 0000 0000 ff0c 4139 1de5 2240 14f1 3840
00000040: 4e2a a53f ea35 d63f 4424 6038 c846 eb3f
00000050: 623d c538 2196 a63f 5384 5d40 3c0a 6e40
00000060: 9b93 230a 8bbf e434 caae 8840 4fbb 0e41
00000070: 71f7 c638 a2b5 3241 f14e 3939 8b29 813f
00000080: b68c f838 c6a0 0241 8fe0 0a41 5051 ca30
00000090: 7a44 0440 6793 0640 e0b1 ad3f 46c7 1040
000000a0: a7ae d940 9aa2 a437 86bf 5340 df35 bd31
000000b0: a1a6 a23e c765 2b3f 06ca 3c40 c023 4c18
000000c0: 0000 0000 ffd0 9f32 afc8 8840 67f7 d331
000000d0: 10e5 ac3f f1be 4840 ac74 e440 1603 0139
000000e0: c031 da3e 8d20 a138 facb 0d35 ff88 a140
000000f0: 1ad0 0633 bae2 8640 a583 1f33 0400 0000
00000100: c674 a240 197d ec40 bf72 903f 85d9 733e
00000110: d2bc 7340 03df 0338 be68 a03f 464d 5927
00000120: 0b6b 1741 b7b7 ab3f 4528 1341 f067 993f
00000130: c7a2 a633 fb99 3b40 a3d1 3f0f 20ed f830
00000140: 7264 3540 282a 4040 7677 9140 36a9 a140
00000150: 6b2c c63f 549e 7b39 3ea2 b140 1a65 7940
00000160: fbff e540 e9c6 b338 b6f9 f923 824e 0b40
00000170: 3158 4b41 2664 cd40 4e7b b51e 200c fb3a
00000180: d8d2 8b38 491e 3d39 21a5 c138 2e96 5125
00000190: 8ff8 5838 53f0 4e23 d1b8 3241 0545 d93f
000001a0: ef68 9f40 e026 8640 baf2 4040 8cd7 d840
000001b0: cd61 d83e 0400 0000 1263 b840 34d8 8534
000001c0: 43ed 8e35 fcb6 a340 b3ab dd38 0400 0000
000001d0: c26a 1239 0974 a931 de6d 2b40 3316 2e40
000001e0: ba71 aa3f 3d08 5a30 eb11 8840 5e8f 0540
000001f0: 8466 6b39 5c05 4d34 f894 1440 9e16 263f

model.predict.predict.3.running_var f4 [128]
2.371232e-08 4.7383405e-06 5.510366e-07 0.00010168664 1.2143506e-05 6.5827383e-12 6e-45 11.640534
6e-45 27.967142 1.5647964e-17 3.6579975e-05 6e-45 6.816027e-05 1.4473367 1.8685962
1.1407223 0.7580676 5.9698964e-06 0.97885644 1.8490402e-05 0.71016175 4.679428 2.5947282
5.242565e-34 1.2642705e-07 4.5684676 15.817656 1.8815588e-05 29.841284 6.528431e-05 0.2658671
2.9361017e-05 15.253346 17.913824 2.3041475e-11 0.46378627 0.76955783 0.6453947 1.4058633
9.893733 8.052109e-07 3.5678482 4.185799e-09 0.11028951 0.52266943 1.4160361 5.521507e-25
6e-45 1.5784225e-08 6.0557556 4.04791e-10 0.4295125 2.0746284 10.12978 3.1643056e-05
0.44421828 1.233946e-05 1.9177067e-07 6.5616775 1.4175117e-09 3.2006931 7.2593855e-09 6e-45
5.8896346 14.232234 0.25613236 0.52501696 3.3741174 2.0667233e-06 0.66443145 8.457449e-18
17.50846 0.13031112 15.653277 0.51125365 5.562023e-09 1.085633 3.020404e-31 3.4880442e-11
2.3291152 5.4932065 3.8367362 5.392098 0.84503365 8.383004e-05 5.8635936 4.8863487
11.765842 1.536122e-05 8.830722e-19 0.7367911 31.632273 7.4186974 2.8323018e-21 0.00050994015
9.292339e-06 6.796754e-05 1.4610356e-05 2.8962472e-17 5.59376e-06 8.448802e-19 25.160507 0.8014135
4.2166333 2.9640586 2.9739015 9.268655 0.57501435 6e-45 7.935385 4.671123e-08
7.801573e-07 8.457889 2.3355477e-05 6e-45 4.0756713e-05 2.5863217e-10 0.94600016 2.7532651
0.405069 3.4248138e-10 4.125051 1.3422512 3.103555e-05 2.6629502e-08 0.7910511 0.31950518
00000000: f1af cb32 09fe 9e36 f2ea 1335 9940 d538
00000010: f6bb 4b37 099c e72c 0400 0000 a13f 3a41
00000020: 0400 0000 b5bc df41 b653 9023 736d 1938
00000030: 0400 0000 44f1 8e38 5442 b93f 292e ef3f
00000040: 3003 923f b810 423f 0551 c836 5696 7a3f
00000050: d61b 9b37 29cd 353f e0bd 9540 0710 2640
00000060: d036 2e08 01c0 0734 e330 9240 1e15 7d41
00000070: 2bd6 9d37 f3ba ee41 3fe9 8838 bc1f 883e
00000080: 4e4c f637 b50d 7441 834f 8f41 caac ca2d
00000090: 6575 ed3e be01 453f 9638 253f 54f3 b33f
000000a0: bb4c 1e41 ac25 5835 a057 6440 add2 8f31
000000b0: 77df e13d aacd 053f ac40 b53f e3e1 2a17
000000c0: 0400 0000 e195 8732 c0c8 c140 4589 de2f
000000d0: 10e9 db3e b6c6 0440 9413 2241 79b8 0438
000000e0: 9470 e33e 9405 4f37 85e9 4d34 43f9 d140
000000f0: 42d2 c230 28d8 4c40 3b6e f931 0400 0000
00000100: e377 bc40 3bb7 6341 c823 833e 8367 063f
00000110: 8af1 5740 09b2 0a36 2e18 2a3f 2c03 1c23
00000120: 5311 8c41 4770 053e d373 7a41 85e1 023f
00000130: 121c bf31 06f6 8a3f 1209 c40c e367 192e
00000140: 3910 1540 59c8 af40 168d 7540 118c ac40
00000150: 2054 583f e9cd af38 8fa2 bb40 f85c 9c40
00000160: e440 3c41 f8db 8037 8651 8221 579e 3c3f
00000170: e50e fd41 f865 ed40 af00 561d 81ad 053a
00000180: 4be6 1b37 cc89 8e38 001f 7537 da90 0524
00000190: 08b2 bb36 585d 7921 b848 c941 6f29 4d3f
000001a0: a9ee 8640 23b3 3d40 6754 3e40 694c 1441
000001b0: 2434 133f 0400 0000 adee fd40 8a9f 4833
000001c0: 006c 5135 8353 0741 81eb c337 0400 0000
000001d0: 30f2 2a38 3e2f 8e2f 112d 723f 7f35 3040
000001e0: 3465 cf3e f847 bc2f 6b00 8440 e3ce ab3f
000001f0: 2b2c 0238 e5be e432 5382 4a3f 2f96 a33e
