checkpoints/GAT_undersampled/best_roc_auc_score/checkpoint1.pt (torch, 156441 bytes, 50 tensors)

model.gnn.gnn_layers.0.gat_conv.attn_l f4 [1, 8, 8]
00000000: dc70 18bf 277f cfbe 1411 8ebd 807a 843d
00000010: 3af4 edbe bfa2 fc3e 3ae9 78be 614f ab3d
00000020: 5ac8 733f 5e03 803d f13f f23e babb 77be
00000030: 10ec 043f fba9 3a3d 35e9 01be a04c 23be
00000040: a2f8 f4be ad89 91be 329b 7a3e 5c2a 123d
00000050: ab79 e3be 1564 c7be 6000 4abe 56f2 1d3e
00000060: d31b 68be bf12 183f 3438 8e3d b33a 0fbc
00000070: 9594 cc3b 34ce 25be 468d a53e a6f1 0c3f
00000080: 095c 66bc dccf b1be 5984 933e 9096 483f
00000090: ff32 aebd 213d 06bf 6da2 9abe cb49 7c3e
000000a0: 56a7 e9bd e0a8 c9be 1992 0cbe 98d6 6c3e
000000b0: 8d84 32bd 7754 023f 0037 97be 89f2 d8bd
000000c0: d4ef eebe c696 29bc 21d2 d3be b9e9 e0bd
000000d0: 9f7c 8c3c 9a9b 8abd c26c b23c 5400 8bbe
000000e0: 3f2c 443f b412 c53d 6cf1 1e3e 9e83 44be
000000f0: ecb6 cc3d 16f3 193e dd16 d93e 0fee 00bf
-0.5954721 -0.40526697 -0.06936851 0.064686775 -0.46475393 0.49342915 -0.24307719 0.0836475
0.9522759 0.06250642 0.47314408 -0.24192706 0.519227 0.045572262 -0.12686618 -0.15947199
-0.47845942 -0.2842535 0.24473265 0.03568493 -0.44428763 -0.38943544 -0.19726706 0.15424475
-0.22666864 0.59403604 0.06944314 -0.008742022 0.0062432983 -0.16191941 0.32334346 0.55056226
-0.014060029 -0.34728897 0.2881191 0.7835474 -0.085058205 -0.52437025 -0.30202046 0.24637525
-0.1140887 -0.39386654 -0.13727607 0.23128736 -0.04358344 0.50910133 -0.2953415 -0.10593135
-0.4666735 -0.010350889 -0.41371253 -0.10982079 0.017149268 -0.0676796 0.021780375 -0.27148688
0.76630014 0.09622708 0.15521783 -0.19190833 0.09995827 0.15034136 0.42400256 -0.5036325

model.gnn.gnn_layers.0.gat_conv.attn_r f4 [1, 8, 8]
00000000: efd1 853d 6187 aabe c3c1 383e 29e0 adbe
00000010: 72d9 4d3e 1b96 8b3e ce3b 083f 5761 a93d
00000020: 80da 0abe c1b3 d3bd 6b95 bebe fe4a e03e
00000030: 724e f1be e040 f1be 2867 b13e 6915 bc3e
00000040: fc8e d63d 4cd5 c03e be78 223f e865 b63d
00000050: f7ce babe 04ef 90be 3b83 693e bc97 f53e
00000060: 15fd e73b fa6d 8a3e 2c55 4ebe 8600 b9bb
00000070: 0c37 f13e e59f 903d 4485 773f b1a7 0e3f
00000080: 9635 1dbf 2294 823c ad11 93be a24c 593e
00000090: 3f5e 97be ed20 49be e942 3e3d fcd2 433e
000000a0: 4a08 ef3e 2b0a 94bc a29b f53e 4e6e 7abd
000000b0: 165b 823e 7537 873e c40b 09be 743c fdbe
000000c0: 61aa 8c3e 7658 a5be 7e51 20be 3189 8e3e
000000d0: 1808 f73d 4f7e 29be 3d7d 5e3e a1a4 d2bb
000000e0: 81e3 793e f619 153f 9f87 6b3d 8f5b 10be
000000f0: c95a 5c3e 78ad 65be 4584 5a3e 95e9 d03d
0.06534182 -0.3330641 0.18042664 -0.33960083 0.2010248 0.2726296 0.53216255 0.08270519
-0.13559914 -0.1033702 -0.37223372 0.43807214 -0.47130162 -0.47119808 0.34649014 0.36735085
0.10476491 0.37662733 0.6346549 0.08906156 -0.36486027 -0.28307354 0.22803967 0.47967327
0.0070797303 0.2703703 -0.20149678 -0.0056458144 0.4711231 0.070617475 0.9668772 0.55724627
-0.6140989 0.015939776 -0.28724423 0.2122064 -0.29564092 -0.19641466 0.04645053 0.19123453
0.46686012 -0.018071255 0.479703 -0.06114035 0.25460118 0.26409498 -0.13383394 -0.49460185
0.2747374 -0.32294053 -0.15656087 0.27839044 0.12062091 -0.16552089 0.21727462 -0.0064283167
0.24403192 0.5824274 0.057502385 -0.14097427 0.21519007 -0.22429454 0.2133952 0.10200802

model.gnn.gnn_layers.0.gat_conv.fc.weight f4 [64, 30]
00000000: 5e59 d63d c9f2 c0bd 9d52 cdbe 0ab7 4b3e
00000010: 1f76 f0bd 4cdf 72bd 81cf afbd 675f 2d3e
00000020: 2d25 4cbd 4306 6ebe 9ef5 26bc c765 c93e
00000030: 74fd 07be 7d99 adbd 3df3 33be 9d02 17be
00000040: 4f1f 4ebe 05ae 19bd 0854 dcbc 8dff 1cbe
00000050: c5aa aabc c360 943d 2884 d3bd 9410 86bc
00000060: 0d14 94bd fbb0 c8bc 7da8 b13e 910d 0abe
00000070: 9a09 86bd 9d41 8b3e ac6d 05be ce0e 0d3e
00000080: ad6b d1bd 11b0 4e3d c0d5 51be d9f2 14be
00000090: e1aa aa3d 1d06 533e 7721 8dbc 620f 7b3e
000000a0: 1303 75be f530 5b3e a696 17bd d80a d1be
000000b0: e4de a4be fb4c 6fbd bb17 78be ada5 ed3e
000000c0: 9f06 a1bd 64de a73c 214c c13d 7375 263e
000000d0: d53d 92bd 1718 cebc f7de a0be 0b0b 633b
000000e0: 8c1e 613e e590 533d 96fe f03e 8420 48be
000000f0: f3e2 a53d f4a8 d9be 1db6 4ebe 9d19 9e3e
00000100: eea0 4d3e 148a 57be 4ca7 08bf 8fa7 3cbe
00000110: a820 793e 6556 273e 9d8f 6b3d ca59 18be
00000120: b13f 6d3e b0a9 7dbe 1e73 4bbe 8b52 45be
00000130: 1c06 433e 35b9 37bd 6e0c 8fbd c126 b4bc
00000140: 0810 c1bb 519a 773e 0d6a 17ba 007f 13be
00000150: f31e 8bbe f45b a3bd 85ec 93bd 665e 843e
00000160: 0f55 2e3f 97c2 1b3d 2f75 9ebc 02d8 a3be
00000170: fdc5 5dbe 34f5 ac3e 07ab 3aba cc4d 923d
00000180: 25bb 093e 629c 803e e8f8 ba3e 50a7 bc3e
00000190: bb42 113b c168 bcbe 6708 50be 8958 cdbd
000001a0: 8c6a eabe afcb 1f3f c856 103c aed0 d73e
000001b0: d3b0 293e c3ba d83c a30b 9cbd 86d9 20be
000001c0: aa8d 00be 05bd 943e acf8 eebd cb6d f1bd
000001d0: a285 8dbd f664 673e 8f2c e03e 696a 1abe
000001e0: 3527 023e 87ac 89bd c35f 8a3d 5212 1a3c
000001f0: d97e 103d b599 21bd 7e6c a5be a57a cbbe
00000200: 60c1 523e 2041 24bd d2ba 003e c5c4 25be
00000210: 1926 95bd 5214 40bd ecf9 a4bc 732a 0e3d
00000220: 2566 46be 8189 ec3d cd2a 063e 8459 6ebe
00000230: ff80 fbbe bd8e c13e a84a 8f3d a8f2 7fbe
00000240: db3e 79be 38ae 2ebe dfa8 00bc 078e 28be
00000250: 5b86 203d 5c72 0e3e 4324 423d 5f9e abbe
00000260: 69b8 4a3e 91f1 35bf c75e bebe 0b4b 0c3e
00000270: 61da 993e a424 ad3c c525 30bd fd56 abbe
00000280: df02 2c3c 2e9d a8be 5331 563d 2c01 4a3d
00000290: ecd1 cf3e 92c5 043e 5b8f a73e 3161 db3d
000002a0: ce11 e23d 783e 6d3d 1164 f83e aa30 44be
000002b0: 77f7 793e df88 4cbe 0bf1 fcbb 21ea b9bd
000002c0: 9591 203e e6d1 94bd 9fb3 963c 0d39 9cbe
000002d0: e250 86be 90b0 883e e2b6 c03d 9bc4 4e3e
000002e0: d812 3a3e 9576 31be 69e7 1e3e ea66 c1bd
000002f0: 3aee 693d c1fa a03c 02ed 4ebe 499d 5cbe
00000300: dd78 9fbd a201 bfbc 50d3 ecbd 6a0f 7bbc
00000310: 4f1a 8d3e 4a70 b4be d141 a0bd 1139 ff3e
00000320: 7035 dcbd cd6b 3e3e dc7e 8cbc c2e4 603d
00000330: 98d2 da3d cee0 933d 9307 5a3e 127f 72be
00000340: 8a7b 1fbe 6963 bd3d 7fc5 953d c77d 3abe
00000350: 8518 d53e 0d56 8cbd 1b72 593e 392d db3e
00000360: 58b5 4f3e b22b 703e 690b f43d f5f0 5ebe
00000370: a600 a0be dcf0 9cbe 1643 aabd ef52 83bd
00000380: 0dfd e8be 2c4a 00be 5b96 18bd 2ea1 893e
00000390: a47d b2bd 8973 203f 9a90 dcbc afc6 913e
000003a0: aa87 70bd 25d4 a2be 5f97 36be 91b1 4fbe
000003b0: 3750 173e f9aa 85be 4fe8 ef3d ae87 a93d
000003c0: f27e a1be f992 7c3e 1729 49be bd8b a2be
000003d0: f4c9 593e 3555 3cbe 6e5d 78be 80c8 2ebe
000003e0: 3446 143e acf9 27be fa2f 273e 5794 903c
000003f0: 9a9d a23e f690 92be 6cd5 4cbe 29fb 0e3c
0.10466264 -0.094213076 -0.4010209 0.19894043 -0.1174128 -0.059294984 -0.085845 0.16930924
-0.04984014 -0.23244576 -0.010190396 0.39335462 -0.13280278 -0.08476541 -0.17573257 -0.1474709
-0.20129131 -0.037519474 -0.026895538 -0.1533186 -0.020833382 0.07245018 -0.10327941 -0.016365327
-0.07230387 -0.024498453 0.3469886 -0.13481738 -0.065448 0.27198496 -0.13030118 0.13775179
-0.10225616 0.05046088 -0.20491695 -0.14545764 0.08333374 0.20607801 -0.017227871 0.24517587
-0.23926954 0.21405394 -0.037008904 -0.40828586 -0.32201302 -0.058423024 -0.24227802 0.46415463
-0.07862591 0.020491786 0.094383486 0.16255741 -0.071407 -0.025157971 -0.3142011 0.0034644033
0.21984309 0.051651854 0.47069234 -0.19543654 0.08099928 -0.42511714 -0.20186658 0.30878916
0.20080921 -0.21048766 -0.53380275 -0.18423294 0.24328864 0.1634155 0.057510007 -0.14878002
0.23168828 -0.24771762 -0.19868132 -0.19269769 0.190453 -0.04485436 -0.06984793 -0.021991136
-0.0058918037 0.24179961 -0.00057759957 -0.14403915 -0.2717205 -0.07976523 -0.07222847 0.2585327
0.6809854 0.038027372 -0.019342987 -0.32000738 -0.21657558 0.33780825 -0.0007120822 0.07143745
0.13450296 0.2511931 0.36518025 0.368464 0.0022165019 -0.3679867 -0.20315705 -0.10026652
-0.45784414 0.6242017 0.008809753 0.42151397 0.1657136 0.026456242 -0.07619407 -0.15707979
-0.1255404 0.2905046 -0.11668524 -0.117885195 -0.06910254 0.22597107 0.43783996 -0.15079655
0.12710269 -0.0672236 0.06756546 0.009403782 0.03527722 -0.039453227 -0.32309335 -0.39742008
0.20581579 -0.04010117 0.12571266 -0.16188343 -0.07282657 -0.04689438 -0.020138703 0.03470845
-0.19374903 0.11549664 0.13102265 -0.23276335 -0.49121854 0.37804213 0.069966614 -0.2499491
-0.24340384 -0.17058647 -0.007852762 -0.16460429 0.03919063 0.13910812 0.047397863 -0.33519265
0.1979691 -0.71071726 -0.37181684 0.13700502 0.30049422 0.021135636 -0.04300477 -0.33464804
0.010498731 -0.3293242 0.052293133 0.049317524 0.40589845 0.12965992 0.3272656 0.10711897
0.11038552 0.057920903 0.48513845 -0.19159189 0.24410807 -0.19974087 -0.0077191642 -0.0907786
0.15680535 -0.072665974 0.018396197 -0.30512276 -0.26233584 0.26697206 0.09409882 0.20192187
0.18171251 -0.17330392 0.15517963 -0.094434574 0.057111956 0.019650819 -0.20207599 -0.21544375
-0.07786725 -0.023316208 -0.11563742 -0.015323499 0.27559134 -0.3524192 -0.078250535 0.49848226
-0.1075238 0.1859581 -0.017150335 0.05490566 0.10684699 0.072206125 0.21291952 -0.23681286
-0.1557447 0.092474766 0.0731306 -0.18212043 0.4162027 -0.068523504 0.21234934 0.4280794
0.20284021 0.23454168 0.11916239 -0.21771605 -0.31250495 -0.3065251 -0.08313577 -0.06412303
-0.45505562 -0.12528294 -0.037252765 0.26880783 -0.0871537 0.6267629 -0.02692442 0.28471896
-0.05872313 -0.31802478 -0.17831181 -0.2028258 0.14776693 -0.26107004 0.11714231 0.08277832
-0.31542164 0.2466544 -0.19644581 -0.31747237 0.21268445 -0.18391879 -0.2425439 -0.17068672
0.14479905 -0.16403836 0.16326895 0.017648859 0.31760865 -0.2862622 -0.20003289 0.008726873

model.gnn.gnn_layers.0.gat_conv.res_fc.weight f4 [64, 30]
00000000: 422a be3d c4c1 083e 409a 83bd b43d 88be
00000010: b13d e43d 6010 61be cee6 3bbd b37e 92be
00000020: f190 a73e ba3c 00be 6507 85be e1bb e7bc
00000030: 0d14 f23e 1d9d 3dbd af48 1f3c 1318 5d3e
00000040: ea4d eebe 0082 173e 6d1a 8dbe 0efa 39be
00000050: 4ce2 0e3e b5d3 adbd 8c53 863d 2653 933d
00000060: 60e3 bebe bb14 01bd 470d 353d 7bc0 8b3d
00000070: 46e6 a6bd bc48 ea3e b989 a1bd 92b6 c53e
00000080: 19ce a43d 5704 29be 7fff 123c 4ea6 443e
00000090: 5faa f7bd 1afc ddbc 89bd 043e 5c4d db3d
000000a0: f7c7 1d3e 4724 cd3e 9cc9 be3d 41cf 53be
000000b0: 9400 773c e8c6 91be 091a 2c3d a388 abbd
000000c0: ae2a 66be 8351 81be c3b8 22be 53ae 0b3d
000000d0: 393d 1ebe e2cd ab3e 8724 91bd d45d 393c
000000e0: 2832 b2be 6441 19bc ab6a e03d 2833 863d
000000f0: 411b 0f3e aea7 3e3e c1a2 bfbd 3428 ec3d
00000100: 09ea 253e c375 83be 6018 143e 1682 4abd
00000110: 18b0 183e 05f7 d43d 9476 5f3e 5d44 bfbc
00000120: a046 2abe cefa 8c3e df73 82be dd42 f03d
00000130: 1f14 a7ba 0ab7 95be f307 4f3e 519c 0abe
00000140: c6e2 5d3e 9d24 6abc c84d 35bf 1cc7 ee3e
00000150: d93d 8e3d 92c1 123d 7228 303c fb8f 133e
00000160: 0eb4 873e 205f cebd 7c81 323d 231e 5bbe
00000170: ffd2 e7bd edf6 eebd 3eea b7bc b848 9b3d
00000180: dba2 9dbe 35b6 863d fec3 fdbd f014 e7bd
00000190: 7e38 253e e28d 0cbe 7f73 d7be bb66 12be
000001a0: 5e02 8bbe bcda 7d3e b103 893e b3da 58be
000001b0: 6090 4cbe ebe9 9ebe cf1f dfbd 94b3 853e
000001c0: 5465 463e 8e71 8b3b 923d 0e3d 99df cfbd
000001d0: 3c51 02be e1ce 6bbe 5d64 47bd 9732 b33e
000001e0: a287 ef3e d9cf f4bd fade 853e 6061 32be
000001f0: 53f1 e7bd 619b bcbd 6b24 95be 6f23 b93c
00000200: 7c46 16be 7f17 d43d d713 883e 196c a9be
00000210: 4981 683e 218b f4bd fb0c 4d3e c162 bd3e
00000220: 6f87 d23e 3861 8abe 6863 e03e d863 c0bd
00000230: 9db8 503e e0e9 61be cc49 b43e 7504 6f3d
00000240: 57f5 a83e dbaf b6be 33c9 e2bd e423 3fbf
00000250: 9184 c2be 9ac8 073f daa9 33be 8fe0 863e
00000260: 5dbd 683e 17ed 993d 79c8 efbc 9d18 ad3c
00000270: 7715 863e ea3c 2e3a 954a 6cbe 4751 833e
00000280: 8ef3 423e cfcf bc3c 0543 de3e daa0 8e3e
00000290: 6bf2 ab3e 41cf ce3c 3bb8 d43b c2c0 b33e
000002a0: 16fc 55bd f105 14be d745 02be 6478 083d
000002b0: 0a62 983e 6e4d 963e ec34 8bbe 18a1 eebd
000002c0: 560a ecbe 5e54 97be e7ee 81bd ba95 f6bc
000002d0: e8c6 e3bb ed2c b3be a969 2ebd 6406 893e
000002e0: 9c15 82bc b030 ba3d 9e0e c53c 5639 a43e
000002f0: 8af6 a5bd 0a1e ce3b 2c0c 923e 718e 5b3e
00000300: cae7 94bd b748 a93c 66fe 873d daec 0cbd
00000310: d12d 07be f884 34be 5cea 033d ebe1 6d3e
00000320: 13d1 60be 36c0 233d 0570 abbb d420 413e
00000330: d8a2 7f3e 2187 0fbe 8567 c4bd 9f86 123e
00000340: da97 06be 2bf0 9d3c 95bc b53e caa9 00bf
00000350: 1f92 a03c aa36 0abe fec1 3cbe e17f 443e
00000360: a778 3abc 9021 553e 2b7c abbe 3e68 1ebf
00000370: e387 21be 62ca 483d 0a26 80be cbda c8be
00000380: cc96 593d 8306 cfbc 0102 943e 5b50 573e
00000390: 8c73 20be 459b e23d 4714 893d 4ce7 8abe
000003a0: f96e 9c3e 9abb b5be 3bf8 973d 22da 2b3e
000003b0: 0986 c53e c60e b2bd 39b8 6d3e 5195 39be
000003c0: ec57 69bc 1ea6 cabd 74ca 96be f7b7 aebe
000003d0: d2c2 c7bd bdf6 3fbb 0728 5c3e ee45 9ebb
000003e0: 1a42 363e a0d5 6f3e a3c7 1d3e 3ed8 ad3d
000003f0: 408d e03d d9c6 aabd a613 e03d 0b7c b23e
0.09285404 0.13355166 -0.06425905 -0.26609576 0.11144579 -0.21978903 -0.04587441 -0.2861229
0.3272777 -0.12523165 -0.25982204 -0.02828783 0.47280923 -0.046292413 0.009721919 0.21591215
-0.4654382 0.14795685 -0.27559224 -0.18161795 0.13953513 -0.084876455 0.06558904 0.07193594
-0.37282848 -0.03151391 0.044202115 0.06823822 -0.0814939 0.45758617 -0.07887597 0.38615853
0.080471225 -0.16505562 0.008972048 0.19204065 -0.120930426 -0.02709775 0.12962927 0.107081145
0.15408312 0.4006674 0.09315798 -0.2068453 0.015075821 -0.28472066 0.042017017 -0.08375671
-0.22477219 -0.252575 -0.15890794 0.034101795 -0.15453042 0.33555514 -0.07087045 0.011313874
-0.3480389 -0.009353969 0.10957845 0.06552726 0.1397524 0.18618652 -0.09357215 0.11531106
0.16202559 -0.25675783 0.14462423 -0.049440466 0.14910924 0.10398678 0.21822578 -0.023348028
-0.16628504 0.275351 -0.25479028 0.11731503 -0.0012747085 -0.2924121 0.20217876 -0.13536192
0.21668538 -0.014290956 -0.7082181 0.46636283 0.0694539 0.035829134 0.01075183 0.14410393
0.26504558 -0.100767374 0.043580517 -0.21398215 -0.11319541 -0.11668191 -0.022450563 0.075822294
-0.3078831 0.06577722 -0.12390898 -0.112832904 0.16134831 -0.13725999 -0.42080304 -0.14297001
-0.27150244 0.24790472 0.2676063 -0.21177177 -0.1997695 -0.3103784 -0.10894739 0.2611357
0.19374591 0.00425548 0.034726687 -0.1015007 -0.12726301 -0.23028137 -0.0486797 0.34999534
0.46783167 -0.11953706 0.2614668 -0.17419958 -0.11325326 -0.09209324 -0.29129347 0.022599904
-0.14675325 0.10356044 0.26577637 -0.33090284 0.22705568 -0.11940599 0.20024483 0.36989406
0.41118953 -0.27027297 0.4382584 -0.09394044 0.20382924 -0.22061872 0.35212553 0.05835386
0.3299968 -0.35681042 -0.11073532 -0.7466414 -0.37991765 0.5304047 -0.17545262 0.263432
0.22728486 0.075159244 -0.029270397 0.0211299 0.2618825 0.000664665 -0.23075326 0.25647947
0.19038221 0.02304831 0.43410507 0.27857095 0.33583388 0.02524531 0.0064916885 0.35108
-0.05224236 -0.14455391 -0.12721954 0.03331794 0.29762298 0.2935595 -0.27188814 -0.1165182
-0.46101636 -0.29556555 -0.06344395 -0.030100692 -0.0069512017 -0.34995213 -0.042581234 0.26762688
-0.015879445 0.09091318 0.024054822 0.32074994 -0.08103664 0.006290202 0.2852491 0.21441056
-0.07270773 0.020664556 0.066403195 -0.034405567 -0.13201071 -0.17628849 0.032205924 0.23230712
-0.21954755 0.03997823 -0.0052318596 0.18860179 0.24964464 -0.14016391 -0.09590057 0.14309166
-0.13143864 0.01927956 0.3549544 -0.5025908 0.019600926 -0.13497415 -0.18433377 0.19189407
-0.011381305 0.20813584 -0.3349317 -0.6187781 -0.15774493 0.049021132 -0.25029022 -0.39229426
0.053122327 -0.02527166 0.2890778 0.21026747 -0.15669078 0.110647716 0.06693321 -0.2712959
0.30553415 -0.3549469 0.07420393 0.1678243 0.38578823 -0.08694224 0.23214807 -0.18123366
-0.014242154 -0.098949656 -0.29451334 -0.3412473 -0.09753956 -0.0029291355 0.21499644 -0.0048301136
0.17798653 0.23421335 0.15408187 0.084885105 0.10964441 -0.083387084 0.10941248 0.34860262

model.gnn.gnn_layers.0.gat_conv.res_fc.bias f4 [64]
00000000: 5640 983c 6af3 a0bb b575 17bc 2871 a83c
00000010: 65ad 11b9 6922 0abc ef79 113d 733e a93b
00000020: 8e1d c13c 4869 90bc aa6d 883c 7282 3fbc
00000030: 11f3 18bd 00e4 6cbc a48d 84bb 424e 15bb
00000040: 10ec d8bc f059 88bc 1a29 0f3b 3801 bebc
00000050: 3c4c 433c 5f7f b3bb 6405 463c 9e42 0a3c
00000060: 6e6b e53c eae2 133c fa54 c53a ee05 0b3d
00000070: 7f42 ccbb 14a8 da3b bc40 bfbc 6563 263c
00000080: fa15 9f3c 73d6 01bb 369d 413c 8de7 8e3c
00000090: 9a8b 35bc 1727 b53c 2eae c0bb 5051 40bb
000000a0: 7abc cb3c a310 bebb ddfc 823c 1334 503c
000000b0: 1faa 3a3a 130b 623c 4f7d 65ba e2ea 233d
000000c0: eb40 233b 4c19 05bd 2c27 d43c 802f 3a3c
000000d0: 22ee 8f3c f7de 08bc 8828 043b 9792 b93c
000000e0: 5828 8fbc e89b b8bc a7ff 3dbc 9b7b 4b3c
000000f0: 97d9 09bd f121 163c 0898 d0bc a75b c3bc
0.018585365 -0.0049118297 -0.009244372 0.02056177 -0.00013892872 -0.008431056 0.035516676 0.005164915
0.023573663 -0.017628327 0.016653854 -0.011688815 -0.03734118 -0.014458656 -0.004045205 -0.002278224
-0.02647975 -0.016644448 0.0021844567 -0.02319394 0.011920031 -0.0054778303 0.012086246 0.008438734
0.028005328 0.0090262685 0.0015055232 0.033941202 -0.006233513 0.0066728685 -0.023346297 0.010155533
0.019419659 -0.001981166 0.011817267 0.017444396 -0.011080647 0.022113366 -0.005880139 -0.002934534
0.024870146 -0.005800323 0.015989715 0.012707728 0.0007120687 0.013796586 -0.0008754329 0.040018924
0.002491052 -0.032494828 0.025897585 0.011363864 0.017569605 -0.00835394 0.002016576 0.022652907
-0.017475292 -0.02253528 -0.011596597 0.012419607 -0.033654775 0.009163366 -0.02546312 -0.023847414

model.gnn.gnn_layers.1.gat_conv.attn_l f4 [1, 8, 8]
00000000: ac7f e53e 3b5e b9be 4cb6 4c3f 487f 4d3e
00000010: f14a 10be 0f6d 593e 5285 5f3d afa8 c03e
00000020: e62d 2dbe 547a 75be 626b 26bf a03a a63e
00000030: dc84 2ebe 8f98 bdbe 099d 83bb dd2f 983e
00000040: a845 c43e c4e9 e03e 6977 893d e8f4 5ebe
00000050: e1b7 17bf 2843 da3d d3b8 88be feea 99be
00000060: 0240 313d 36af 8b3e 460b 08be 1d34 da3e
00000070: a145 853e b2db eabe 9851 8d3e 3b9c 5abc
00000080: 320f 9a3e 2a4b a83e 5e61 283d d1ff 6f3e
00000090: 9c50 523e 19ea 203d d7d7 ebbd 11e9 ac3d
000000a0: 5ecc 003e e2b8 d4be a717 4b3d 85ad bc3e
000000b0: ae6e d53e f488 65be ea75 1e3f 5250 193f
000000c0: c07f d83e 7f69 54be a9f9 183e 4b13 013f
000000d0: 24f2 df3e 0764 aa3c ff98 8c3d 2378 b5be
000000e0: 63f1 1c3f 13a1 9d3e 054b 8abe f251 2c3e
000000f0: 0e13 e83d 1e6f 0d3e b82c 44be 854e 92be
0.44823968 -0.36204705 0.7996566 0.20068085 -0.14091088 0.21233009 0.054570504 0.37628695
-0.1691204 -0.23972446 -0.65007603 0.32466602 -0.1704287 -0.37030455 -0.004016523 0.29724017
0.38334394 0.4392835 0.06712229 -0.21773112 -0.5926495 0.1065734 -0.2670351 -0.30062097
0.043273933 0.27282113 -0.1328555 0.42617884 0.26029685 -0.4587074 0.27601314 -0.013342912
0.30089718 0.32869846 0.04110848 0.2343743 0.20538563 0.039285753 -0.115157776 0.084428914
0.1257796 -0.41547304 0.049583104 0.36851135 0.41686004 -0.22415525 0.6189867 0.59888184
0.42284966 -0.20743369 0.14938988 0.50420064 0.43739426 0.02079965 0.06865119 -0.3544322
0.61305827 0.30786952 -0.2701036 0.16828135 0.113317594 0.13811919 -0.19157684 -0.2857553

model.gnn.gnn_layers.1.gat_conv.attn_r f4 [1, 8, 8]
00000000: 3c35 0cbf f29d 0dbb 71b1 43bc dee9 863e
00000010: 4f65 a7bd 5614 483d 0e17 7f3e a3bc 07be
00000020: 37e8 b53e 2b9e 15be 3484 46be f9dc 99be
00000030: 157a 303d 9fcf cbbe 776b af3c 164c 0b3f
00000040: 20a9 683d 7135 09bf fab3 233e b841 463e
00000050: a2ce f4bd 8b9b 023e 8e8f eabe 8ef7 913d
00000060: 5372 90be 6401 8fbe faed 84be 791e e9b9
00000070: 41b2 9d3e 48e4 0d3e aee3 e4bd ab8d ee3e
00000080: b706 bb3d 8a71 523e 8e3c f1be 187d 16be
00000090: 3b21 103d 4a45 8c3d ac4e 453d 05eb d9be
000000a0: 3c2e debb 5d9f 103f bde3 f13e a1ae 46be
000000b0: bdae 863e 6e6c 563e 804e 3bbd 3a44 bd3c
000000c0: 0aee b73e 78e3 ef3d 998e 78bd c2ba 1f3e
000000d0: f404 a93d 6bdc 2c3f 6ecb 0dbe bf33 3bbe
000000e0: 8dd4 87be ee2e ac3d 32db fabe 9f54 913e
000000f0: ef95 eb3d 8fb0 843e 2fc9 25be ce31 44be
-0.5476873 -0.0021609035 -0.011944161 0.26350302 -0.0817362 0.04884752 0.24911138 -0.13255553
0.35528728 -0.14611118 -0.19386369 -0.300514 0.043085176 -0.3980684 0.021413548 0.5441297
0.056801915 -0.5359717 0.15986624 0.19361007 -0.119534746 0.12754647 -0.4581265 0.071272954
-0.28212222 -0.27930748 -0.25962812 -0.00044463927 0.3080006 0.13856614 -0.11176239 0.4659246
0.0913214 0.20551124 -0.47116512 -0.14696157 0.03518794 0.06849153 0.04817073 -0.42562118
-0.006780414 0.5649317 0.47244063 -0.19402553 0.2630519 0.209398 -0.04572916 0.023103822
0.35923797 0.11713308 -0.060682867 0.15598586 0.08252898 0.6752383 -0.13847134 -0.18281458
-0.2652935 0.08407389 -0.48995358 0.28384873 0.11503207 0.25915954 -0.16190027 -0.19159624

model.gnn.gnn_layers.1.gat_conv.bias f4 [64]
00000000: 5f43 8bbc 584c 2abc cbdc 863c 0c99 923b
00000010: 7f1e 38bc 7e0e b9b9 1367 dc3b 626a 883c
00000020: 5f43 8bbc 584c 2abc cbdc 863c 0c99 923b
00000030: 7f1e 38bc 7e0e b9b9 1367 dc3b 626a 883c
00000040: 5f43 8bbc 584c 2abc cbdc 863c 0c99 923b
00000050: 7f1e 38bc 7e0e b9b9 1367 dc3b 626a 883c
00000060: 5f43 8bbc 584c 2abc cbdc 863c 0c99 923b
00000070: 7f1e 38bc 7e0e b9b9 1367 dc3b 626a 883c
00000080: 5f43 8bbc 584c 2abc cbdc 863c 0c99 923b
00000090: 7f1e 38bc 7e0e b9b9 1367 dc3b 626a 883c
000000a0: 5f43 8bbc 584c 2abc cbdc 863c 0c99 923b
000000b0: 7f1e 38bc 7e0e b9b9 1367 dc3b 626a 883c
000000c0: 5f43 8bbc 584c 2abc cbdc 863c 0c99 923b
000000d0: 7f1e 38bc 7e0e b9b9 1367 dc3b 626a 883c
000000e0: 5f43 8bbc 584c 2abc cbdc 863c 0c99 923b
000000f0: 7f1e 38bc 7e0e b9b9 1367 dc3b 626a 883c
-0.016999898 -0.010394178 0.016462704 0.004473811 -0.01123774 -0.00035296747 0.0067261546 0.01665229
-0.016999898 -0.010394178 0.016462704 0.004473811 -0.01123774 -0.00035296747 0.0067261546 0.01665229
-0.016999898 -0.010394178 0.016462704 0.004473811 -0.01123774 -0.00035296747 0.0067261546 0.01665229
-0.016999898 -0.010394178 0.016462704 0.004473811 -0.01123774 -0.00035296747 0.0067261546 0.01665229
-0.016999898 -0.010394178 0.016462704 0.004473811 -0.01123774 -0.00035296747 0.0067261546 0.01665229
-0.016999898 -0.010394178 0.016462704 0.004473811 -0.01123774 -0.00035296747 0.0067261546 0.01665229
-0.016999898 -0.010394178 0.016462704 0.004473811 -0.01123774 -0.00035296747 0.0067261546 0.01665229
-0.016999898 -0.010394178 0.016462704 0.004473811 -0.01123774 -0.00035296747 0.0067261546 0.01665229

model.gnn.gnn_layers.1.gat_conv.fc.weight f4 [64, 64]
00000000: 79bc b63d 71b4 c53d 2d9b acbd 1acc fbbd
00000010: 89e3 66be 0db8 3cbc aa8b be3d 7590 a0bd
00000020: 0702 313e 824f 0f3e f4b7 223e 5f1e bd3b
00000030: 05b6 863d 89b9 113e 56b1 63bd f090 63be
00000040: d073 1abe 91e2 26be 73fb a1be b2ab 393d
00000050: 9804 cabd 6a54 ba3d 5eed 8a3e 1a9a d2be
00000060: e0e7 083e ea3f 623d c5cf 0d3e 5e52 65bd
00000070: 51b3 6b3c 378f f03d 0171 59bc 2217 73be
00000080: 81eb bebe d75d 17bf f1ec 493e d711 b53d
00000090: fc88 6cbc c009 20be f675 903d a3fb 2b3e
000000a0: 5fd8 d03b 07a7 c5be 09b4 b0be d8c6 33be
000000b0: dc4f 42be 4cb5 683d b2a0 273e 9711 82bd
000000c0: 4118 8ebe 4f8a 933a 0c77 fc3e a058 57be
000000d0: 749f a1bd 1cce 213e 8c49 31bd 9b18 7e3e
000000e0: 748f 71b7 5e53 753e 8744 a33d d3ff e9bd
000000f0: a85f a93e 74ce 20be 0d2c ba3e 1d28 123e
00000100: fd99 cdbd c84f 2ebe a4bb 5fbe 856f d7bd
00000110: 9576 65bd ee14 8dbe b846 473e 2d86 823e
00000120: 771f 733d 0496 d3bd c73e b1bd 5b37 a73e
00000130: 137b 0c3e d2c4 2ebd 70b0 173d 4c16 58be
00000140: c03c 0e3e 2d25 983e b9ce 9abe 9693 c33d
00000150: 2fe5 043d c1e8 62be 9f35 dfbc 2d89 843d
00000160: 0be8 b9bc 2fe5 f43b 8920 b13e e307 803e
00000170: 0d6c 8b3e 4d06 9b3d 1884 293e f05d 913e
00000180: b61a 903e 9f03 2abe 7ae6 cdbd cf31 63bd
00000190: 1cdd d6bd c917 993d 975e 6ebb 124c 823d
000001a0: 22fc e8bd d51c e73d 0917 74be a7fc 683e
000001b0: 823e ac3e af89 dabc a4ff 6dbe 9a92 643d
000001c0: 10ab 0e3d 3f61 8dbd cfb4 8fbe da01 063e
000001d0: 668d 1d3e 5403 62be c176 a0bd e635 babd
000001e0: d204 52be 6fd8 64bd 4eac 933e 7b79 003d
000001f0: 2223 c23d fe94 23be 4592 8d3e acc6 8ebe
00000200: dea2 0e3f e1b0 28be e7d7 d23d 4feb 01be
00000210: 3582 dabd 7f2e e5bd 3599 9cbe ac9c e33d
00000220: e830 913e 3014 a23e 1572 073e 6c80 393e
00000230: 349a 93bd 42e9 1fbd f824 febc a717 2b3e
00000240: f28b 29be 2781 4e3e 2347 403e fa0f ecbd
00000250: fe25 ce3d 9046 40be 1108 123d 1a13 c4bd
00000260: f5fa 3bbd 379c eb3d 3b22 133c 3195 78bd
00000270: f6df 103c 4590 d5bc 853b eabc 0ab2 ae3d
00000280: ec37 05be 3dc8 393d e94c 263e eb53 633e
00000290: 4f49 9cbd f6fe 4ebe fee0 ef3d a1f9 283e
000002a0: e1b6 843c 4ff6 c53e 5769 41be 86c9 9dbd
000002b0: 96d6 973e 0561 2fbd 37fd 393d 8f25 7f3e
000002c0: 9468 f43d f42b 3cbe 4eb4 b13d 62ef 83bd
000002d0: c900 2bbe 7d0b 37be c066 843e 92b8 473e
000002e0: 5a2b c5bd a04b f5bd e909 71bd 934c 89bd
000002f0: 307b d5bd efbf 2abe 5dc0 1fbe a1d7 26be
00000300: 73e9 21be 079f 02bf 2046 333e 92ef 07be
00000310: badb fa3d 2b54 b8bd 3a83 4e3d bc96 d8b9
00000320: 7ab5 9ebd c2e8 013d fc4e 5ebe c638 d6be
00000330: 671d 51be 0d45 2f3e 9208 9fbd af8e 2dbe
00000340: 4a37 2bbe 736f 713d 09a2 0abe c67b a83e
00000350: ddd4 28bd 2108 99be 67a5 c7bd d8b6 c93d
00000360: 994e 123d 2bea 8bbe 5ec4 e4bb c5f5 7ebc
00000370: 2607 433e 1754 d13e b71d d43d 39a2 33be
00000380: 1366 af3c 8ec3 8ebc f31e 2cbe 0872 94bd
00000390: db77 363e a94d c63d bc8c ecbc c04f 38be
000003a0: 73f8 bd3d 5ac2 cc3d 7f71 613d eb11 523d
000003b0: e8d5 c2bb ff66 18bd a749 043d c682 903c
000003c0: deb9 73bb c1ea bcbe bd2d 1dbd 34bd 6ebe
000003d0: fe7f a23e de78 33be fa06 fd3b 8e86 8dba
000003e0: 7764 88be ba25 eabd 5b79 22bd c498 59bd
000003f0: 0971 c7bd af81 603c 878e 2fbd 7e0b 3c3e
0.08922667 0.09653557 -0.08428035 -0.12294789 -0.22547735 -0.0115184905 0.093039826 -0.07840053
0.1728593 0.13995174 0.15890485 0.005771443 0.06577686 0.14230932 -0.055589043 -0.22223258
-0.15083241 -0.16297366 -0.31637153 0.045329757 -0.098641574 0.09098132 0.27134222 -0.41133195
0.13369703 0.055236734 0.13848789 -0.055986755 0.014386014 0.11746066 -0.013271571 -0.23739293
-0.3728905 -0.59127563 0.19719292 0.08841293 -0.0144369565 -0.1562872 0.07053749 0.1679521
0.0063734497 -0.38603994 -0.34512356 -0.17556322 -0.18975776 0.056813523 0.16369894 -0.06351011
-0.2775288 0.0011256429 0.49309576 -0.21029902 -0.078917414 0.1580128 -0.04328303 0.24814074
-1.439812e-05 0.23957583 0.07972055 -0.11425748 0.33080792 -0.15703756 0.36361733 0.14273115
-0.100391366 -0.17022622 -0.21848923 -0.105193175 -0.05602129 -0.2755503 0.19460571 0.25492993
0.05935618 -0.103313476 -0.08654552 0.3265942 0.13718824 -0.04266817 0.0370335 -0.21102256
0.13890362 0.29715863 -0.30235842 0.09549634 0.03244513 -0.22159101 -0.027247248 0.06471477
-0.022693655 0.00747361 0.34595135 0.25006017 0.27230874 0.07569561 0.16554296 0.2839198
0.2814538 -0.16602944 -0.100537255 -0.055467423 -0.10491392 0.0747524 -0.0036372298 0.063621655
-0.113762155 0.11284796 -0.23836912 0.22752629 0.3364144 -0.02667698 -0.2324205 0.055803873
0.034831107 -0.06903314 -0.28067634 0.13086644 0.1538597 -0.22071582 -0.078351505 -0.090923116
-0.20509651 -0.05587047 0.28842396 0.031365853 0.09479357 -0.15974805 0.27650657 -0.2788595
0.55717266 -0.16473724 0.10295086 -0.1268742 -0.10669366 -0.11190509 -0.30585638 0.11113867
0.28357625 0.31656027 0.13227113 0.18115395 -0.07207146 -0.03904081 -0.031023487 0.16708241
-0.16557291 0.20166455 0.18777137 -0.11526485 0.1006584 -0.18776917 0.035652224 -0.09573956
-0.04589363 0.11504405 0.008980329 -0.060689155 0.008842459 -0.02606977 -0.028592834 0.08530052
-0.13009614 0.045356978 0.16240276 0.22199981 -0.0763117 -0.20214447 0.11712836 0.16501476
0.016200485 0.3866448 -0.1888784 -0.07704453 0.29655904 -0.042817134 0.0454075 0.24916671
0.11934009 -0.18376142 0.086769685 -0.06442143 -0.16699518 -0.17875476 0.25859642 0.19504002
-0.09627409 -0.11977315 -0.05884734 -0.067040585 -0.10423887 -0.1667478 -0.15600725 -0.16293193
-0.1581171 -0.51023906 0.1750722 -0.13274983 0.12248941 -0.09000429 0.050418116 -0.00041311036
-0.07749458 0.031716116 -0.21709818 -0.4184019 -0.20421372 0.17116185 -0.077653065 -0.1694896
-0.1672031 0.058944177 -0.13538374 0.32906932 -0.041218627 -0.29889014 -0.09748345 0.09849328
0.035719488 -0.27327093 -0.0069814166 -0.015561526 0.19045696 0.40884468 0.1035723 -0.17542352
0.021410977 -0.017427232 -0.16808681 -0.07248312 0.17819159 0.09682781 -0.028875701 -0.17999172
0.092759036 0.09998007 0.05503988 0.05128662 -0.00594591 -0.0372076 0.032296803 0.017640483
-0.0037189643 -0.36897853 -0.038373698 -0.23314363 0.31738275 -0.17526576 0.007721779 -0.0010797547
-0.2663915 -0.11432977 -0.039666515 -0.053124204 -0.097383566 0.013702794 -0.042860534 0.18363759

model.readout.weight_and_sum.atom_weighting.0.weight f4 [1, 8]
00000000: df0c 643e 0cdb 7fbe 9fc4 8d3c a074 223d
00000010: df24 46be 22fb e4be 4c45 a7be b09a b9be
0.22270535 -0.24985904 0.01730567 0.039662004 -0.19350003 -0.4472285 -0.32670057 -0.3625083

model.predict.predict.1.weight f4 [128, 16]
00000000: c54e 90bb ec65 70bd de67 fe3c 4227 2abe
00000010: c24b f7bd 03a3 bb3d 235d 36bd ed01 52be
00000020: 61be 313e f971 cb3d 939a 373f 1eca a33e
00000030: bca4 183e 49e4 f03e 55d1 8dbe 6b8d a9bc
00000040: 3b7c 8e3e 3977 85be 0b62 adbd 9c3d b43d
00000050: 10b2 4c3e cadc c83d ff69 6d3d 4cc1 143e
00000060: e453 be3e 01f8 69be a586 d43c 2c77 79be
00000070: be22 63be 5d71 b83d ab47 80be 04a8 093e
00000080: 89e5 5abe 6f07 36be 0f21 f6bb 28e5 94bd
00000090: 8102 763e 0dba 20be 3cdd 5ebe f202 7bbe
000000a0: dedf febd 9cf9 153d 695a 4cbe 4dad 953d
000000b0: 1543 88bd a11a 633e c8b9 f9bd 5e3f 50be
000000c0: 84ce b3bb 72d5 2d3e eef4 0d3d 8069 8d3d
000000d0: fc09 2a3e 051c 03be 9ba4 933d a35c f83b
000000e0: 819a 2bbe edf9 b23d 66d4 953e 550a 8d3e
000000f0: f60e 0d3e 9ef2 dc3e b34d 14be 3ec7 8dbd
00000100: 411f 57be f95c eb3d d97c 043e b78a da3d
00000110: 02b8 983e c4bd 80be 879f e73d 247f 24be
00000120: c55b 773d acb2 323e 721d c23e e2aa e03e
00000130: 44f3 d7bd 724d ec3e 38c0 173e d70e d93d
00000140: cc5e 7abc e504 1dbd b45b b0bc b79c aabd
00000150: eecb 43bd 0c58 a8bd 8057 59be 5462 683e
00000160: 2a0e 24be 67dd 103d 6f09 5cbd dfda 8abe
00000170: 93c5 453e eebf 22be f934 0abb cf91 a4bd
00000180: 1e99 5abe 5b4f 46be c0bd 333e bd18 e53d
00000190: 830a af3d 43e1 54be 4db3 123e a3bc 22be
000001a0: 68ca d53d f37f 113e 5ca2 023f 613c 1d3e
000001b0: 22cb d73d 2bd2 9f3e 4e93 1b3c 0ee7 a4be
000001c0: 48e3 8b3d e6f6 993d ccdd 1f3e 9aa8 993d
000001d0: daab 79be a05c 233e d824 c9bd 6ad1 943d
000001e0: 1522 5dbe 83ee 593e bafe 14bc f72d c4bc
000001f0: f9c1 83bc 1dee 713d 3651 3fbe 72ca cb3d
00000200: c053 0a3e 19a4 193e 5c21 33bc 1547 133e
00000210: 928f 913d 79e9 243e a04e 51be 94bb 7bbe
00000220: 1a56 393e d8c1 8b3e d2a2 123e c7da 103e
00000230: 6c79 3dbe b660 47be 6736 d6bd b83e e83c
00000240: c978 7b3d d3a5 743d 8784 42bd b6de 95bd
00000250: 6244 4bbd 1935 e0bc 58fd 5a3e 4952 2e3e
00000260: d9bc 3bbe 6521 ce3c 8a83 61be c7a5 4dbe
00000270: 09e6 15bd 7a55 6cbd f766 8fbd 4be5 24be
00000280: 47b5 7fbe ac86 4dba 8eba 81be 0c33 b2bd
00000290: 96b1 103e 4582 d6bd e3af 1b3e d818 2cbe
000002a0: 625c 84be 322d 54bd c46e 8fbe f3be 41be
000002b0: 0ae2 073d 260c 063e ac6d dcbb ecd6 6fbe
000002c0: 444e b93d 16fa 3ebc 24f3 abbd 36dd 433e
000002d0: f1be edbc a6a2 153e ae19 8f3d edbb 003d
000002e0: 9eaf 5c3d 0e45 b53d b5bd 0c3f 0b13 a83e
000002f0: 3ad2 bfbd 6499 f63e d8f0 a9bc 2e5b c0bd
00000300: f5ec 983d 409e 4e3e 3149 3d3e c073 b3bc
00000310: d85b 803e 8e92 56be 6c7b 84bb 81a9 ed3d
00000320: 8e9f 3e3e 5e51 823e cf7f d53d d830 963d
00000330: 48b8 b33e 0447 c83e 81bd 8b3d 09ba 40be
00000340: 6983 efbd 9da6 4cbe 5de1 2b3e 5654 5d3e
00000350: 8e13 473e c41c 01be 2f60 f93c 6ee1 8a3e
00000360: 4385 24be 4838 67be 6b81 813e d51c 953e
00000370: 4b2c 3fbe 07e3 a53d ecf1 8c3d 3f90 3cbe
00000380: 8d88 633c 0ee7 f8bd eeac ea3a eb83 b73d
00000390: d138 66be 0691 893d 278c a5bc 0822 45bd
000003a0: 2d1e 653e 9c41 ce3b bf39 a1bc 56ed 0fbe
000003b0: bdf9 46be dfce 3abe 16f9 d6bd 40cf ef3d
000003c0: f59f 943d a71f 433e cc30 56be 6a53 02be
000003d0: c48d 17bd b7ad b9bd c94f 063e a38a 513c
000003e0: f135 bebd 4be7 c33d da49 4bbe 8f1d 2dbd
000003f0: a50c 5bbe 3d27 63bd c13e 9abd 8cc6 123d
-0.0044039213 -0.05869095 0.031055387 -0.16616538 -0.120749965 0.091619514 -0.044522416 -0.20508547
0.1735778 0.09933848 0.71720237 0.3199014 0.14906591 0.47049168 -0.2769877 -0.020697316
0.27829155 -0.26067522 -0.08465966 0.088008136 0.199898 0.09807737 0.057962414 0.14526862
0.37173378 -0.22848512 0.02594311 -0.24361867 -0.22181222 0.09005997 -0.25054678 0.13442999
-0.21376623 -0.17776273 -0.007511265 -0.072702706 0.24024393 -0.15695973 -0.21764082 -0.24512842
-0.12445043 0.036615 -0.19956364 0.07308445 -0.0665342 0.22178127 -0.12193638 -0.20336673
-0.005487265 0.16975954 0.03465741 0.06904888 0.16605371 -0.12803657 0.072091304 0.0075794025
-0.16758157 0.08739076 0.2926361 0.27546945 0.13775238 0.43153852 -0.14482765 -0.06922768
-0.21008016 0.114923425 0.1293825 0.10670989 0.29827887 -0.2514478 0.11309724 -0.16064125
0.060390253 0.1745097 0.3791309 0.43880373 -0.10544446 0.46152836 0.1481942 0.105985336
-0.01528139 -0.038334746 -0.021528102 -0.08330672 -0.047801904 -0.082199186 -0.21224785 0.22693759
-0.16021028 0.035367396 -0.053719934 -0.2712011 0.1931365 -0.15893528 -0.0021088703 -0.08035623
-0.21347472 -0.19366209 0.17552853 0.11186359 0.08546927 -0.20789056 0.1432621 -0.15892272
0.104389966 0.14208965 0.5102899 0.15355064 0.105367914 0.31215033 0.009495569 -0.3220753
0.0683046 0.07517795 0.15611953 0.07502861 -0.24381962 0.15953302 -0.098214805 0.07266505
-0.21595033 0.21282391 -0.009093935 -0.023947699 -0.016083704 0.059064973 -0.18683323 0.09950723
0.1350851 0.15004005 -0.010933246 0.14382584 0.07107462 0.16104688 -0.2044015 -0.24583274
0.18099251 0.2729633 0.14319924 0.14145957 -0.1850335 -0.19470486 -0.10459595 0.02835022
0.061394487 0.059728455 -0.04748967 -0.07317869 -0.04962576 -0.027369069 0.21385705 0.17023577
-0.18333758 0.025162408 -0.22022834 -0.2008277 -0.03659633 -0.057698704 -0.07002061 -0.16103093
-0.24971496 -0.0007840197 -0.25337642 -0.08701143 0.14130244 -0.10474066 0.15203814 -0.16806352
-0.25851732 -0.051800914 -0.28014195 -0.18920498 0.033174552 0.13090572 -0.006726941 -0.2342183
0.09048131 -0.011656305 -0.08395985 0.19127354 -0.029021712 0.14612827 0.0698732 0.03142922
0.05387842 0.08851062 0.5497697 0.3282703 -0.093662694 0.48163903 -0.020744726 -0.09392391
0.07467071 0.20177555 0.18484952 -0.02190578 0.2507007 -0.20954344 -0.0040430333 0.11604596
0.18615553 0.25452703 0.10424768 0.07333535 0.35101533 0.3911668 0.068232544 -0.18820967
-0.116949864 -0.19985433 0.16785188 0.21614203 0.19441053 -0.1260863 0.030441372 0.27125114
-0.1606646 -0.22580063 0.2529405 0.2912356 -0.1866924 0.08099943 0.068820804 -0.184144
0.013887537 -0.12153445 0.001790432 0.08960708 -0.22482611 0.06717114 -0.020208431 -0.048128158
0.22374792 0.0062944423 -0.019680856 -0.1405538 -0.19431205 -0.18242978 -0.10496728 0.11709452
0.07257072 0.19055043 -0.20917052 -0.12727132 -0.037000433 -0.090663366 0.13116373 0.012789401
-0.09287632 0.095656 -0.19852391 -0.042264517 -0.21391542 -0.055457342 -0.075315006 0.03583388

model.predict.predict.1.bias f4 [128]
00000000: e3fd e13c d828 253e 9b80 57be be75 5dbe
00000010: fc38 643e bf4e f63d 7e99 613d 3f6c 113e
00000020: f03f 8d3d 79cd 6f3e 5cfd 4ebe bde1 223d
00000030: ef43 513e 23a5 e63c c67a 6abe de70 863d
00000040: 0f8c 4a3e 60c6 96ba c32d c5bd 0900 513e
00000050: 98cc dbbd 71d0 853e 1c00 e43d 549a a8bd
00000060: fa27 e63d 2672 813e d87a 33be 517a a03d
00000070: a0e4 efbd 68d0 b1bd 0066 b8bc 4329 aa3b
00000080: 126d d63b cef4 d6bd 702a ccbd 2391 debd
00000090: 1b76 043e ad98 96bd dd3d 9fbe 55b4 14bd
000000a0: 512d 61be 606c 91be 902a 403e f115 ad3d
000000b0: d4c0 843e 7a08 07be 4276 4ebe f845 48be
000000c0: 6e5d cfbd a9d0 14bd ddc2 51be 231f 7eba
000000d0: d45b 493c 5b14 01bd 7e57 03be d8bf 3ebe
000000e0: 4d7e 233e d67f b13d d786 323e 3bb1 1ebe
000000f0: fd20 663e c5c2 973c bdaf a43d 5ead 213e
00000100: f3f2 00be 90e5 d4bd 4453 3b3e 5a60 8a3e
00000110: 2f75 45be b39e e7bd cac5 593e b64b 5abd
00000120: 16d8 c93d 11c9 41be 65c9 7dbd de21 833e
00000130: cb3e 1fbe 8260 213e 315e 1c3e 4a51 62be
00000140: 5bdf 6dbe 28ac a9bd 336c 173d febc 073e
00000150: 73f9 45be dc93 24bd f0b7 5b3e 4f66 15bc
00000160: e883 01be a5c6 d0bd 6707 bc3d 0fe3 60bd
00000170: 2313 723e 2896 273e e9b1 56bd 4b6e 893e
00000180: db4d aa3d e555 1b3e b08d ce3d 96d0 c03d
00000190: 4b9e 023e 081f 8bbe 549c 183e d7f9 8ebd
000001a0: 4b70 5ebe 77be 15be 8122 2bbe ddc2 52bc
000001b0: 5efb ccbd 9218 21be 70d2 45be 8411 1e3d
000001c0: 04ac 69be 4343 87be f25f 08be 0329 83be
000001d0: d35f 403e 26d7 4abd d135 043e 8a2e 12be
000001e0: 46a2 b1bc 9b6e 253e 9f26 25be d7c5 7e3e
000001f0: 459e b4bd 7579 b7bd 9040 a0bd b86e 58bd
0.027586883 0.16128862 -0.21045153 -0.21626946 0.22287363 0.120267384 0.055078022 0.14201449
0.06896961 0.23418225 -0.20213836 0.039766062 0.20436071 0.028154915 -0.22898397 0.065644965
0.1977999 -0.0011503212 -0.09627869 0.2041017 -0.107323825 0.2613559 0.11132833 -0.08232561
0.11238094 0.252824 -0.1752733 0.0783583 -0.11713529 -0.086823285 -0.022509575 0.005192907
0.006543764 -0.104959115 -0.09969032 -0.108675264 0.12935679 -0.07353339 -0.31101885 -0.03630479
-0.21989943 -0.28402996 0.18766236 0.084514506 0.25928366 -0.13186827 -0.201623 -0.19557941
-0.10125242 -0.036331806 -0.2048449 -0.0009693971 0.01228996 -0.031513553 -0.12826344 -0.1862787
0.15966149 0.08666961 0.1743425 -0.15497296 0.22473522 0.01852549 0.08041332 0.1578879
-0.12592678 -0.10395348 0.18293482 0.27026635 -0.19282983 -0.11309566 0.21266857 -0.05329486
0.09855668 -0.18924357 -0.061959643 0.25611776 -0.15551297 0.15759471 0.15270306 -0.22101322
-0.23229735 -0.08284789 0.03696842 0.13255689 -0.19333439 -0.040180072 0.21456885 -0.009118631
-0.12647974 -0.101941384 0.091810994 -0.05490404 0.23640113 0.16365874 -0.052415762 0.2684196
0.08315631 0.15169485 0.100856185 0.094147846 0.12755696 -0.27172112 0.14903384 -0.06981247
-0.21722524 -0.14623438 -0.16712381 -0.012863842 -0.10008882 -0.15732029 -0.19318557 0.038590923
-0.22819525 -0.26418504 -0.1331785 -0.25617227 0.18786554 -0.049521588 0.12911154 -0.14275566
-0.021683823 0.16155474 -0.16128014 0.24880157 -0.0881925 -0.08958713 -0.07824814 -0.052839965

model.predict.predict.3.weight f4 [128]
00000000: 9c08 873f 4ac0 913f 7e19 8d3f d68d 833f
00000010: c7e1 813f f406 733f af70 7e3f faf8 773f
00000020: bac8 833f 32fa 763f ecc5 823f 2f74 833f
00000030: 75c7 883f 2a53 803f 6312 7e3f 6f53 863f
00000040: a245 803f 8185 8e3f 7c19 823f 5548 913f
00000050: 4638 843f 3dd2 803f 7e96 883f d34c 713f
00000060: 6600 7d3f 4452 853f ff30 883f 1700 7b3f
00000070: d6d3 8b3f 61c4 7f3f 7957 713f 4967 833f
00000080: 26f8 7e3f d23c 7b3f 9411 7d3f 69a1 7c3f
00000090: 24b7 803f 6573 7c3f dab2 5c3f 16fb 903f
000000a0: 0541 843f 13cf 803f ced4 833f 2087 8c3f
000000b0: d8fb 763f 0f56 833f 1c07 773f c237 833f
000000c0: ac25 7b3f 859f 7c3f 3213 793f dfcd 813f
000000d0: 880a 803f 67db 7b3f 651a 863f fceb 823f
000000e0: 99ad 603f 61b5 7c3f 23d9 803f 2f01 7f3f
000000f0: fbc7 523f e3c0 7d3f c8e8 8a3f 77b7 803f
00000100: c1af 7c3f 3498 7b3f 3850 903f 553c 873f
00000110: 6b4a 813f 2dbd 713f f30e 863f 9c75 7a3f
00000120: 1859 753f 3531 7d3f 6620 863f ab41 8c3f
00000130: 977c 883f 805f 7a3f 2af4 813f 0284 803f
00000140: 60b7 843f d911 823f d095 713f 73a5 803f
00000150: 6984 7d3f c4b3 853f 5106 603f 3d96 863f
00000160: 4f00 793f ed8b 853f f714 7f3f 3af7 813f
00000170: 2c57 863f 8f15 6e3f 1340 7c3f 45ca 893f
00000180: 2269 753f 0137 7a3f f625 7b3f e1a4 763f
00000190: 9cdc 843f 1779 803f 5a38 673f 2077 823f
000001a0: 5885 793f 6fc1 833f e396 803f 2e2d 8b3f
000001b0: 637a 823f 68fc 803f 1014 823f d797 953f
000001c0: c73e 8b3f 78ef 823f 810b 823f b11c 7b3f
000001d0: e609 833f 823b 823f c7ce 7f3f 3413 853f
000001e0: c789 793f c2be 713f 998c 7e3f 8481 843f
000001f0: ee5c 783f 099d 743f ce95 7b3f aceb 7f3f
1.0549502 1.1386807 1.1023405 1.027766 1.0147027 0.94932485 0.9939069 0.96864283
1.0295632 0.9647552 1.0216651 1.0269831 1.068587 1.002538 0.99246806 1.0494212
1.002125 1.1134492 1.0164027 1.1350199 1.0329673 1.006416 1.0670927 0.9425785
0.9882873 1.041573 1.0639952 0.9804701 1.0924022 0.99909025 0.942741 1.0265895
0.99597394 0.9813968 0.9885495 0.9868379 1.005589 0.9861358 0.86210406 1.1326625
1.0332342 1.0063194 1.0299318 1.0978737 0.96478033 1.0260638 0.96495223 1.0251391
0.9810436 0.9868091 0.97294915 1.0140952 1.0003214 0.98381656 1.0476805 1.0228267
0.8776489 0.9871426 1.0066265 0.9961118 0.82336396 0.99122447 1.0852289 1.0055989
0.9870568 0.9827912 1.1274481 1.0565287 1.0100836 0.94429284 1.0473312 0.9783571
0.9583907 0.9890321 1.0478637 1.095754 1.0663022 0.9780197 1.0152638 1.0040286
1.0368462 1.0161697 0.9436922 1.0050491 0.99030167 1.0445485 0.8750964 1.0514599
0.97266096 1.0433327 0.99641365 1.0153573 1.0495353 0.93001646 0.9853527 1.0764853
0.95863545 0.9774018 0.981048 0.96345335 1.0379825 1.0036954 0.9032036 1.0192604
0.9746909 1.0293406 1.0046047 1.0873163 1.01936 1.0077028 1.0162373 1.1686963
1.0878533 1.022933 1.0159761 0.98090655 1.0237396 1.017441 0.9992489 1.0396485
0.97475857 0.944317 0.99433285 1.0352025 0.970168 0.95552117 0.9827546 0.9996898

model.predict.predict.3.bias f4 [128]
00000000: 10dd 513c d327 aa3a 5b15 b03c 90a9 993c
00000010: d29a 963c 9a84 b33c 7625 af3c 1dcc 99bc
00000020: dfa2 8ebc da13 86bc e49b a7bc 4276 b33c
00000030: dc71 973c 5698 343c 305a abbc 66f6 a1bc
00000040: 5301 97bc f7db a53b 034b 8ebc 0057 c1bc
00000050: 4f2d 893c 0272 aa3c c7d9 9e3c d936 a13c
00000060: 7f78 a6bc cb57 9f3c 29fe b63c 13fb c53b
00000070: 14e8 493b 8b6a 95bc 870d f33c 5aaa 91bc
00000080: cd21 a43c 4e95 a53c c06f 923c b971 9dbc
00000090: 0f60 91bc 2b66 643c ffe8 043d 6a99 a0bc
000000a0: 2553 a4bc 513b 3f3c 8ab2 9d3c 3177 8c3c
000000b0: 1b4c b23c c9d0 81bc 90ad 88bc eeff a0bc
000000c0: 7225 ae3c 2926 b43c dd12 dcbb 0d1e 93bc
000000d0: e100 bb3c 0989 8fbc 32c1 a0bc 326a a0bc
000000e0: 0115 673c 16e6 70bc 60d8 94bc ef46 b53c
000000f0: 2374 f23c afe6 a2bc 17c9 b63c 1e65 b53c
00000100: c6e8 81bc febf 94bc 4cb9 a53c c601 a03c
00000110: 7290 a3bc 7d1d 71bc ff77 9dbc 19b0 963c
00000120: 3f87 aebc f2e5 adbc 9f0e 83bc 24e4 a0bc
00000130: daf9 953c 2827 b23c dd42 11bc 1168 ab3c
00000140: 570b 9d3c f8d9 b53c 1d23 8ebc 7db1 983c
00000150: 47b4 123c 60c3 ac3c 48aa b23b 2cae 99bc
00000160: cec8 b2bb d79b a23c 9689 a63c 3f65 293a
00000170: fd40 a3bc fdcc 983c 6a63 9f3c 9e6c a2bc
00000180: 67e4 59bc 0418 303c 2b7b 96bc 86f3 c13c
00000190: 71fa ebbc 5d80 b43c 8a7a d5bb 0ffc af3c
000001a0: 8178 b83c 969c abbc 5745 87bc cc5c ae3c
000001b0: 8703 a83c a01a 7bbc dbbc 9dbc d9fd cabb
000001c0: a806 90bc da51 9cbc 314d 993c 2468 9bbc
000001d0: 7a5f 9abc d4b6 ba3c ab51 923c cf95 ac3c
000001e0: 693c bd3c 71fd 733c 8060 ae3c 5354 883c
000001f0: 6b1f 9abc fe07 bd3c f508 513c e416 9abc
0.012809053 0.0012981839 0.021494558 0.018757612 0.018384371 0.021913815 0.021380167 -0.018774087
-0.017411647 -0.016366888 -0.020460077 0.021906976 0.01848691 0.011022648 -0.020917028 -0.019770812
-0.018433249 0.0050616222 -0.017369753 -0.023601055 0.016745238 0.020806316 0.019390954 0.019679474
-0.020321129 0.019451043 0.02233799 0.0060418933 0.0030808495 -0.01823928 0.029669536 -0.017781425
0.020035649 0.020212796 0.017875552 -0.019219266 -0.017746 0.013940374 0.032448765 -0.019604404
-0.020059178 0.011671857 0.019250173 0.017146679 0.021764806 -0.015846627 -0.016684324 -0.019653287
0.02125809 0.021990852 -0.006716116 -0.017958665 0.022827568 -0.017521398 -0.019623373 -0.019581888
0.014104129 -0.014703294 -0.018169582 0.02212855 0.029596394 -0.01988539 0.022312684 0.022142943
-0.015858065 -0.018157955 0.020229958 0.019532096 -0.019966338 -0.014716503 -0.019222258 0.018394517
-0.021304725 -0.02122781 -0.015998183 -0.019640036 0.018307615 0.021747187 -0.008866039 0.020923646
0.019170446 0.022198662 -0.017350728 0.01863932 0.008954114 0.021089256 0.005452428 -0.01875981
-0.0054560667 0.0198497 0.020329278 0.0006461925 -0.01992845 0.018652434 0.019456584 -0.019827183
-0.013299084 0.010747913 -0.018369278 0.023675691 -0.028805943 0.022033865 -0.006514852 0.021482496
0.022518398 -0.02094869 -0.016512556 0.021284483 0.020509494 -0.015326172 -0.019255092 -0.006194812
-0.017581299 -0.019081999 0.018713566 -0.018970557 -0.018844355 0.022792257 0.017861208 0.021067528
0.023100095 0.014891968 0.02128625 0.016641771 -0.01881381 0.0230751 0.012758483 -0.018809743

model.predict.predict.3.running_mean f4 [128]
00000000: c71c 893f fd94 053f 88ff b739 68b6 0a3e
00000010: 5f8f 403f d102 4639 9194 df3f 4eff e53f
00000020: 34c4 703b dcba 3b3f 8c51 503a a457 0940
00000030: e4af 913e 3e2f 1a40 9ce2 df3e 6063 1123
00000040: 4d49 5e3e bdea 903e 7b4a 083e 608f a33d
00000050: 385f 2b18 f649 723b dd11 fa3e 3046 c63f
00000060: ef3d 213f b432 1f3f 9e16 2c3f fb6d 1736
00000070: d984 4d3a 3532 1a3c 2583 b03f fcaf 0e3e
00000080: 2496 013f d50f b93d 0400 0000 31c7 af3e
00000090: c564 3e3f 4cfc 992f 673a 273f 4bee e13e
000000a0: 489b ee27 e938 013d f7fa dd38 3481 323b
000000b0: 8f5e 9340 9601 663d 9dde 6a3f 1338 9336
000000c0: 2d8e e43f 9dd4 d93f 1abe 8225 c333 9a3b
000000d0: f226 c03f 09f8 cc3d f6d7 2e3d a08d 0d3e
000000e0: f762 863f 230b 623f 416e ba3f 0138 d63f
000000f0: ed57 f93f cdb3 e71c 3306 793d 8e08 1940
00000100: 88fc 9f38 e823 f33e f548 183e 7036 cb3e
00000110: 3dda 5f37 9051 eb3d 7c73 7f3f 7a3d 4c3c
00000120: 5fcb 143f 3646 f133 5ccc 1b15 a76d 013e
00000130: 78fc 2339 0064 7e40 0400 0000 8ff6 8e40
00000140: f698 263e 6bb3 4a40 706c c03a 44a9 e03d
00000150: 0400 0000 da87 193f 3c82 383a 4b11 173f
00000160: d42e 3f13 3cd1 f33e 274e 1240 330c af3b
00000170: 9084 243b 463a 623d d834 e53e 89a6 ca3c
00000180: 4da6 7a3e 6e2f f13e 4c21 9006 9360 2a40
00000190: fe08 8139 614d cd3f 8820 ea3f 6d46 f73f
000001a0: 70fd 4b40 6a9c c73d 0c47 503e f360 763f
000001b0: ce71 933f c4b8 5a3d 33c0 143f 0171 573e
000001c0: 88c6 ab3e 71d3 c811 a2e7 df3f 53b3 c438
000001d0: 7b66 083f bb6a 0140 d74d 623e a0cb 0640
000001e0: a2c3 a63e 9ffd db3e 9735 6540 099f 683b
000001f0: 76cb c53f 90b9 ba3f 944b 6f3f 757e 963f
1.0711907 0.52180463 0.00035094866 0.13546145 0.75218767 0.000188838 1.7467214 1.7968538
0.003673804 0.73332 0.0007946722 2.1459742 0.28454506 2.4091334 0.43727577 7.881509e-18
0.2170765 0.2830409 0.13309662 0.07986331 2.2149305e-24 0.0036970354 0.48841754 1.549017
0.6298513 0.6218674 0.6722201 2.256477e-06 0.0007839925 0.009411384 1.3790022 0.1393432
0.5061972 0.09036223 6e-45 0.34331658 0.7437251 2.8009806e-10 0.6532349 0.44127116
6.6226626e-15 0.031548414 0.00010584847 0.0027237656 4.605293 0.056153856 0.9174593 4.3874693e-06
1.7855889 1.701801 2.2680223e-16 0.0047058775 1.5011885 0.100082465 0.042686425 0.13823557
1.0498952 0.88298243 1.4564897 1.6735841 1.9479958 1.5332775e-21 0.060796928 2.3911471
7.6287484e-05 0.47488332 0.14871581 0.3968997 1.3342648e-05 0.11490166 0.9978559 0.012465829
0.5812282 1.1235208e-07 3.1463212e-26 0.12639485 0.00015638943 3.9748535 6e-45 4.4675975
0.16269287 3.1672008 0.0014680754 0.10969785 6e-45 0.5997292 0.00070384494 0.5901076
2.4130677e-27 0.4762057 2.28602 0.0053420304 0.0025103427 0.055231355 0.4476688 0.024737613
0.24477501 0.47106498 5.4215705e-35 2.6621444 0.00024611497 1.6039239 1.8291178 1.9318367
3.1873436 0.097466305 0.20339602 0.9624168 1.1519105 0.053398862 0.5810577 0.21039201
0.33549905 3.1684747e-28 1.7492564 9.37941e-05 0.5328137 2.0221393 0.22100006 2.1061783
0.3257113 0.42966935 3.5813959 0.0035495183 1.5452716 1.4587879 0.934747 1.1757342

model.predict.predict.3.running_var f4 [128]
00000000: f8ce 553e b752 9c3e f191 b939 4b9f 623d
00000010: 2d02 a63e 1f3e 4338 d112 543f ef1d c53f
00000020: 9527 663b a2f4 cf3e 94c3 c139 2f84 ee3e
00000030: b055 703e b024 3240 8a4e bc3e 5518 1d1f
00000040: 5100 9d3d 2f87 df3d bd23 163e 0965 ae3c
00000050: 2772 4b16 09ca 413b 606c fa3d 9a83 683f
00000060: 841c 783e 4371 0e3e ec0b 433f e76c d432
00000070: d336 083a cbad 063c 3bc0 b03f 21d3 ae3d
00000080: f8ba 433e f8ed bf3c 0400 0000 fd44 8e3d
00000090: 9ffb 823e 7995 252d 096e ba3e e165 d63d
000000a0: adac 5524 113f 8a3d 4037 6337 7b97 8d3a
000000b0: 8c93 ce40 6ccb 653c a637 2a3f f53c 0836
000000c0: c0cf 713f 3759 1340 49f9 b221 09f0 5c3a
000000d0: 5c7c 603f e4f2 613e 70a5 173c 2c5a 883e
000000e0: b184 f23e aac6 2e3f 2d93 b73e 28b1 793f
000000f0: 11ae 973f 3ed0 1e1b ccf0 e73c 05bc cd3f
00000100: 22d7 b236 8af6 883e 5ba5 803d d8d3 1d3e
00000110: 5107 3234 1d3d e33d 51ef 9e3e 8e60 643c
00000120: f533 9c3f 412c 2e31 a88a 9314 74bc 3c3d
00000130: 98b2 2038 d1d6 b540 0400 0000 0319 db40
00000140: 89a9 023e 5b3a 1140 4a09 433a 77fe df3d
00000150: 0400 0000 730d d53e 401b 0539 e8ad 1f3e
00000160: 3d7b 2c12 fb83 803e a2b5 693f 5436 b63b
00000170: fcab ca3a 86b7 383c fc6f 3c3f fa7b 853c
00000180: 55f0 303e 6a62 6a3e a83d a005 8c25 df3f
00000190: 44f8 6a38 24bf 2b3f 0501 973f 5b93 4940
000001a0: f187 9540 11d8 793d 781e 013e 17cb 8e3e
000001b0: ebb2 943e a767 063d c03f 373f 3c25 5b3d
000001c0: b489 f03e 92de 790f fb9f 313f 2d07 0d37
000001d0: 93fe 673f c644 a63f 7511 963d 2c5d 593f
000001e0: fe48 df3e 2b10 3a3e 772d 7940 4c7a cf3a
000001f0: 81f5 f13f d1fc c03f 4465 0d3f 0db3 823f
0.20879734 0.30531856 0.00035394685 0.055327695 0.32423535 4.6549478e-05 0.8284121 1.539976
0.0035118808 0.40616328 0.00036957546 0.46585223 0.23470187 2.7834892 0.3677867 3.326617e-20
0.07666076 0.10914456 0.1466207 0.021288412 1.643423e-25 0.0029569885 0.12227702 0.9082581
0.24229628 0.13910393 0.76190066 2.4729571e-08 0.0005196158 0.008220146 1.3808664 0.085363634
0.19114292 0.023428902 6e-45 0.06946752 0.25582597 9.412354e-12 0.36412075 0.104686506
4.6333275e-17 0.0675031 1.3543118e-05 0.0010802591 6.455511 0.01402555 0.6649116 2.030106e-06
0.94457626 2.3023202 1.2127734e-18 0.0008428102 0.8768976 0.22065312 0.009255752 0.26631296
0.4736686 0.6827189 0.35854474 0.97535944 1.1849996 1.313674e-22 0.028313063 1.6073004
5.329858e-06 0.26750594 0.06281539 0.15412843 1.6580204e-07 0.11095641 0.3104196 0.013939036
1.2203356 2.5345488e-09 1.4897897e-26 0.04607816 3.83133e-05 5.6824727 6e-45 6.846803
0.12759985 2.2691867 0.0007440044 0.10937207 6e-45 0.41611823 0.0001269402 0.15593684
5.4425533e-28 0.25100693 0.91292775 0.0055606756 0.0015462632 0.011274224 0.73608375 0.016294468
0.1727918 0.22889104 1.5068977e-35 1.7433333 5.6021163e-05 0.6708853 1.1797186 3.1496189
4.6728444 0.060997073 0.12609279 0.2788932 0.29042754 0.032813694 0.7158165 0.053502306
0.4698006 1.2319513e-29 0.69384736 8.405926e-06 0.90622824 1.2989738 0.073275484 0.84907794
0.43610376 0.1817023 3.8934 0.0015829294 1.8903047 1.5077153 0.55232644 1.0210892
