checkpoints/GCM/best_recall_score/checkpoint1.pt (torch, 375109 bytes, 47 tensors)

model.gnn.gnn_layers.0.graph_conv.weight f4 [30, 64]
000000 a0 a0 5a be 21 75 87 3d 7d e0 b3 bc 5e 76 d4 bc
       -0.21350336 0.066141374 -0.02195763 -0.025935348
000010 fb bd 33 3e 12 d2 6b be 92 b3 47 3e e8 77 28 be
       0.1755294 -0.23029354 0.19502094 -0.1645199
000020 71 cb 40 be 7d 0f 51 3e 43 3f 36 3e 49 ff 63 be
       -0.18827607 0.20416065 0.1779757 -0.22265352
000030 8f bc 15 bd 36 23 1c be 72 b4 18 3e 13 4e b0 bd
       -0.036556777 -0.15247807 0.14912584 -0.086086415
000040 7b 00 a5 bd 44 16 5b 3e bc 03 6f 3d fb ca 12 bc
       -0.08056732 0.21395212 0.05835317 -0.008959527
000050 c2 15 9c 3d 6f ba 65 bd bd cb 14 3d 9a a0 66 3e
       0.076213375 -0.056086 0.036327112 0.22522202
000060 c5 9b 9e bd 78 57 70 be dc e4 b3 3d d1 78 5e 3c
       -0.077445544 -0.23470867 0.08783886 0.01357861
000070 3f 78 16 3e 83 40 2a be 35 db 38 be d3 ae 4c bd
       0.14694308 -0.16626172 -0.18052371 -0.049971413
000080 92 06 1a 3d 6f 55 44 be f7 17 00 3e 9e bd 5f be
       0.037603922 -0.19173215 0.12509142 -0.21849677
000090 b8 b0 c5 bc 13 4f 16 bc 3c 35 1f 3e 89 f9 6f 3e
       -0.024132118 -0.009174126 0.15547651 0.23435034
0000a0 33 fc bc 3d 56 fe 86 bc 26 af 3e be 6d d3 9c 3d
       0.09227791 -0.016478699 -0.18621501 0.07657514
0000b0 2d 83 21 be 64 2c 17 be 87 59 41 3e b4 58 85 bd
       -0.15772696 -0.14763027 0.18881808 -0.065110594
0000c0 bd 19 22 3e 74 d9 ff bd c8 40 58 be 3a 62 91 be
       0.15830131 -0.12492648 -0.21118462 -0.28395253
0000d0 c3 16 84 bd 20 c2 bf bc 15 ef fc bd ba 75 f6 bc
       -0.06449654 -0.023407996 -0.12350289 -0.030085433
0000e0 3a 1e 3f 3d b7 37 86 bd dd d7 4a 3e 44 30 2e bd
       0.046659686 -0.065535955 0.19808908 -0.0425265
0000f0 e3 04 4a be 9c f1 bb 3c a7 c8 3c bd cd f5 2d 3e
       -0.19728427 0.022942357 -0.046089794 0.16988297
000100 d8 71 29 be cb 82 68 bd 72 db cd be 50 4a c8 bd
       -0.16547334 -0.05676536 -0.40206486 -0.09779799
000110 4d 5c 74 3d 9c df a2 3d 23 7c b8 3b cc 1f 8e 3e
       0.059658337 0.07952806 0.0056300326 0.27758634
000120 7c fe 6a be 95 f0 2c 3e b8 74 6f 3e 2e 8b 26 3d
       -0.2294864 0.1688865 0.23384368 0.040660076
000130 ef e0 45 be 3d 3d 7c be 2e 54 37 3e 72 10 c7 3d
       -0.19324087 -0.24632736 0.17903206 0.097199336
000140 f7 ae 05 3e 8b e5 4c 3c a2 e2 88 3d 95 ae 54 bd
       0.13055025 0.012505899 0.06683852 -0.051924307
000150 29 d5 14 be 40 d2 3a 3d 58 d7 d6 3c 40 5b f6 3d
       -0.14534439 0.045610666 0.02622573 0.12029123
000160 e5 00 c5 3d bd 06 82 be 77 51 90 3d 41 09 3e be
       0.09619311 -0.25395766 0.07046788 -0.18558218
000170 c0 90 5a bd 5b f7 a9 3d 99 8d 76 be d2 93 f3 bd
       -0.0533607 0.082991324 -0.24077453 -0.11893429
000180 cb cd 38 bd 6f ac 03 3b c4 d6 e0 3d 1f 22 37 3e
       -0.045118134 0.0020091792 0.10978463 0.1788411
000190 f5 63 0a 3e 8c 07 62 3e f9 9a 1f bc b6 02 a1 bd
       0.13514693 0.22073191 -0.009741538 -0.07861845
0001a0 f6 d5 34 3e dd bc 15 3d a9 c8 85 be eb 5b 47 be
       0.17659745 0.036557067 -0.26129654 -0.19468658
0001b0 31 b5 30 3e 21 fa 2f be 4c 82 15 bd 25 93 b9 bd
       0.17256619 -0.1718526 -0.036501214 -0.09061269
0001c0 1a e3 8b bd bd 35 ea bd 16 f6 ea 3d 22 92 5e 3e
       -0.068304256 -0.11436031 0.114727184 0.21735433
0001d0 06 5f 26 be 1a 7f 03 3e f2 b3 58 3e 12 d1 5b bd
       -0.16247186 0.12841454 0.21162394 -0.05366618
0001e0 09 11 c2 bd a2 ae 76 be 9c 94 03 be 1a 8b b4 bd
       -0.094759054 -0.24090055 -0.12849659 -0.08815594
0001f0 ee 09 ec 3c 88 a2 d9 3d 3d 2e 31 3d 37 ba 89 3e
       0.028813329 0.106267035 0.043256987 0.26899883
000200 63 af 2f 3d 53 cd 56 3d 78 33 b9 3c bf ef 0c bd
       0.04289187 0.052441906 0.02260755 -0.034408327
000210 a3 67 28 3e 0c d5 04 3d 3c 51 80 be c6 82 15 be
       0.16445784 0.03242974 -0.25061977 -0.14600667
000220 68 ec cd bd 91 a1 34 3d 57 ba 61 bd 91 13 45 be
       -0.100548565 0.044099394 -0.05510935 -0.19245745
000230 ef 04 41 3e 77 18 0b 3e 35 81 1a 3e 1a 1c a9 3d
       0.18849538 0.13583551 0.15088351 0.08257313
000240 4c 45 49 3e be e2 8e bd 77 de 3a 3e 76 6d 76 3e
       0.19655341 -0.069768414 0.18248926 0.24065194
000250 bb 0b 40 3d 31 93 43 3e 1e 8c 45 be 69 ef 8d bc
       0.046886187 0.19099118 -0.19291732 -0.017326074
000260 40 01 33 3e 97 81 e2 bd c5 8b 1e be 28 e5 2c 3e
       0.17480946 -0.110598736 -0.15483005 0.16884291
000270 31 0c 63 3e d5 ff 28 3e d7 88 ba 3d ba c7 6b bd
       0.2217262 0.16503842 0.091081314 -0.05756352
000280 d8 43 89 be b2 cb 93 3d 84 ba 22 bd bc 3e 35 be
       -0.26809573 0.07216586 -0.039728656 -0.17699713
000290 cc 55 82 3e a0 01 63 3e 00 5b 23 be b1 07 07 bd
       0.25456083 0.22168589 -0.15952682 -0.03296632
0002a0 44 33 e2 3d c0 3c 96 be 61 99 ad 3d fe a1 02 3d
       0.110449344 -0.29343224 0.0847652 0.03189277
0002b0 18 69 cd ba 2b c3 e3 bd 25 17 e8 bd 8f 74 10 3e
       -0.0015671579 -0.1112121 -0.113325395 0.14106964
0002c0 6f 48 57 3e 21 ec 3a 3e bc 38 26 be 0c 13 ad be
       0.21023725 0.18254139 -0.1623258 -0.33803594
0002d0 ae a3 3b 3e 80 83 03 3e 72 e4 fe bd 94 3d 66 3c
       0.18324158 0.12843132 -0.12445916 0.014052767
0002e0 27 d8 65 3e a1 bb a9 3d 7a 57 d8 bc c0 7f 03 3e
       0.22445737 0.082877405 -0.0264089 0.12841702
0002f0 ea 88 85 bd 45 84 90 bd 3b b5 61 bd 15 c7 ff 3b
       -0.06520255 -0.070564784 -0.055104475 0.007805715
000300 6a ec 3b 3e 1e fc 9c bd b5 0f 91 be e8 95 ef bd
       0.18351904 -0.07665275 -0.28332296 -0.11698514
000310 ec db 34 3e 7c 6d 38 3d 3c d6 0b 3d b9 c4 c5 bd
       0.17662019 0.045026287 0.034139857 -0.096566625
000320 5d 2e 25 be 8a 30 e1 3d 73 fe 03 3e 87 9d 61 3e
       -0.16130967 0.10995586 0.12890033 0.22032748
000330 e7 7a 04 3e cd e3 33 3e 0a a8 4c be 56 cd 3f be
       0.12937509 0.17567368 -0.19985977 -0.18730673
000340 61 96 97 bd 82 8f 4d bd d8 c0 82 be e1 19 5c 3e
       -0.074017294 -0.050185688 -0.25537753 0.21494247
000350 2f 4d 16 bd ee 9a 58 3d ce f1 25 3c 12 e7 65 3e
       -0.0366947 0.052882127 0.0101284515 0.22451428
000360 37 25 e1 ba 1f c3 40 3e c8 f7 40 3b 90 3f 48 3e
       -0.0017177229 0.18824433 0.0029444564 0.19555497
000370 01 9b 13 ba 3a 70 99 be 16 c2 5b be b3 73 a0 bd
       -0.00056307024 -0.29968435 -0.21460757 -0.07834568
000380 a3 a6 90 be 1c 33 ff 3d 36 f8 74 be 34 06 68 3c
       -0.28252134 0.1246092 -0.2392281 0.014161635
000390 2c a6 df bd cf aa fd 3d 87 27 46 be 3a 50 9d 3d
       -0.10920367 0.12386095 -0.19351016 0.076813176
0003a0 9e dc 23 be 55 db 25 3e 7c 48 39 bd 6c fc 73 3b
       -0.16002128 0.1619695 -0.045235142 0.0037229313
0003b0 d4 e4 63 bd e9 04 21 bd 72 cf 8a 3d 03 07 8f be
       -0.05563815 -0.039311323 0.06777848 -0.27935037
0003c0 96 a8 71 3c 91 18 3e 3c b2 32 bc 3b 5a c7 da 3d
       0.014749667 0.011602537 0.005743348 0.106825545
0003d0 1a 3d 76 3e 50 e9 a9 3c 8e c2 61 be dc a6 50 bd
       0.24046746 0.020741135 -0.22046873 -0.05094038
0003e0 7b 28 64 3e 36 15 2a be 85 02 af 3d da b1 ee 3d
       0.22281067 -0.16609654 0.085454024 0.11655016
0003f0 6f 26 08 3d ac 46 1b bd 21 69 b7 bd 00 8c 9e 3d
       0.033239778 -0.037909195 -0.089555986 0.07741547

model.gnn.gnn_layers.0.graph_conv.bias f4 [64]
000000 c9 b9 62 3c fc dd d6 bb 57 b0 97 bc 2e 29 c4 3c
       0.01383824 -0.0065572243 -0.018516703 0.023945417
000010 23 d1 30 3b 29 e8 fb bc 33 39 d7 bc 61 b2 da bb
       0.0026980124 -0.030750351 -0.026272392 -0.0066740965
000020 b6 23 9e 3c d9 00 98 bc e7 be 06 bd 5f 0c 36 bb
       0.019304138 -0.018555092 -0.032896902 -0.002777837
000030 6c bb 35 3c 3e 29 42 bc 44 41 e2 bc f1 64 72 3c
       0.011092048 -0.011850653 -0.027619012 0.014794574
000040 e3 b0 4a bc 91 d8 21 3d bb a4 15 bd da f5 1a 3c
       -0.012371275 0.039513174 -0.036534052 0.00945803
000050 9d 69 8e bb 66 27 c9 ba ae 6c ee ba b4 92 41 bc
       -0.004346086 -0.0015346825 -0.0018190348 -0.011814762
000060 04 3c c1 3a 33 3e 17 bd 76 58 da 3b c2 de 8b bc
       0.0014742617 -0.036924552 0.0066633774 -0.017073993
000070 8a 95 ee ba 8d 9e 3b 3c 41 8b a6 3d 79 e6 73 bb
       -0.0018202525 0.011451376 0.08132029 -0.003721623
000080 cb cd 8f bd ec fc ed bb b1 86 03 3d d9 92 c6 bb
       -0.07021674 -0.0072628167 0.032110874 -0.006059986
000090 93 3e 35 bc 4b fb b5 bc 2d ec 8b bc 55 04 fd 3c
       -0.011062282 -0.022214552 -0.01708039 0.030885855
0000a0 bf ad 2f 3c 82 14 d2 3c ef 82 4c 3c 0f 7d ef ba
       0.010722577 0.025644545 0.012482389 -0.0018271523
0000b0 6b 47 16 bd 9b 79 13 bc 98 63 ff bc ef e2 03 bd
       -0.036689203 -0.009001161 -0.03117542 -0.032198843
0000c0 3a 17 38 3b 28 e3 a3 3c b0 55 85 3c 89 d9 2f 3d
       0.0028090016 0.020005777 0.01627621 0.042932067
0000d0 10 d0 67 3c d8 48 3f bc 7a 75 d9 3c f3 43 a3 bc
       0.014148727 -0.011675082 0.026545275 -0.019929862
0000e0 8e 3f a3 bc 6e dc e4 3b b2 a4 5d 3b 1d f5 fc 3b
       -0.019927766 0.006984285 0.003382009 0.0077196495
0000f0 06 3f 03 bd a3 f2 f9 bc ae e7 cd bb b1 d6 cd bc
       -0.032042526 -0.030511206 -0.006283722 -0.025126787

model.gnn.gnn_layers.0.res_connection.weight f4 [64, 30]
000000 78 ff fa 3c 2a f9 a8 bc e7 ea c9 3d 9b 22 e5 3d
       0.030639395 -0.020626623 0.09859257 0.11188241
000010 0c 12 45 3e 59 06 f8 3d dc ce 5c bc 05 67 df ba
       0.19245166 0.12110586 -0.0134770535 -0.0017044252
000020 bb b5 ae 3d d7 32 3d be 57 9a c2 3d 02 06 3a be
       0.08530756 -0.18476425 0.09502094 -0.18166354
000030 5e 05 57 be 91 a6 96 3d 1c c9 44 3e 95 a5 e0 bd
       -0.20998141 0.07355989 0.19217342 -0.10969082
000040 c9 c4 e0 bd 48 d4 a5 bd 25 c7 93 3d 95 db 9e bc
       -0.10975034 -0.0809713 0.07215718 -0.019391814
000050 96 f7 8c bd 3d 35 97 bc 09 82 42 3e 93 b6 b3 3c
       -0.06883161 -0.018458003 0.18994917 0.021937644
000060 f8 bf e7 3c 6f cd 74 bd f3 ed 36 3e 48 50 48 be
       0.02828978 -0.05976623 0.17864208 -0.19561875
000070 92 82 bd bc 68 9e 18 3e d2 1f bd 3d 68 ce 8b 3d
       -0.02313355 0.14904177 0.09234585 0.06826478
000080 e5 64 11 be 37 89 06 be 0a b7 aa 3c 5f 4a 03 3e
       -0.14198644 -0.13138281 0.020839233 0.12821339
000090 90 5a cb bd 20 0f 6e bd 2b 15 aa 3d 5c 6f ff bd
       -0.09929383 -0.058119893 0.08304819 -0.12472412
0000a0 0e 67 3d bd 57 8f 6a be 85 ba 73 3d 65 f7 f7 bd
       -0.04624086 -0.22906242 0.05950405 -0.12107734
0000b0 02 41 b0 3d d6 63 75 3d 62 cc 23 bd 82 72 fa bd
       0.08606149 0.059909664 -0.039989837 -0.12228872
0000c0 48 d7 7c 3d 95 79 b4 bd 9b 1a 25 3e 7c 89 00 3e
       0.061728746 -0.088122524 0.1612343 0.12552446
0000d0 11 87 1b be 91 30 c3 bd 66 15 16 3e ca f8 f4 3c
       -0.15188242 -0.09530748 0.146566 0.029903788
0000e0 23 7f d6 3d a0 29 fb bd d4 15 7a 3c be 4b 4f 3a
       0.10473468 -0.12263799 0.015263993 0.000790771
0000f0 6f ba 66 3d e1 70 7e 3c b7 2d f0 3c 8e e9 a0 bd
       0.05633014 0.015529842 0.029318674 -0.07857047
000100 c8 08 06 be 2e 6c 14 be fe ce 09 be 20 b2 85 3d
       -0.13089287 -0.14494392 -0.13457868 0.06528115
000110 ce 02 e2 3d ab 69 b1 3d e6 36 2f 3e f2 4d 63 3d
       0.11035691 0.08662733 0.17110786 0.055494256
000120 86 48 05 3e 82 ca 0f 3e d9 c2 61 3e 56 c0 37 be
       0.13015947 0.14042094 0.22046985 -0.17944464
000130 9b 46 2e bd ca d0 09 3e 2d e1 c7 3d a3 eb 2a 3e
       -0.042547803 0.13458553 0.09759746 0.16691451
000140 1c 8e 00 3d b0 c2 1b be fb 02 a2 3d 07 d5 23 be
       0.031385526 -0.15210986 0.07910725 -0.15999232
000150 dd 69 d9 bd c8 bd 08 3e 59 f3 bd 3c cf 83 99 3d
       -0.10615895 0.13353646 0.023187326 0.074958436
000160 b8 44 e6 3d 6e df 96 bc 63 10 05 3d 3d 25 46 3e
       0.11243576 -0.018417086 0.03248633 0.19350143
000170 47 f1 13 3d 5b 35 ba bd 1b 2a 5f be 55 d4 cc 3c
       0.036118772 -0.09092208 -0.21793406 0.025003592
000180 66 ac 5b 3c 5e 27 6d 3e b5 6e 1c be 00 b4 19 be
       0.013407802 0.23159549 -0.15276606 -0.15010071
000190 58 cc 06 be 52 9e fe bd 44 c6 14 3e f8 d0 9e bd
       -0.13163888 -0.12432541 0.14528757 -0.077547014
0001a0 33 4a 22 be 44 cb da 3c f4 a8 c1 3d 33 06 ed 3d
       -0.15848617 0.026708253 0.094560534 0.11573448
0001b0 f4 43 2e bc eb 60 69 3e c1 56 27 be e4 a0 11 be
       -0.0106363185 0.22790878 -0.16341688 -0.14221531
0001c0 8c d6 13 3c aa 45 54 bd 03 d5 80 3d 6e c4 57 be
       0.00902332 -0.05182425 0.06290629 -0.21071026
0001d0 bd a3 4d be d5 66 f9 3d da 67 06 be cf e3 86 3d
       -0.20081992 0.12177817 -0.13125554 0.0658642
0001e0 ee e4 96 bc 29 e7 72 3d 30 19 8c 3d 34 ac ba bd
       -0.018419709 0.059302483 0.06840742 -0.091148764
0001f0 1b b4 f5 bd dd a3 95 bd bc 8e 04 be d8 6c 85 3c
       -0.11997243 -0.07306645 -0.12945074 0.016287252
000200 0c 6b 3d be 66 0c 0d 3e ce 12 88 bd a4 e3 95 3c
       -0.18497866 0.13774261 -0.06644212 0.018297024
000210 74 79 f4 bd bc 7e 0b bd 01 77 93 bc 7a ee dd bc
       -0.11937228 -0.03405641 -0.018001081 -0.027091254
000220 69 ea e1 bd c1 2c d5 3d 32 49 6f 3e 78 56 c9 bd
       -0.11031038 0.10408927 0.23367766 -0.09830946
000230 62 de 06 3e 38 2d 3a bd 17 1c d8 3b 29 70 72 3c
       0.1317077 -0.04545328 0.0065951454 0.014797249
000240 dd 53 ea 3c 53 88 f5 bd 8d ce 0b 3d 93 0d 16 3e
       0.028604442 -0.119888924 0.03413253 0.14653616
000250 4c de 01 be c6 e0 e9 3d 68 74 02 3e 83 1e f7 bd
       -0.12682456 0.11419825 0.12739718 -0.120663665
000260 d4 35 58 bd 1f 44 d6 3b f9 83 24 be cd 7c 56 3d
       -0.05278571 0.0065388824 -0.16065969 0.052365113
000270 e8 7a 84 bd a1 9f c8 bd 09 c0 3a be fa 41 17 3e
       -0.06468755 -0.09796072 -0.18237318 0.14771262
000280 c2 10 2c be 18 79 ba bc 5f 6d cd bb 4a f8 a9 3d
       -0.16803268 -0.02276282 -0.0062691416 0.082993105
000290 08 f4 fd 3d 81 4b f2 bd 3a 91 17 3e b2 dc 24 3d
       0.12400061 -0.118308075 0.14801493 0.040249534
0002a0 dc 80 0b be 2d 3e 00 3e 02 b8 c1 bd 13 5b 1c be
       -0.13623375 0.12523718 -0.09458925 -0.15269117
0002b0 56 04 28 be 75 79 ea 3d 71 01 0d 3e 6e 98 3a bd
       -0.16407904 0.11448947 0.13770081 -0.045555525
0002c0 6a 41 48 bd 50 37 a1 ba d7 fc a8 3d 54 6b 30 3e
       -0.04889051 -0.001229981 0.082513504 0.17228442
0002d0 80 98 b6 3d 30 6e 10 be 10 2d f0 bd be 1e 14 3e
       0.08915806 -0.14104533 -0.11727345 0.14464852
0002e0 1d eb e1 bd 29 6b 17 be 66 a0 1a 3e be 16 fb 3d
       -0.110311724 -0.14786972 0.1510025 0.12260197
0002f0 eb 67 02 be 33 cc e1 3d 62 90 9b 3c 14 62 76 3e
       -0.12734954 0.11025276 0.018989746 0.24060851
000300 2b 70 9f 3d 6f f2 9e bd 74 8f 06 be 75 44 3b be
       0.07785066 -0.07761084 -0.1314066 -0.18287833
000310 83 02 fa bd 1e d2 2a bd 93 d4 0d 3e b2 b7 98 bd
       -0.1220751 -0.04170429 0.13850622 -0.07456912
000320 f2 d2 35 be 23 66 08 be 1b 1f 51 bd c6 b7 c5 3d
       -0.1775625 -0.13320212 -0.051055055 0.096541926
000330 b6 26 ba 3d 05 9b 29 be 17 ef d4 bd ae 10 ad 3d
       0.09089415 -0.16563042 -0.10397165 0.08450447
000340 53 64 02 3e de a5 73 bd 5d e3 1c be 48 1f 71 bd
       0.12733583 -0.059484355 -0.15321107 -0.058867723
000350 e4 6a 75 be 5a 84 1e 3e 22 e6 a2 3d f4 ba 74 3d
       -0.23966557 0.15480176 0.079540506 0.059748605
000360 92 59 cc 3d f8 03 ae 3c a2 bc 18 be 43 7d 88 bc
       0.09978022 0.021242127 -0.14915708 -0.016661292
000370 b3 3a 5d bc e5 06 19 3e b8 78 36 be cd 08 42 be
       -0.0135027645 0.14944036 -0.17819488 -0.1894867
000380 cd 9b 46 bd 2b 00 e3 3d fe 1b 8a be 55 87 ad bd
       -0.048488427 0.110840164 -0.2697448 -0.08473078
000390 e9 db 2e 3e 4e d4 b4 3d ac f7 a6 bd ad 39 2e bd
       0.17076077 0.088295564 -0.081527084 -0.042535473
0003a0 99 67 3b be bb ae 62 be 81 fc c3 3d a6 bd 3d 3e
       -0.18301238 -0.22136967 0.09569646 0.18529376
0003b0 3d 78 03 be d2 a1 e2 3d eb d6 25 be f1 07 39 3e
       -0.12838836 0.11066021 -0.16195266 0.18069436
0003c0 6a d7 a5 3d 2f f7 4e 3d 7e 4f 14 be c6 4f 37 be
       0.080977276 0.0505287 -0.14483449 -0.17901525
0003d0 62 c9 94 3d cb 61 5a 3d 48 4c 98 bd c3 89 1e be
       0.07264973 0.05331592 -0.074364245 -0.1548224
0003e0 56 1f 4f bd 02 f0 00 3e 97 b7 58 3d d3 7e ce bd
       -0.050566994 0.12591556 0.05290946 -0.100827836
0003f0 4c b1 2e be c7 0e a4 3d 03 3c ae bd d7 dd 9d bc
       -0.17059821 0.08010631 -0.0850754 -0.01927082

model.gnn.gnn_layers.0.res_connection.bias f4 [64]
000000 e3 ff 25 3d a7 79 a5 bd 3d ff 94 bd 3d 86 b0 bd
       0.040527236 -0.08079844 -0.07275245 -0.08619354
000010 e6 3e 01 3e fa d1 ac 3b 38 57 36 bd f9 ec 2f 3e
       0.1262165 0.0052740546 -0.044516772 0.17180242
000020 2c df 23 bc eb 77 f0 bd ca 24 27 bc 86 a8 3b bd
       -0.010001939 -0.117416225 -0.010201642 -0.045815013
000030 b9 c7 8d 3d 6c ac 80 bd da f5 d0 3c 82 5d 26 3e
       0.0692286 -0.06282887 0.025507856 0.16246608
000040 5c 88 db 3d 08 b4 56 3e b6 82 1c be e9 cf c8 bd
       0.10719368 0.20967114 -0.15284237 -0.09805281
000050 ca 78 bd 3d db ee 84 3c a6 d2 50 be 00 e5 01 3e
       0.09251554 0.016227176 -0.20392856 0.12685013
000060 1e d8 1c be 6d 10 bb 3b 02 94 1c be e0 44 0d bd
       -0.15316817 0.005708745 -0.15290835 -0.034489512
000070 80 62 8e 3d 90 ae f5 bd 44 aa 82 bd 57 93 ea 3d
       0.06952381 -0.11996186 -0.06380132 0.11453884
000080 08 71 0b be e8 21 1c 3d c3 20 4a 3e 60 6f 48 bd
       -0.13617337 0.038118273 0.1973906 -0.04893434
000090 20 18 1f 3e 21 a4 17 be 29 94 05 be b6 01 2d 3d
       0.15536547 -0.14808704 -0.130448 0.04223796
0000a0 f4 eb 01 3e 6d f9 12 be 5e 56 ef 3d 11 de 3e 3d
       0.12687665 -0.14352961 0.11686395 0.046598498
0000b0 cd e9 10 be 5e 33 a0 bb e3 5c 47 3e c5 67 6c 3d
       -0.14151688 -0.004888936 0.19469027 0.05771615
0000c0 fd 92 c2 3c 6f 29 19 3e 77 01 e3 bc 8e 2d cc 3d
       0.02375173 0.14957212 -0.02771066 0.09969626
0000d0 8f 27 c8 bd ed 31 05 3d c7 1c a1 bd 86 00 29 bc
       -0.0977317 0.032518316 -0.07866817 -0.010315066
0000e0 03 70 48 be 17 28 93 bc f6 2c d3 bd be 80 25 3c
       -0.19573979 -0.017963452 -0.1031131 0.010101495
0000f0 e6 97 31 be 00 87 43 3d cf 3f 20 3e ca 52 4d 3d
       -0.17343101 0.047736168 0.15649341 0.050127782

model.gnn.gnn_layers.1.graph_conv.weight f4 [64, 64]
000000 5f 7b 69 3d 41 02 70 be 0c 67 20 3e 29 49 45 3e
       0.05700242 -0.2343836 0.1566431 0.1926619
000010 83 b2 23 be 91 76 37 be 71 6f 15 be 41 52 75 3e
       -0.15986066 -0.17916323 -0.14593293 0.23957159
000020 ac c8 24 be b2 98 e3 bc 10 d8 db 3d f2 4b 83 bc
       -0.16092175 -0.027782772 0.1073457 -0.016027424
000030 81 1c 8e bd 9a 8c 13 3d 84 f9 1a be b9 c7 d1 bd
       -0.069390304 0.03602276 -0.15134245 -0.10243172
000040 3a cf d2 bc 46 2e 3a 3d 54 d9 e6 bc dc cb ac bd
       -0.025733579 0.045454286 -0.028179802 -0.084373206
000050 f9 9b 2a be 5f f8 c4 3c 1c d3 78 bd 89 52 61 be
       -0.16661061 0.024044214 -0.060748205 -0.22004141
000060 36 2b 85 3d ab 26 89 3d d2 5c 9c 3d d6 9e 0e 3e
       0.065023825 0.066968285 0.076348916 0.13927779
000070 b1 48 ce 3a 6f 3f 58 3d ac b8 30 3e be dd 27 be
       0.0015738216 0.05279487 0.17257947 -0.16393182
000080 2a 62 a7 bd bb e2 94 bd 24 9b d9 3c 15 7f 97 bd
       -0.0817302 -0.07269808 0.026563235 -0.07397286
000090 42 e4 ca 3d 1d 49 0f be 15 af 48 bd 4a 57 44 be
       0.09906818 -0.13992734 -0.048995096 -0.19173923
0000a0 d3 4f 53 be 52 ca 35 be d5 8f d0 bd 38 60 23 be
       -0.2063592 -0.1775296 -0.10183684 -0.15954673
0000b0 8a 07 61 3e 36 02 b1 bd 1b 37 c9 3d 4a a5 4f bd
       0.21975532 -0.08643 0.09824964 -0.05069474
0000c0 48 9f 11 bc ce 10 ce 3d 86 0e dd 3d 44 bd 00 3e
       -0.008888073 0.10061799 0.10793786 0.12572199
0000d0 0f 32 15 3d 87 d5 5b be bc 6e 37 be cb d5 22 be
       0.036424693 -0.21468173 -0.17913336 -0.15901868
0000e0 01 86 8e bc 4d e7 1f be 6c b2 3e 3d 55 75 bc 3d
       -0.017397882 -0.15615578 0.046556875 0.09202067
0000f0 04 27 4e 3e 08 81 3f be 19 00 11 bd 63 d3 26 3e
       0.20132071 -0.18701565 -0.035400484 0.16291575
000100 21 80 c4 3d 9a 7d 08 be 14 87 9a 3d 91 ee d1 bd
       0.09594751 -0.13329163 0.07545295 -0.10250581
000110 aa 5e f0 bd d2 0e 3c 3d 06 17 3b be dc ab 03 bc
       -0.11736806 0.04591257 -0.18270501 -0.00803658
000120 82 ab 1e be 07 a1 ea 3d 24 db 33 3e c9 c4 c6 bd
       -0.15495113 0.11456495 0.17564064 -0.097055025
000130 ee 75 fc bb f7 03 46 be b3 f9 c2 3c d7 a0 83 bd
       -0.007704488 -0.1933745 0.023800706 -0.06427162
000140 4e 39 ca 3d 17 d3 03 3e e0 b7 18 be f9 5f df b9
       0.09874211 0.12873493 -0.14913893 -0.0004260538
000150 81 57 e7 bd 70 70 51 bc ed a4 30 bd 17 ae 3b 3e
       -0.11295987 -0.012783155 -0.043126035 0.18328129
000160 2b 21 45 3d 46 dc 34 be 4f 5d 1e 3d 73 c9 17 3e
       0.048127335 -0.17662153 0.038663205 0.1482294
000170 a7 29 10 be 84 5e 3b 3e 61 d8 0e bd 5d 8b b1 bd
       -0.14078389 0.18297774 -0.034874324 -0.086691596
000180 83 96 5d be 0b 7e 1c 3e 89 34 42 3c 56 64 eb bd
       -0.21639447 0.15282457 0.011853346 -0.11493747
000190 95 1a ca 3b 19 5e 21 bc 1d 52 9b bd d7 d5 c0 3d
       0.0061677196 -0.009849095 -0.07584021 0.09415787
0001a0 c6 52 04 3e ff 14 01 bd 93 ba 11 be 0f e5 1f bd
       0.129222 -0.031514164 -0.14231329 -0.039036807
0001b0 ed 08 f2 bd 2d 76 fd bb b5 7b 1b be e0 2b 4b 3d
       -0.11818109 -0.007735035 -0.15183909 0.04960239
0001c0 c9 34 99 bd 6b 85 43 3e bb a3 ff bd 2b 45 db bc
       -0.07480771 0.19093864 -0.12482401 -0.02676638
0001d0 ea e5 07 be 6d b9 43 3e 17 7e 4b 3d 58 f6 49 be
       -0.13271299 0.19113703 0.049680796 -0.19722879
0001e0 3d e7 a7 bc 40 59 18 be e5 9b d9 3d d5 87 8a 3d
       -0.020496005 -0.14877796 0.10625438 0.06764189
0001f0 31 1b 49 3e 24 65 c9 3c ff 78 dd 3d 74 8f 55 be
       0.19639279 0.02458436 0.10814094 -0.20855504
000200 d3 a4 c7 3d a0 b7 50 3e 3b e7 07 be 05 35 cd 3c
       0.097482346 0.20382547 -0.13271801 0.025049696
000210 98 11 86 bc b6 e7 b9 3c df 42 10 be 0d b1 61 3e
       -0.016365811 0.022693496 -0.1408801 0.22040196
000220 cf 08 4e 3e e8 da d0 bd ae 27 55 3c 15 f2 4e be
       0.20120548 -0.10198003 0.013009949 -0.20209534
000230 65 5a 02 3e 7a 7e b2 3c 65 b2 1f 3e f8 af 83 bc
       0.12729795 0.021788824 0.15595396 -0.01607512
000240 dc 82 36 3e 97 a3 83 3d 9c 37 9b 3c ce df f9 bd
       0.17823356 0.06427687 0.018947415 -0.122008905
000250 5d 6b 32 be 7d 35 1d 3e 7c 9f 91 3d a0 6d 43 3e
       -0.17423768 0.15352435 0.07110497 0.19084787
000260 07 6a 59 be 6e c6 33 be e4 3a 14 3e f6 70 92 bb
       -0.21231852 -0.17556164 0.1447559 -0.0044690324
000270 7c a3 a9 bd e8 89 03 3e 04 45 42 bd 3b cf 44 3e
       -0.08283135 0.12845576 -0.0474291 0.19219677
000280 f1 58 1f 3e 88 bb 4b 3d bb 88 73 bd 4e 43 d2 3d
       0.15561272 0.04973939 -0.05945657 0.102667436
000290 5b cc a7 3d 9a 9a 17 3e dd fd 26 3d c8 f5 0b 3c
       0.081932746 0.1480507 0.040769447 0.008542486
0002a0 ff 2e 55 be e1 83 8c 3d 8e 34 fd 3d 4c 57 1a 3e
       -0.20818709 0.068610914 0.1236354 0.15072364
0002b0 94 03 84 3e 04 b7 39 be 59 9b a9 bd 0e b6 c5 bd
       0.2578398 -0.18136221 -0.08281583 -0.09653865
0002c0 9f f8 e3 3d 13 b3 ca bd 4d b9 ba bd d2 b3 1a 3e
       0.11131405 -0.09897437 -0.091173746 0.15107659
0002d0 64 84 87 3d 90 c7 40 3e b0 e1 22 3d dd a1 1c bd
       0.066170484 0.18826127 0.039766014 -0.038240302
0002e0 56 05 4b be 5f ae dc ba f5 e3 42 3e 0d 26 44 be
       -0.19826254 -0.0016836635 0.19032271 -0.1915514
0002f0 8e e3 3c be 36 d4 8f 3d 1e f1 96 bd 3c 2c f1 3a
       -0.1844618 0.07022898 -0.07370208 0.0018400024
000300 a8 63 a1 bd 39 19 92 bd 21 3c 88 bd 74 1f 2b 3e
       -0.07880336 -0.07133717 -0.06652094 0.16711217
000310 93 07 40 be 5f a3 2f be 5f 63 12 be e3 23 57 be
       -0.1875289 -0.17152165 -0.1429572 -0.21009783
000320 82 8d 10 bc c2 bc de bd af 25 0b 3e 77 62 5e bd
       -0.008822801 -0.108758464 0.13588594 -0.054293122
000330 95 89 17 3e 30 7e 0b bd cb 70 4a be 20 d6 26 3e
       0.14798577 -0.03405589 -0.1976959 0.1629262
000340 2b 44 2b 3e 17 9c af bd 4d a4 a2 3d 89 f2 30 be
       0.16725223 -0.08574694 0.07941494 -0.1728002
000350 fd e2 61 bd 7c 57 2b 3e 5c 8f 3b 3e 48 aa 81 bc
       -0.055148114 0.16732591 0.18316406 -0.015828267
000360 0f 70 e4 3d e5 48 15 be fd e3 ed bd 5c 16 4f bd
       0.11154186 -0.14578588 -0.11615751 -0.050558433
000370 aa 11 ba bb 0c 31 2f 3d c2 d0 5e 3e 02 3c c6 ba
       -0.0056783753 0.042771384 0.21759322 -0.0015124085
000380 93 94 7b b8 72 3f 24 be 7c 97 0c be 4d bf 63 be
       -5.9981434e-05 -0.16039827 -0.13729662 -0.22240944
000390 4e 7b 65 3c 3d dc 10 be 22 fc b6 3d 30 4a e2 bd
       0.014006449 -0.14146514 0.08934809 -0.110493064
0003a0 c7 1f 22 be 0c d3 84 3c 14 38 9e bc ab 05 60 be
       -0.15832435 0.016213916 -0.01931385 -0.21877162
0003b0 9a 15 00 bc e9 6b fd bd f0 1d b8 bb 0b 87 58 3e
       -0.00781765 -0.12374098 -0.005618803 0.21145265
0003c0 35 5f 2a 3e e3 1a 26 bd 5e 18 5f be c7 b4 4c be
       0.16637881 -0.040552985 -0.21786639 -0.19990836
0003d0 c3 93 1c 3e c9 90 b2 bd 0d 9d eb bd ee 9d 97 bd
       0.15290742 -0.08719022 -0.115045644 -0.074031696
0003e0 a2 39 ad bd 70 5f b9 3a 2c ad 2e be 2d 1d 8b 3d
       -0.08458258 0.0014142822 -0.17058247 0.06792674
0003f0 20 0c 40 be 2d c8 31 be fa 41 55 bd 55 19 9c bd
       -0.18754625 -0.17361517 -0.052064873 -0.07622019

model.gnn.gnn_layers.1.graph_conv.bias f4 [64]
000000 04 20 bf bc ed ef 98 3c 00 00 00 00 4e 6d 19 3c
       -0.023330696 0.018669093 0.0 0.009364439
000010 8e d9 be bc 59 60 97 3c 50 fa 6e 3c c8 1d 87 3c
       -0.023297098 0.01847856 0.014586046 0.016493693
000020 eb 88 9e bc 2c 2f 5f bc 7a bf df bc 4e 2c 9d bc
       -0.019352397 -0.0136220865 -0.027312983 -0.019186165
000030 42 2b b6 bb b6 20 6b bb 00 00 00 00 18 89 4b 3d
       -0.005559356 -0.0035877652 0.0 0.04969129
000040 08 b0 a9 3b 98 59 00 bd 98 48 88 bc d2 77 2e bb
       0.0051784553 -0.031335443 -0.016636178 -0.0026621711
000050 1d 29 2e bb f3 88 cc 3d a8 ff cb bb b8 26 6c bc
       -0.0026574798 0.099870585 -0.006225545 -0.014413528
000060 89 c1 4a 3c 7f 8a d4 3c 67 67 9e 3c f0 5d f5 3a
       0.012375244 0.025944946 0.019336415 0.0018720012
000070 59 1a 2e bc aa 2f e5 ba f1 bc 9b 3c 35 be 96 bc
       -0.010626399 -0.0017485518 0.019010993 -0.018401245
000080 00 00 00 00 36 46 4b bc 7f 8d d2 3c 00 e6 3f bd
       0.0 -0.012406876 0.025702236 -0.046850204
000090 46 86 13 bd 8a 8c 05 3d 41 db 09 bc 45 07 8d bc
       -0.036016725 0.03260473 -0.008414091 -0.01721538
0000a0 64 98 a0 bc aa 50 32 3b 71 4c a6 3c 28 c7 49 3b
       -0.019603916 0.0027208724 0.020300122 0.0030788872
0000b0 24 3a 44 3d f5 32 a2 bc 68 fc 06 bd c5 df 28 bb
       0.04790701 -0.019799689 -0.032955557 -0.0025768143
0000c0 fb 75 9f bc 0c 93 c7 3c cc 20 2a bc 96 83 84 3b
       -0.019465437 0.02436211 -0.010383796 0.0040440066
0000d0 9c 03 da bb 68 4a 02 bd 00 b2 16 3d 08 44 e7 bb
       -0.0066532623 -0.03180924 0.036790848 -0.0070576705
0000e0 c3 1d 21 bd 5b b9 ac bb 72 5c ca bc d0 f3 f5 bc
       -0.039335024 -0.0052711195 -0.024702284 -0.030023485
0000f0 0a ca a2 bc c3 4c 12 bd c2 66 5a 3b f4 9f 6f bc
       -0.01987173 -0.035717737 0.0033325409 -0.014625538

model.gnn.gnn_layers.1.res_connection.weight f4 [64, 64]
000000 9c 64 cb bc ac fe 26 bd 3b b4 95 3d cc e2 c4 3d
       -0.024828248 -0.040770218 0.07309767 0.096135706
000010 8f 6f a3 3d e9 47 41 bd 51 ca d4 3d 8e 98 14 be
       0.079802625 -0.04718772 0.10390151 -0.1451132
000020 f5 65 10 be 49 14 fa bb 1a 48 b5 bd 37 d9 bc 3d
       -0.14101394 -0.0076318127 -0.08851643 0.09221118
000030 4c 6c 2d be ec 9a 10 3d 97 5f 3d bd 6b 24 e3 3c
       -0.16935843 0.035303995 -0.04623374 0.027727326
000040 07 81 ff bc 81 c2 4f 3c d1 ef 46 3d dc 64 af bd
       -0.031189455 0.012680651 0.04856855 -0.08564159
000050 e0 4e 4a bd 4e cd dc 3c 2e 2c e5 bd d7 bf 3c bb
       -0.049391627 0.026953366 -0.11190067 -0.002880087
000060 a5 9a 82 3d 62 76 f8 ba 92 f1 7d bd e8 29 0f 3e
       0.06377152 -0.0018956179 -0.061997958 0.1398083
000070 fa f6 a8 3d 17 cd b6 3d 96 ae 4b bd be af 02 bd
       0.08250232 0.089258365 -0.049727045 -0.031905882
000080 11 86 84 bd 09 7c b3 3d cc 75 c5 bd 03 48 a6 3d
       -0.06470884 0.08763892 -0.096416086 0.08119204
000090 c9 65 a0 3d fd ba 21 bd 5c 7a 01 3e 00 a4 42 bd
       0.07831914 -0.039484967 0.12644333 -0.047519684
0000a0 4f a1 4e bd b4 07 c6 bd 2e 6d fa bc 6a 85 77 bd
       -0.050446805 -0.09669438 -0.030569639 -0.060429968
0000b0 bd 21 cd bb 1d 38 b2 3d 1f be db bd b6 ae fe 3d
       -0.0062601254 0.08702109 -0.10729622 0.12435667
0000c0 38 ce e8 bd c3 f6 b1 bd e8 0c a2 bc 06 e9 bf bd
       -0.11367458 -0.08689644 -0.019781545 -0.093706176
0000d0 fd cd 07 be 91 f2 c7 3d 84 53 4e 3d a3 c9 1c 3d
       -0.13262172 0.09763063 0.050372615 0.038278233
0000e0 a9 72 24 38 6b bd e1 3d c1 68 b3 3d 10 db 9a 3d
       3.9207433e-05 0.11022457 0.087602146 0.07561314
0000f0 a4 da d3 3a 94 ae b8 3c 67 cf 19 bd 5a ff de 3d
       0.0016163182 0.022544183 -0.03755131 0.10888548
000100 ba 3c 9d bd 98 53 d4 3d 14 bf ad 3d 2a cb 06 3e
       -0.07677598 0.10367507 0.08483711 0.13163438
000110 62 63 83 bd 8d 8c d4 3d 4a 68 02 3d 0f e9 f6 bd
       -0.0641544 0.103783704 0.03183774 -0.12056171
000120 28 66 b9 3d a4 67 8b bd fc ae 8f bd f4 f8 c9 bc
       0.09052688 -0.06806877 -0.070157975 -0.024654843
000130 8a 98 0b 3d a6 f6 c2 3d 2b af 93 bd 72 6d 1d 3e
       0.03408102 0.09519701 -0.07211145 0.15373781
000140 21 cd 9b 3c a8 eb a1 3d 3b 0e 86 bd eb 16 68 3c
       0.019018712 0.07906276 -0.06545683 0.01416562
000150 c5 7f 0c bd 60 2b 9e bd a1 35 12 bd c5 61 8b 3d
       -0.034301538 -0.07723117 -0.035695676 0.068057574
000160 ac f7 0c 3d 1e ef ae bd 55 b1 56 3c ad 51 23 3e
       0.034415886 -0.08541702 0.013103803 0.15949126
000170 4f 18 af 3d 7d 7f b6 bd 33 cf e5 bc 29 5f f4 bc
       0.08549558 -0.08911035 -0.028052902 -0.029830532
000180 50 89 42 3d d4 62 cc bd a1 27 05 3d 06 a8 ca bc
       0.047494233 -0.099797875 0.032508496 -0.024738323
000190 ac 9f 0e bc e8 ad e1 3d 06 24 78 3d 3c 54 a3 3d
       -0.008705061 0.11019498 0.06058123 0.07975051
0001a0 8e 86 1d bd e6 a9 e6 bd 60 93 ad bd d3 64 15 3c
       -0.0384584 -0.11262874 -0.08475375 0.009118277
0001b0 cf 62 18 bc ca 91 60 bb 5f 52 07 3e ba a8 33 3d
       -0.009300902 -0.0034266585 0.13215016 0.043862082
0001c0 d2 31 82 bc 33 5a 04 3d 41 0a 8a bd cd 32 83 bd
       -0.015892897 0.032312583 -0.06740237 -0.06406174
0001d0 7e 85 66 bc 96 bd 32 3d b9 32 69 3b ea 8e 74 bd
       -0.014069913 0.043637834 0.0035583212 -0.059706606
0001e0 e1 a4 b2 3d 24 b4 91 3d 7f be eb 3d 85 cd fd 3d
       0.087228544 0.07114437 0.115109436 0.12392715
0001f0 c7 27 04 3d 3b bd 24 3d ef 41 16 3e 72 c0 9f bb
       0.032264497 0.040219527 0.14673589 -0.004875236
000200 c8 16 de 3d f6 c3 f6 bd 21 32 ae 3d 94 f7 60 bd
       0.10844189 -0.12049095 0.08505655 -0.05492361
000210 b9 ea f2 3d 3c f8 0f bd f3 21 f3 bd 32 4d c3 3d
       0.11861176 -0.035148844 -0.1187171 0.09536208
000220 b2 9e 83 3b bc 78 de bc ff 5c 99 bd 5d b2 6b bd
       0.0040167207 -0.02715718 -0.07488441 -0.057543147
000230 8a d5 93 bd 08 b4 b2 bc 74 1c 8d bd 94 86 09 be
       -0.07218464 -0.021814361 -0.06890193 -0.13430244
000240 1e 04 7d bd 97 a5 ea bd 95 ef 7a 3d 35 a9 cd bd
       -0.061771505 -0.11457365 0.06126364 -0.10042039
000250 62 cc 8e 3d 08 94 bd bc 47 97 f0 bb 11 af 59 bb
       0.06972577 -0.023141876 -0.0073422524 -0.003321592
000260 67 a4 29 3d 00 c0 22 bc 2c a2 01 be 4b cf a6 bd
       0.041416552 -0.009933472 -0.1265952 -0.08145007
000270 1b d8 75 bb 61 31 b7 3d 30 92 21 bb 33 68 e3 bd
       -0.0037512842 0.08944965 -0.0024653785 -0.11103859
000280 a9 b6 9e 3d 3b d1 19 be 4b 12 b7 bc 21 b5 e1 bc
       0.077496834 -0.15021221 -0.02234759 -0.02755219
000290 d1 7b a9 3d 43 c1 cd 3d 77 1f a9 bd 9d 53 84 3d
       0.08275569 0.10046627 -0.082579546 0.064612605
0002a0 dc d1 ef 3d b2 f4 35 3d 33 f2 9d 3c 3d ca 47 bd
       0.117099494 0.044422813 0.019280529 -0.048776854
0002b0 e1 43 d1 3d 7f 35 5d bd 49 59 37 3d d0 01 c4 3c
       0.10218025 -0.054006096 0.044762883 0.023926646
0002c0 e7 31 fa bd ea ed 9f 3b d7 6c 9a bc 27 b8 47 bd
       -0.12216549 0.0048806565 -0.018850727 -0.048759606
0002d0 0b 76 82 bc 54 20 69 bd b5 c0 8a b9 33 a9 d6 bd
       -0.015925428 -0.056915596 -0.0002646499 -0.10481491
0002e0 61 01 26 3d c1 d6 0e 3d b3 c7 a3 bc c6 f2 cb 3c
       0.04052866 0.034872774 -0.019992685 0.024896037
0002f0 f1 18 2e bb de e4 2d bb 2b 1a fe bd 86 f7 29 3d
       -0.002656516 -0.002653412 -0.12407335 0.041495822
000300 6e 40 17 3d b1 18 6d bd 92 07 87 bd 0f 76 a2 bd
       0.03692668 -0.057884876 -0.06593241 -0.07932674
000310 f1 9b e5 3d c0 50 9d bd 23 fe 4e 3d 0b 99 7d bc
       0.11211384 -0.076814175 0.050535332 -0.015478383
000320 59 7d da 3b 3b 2e e2 bd 1e 1a 0a 3b ad 1e e3 3b
       0.0066677746 -0.11043974 0.0021072696 0.006931147
000330 2a 49 34 bd f0 2e 46 bd 63 1e d3 3c 78 a3 4a 3d
       -0.044015087 -0.048384607 0.025771325 0.049472302
000340 65 7b 06 3d 06 47 b6 3d 91 7d c5 3c e0 f1 5c bd
       0.032832522 0.089002654 0.024107726 -0.053941607
000350 4b df da 3d 35 c8 ed 3d 7e 67 0c be 3a 5b b7 3d
       0.10687121 0.11610452 -0.13711354 0.08952947
000360 39 62 3c 3d 6d 5c a3 bd a4 b9 bf 3c 43 be e2 3d
       0.04599211 -0.07976613 0.02340395 0.11071446
000370 34 85 d9 3d 7c c0 4b 3d 4c 65 d8 3d 6e c8 23 3c
       0.106211096 0.049744114 0.10566196 0.009996517
000380 a8 c8 9a bd fa 18 43 bd e6 6b 70 3d f9 e7 17 3e
       -0.075578034 -0.04763124 0.05869665 0.14834584
000390 85 b6 2b bd b8 c0 ee bd 40 c4 be 3d 95 b0 61 3d
       -0.04192211 -0.11657852 0.093147755 0.055100042
0003a0 30 5e 29 be 39 de 88 bd 97 0c 54 3d b8 f8 be 3c
       -0.16539836 -0.066830106 0.05176982 0.023311958
0003b0 73 2a 6f bd a6 ce b0 3c 88 30 7e 3d 98 86 22 3e
       -0.058390092 0.021582913 0.062058 0.15871656
0003c0 3c e3 fb 3c c4 2c 57 bd ca dc 8c 3d 6b 5f 04 be
       0.030748002 -0.052532926 0.0687805 -0.12927024
0003d0 3b 92 f6 bd 31 56 73 bb 94 5a 28 3e 56 71 d7 3d
       -0.1203961 -0.0037130232 0.16440803 0.10519664
0003e0 da 5e 88 bd d9 53 69 bd 3e bf a0 3d 91 7f 0d bd
       -0.066587165 -0.05696473 0.078489766 -0.034545485
0003f0 94 cc 00 3c cf c6 a5 3d f4 2d 36 3d 5c a7 2e 3d
       0.007861275 0.0809456 0.044477418 0.042640075

model.gnn.gnn_layers.1.res_connection.bias f4 [64]
000000 3c e7 21 3d 44 5e 6f 3d 51 46 1b bd 7e 54 f2 bd
       0.039527163 0.058439508 -0.037908856 -0.11832522
000010 ca b3 dc bd 29 0d 3b bd 85 72 8b bd 78 b5 b2 bc
       -0.107764795 -0.045666847 -0.06808952 -0.021815047
000020 fe 6f 19 3d 2d 09 2a bb 49 4b de bc fa 07 b5 3d
       0.03746032 -0.002594541 -0.027135508 0.08839412
000030 2d 04 06 be 0b c1 64 bc ff 11 b5 3d f2 ed 1a 3d
       -0.1308753 -0.013962041 0.08841323 0.03782458
000040 e4 a8 e0 3c 3d 57 cc 3d cb 92 11 3c e7 00 3d 3d
       0.027424283 0.09977577 0.008885096 0.04614344
000050 92 49 53 3d 6f 89 a7 bd 17 79 8a bc fc fe 2c 3c
       0.051583834 -0.0818051 -0.016903443 0.01055884
000060 47 65 e4 3c 1b 09 d2 bd d1 ce fb bd 50 6b 73 3c
       0.027880324 -0.10255643 -0.122953065 0.014857128
000070 cf cd 99 bd 9d 70 4d bb e2 9c 70 bd e9 5b 47 3d
       -0.07509958 -0.003134764 -0.058743365 0.048671637
000080 85 d0 b8 bd 96 aa 37 3d 6c f8 de bb 06 f7 ea bd
       -0.09024147 0.044840418 -0.0068045165 -0.11472897
000090 4e 39 a9 bd 15 37 0e 3e 38 5b a5 bd 85 bc f0 bd
       -0.08262883 0.138882 -0.08074039 -0.11754707
0000a0 88 09 9d bd f3 5b e9 bd 7b ef ac 3d 49 41 fe bd
       -0.076678336 -0.11394491 0.08444115 -0.12414796
0000b0 8d f0 fe 3d 44 ff 57 3b 40 6b f0 bc a3 43 00 bd
       0.12448225 0.0032958547 -0.029348016 -0.031314503
0000c0 f6 f6 63 bd 3d 6f c6 bd ce fb 95 bd 3b 8e e6 ba
       -0.055655442 -0.09689186 -0.073234186 -0.0017589995
0000d0 27 7e 1b 3d 06 c2 97 bd 04 1d 3b 3e 31 b3 7c 3d
       0.037962105 -0.07410054 0.18272787 0.061694328
0000e0 7a 1e 59 3a 20 a5 9b 3c 30 9c e0 3c 28 32 13 3e
       0.00082824344 0.018999636 0.027418226 0.14374602
0000f0 0b 0c f4 bd 19 66 a7 bd 83 6a 6b 3d a0 f5 1c 3c
       -0.119163595 -0.081737705 0.057474624 0.009580046

model.readout.weight_and_sum.atom_weighting.0.weight f4 [1, 64]
000000 6b aa 00 be ee 80 b8 bd ac 16 c0 3d 7a aa a3 bd
       -0.1256501 -0.090089664 0.09379324 -0.079915
000010 7c ed ce bd 4c 2b ca 3c 6e ab 8f bd 77 e9 0a 3e
       -0.1010389 0.024678849 -0.070151195 0.13565622
000020 50 ce a7 3b 5d 02 bd 3c 43 4f 5d 3b cb 14 35 3d
       0.00512103 0.023072416 0.0033769167 0.044209283
000030 33 d1 be 3d 70 e0 65 3d d0 44 c3 3d d9 39 b1 bc
       0.09317245 0.056122243 0.09534609 -0.02163403
000040 0f 3c 81 3d 41 4d 05 3d d7 4c f8 bd 9f e9 f7 bd
       0.063102834 0.03254438 -0.12124031 -0.121051066
000050 24 bf c2 bd b5 97 e4 3d 25 a7 53 bd f7 df ec 3c
       -0.095091134 0.11161748 -0.051673073 0.028915389
000060 75 9c 3f bd 58 80 04 bc 02 f7 d5 bc 2a 31 7a bd
       -0.04678007 -0.00808724 -0.026118759 -0.061082043
000070 71 51 84 3d 87 40 44 3c ac 50 be 3c 41 d0 7c 3d
       0.06460846 0.011978275 0.023231827 0.061722044
000080 ab 80 ad bc 0d c8 3f 3d 08 00 85 bd ae d4 4d bd
       -0.021179518 0.046821643 -0.064941466 -0.050251655
000090 9f 9e 0e 3d 4e 51 29 bd ce f3 c6 bc 9c dd d1 3d
       0.03481924 -0.041337304 -0.024286177 0.10247347
0000a0 2e 83 06 3b f8 88 1f 3d 55 b0 7f 3d 11 38 e0 bd
       0.0020524967 0.038948983 0.062424023 -0.10948194
0000b0 82 a3 a2 bd 6f 48 59 3c 83 88 08 3e 26 47 c1 bd
       -0.07941343 0.013261898 0.13333325 -0.094373986
0000c0 e6 a8 b0 3d 7b 36 57 3d 98 bc 03 3c b4 6d 1b bd
       0.08625965 0.05254219 0.00804057 -0.037946418
0000d0 1d 6b 48 3c 16 f8 29 be ce 81 af bd ea bd 9f bd
       0.012232569 -0.16598544 -0.0856968 -0.07799895
0000e0 f1 bc fe 3d 8a 7b 3e 3d 02 a9 f3 bd 6d 8c 1f be
       0.124383815 0.046504535 -0.1189747 -0.15580912
0000f0 7f 91 eb 3c 84 ff b0 bb df b8 dc 3d 49 8d 7f bd
       0.028755901 -0.0054015536 0.10777449 -0.0623906

model.predict.predict.1.weight f4 [128, 128]
000000 2a 31 96 3d e9 90 1f 3d 59 7f 0e 3d 19 87 12 3d
       0.07333596 0.038956556 0.034789417 0.03577337
000010 ba cd 9b bc b7 ae ae bd 78 ab 68 bc ba 3b 90 3d
       -0.019018997 -0.08529418 -0.014201038 0.07042642
000020 98 e4 89 3d b3 e9 5a 3c 8d 3c 89 bd 6d a8 e8 bc
       0.06733054 0.013361382 -0.06701002 -0.028400624
000030 95 ab 8d bd 5a 5f 6c bd 15 39 d6 bb a7 5e 23 39
       -0.06917492 -0.05770812 -0.0065375664 0.00015580152
000040 96 37 7f 3d c0 05 30 bd 01 b8 14 bd 90 16 b8 3d
       0.06230887 -0.042974234 -0.036308292 0.089886785
000050 51 10 cc 3d f3 28 a4 bd 89 33 5d bd 23 d4 82 3c
       0.099640496 -0.08015623 -0.054004226 0.015970295
000060 1e 1c bd 3b f2 8e 93 bd 25 a9 4a bc 0d 40 c7 3c
       0.005771174 -0.07204999 -0.012369429 0.024322534
000070 2f 59 4a 3d 19 a0 4b bd 49 45 a8 3d 22 0c e1 3d
       0.04940146 -0.049713228 0.0821634 0.10988642
000080 55 fe ae bd 67 c6 ad b9 89 35 59 bd 11 bd d3 3c
       -0.08544604 -0.00033144953 -0.05302957 0.02584699
000090 3a d6 ba 3d 1b 3d 9f bc 4a 62 07 bc c4 4a 9e 3d
       0.09122892 -0.019438317 -0.00826318 0.07729104
0000a0 6e 77 10 bd 1b 35 95 bd fc 15 96 3d eb 69 b1 3b
       -0.035270147 -0.0728552 0.07328412 0.0054142377
0000b0 84 55 c0 3d f2 c7 b4 3c 7a 37 5f bd 8c fa b2 3d
       0.09391311 0.022067998 -0.054496266 0.08739194
0000c0 cc fc 24 3d 79 f8 e9 3c 3b 96 d7 3d a9 93 e3 3d
       0.04028015 0.028560864 0.10526701 0.11112148
0000d0 89 fa 14 3d 3c ef 8d bc 01 7a ce 3b 51 3f 67 bd
       0.03637174 -0.01732599 0.006301165 -0.056456868
0000e0 33 3e 91 3d 28 99 e5 bc db b4 f9 3a 02 f0 ad 3d
       0.07091942 -0.028027132 0.0019051092 0.084930435
0000f0 ed 3d 82 bd d1 96 01 3d d8 98 a7 3d 08 ba b8 3d
       -0.06359468 0.03163797 0.081834495 0.09019858
000100 ce c4 58 3d 81 bd ab 3d 40 ff 9c bd c2 04 4c bd
       0.052922063 0.083857544 -0.076658726 -0.049809225
000110 52 f0 8f bd 85 36 b0 bd 41 0a 40 3d 09 84 7a 3d
       -0.07028259 -0.08604149 0.04688478 0.061161075
000120 e5 47 96 bd b3 02 8d bd 45 62 3a 3d 72 94 38 3d
       -0.073379315 -0.068852805 0.045503873 0.045063443
000130 32 b2 94 bd 52 d5 c2 bc d4 db 74 bd 6d 0f e7 bc
       -0.072605506 -0.02378336 -0.059779957 -0.028205598
000140 ae 50 89 3d f3 cd 9d bd 20 a7 b7 bc 91 68 eb 3b
       0.067048416 -0.07705297 -0.022418559 0.007184096
000150 6f 86 91 3d c6 1e 11 be 62 1e 2a 3c 39 fa f4 3b
       0.07105719 -0.14171895 0.01038322 0.007476118
000160 ec d2 0c 3d 4a 65 45 bd 6a 96 cf 3d 08 32 05 3d
       0.03438084 -0.0481923 0.10136111 0.032518417
000170 8d a8 8a bd 68 a5 23 bd f2 89 27 3d 9b 58 9c 3d
       -0.0677043 -0.039952666 0.04090304 0.07634088
000180 57 f4 1a bc 22 6a 1b bd 96 4c 67 3d 59 53 9a 3d
       -0.009457669 -0.037943013 0.056469522 0.075354286
000190 66 50 b3 3c 22 0c 66 bb 6f 28 8d 3d e9 a5 4f bd
       0.021888923 -0.0035102447 0.06892478 -0.050695334
0001a0 67 12 a9 bd f2 04 cf 3d cb df 82 3d 11 fd 8b 3d
       -0.08255463 0.10108365 0.06390341 0.06835378
0001b0 fb ce 73 3d 04 31 45 bd b6 50 e1 3c 26 44 52 bd
       0.059523564 -0.048142448 0.027504306 -0.051334523
0001c0 28 f3 85 bc 1a b3 ad 3c c3 d8 80 bd 6a ae f6 3d
       -0.016351297 0.021203566 -0.06291344 0.120449856
0001d0 d1 36 95 bd 7c 2d 0b 3d 54 7c 5d bd 30 74 76 bd
       -0.07285846 0.033978924 -0.054073647 -0.0601694
0001e0 7d 94 9b 3d 23 7e 68 3d 7f d5 85 3d b2 3b a8 3d
       0.07596681 0.05676092 0.06534862 0.08214511
0001f0 57 ef 9b 3d a1 5b b6 3c 26 e9 4a bd 99 a3 83 bd
       0.0761401 0.022260489 -0.049538754 -0.06427688
000200 49 81 3f 3d 2f e1 12 bd 35 07 e3 bc 6f 26 9f 3d
       0.046754155 -0.035859283 -0.027713398 0.077710025
000210 02 1f a8 3c 27 cb 3e bd 52 2a 48 3d 94 5d bb 3d
       0.020522598 -0.04658046 0.048868485 0.09148708
000220 e6 59 9a 3d ca bd 9c bd ef c2 a7 bd 9a bb 2f 3c
       0.07536678 -0.07653387 -0.081914775 0.01072588
000230 53 b3 a1 3d 8e 7a 27 3d 58 35 a3 3d 1f 06 83 bd
       0.078955315 0.04088836 0.07969159 -0.06397652
000240 00 8d c8 3d e7 76 80 3c 17 a7 a0 3c 8a d4 ca 3d
       0.097925186 0.015681697 0.019610925 0.0990382
000250 2f 17 76 3d 92 3c 8c bc 27 2c b5 3d eb b9 bc 3c
       0.060080703 -0.017118726 0.08846312 0.023037871
000260 ea 5a 8e bb a1 9b 94 3d 46 80 00 3e c0 b5 b0 3d
       -0.004344334 0.07256246 0.12548932 0.08628416
000270 1a e4 38 3d ba 19 b6 3d c9 ff f0 bc c2 d9 33 bc
       0.04513941 0.08891626 -0.029418843 -0.0109772105
000280 c9 71 d0 3a 46 7b a4 3d 96 ec 9b 3a 1b 9a d3 bb
       0.0015903051 0.08031325 0.001189607 -0.00645758
000290 15 ee 0f bd 41 0b a7 3c 0e 19 04 3e c4 39 71 bd
       -0.035139162 0.020391108 0.12900183 -0.05889298
0002a0 87 50 22 3d 05 ef 3b 3d 7f 2d 87 3c a4 05 ae 3d
       0.039627578 0.045882244 0.016501186 0.084971696
0002b0 de b0 bc 3d 35 73 1b 3d c6 76 f3 3c 34 b0 b6 3b
       0.09213422 0.037951667 0.029719722 0.0055752043
0002c0 8d e3 05 3e d1 50 4a 3d b8 76 97 3d b5 19 1e 3e
       0.13075085 0.04939348 0.07395691 0.15439494
0002d0 cd 98 f0 bc db 8a 3f 3d eb b4 91 3d 78 da 80 3d
       -0.029369736 0.046763282 0.071145855 0.062916696
0002e0 17 d3 32 3b e6 fc 01 3e 62 36 c8 bc fa b0 ba 3d
       0.0027286464 0.1269413 -0.024439994 0.09115787
0002f0 3e c4 85 bc dc a8 a1 ba c0 46 0b 3d 1d 8a 90 3d
       -0.016328927 -0.0012333649 0.03400302 0.07057593
000300 d0 35 ce 3d 5e ca d5 3d c4 7e 69 b7 19 bb ba bc
       0.10068858 0.10438989 -1.3917397e-05 -0.022794293
000310 86 9a 59 3d c3 b4 2d be 6f 19 eb 3d 4c 1d c3 bc
       0.05312588 -0.16963486 0.114794604 -0.02381768
000320 c7 33 69 3c 42 84 3c bd be 22 aa bd f8 e1 78 bd
       0.014233536 -0.04602457 -0.08307408 -0.060762376
000330 c7 06 f8 3c e8 12 47 3d 25 87 c2 3d 03 a1 a8 bd
       0.03027667 0.048602015 0.09498433 -0.082338355
000340 39 8c c6 3c 0d fb df 3d 67 ec 56 bd 47 b6 2d bc
       0.024236785 0.10936556 -0.052471545 -0.01060254
000350 ff f5 05 3d f1 16 db bc 5e 51 9d bb 32 74 a1 bd
       0.032705303 -0.026744338 -0.0048009595 -0.078834906
000360 8a 34 7d bd ee c1 13 3e 28 47 37 bd 4a 6f 46 3d
       -0.061817683 0.14429447 -0.044745594 0.048445977
000370 a1 d0 99 ba 17 b1 58 3c 54 81 c8 bd 6e ec 88 bd
       -0.001173515 0.013225815 -0.097902924 -0.066857204
000380 f0 1b 0e 3b b4 f4 c7 3d 7a d1 9e 3d b3 ff bc bc
       0.0021684133 0.0976347 0.07754798 -0.023071146
000390 26 b0 1e bd 53 17 d5 3d 4c d0 8c 3c 52 12 9d 3d
       -0.038742207 0.10404839 0.017189167 0.0766951
0003a0 fd db 2b bd 50 e1 1d 3d 2e 0d 92 3d 74 1c d6 3b
       -0.041957844 0.038544953 0.0713142 0.0065341536
0003b0 96 a4 80 bc 3d 28 3b bc cf 8e 04 3e 4f 36 99 3d
       -0.01570348 -0.011423168 0.12945102 0.07481062
0003c0 e4 3c bf 3d 84 d2 c4 3d c1 a8 cb b9 10 b1 b4 3c
       0.09337786 0.09610465 -0.0003884491 0.022057086
0003d0 7c 0b 77 bd a1 8f a8 bc d9 32 f9 3c 71 56 c0 bd
       -0.060313687 -0.0205763 0.030419754 -0.093914874
0003e0 40 70 2f 3d b2 63 a4 3d df ed 88 3d dc 13 c8 3c
       0.04283166 0.08026828 0.06685995 0.024423532
0003f0 74 ba cd 3d 59 79 b0 3d 03 e0 97 3d 4c 38 34 3c
       0.10045329 0.08616895 0.07415774 0.01099975

model.predict.predict.1.bias f4 [128]
000000 64 f0 1a bc 36 19 cc 3d 51 3a 47 3c c1 a2 9b bd
       -0.009456728 0.09965746 0.0121599 -0.07599402
000010 88 e5 e6 bc 3c 6e d3 bd cf 46 fe bc 85 04 7e 3b
       -0.02818562 -0.1032376 -0.031039624 0.0038760018
000020 9e 3f a7 bd c5 fd 4e 3b a4 86 1f 3c 9c 5e 0b bd
       -0.08166431 0.0031584364 0.009736691 -0.034025773
000030 30 17 a8 3d 20 f8 18 3b 91 aa 88 bd b9 94 97 3d
       0.08207548 0.0023341253 -0.06673158 0.074014135
000040 7b d2 31 bd 7d ee 9f bd d4 0a 09 be b5 03 a5 3c
       -0.04341362 -0.0780916 -0.13383037 0.02014337
000050 a3 5e a8 bd 92 fb a9 bd 3a 8e 23 3d 0d 56 bb bd
       -0.082211755 -0.08299936 0.03993056 -0.09147272
000060 fa 73 f8 3c 36 f9 09 bb 7c 36 49 3d 5f e5 82 bd
       0.03032874 -0.0021053082 0.049124226 -0.06391405
000070 63 88 92 bd ba 7e 35 be f1 1d e2 3d e8 09 12 3d
       -0.0715492 -0.17724124 0.11040867 0.03565398
000080 57 5a a6 bb ff 37 8a 3d 2f fe f7 bd d4 a4 6c 3d
       -0.0050766873 0.06748962 -0.121090285 0.05777438
000090 d3 92 74 ba d5 9d 3b 3d 40 51 2e bd cf a1 83 bd
       -0.000932974 0.045804817 -0.042557955 -0.06427347
0000a0 51 e5 67 bd 8d 70 99 3d 34 8e c4 3d 1c 6c aa bc
       -0.056615178 0.074921705 0.095974356 -0.020803504
0000b0 d1 c9 b1 bd b6 65 b7 bd db 9f c8 bd f0 97 85 3d
       -0.086810715 -0.08954947 -0.09796115 0.065231204
0000c0 a3 a2 93 bd e4 16 c4 3d 4b 88 96 bd d1 be dc bc
       -0.07208755 0.095746785 -0.073502146 -0.026946457
0000d0 a7 49 74 3b 44 c0 71 bd 47 68 7c 3c 31 b6 7b 3d
       0.0037275346 -0.05902125 0.015405721 0.06145305
0000e0 18 ab 17 3e 09 21 f2 3d bb 23 1e bc 47 1c 31 bd
       0.14811361 0.11822707 -0.0096520735 -0.043239858
0000f0 46 aa 2c bd 8d 57 88 bd f4 80 c3 bd b0 20 2c bc
       -0.042154573 -0.06657324 -0.0954608 -0.01050584
000100 d6 19 17 3d 40 b8 04 3e a3 d9 86 3c 02 6e 56 3d
       0.036889873 0.12960911 0.0164612 0.052351005
000110 63 2b 91 3c 55 e4 6a bc 7f 7d 13 3d 78 af 27 bd
       0.017720884 -0.014336665 0.036008354 -0.040938824
000120 d4 8a 8e 3b 33 a1 7c bd 93 c3 cc 3c b1 31 fa bd
       0.0043500457 -0.06167717 0.0249956 -0.12216509
000130 2e 94 73 3c 49 03 a5 bc b6 f4 24 bd 53 3f c7 bc
       0.014866872 -0.020143168 -0.040272437 -0.024322188
000140 81 94 03 3d ae 04 c4 bd ee 0e 85 3d 0b 00 bb bb
       0.032124046 -0.09571205 0.06496988 -0.005706792
000150 91 bf cf 3b 8e 06 b7 bd b0 bf b6 3d ea 7a 41 bc
       0.006339975 -0.08936797 0.0892328 -0.01180909
000160 70 e7 e7 bd 0f 35 d2 bc ce 29 f0 3d 41 91 af bd
       -0.1132344 -0.025660066 0.117267236 -0.08572627
000170 86 46 06 bd 93 29 9c 3c c4 0d 90 3c af 64 fc 3b
       -0.0327821 0.019062793 0.017584689 0.007702432
000180 b6 a3 b0 bc 91 12 1e bc d5 bf 79 bd e4 fd ee bb
       -0.021562438 -0.009647981 -0.06097396 -0.0072934497
000190 d0 e0 3c 3d b8 f7 29 3d dd 1e 93 bd f0 da 1a bc
       0.046112835 0.04149601 -0.07183621 -0.009451613
0001a0 79 3a 01 bd fa d2 44 3d f5 f8 41 bd b2 07 8a 3d
       -0.031549904 0.048052765 -0.047356565 0.06739749
0001b0 35 ee d5 bd 8d 54 b0 3d fa a9 f9 bc e8 09 17 bd
       -0.10445825 0.08609877 -0.030476559 -0.03687468
0001c0 6b 31 88 bd 12 59 2d bd 67 a3 bb 3c a1 48 57 bd
       -0.06650051 -0.042321272 0.022905065 -0.0525595
0001d0 ee 89 be bd 33 ff 42 bd 5b 9c 60 3c 9f 73 80 3d
       -0.09303652 -0.04760666 0.013709153 0.06272053
0001e0 9f 88 75 3c 00 4c 0b bb 04 3e e5 bc 08 40 b5 3c
       0.014986186 -0.0021255016 -0.027983673 0.022125259
0001f0 5a 79 7c 3d 44 e9 96 3d 79 3b 74 bd 9a 1b 8a bc
       0.061639167 0.07368711 -0.05962703 -0.016858865
