checkpoints/GCM/best_f1_score/checkpoint1.pt (torch, 375109 bytes, 47 tensors)

model.gnn.gnn_layers.0.graph_conv.weight f4 [30, 64]
0	0xbe1a451b	-0.15065424
1	0xbdcd0f61	-0.10012699
2	0xbd10788e	-0.03527122
3	0xbe7d4baa	-0.24735895
4	0x3e229e62	0.15880731
5	0xbd195f12	-0.03744418
6	0xbdadfb71	-0.08495224
7	0xbd9ada2b	-0.075611435
8	0xbdc47422	-0.09592463
9	0xbe3fe01e	-0.18737838
10	0x3db0d88e	0.086350545
11	0xbdc0f4b9	-0.09421677
12	0xbe026b2d	-0.12736197
13	0xbdc20c74	-0.094750315
14	0x3e0dde7c	0.13854402
15	0xbcc46224	-0.023972578
16	0xbe05bd58	-0.1306051
17	0x3dfeca8d	0.12440977
18	0x3d0e062a	0.034673847
19	0xbdd4c53e	-0.103891835
20	0x3e6e9dba	0.23302355
21	0x3df2c69f	0.1185429
22	0x3e6af2e5	0.2294422
23	0x3d677283	0.05650569
24	0x3e07c732	0.1325958
25	0x3e2fce95	0.17168649
26	0xbe53145d	-0.20613237
27	0xbae110a7	-0.00171711
28	0x3e2c79ec	0.16843385
29	0x3d7195c9	0.058980737
30	0xbe712106	-0.23547754
31	0x3dcc487f	0.09974765
32	0xbe6e6fa7	-0.2328478
33	0xbd6b0a30	-0.057382762
34	0x3e892ef7	0.26793644
35	0x3e01603b	0.12634365
36	0xbe08e6e6	-0.13369331
37	0x3d868ffe	0.06570433
38	0x3ddfeac8	0.10933453
39	0x3e0cd099	0.13751449
40	0xbd610ba9	-0.05494276
41	0xbd3a92db	-0.04555021
42	0xbd30b4a6	-0.04314103
43	0xbd97b466	-0.07407455
44	0x3e0247f7	0.12722765
45	0xbe0141a4	-0.12622696
46	0x3de17afa	0.11009784
47	0xbc20ab04	-0.009806398
48	0xbde7b911	-0.113145955
49	0x3d388a7d	0.045053948
50	0x3d485099	0.04890499
51	0xbe8614ab	-0.26187643
52	0xbde5b54e	-0.11216222
53	0xbe5570da	-0.2084383
54	0x3e5c5bfd	0.21519466
55	0xbd84168e	-0.064496145
56	0x3e163afe	0.14670941
57	0xbe0ab7ad	-0.13546629
58	0x3d4454cb	0.047932427
59	0xbc97e710	-0.018542796
60	0x3e56df0c	0.20983523
61	0x3e14ba8a	0.14524284
62	0x3e8487bf	0.25884816
63	0xbe3c68eb	-0.18399398
64	0xbe65f18e	-0.22455427
65	0xbd83a3d4	-0.06427732
66	0x3e60906c	0.21930093
67	0xbdcfedb7	-0.101527624
68	0x3ca3bab0	0.01998648
69	0x3e63e833	0.22256546
70	0xbd6722ca	-0.05642966
71	0xbe034cc3	-0.12822251
72	0xbe8745c2	-0.26420408
73	0x3def8fc5	0.11697344
74	0xbe6724ff	-0.22572707
75	0x3e2c3347	0.16816436
76	0xbd915872	-0.07096948
77	0xbe46d14d	-0.1941578
78	0xbe14546e	-0.14485332
79	0x3e3237bb	0.17404072
80	0xbd98c077	-0.07458585
81	0x3dc1b5d3	0.09458508
82	0xbcbf1268	-0.023324206
83	0x3dbc657c	0.09199044
84	0xbe2b3c92	-0.16722324
85	0x3da92a9c	0.0826008
86	0x3e378693	0.1792243
87	0x3dcc4d30	0.0997566
88	0x3df6fc56	0.12059848
89	0x3e105938	0.14096534
90	0xbc9e15d9	-0.019297527
91	0x3e43d418	0.19123876
92	0xbe86d71e	-0.26335996
93	0xbda89d2e	-0.08233105
94	0x3e539d6a	0.20665517
95	0xbd8c197b	-0.068407975
96	0xbdc7aaf2	-0.09749402
97	0x3dd9d910	0.106371045
98	0xbda389bd	-0.07985256
99	0xbe43d28f	-0.1912329
100	0x3dc8457d	0.09778879
101	0x3d8acaed	0.06776986
102	0x3d99f9b0	0.07518327
103	0xbe62597f	-0.22104453
104	0x3e9ef09c	0.31042945
105	0xbe877dd7	-0.26463196
106	0x3e6c4620	0.23073626
107	0xbe07ff60	-0.13281012
108	0x3e0864ca	0.13319698
109	0x3e7ab37e	0.24482533
110	0xbe2a8244	-0.16651255
111	0x3e0ff51b	0.14058344
112	0x3d5acced	0.05341809
113	0x3db07d6b	0.086176716
114	0xbeb68da7	-0.35654947
115	0x3e53f9b4	0.20700723
116	0x3e1190d6	0.14215407
117	0x3e6ab10a	0.22919098
118	0x3e5e7894	0.21725684
119	0xbc8d22d3	-0.01722852
120	0xbd7fad16	-0.062420927
121	0x3d97c777	0.07411092
122	0x3e4dcb1c	0.20097011
123	0x3e40a82a	0.1881415
124	0x3e64607e	0.22302434
125	0x3e53f1a4	0.20697647
126	0xbea171db	-0.31532177
127	0xbd27e204	-0.04098703
128	0xbd001a40	-0.031275034
129	0xbe48433d	-0.195569
130	0x3e7e95af	0.24861787
131	0x3e9baa47	0.3040335
132	0x3dc3f351	0.09567893
133	0x3c0aa352	0.00846179
134	0xbd45305b	-0.04814182
135	0xbe1319ad	-0.14365263
136	0x3e6850f5	0.22687133
137	0x3de55dfc	0.11199567
138	0x3e2058b5	0.15658839
139	0xbdb6ba7f	-0.0892229
140	0xbe3b4060	-0.18286276
141	0xbd104b2f	-0.03522795
142	0xbe402ad1	-0.18766333
143	0xbe52734a	-0.20551792
144	0xbe8d2f48	-0.27575135
145	0x3d2d4f7f	0.04231214
146	0x3e762afd	0.24039836
147	0x3e28b007	0.16473399
148	0x3dcfc004	0.10144046
149	0x3e0b0feb	0.13580291
150	0x3e1ec8c3	0.15506272
151	0xbe5965b8	-0.21230209
152	0xbe1537eb	-0.14572112
153	0xbe17b310	-0.148144
154	0xbe2f9266	-0.1714569
155	0x3deaf55b	0.11472579
156	0xbe3e8132	-0.18603972
157	0xbdd06edb	-0.10177394
158	0xbdd86f70	-0.1056813
159	0xbe4ecb5e	-0.20194766
160	0x3dd52a8c	0.10408506
161	0x3ea124fc	0.3147353
162	0xbc917330	-0.017755121
163	0xbe182c52	-0.14860657
164	0x3e1f957a	0.15584365
165	0x3dd4d86a	0.1039284
166	0x3e64f341	0.22358419
167	0x3e1fd825	0.15609796
168	0xbdffea91	-0.12495912
169	0x3a9abc39	0.0011805362
170	0xbe3dc182	-0.18530849
171	0xbe1a983b	-0.15097134
172	0x3d0a1f47	0.033721235
173	0xbe4cf60c	-0.20015734
174	0xbb2e0a3a	-0.0026556388
175	0x3e373ab7	0.17893492
176	0xbe6b2393	-0.22962789
177	0x3e5c917d	0.21539874
178	0x3e5d7492	0.216265
179	0x3d0821f0	0.03323549
180	0xbe1dde04	-0.15416723
181	0x3e55ce79	0.20879544
182	0x3d912a11	0.07088102
183	0x3ca8faff	0.020627497
184	0xbd67b3e5	-0.056568045
185	0xbe3c74d2	-0.18403938
186	0xbe053233	-0.1300743
187	0xbe27ac19	-0.16374244
188	0x3e3a0737	0.18166815
189	0x3cdd4461	0.027010145
190	0xbe705ec6	-0.23473653
191	0xbd97c2a3	-0.07410171
192	0xbe959149	-0.29212406
193	0x3cf421f3	0.029801344
194	0xbd9b75bb	-0.07590815
195	0x3e4ba489	0.19886984
196	0x3d159fca	0.03652934
197	0x3da5bcce	0.08092652
198	0xbd4ed212	-0.050493307
199	0xbe19ca1c	-0.15018505
200	0x3db54773	0.088515185
201	0x3dad2627	0.084545426
202	0xbe46daee	-0.19419453
203	0xbe91716e	-0.28406852
204	0x3dd9a2dd	0.10626767
205	0xbe5c26e2	-0.21499208
206	0x3ed89f42	0.42309004
207	0xbdd1f432	-0.10251655
208	0x3e0ef47f	0.13960455
209	0x3e58da72	0.2117708
210	0x3e61fa23	0.22068076
211	0x3e61fe7e	0.22069737
212	0x3e26c207	0.16284953
213	0x3e42440c	0.1897127
214	0x3e6fdd84	0.23424345
215	0x3d00ab54	0.03141339
216	0xbd05674a	-0.032569207
217	0x3cd3d21c	0.025857024
218	0xbe112f87	-0.14178286
219	0x3e11dbce	0.14244005
220	0xbd0b8cd3	-0.034069847
221	0x3db8c05b	0.09021064
222	0x3eb259e1	0.34834197
223	0xbeca4ca5	-0.395116
224	0x3e025311	0.12727
225	0xbf1201d9	-0.5703407
226	0x3cf28845	0.029605994
227	0x3d10664f	0.03525382
228	0xbef59053	-0.47961673
229	0xbdb6650d	-0.08905993
230	0xbd6f4e55	-0.058424313
231	0x3e7df4f4	0.24800473
232	0x3e07c775	0.1325968
233	0xbc8fa66f	-0.017535416
234	0x3e1a7d60	0.1508689
235	0x3cfa931d	0.030587727
236	0x3df199ea	0.11796935
237	0x3e0a6219	0.13513984
238	0xbd59e01c	-0.053192243
239	0x3db38079	0.087647386
240	0x3dff9358	0.124792755
241	0xbec8552f	-0.3912749
242	0x3e42cdb3	0.1902378
243	0x3d98964b	0.07450541
244	0xbea63c2e	-0.32467788
245	0xbe2eb0c8	-0.17059624
246	0x3e3d0726	0.18459758
247	0xbe0bf28f	-0.13666748
248	0xbdeede7d	-0.1166353
249	0x3e41cfa6	0.18926868
250	0x3e4def2f	0.20110773
251	0xbeb2a81a	-0.34893876
252	0xbdd93f5a	-0.106077865
253	0xbd193dfe	-0.037412636
254	0x3dde25ef	0.10847079
255	0x39d5a8ca	0.00040752284

model.gnn.gnn_layers.0.graph_conv.bias f4 [64]
0	0xbc9628a4	-0.018329926
1	0x3c44f354	0.012020905
2	0xbd0b9bf7	-0.034084287
3	0x3d457035	0.048202712
4	0x3b5e8cda	0.0033958466
5	0xbd0d1e59	-0.03445277
6	0x3ab903a0	0.001411546
7	0xbd2db749	-0.042411122
8	0xbd31034e	-0.043216042
9	0xbc2c76e0	-0.010526389
10	0x3d87398c	0.06602773
11	0x3c1adaa8	0.009451546
12	0xbd363b0f	-0.044489916
13	0xbcf05e64	-0.029341884
14	0x3cc003d3	0.023439324
15	0xbc52529f	-0.012837081
16	0xbd24dfaf	-0.040252384
17	0xbd5d37ff	-0.05400848
18	0xbc14179c	-0.009038832
19	0xbd233734	-0.039847568
20	0xbc89abe1	-0.016805591
21	0xbd2519e2	-0.040307887
22	0x3cdd453f	0.027010558
23	0xbd5f09fc	-0.05445288
24	0x3b5019bb	0.0031753618
25	0x3c2f4c3e	0.01069933
26	0xbb0f6d89	-0.0021885356
27	0xbbbea35b	-0.0058178133
28	0xbb8a8eaf	-0.004228435
29	0x3bebd5ba	0.007197109
30	0xbb0b440a	-0.0021250271
31	0xbd2b6f0a	-0.041853942
32	0xbc7432b6	-0.014904669
33	0xbbba8e66	-0.0056932447
34	0x3b337ce0	0.0027387664
35	0xbc10f6b4	-0.008847881
36	0xbba7bf57	-0.005119245
37	0xbbd89ab3	-0.0066102385
38	0xbcb72522	-0.022356573
39	0xbc9dba85	-0.019253979
40	0x3d179da5	0.037015576
41	0xbc21d588	-0.00987757
42	0xbca88396	-0.020570558
43	0x3daf1be0	0.085502386
44	0x3af2a713	0.0018512927
45	0x3cf0e20b	0.02940466
46	0xbc120dfa	-0.008914465
47	0xbcf17fdb	-0.029479912
48	0xbccfaec3	-0.025351888
49	0xbcbe5d9c	-0.023237996
50	0x3d4951ee	0.0491504
51	0xbccf5cda	-0.02531283
52	0xbd2e268c	-0.04251723
53	0x3c8cf603	0.017207151
54	0xbc9f8936	-0.019474607
55	0x3c4c451a	0.012467647
56	0x3bda94a6	0.0066705523
57	0xbcb1878c	-0.02167108
58	0xbbbdbb9d	-0.0057901875
59	0x3d6d21f2	0.0578937
60	0xbcaeff48	-0.021361962
61	0xbd8011a4	-0.06253365
62	0x3c98b64b	0.018641612
63	0xbc65fcf6	-0.014037361

model.gnn.gnn_layers.0.res_connection.weight f4 [64, 30]
0	0xbdedb057	-0.116059
1	0xbd6fb3cd	-0.05852108
2	0xbdf63cba	-0.120233014
3	0x3c9b30db	0.018944195
4	0xbe77a7c8	-0.24185097
5	0x3e7ab0a8	0.24481452
6	0x3dccaf0a	0.099943236
7	0xbcff301e	-0.031150874
8	0xbec87597	-0.39152214
9	0x3d542ba0	0.051799417
10	0xbd0e430c	-0.03473191
11	0xbd2c935d	-0.042132724
12	0xbe0cc5eb	-0.13747375
13	0xbe007ce5	-0.12547643
14	0x3e0acb68	0.13554156
15	0x3c8588f2	0.016300652
16	0x3de5aa22	0.11214091
17	0x3e040cfe	0.12895581
18	0xbe3083b6	-0.17237744
19	0x3ea1ff7f	0.3164024
20	0xbe86fb22	-0.26363474
21	0xbd0108d2	-0.031502552
22	0x3cb56f5d	0.022147829
23	0xbd85e10e	-0.065370664
24	0x3e02a0f7	0.12756716
25	0x3d6a8cf4	0.05726333
26	0x3dcc63f7	0.09980004
27	0xbe1d3215	-0.15351136
28	0x3e0cbd42	0.13744071
29	0xbda96860	-0.08271861
30	0x3dc48de0	0.09597373
31	0xbe3c0709	-0.18362059
32	0xbe0f0b74	-0.13969213
33	0xbe753226	-0.23944911
34	0xbe2fce1e	-0.17168471
35	0x3c89ea03	0.016835218
36	0xbd99396e	-0.07481657
37	0x3de7c31f	0.11316513
38	0xbe826e9e	-0.2547502
39	0x3e5db851	0.21652342
40	0xbd867659	-0.06565542
41	0xbe03872a	-0.1284453
42	0x3dc23011	0.09481824
43	0x3dc3eece	0.09567033
44	0xbe32b68f	-0.17452453
45	0x3d87e199	0.06634826
46	0xbe3ec591	-0.18630053
47	0x3d0405d4	0.03223212
48	0xbdb09f52	-0.08624138
49	0xbd23385d	-0.039848674
50	0x3e2b4e8d	0.16729183
51	0xbd53859b	-0.051641088
52	0xbc3de47e	-0.011590121
53	0x3b8081d5	0.003921727
54	0x3dbae268	0.09125215
55	0x3e52c27b	0.20582001
56	0xbe787933	-0.24264984
57	0x3e2c0015	0.16796906
58	0xbd96e500	-0.07367897
59	0xbd9a3939	-0.075304456
60	0xbe309514	-0.17244369
61	0xbe50187a	-0.20321837
62	0x3e086e36	0.13323292
63	0xbde95c28	-0.113945305
64	0xbd7f7ebb	-0.06237672
65	0x3e1a20ef	0.15051626
66	0x3e0e8cbf	0.13920878
67	0xbdd11e45	-0.102108516
68	0xbd10af85	-0.03532364
69	0x3d7dcbf8	0.061962098
70	0xbddaf7c0	-0.10691786
71	0x3e9e1445	0.3087484
72	0xbd94a595	-0.07258145
73	0xbdfcca8b	-0.123433195
74	0x3df38d58	0.118921936
75	0x3b6a6161	0.0035763609
76	0x3e06a5e3	0.13149218
77	0x3e12e445	0.1434489
78	0xbd950f4a	-0.07278307
79	0x3e3d5175	0.18488105
80	0x3dcd6703	0.100294136
81	0x3e2599a1	0.16171886
82	0xbe3940c0	-0.18091106
83	0x3daa0298	0.08301276
84	0xbde2baee	-0.1107081
85	0xbcb38038	-0.021911725
86	0xbcf46c91	-0.029836925
87	0xbe06bbd5	-0.1315759
88	0x3e055ce8	0.13023722
89	0x3e0388f6	0.12845215
90	0xbda39625	-0.07987622
91	0x3e02a463	0.12758021
92	0x3d6d9494	0.058003023
93	0x3da4bbc4	0.08043626
94	0xbe043cc3	-0.12913804
95	0x3e726bfa	0.23674002
96	0xbdcca751	-0.099928506
97	0xbd42aab2	-0.04752607
98	0xbd895b3f	-0.06706857
99	0xbe50371c	-0.20333523
100	0x3e3735d6	0.1789163
101	0xbb867fcd	-0.0041045905
102	0xbe345238	-0.17609489
103	0x3df85669	0.121258564
104	0x3e512837	0.20425497
105	0x3d23162c	0.039816067
106	0xbe36d53a	-0.17854777
107	0xbdbf9c8e	-0.09356032
108	0xbc0e3050	-0.008678511
109	0xbd731203	-0.05934335
110	0xbe1fbb8e	-0.1559889
111	0x3e05df84	0.13073546
112	0x3deb1ea7	0.11480456
113	0xbdc0f005	-0.0942078
114	0xbd784942	-0.06061674
115	0x3e67a732	0.22622374
116	0x3e1e88b4	0.15481836
117	0x3dd3fbbb	0.10350748
118	0x3c71105b	0.014713372
119	0x3d85394d	0.0650507
120	0xbd2d64ca	-0.042332448
121	0x3e205512	0.15657452
122	0x3d8ddd04	0.06926921
123	0x3e13c4e3	0.14430575
124	0xbdf2653f	-0.118357174
125	0xbe6da506	-0.23207483
126	0xbe259c9e	-0.16173026
127	0x3decb40e	0.1155778
128	0x3e070a97	0.13187633
129	0x3d642911	0.055703226
130	0xbd4649b5	-0.048410136
131	0x3da02c5b	0.0782096
132	0x3d3640de	0.044495456
133	0xbdf03681	-0.11729146
134	0xbe4e4b9e	-0.20146033
135	0xbdbbe1da	-0.09173937
136	0x3e04def9	0.12975682
137	0x3d55b228	0.052171856
138	0x3b84c6d6	0.0040520234
139	0x3d7326dd	0.059363235
140	0x3e18692a	0.14883867
141	0x3e0cb985	0.13742645
142	0xbe52e286	-0.20594224
143	0xbd4ee85f	-0.050514575
144	0x3dd6ffda	0.104980186
145	0xbe11ff58	-0.14257562
146	0xbdf15d94	-0.11785427
147	0x3d8ee706	0.06977658
148	0x3e00f115	0.12591965
149	0xbe1ad57a	-0.15120497
150	0xbd79c77e	-0.060981266
151	0xbe2b52c6	-0.16730794
152	0x3dcc6882	0.09980871
153	0xbd381904	-0.04494573
154	0x3e0094ed	0.1255681
155	0x3e384f37	0.17998968
156	0x3dc7a4b0	0.097482085
157	0xbe287971	-0.16452576
158	0xbdc316db	-0.09525844
159	0x3da5894b	0.08082827
160	0xbe66603b	-0.22497647
161	0xbe3cf3e7	-0.18452416
162	0xbda896c9	-0.08231885
163	0xbdecfa26	-0.115711495
164	0xbe31e05c	-0.17370743
165	0xbe0013b1	-0.12507512
166	0xbd8eccc7	-0.06972652
167	0x3d97ef95	0.074187435
168	0xbd593a7a	-0.053034283
169	0xbd99e44c	-0.07514247
170	0xbaf6a00b	-0.0018816007
171	0x3d49d754	0.04927762
172	0xbc20f5e8	-0.009824254
173	0xbe082aff	-0.13297652
174	0x3bbf6963	0.0058414205
175	0xbc3e7bfe	-0.011626242
176	0x3e0012f2	0.12507227
177	0x3de9914d	0.11404667
178	0xbe0aa40d	-0.13539143
179	0x3e24c7c2	0.16091827
180	0x3ad00382	0.0015870186
181	0xbcfebfcc	-0.031097315
182	0x3d34742e	0.04405611
183	0xbe0a8f7a	-0.13531294
184	0x3d3d7a42	0.046259172
185	0xbdb34ff9	-0.08755488
186	0x3dc762dd	0.097356535
187	0xbc82a339	-0.015946971
188	0x3d8337a2	0.064070955
189	0xbe3befea	-0.18353239
190	0x3dd08e87	0.10183435
191	0x3d997905	0.07493786
192	0x3d6f8ebf	0.058485743
193	0x3b8c9b53	0.004290977
194	0xbe2a05fc	-0.16603845
195	0x3b4b1fc9	0.0030994287
196	0x3dc5f048	0.09664971
197	0xbe1dbb3c	-0.15403455
198	0x3b2e00e7	0.002655083
199	0x3d971e96	0.07378881
200	0xbe273484	-0.16328627
201	0xbd48e5d5	-0.04904731
202	0xbdb61039	-0.08889813
203	0xbde6395d	-0.1124141
204	0xbda9efe6	-0.0829771
205	0x3c3c45d3	0.011491257
206	0xbe20f2a9	-0.15717568
207	0x3e2665ab	0.16249721
208	0x3dad42b8	0.08459991
209	0x3e252cf3	0.16130428
210	0x3e4d4e85	0.20049484
211	0xbdf71e74	-0.12066355
212	0x3d29e608	0.04147914
213	0x3ded7335	0.115942396
214	0xbcc930e1	-0.02455944
215	0x3d560282	0.052248485
216	0x3d47da67	0.04879227
217	0xbe964f57	-0.29357406
218	0xbd46baf5	-0.04851814
219	0x3dd43f14	0.10363594
220	0x3d5ba366	0.053622626
221	0x3e1b48c0	0.1516447
222	0xbde66294	-0.11249271
223	0x3b707f53	0.0036696985
224	0x3d82b55d	0.063822486
225	0xbd43cbdc	-0.047801837
226	0xbd525d40	-0.05135846
227	0xbe2789a0	-0.16361094
228	0xbd52503c	-0.05134605
229	0xbdef0e47	-0.11672645
230	0x3dc70807	0.09718328
231	0x3ca6d143	0.020363456
232	0x3e6d3858	0.23166025
233	0xbc6523fb	-0.013985629
234	0xbdf665aa	-0.1203111
235	0x3e1cee0c	0.15325183
236	0xbdb65e0e	-0.08904658
237	0x3cd99de7	0.026564552
238	0x3ded392f	0.115831725
239	0x3d1737d8	0.03691849
240	0xbdc040b4	-0.09387341
241	0x3e09893b	0.13431256
242	0xbe2b67d3	-0.16738825
243	0x3daf39a5	0.08555917
244	0xbd7c0cf1	-0.06153578
245	0xbc8dfe36	-0.017333131
246	0x3dfc95fb	0.12333294
247	0xbe4ee85e	-0.20205829
248	0x3cbc98a2	0.023022
249	0xbd9b9646	-0.07597022
250	0x3e0dce51	0.13848235
251	0xbdc48f3b	-0.095976315
252	0x3c76b9c5	0.015058939
253	0x3aad6f44	0.0013232012
254	0x3e9d20ad	0.30688992
255	0x3bd4d43e	0.006495028

model.gnn.gnn_layers.0.res_connection.bias f4 [64]
0	0x3e2fcbc0	0.17167568
1	0x3e0ef684	0.13961226
2	0x3b4b66e3	0.0031036667
3	0x3e280747	0.16409026
4	0x3e0ca5b3	0.13735084
5	0x3e0a5440	0.13508701
6	0x3e4aede1	0.19817306
7	0x3dfb25e4	0.122630864
8	0x3d8ee4f8	0.06977266
9	0xbdb68e29	-0.08913834
10	0xbe21411e	-0.15747496
11	0xbdd5e7d7	-0.104446106
12	0x3dac1a37	0.084034376
13	0xbdb65f59	-0.08904905
14	0xbe2602fe	-0.16212079
15	0xbc0d665f	-0.008630364
16	0x3dc586db	0.09644862
17	0xbd2a0cd2	-0.041516133
18	0x3e0cd207	0.13751994
19	0x3e0e3773	0.1388834
20	0x3e1a7d5c	0.15086883
21	0xbbf3aeb0	-0.007436596
22	0xbdc964c8	-0.098336756
23	0x3da4d82f	0.08049046
24	0xbe10c7b0	-0.14138675
25	0xbe0d59f7	-0.1380385
26	0xbde40ff4	-0.11135855
27	0x3db5c211	0.08874906
28	0x3e31c556	0.17360434
29	0xbd5a9d97	-0.053372946
30	0x3c1c7ce1	0.009551258
31	0xbd8aca81	-0.06776906
32	0x3e257521	0.16157962
33	0x3e1a6ed2	0.15081337
34	0xbd88ea7d	-0.0668535
35	0xbcadc74b	-0.021213194
36	0xbe3b3f49	-0.1828586
37	0x3d65f7a6	0.05614438
38	0x3e15073e	0.14553544
39	0xbc8300df	-0.015991626
40	0xbdcf3669	-0.101178
41	0xbe0b8807	-0.13626109
42	0xbdc7afd7	-0.09750336
43	0xbcef8434	-0.029237844
44	0x3ca02c73	0.019552445
45	0x3d78b0ae	0.06071537
46	0x3e19142e	0.14949104
47	0x3ddf58a2	0.10905577
48	0x3de50bfb	0.11183926
49	0xbe0b91f8	-0.13629901
50	0x3d90af10	0.070646405
51	0xbde9cdf2	-0.11416234
52	0xbd45f8a2	-0.048332818
53	0xbe17d6eb	-0.14828078
54	0xbdb85cc2	-0.09002067
55	0xbdbf40ec	-0.09338555
56	0xbd93044c	-0.07178554
57	0x3e046796	0.1293014
58	0xbdef1a5d	-0.1167495
59	0x3cd9b17c	0.026573889
60	0x3d8d96f1	0.069135554
61	0x3d4387fc	0.047737107
62	0xbdb1056d	-0.08643613
63	0x3d6b20ec	0.057404444

model.gnn.gnn_layers.1.graph_conv.weight f4 [64, 64]
0	0xbc88750a	-0.016657371
1	0x3e27de72	0.1639345
2	0xbd93cde0	-0.07217002
3	0x3cd74709	0.02627899
4	0x3dd8fb7c	0.10594842
5	0xbd25e7d2	-0.040504284
6	0x3e3312ae	0.17487594
7	0x3e650b89	0.22367682
8	0x3e520631	0.20510174
9	0x3e2b1fd2	0.16711357
10	0xbd85713d	-0.06515739
11	0x3b2fdc4b	0.0026834186
12	0xbe0ea3b2	-0.13929632
13	0xbe670fe1	-0.22564651
14	0x3ea57aeb	0.3232034
15	0xbe710c0c	-0.23539752
16	0x3aab540b	0.0013071311
17	0x3e047c74	0.129381
18	0x3e6dc1e7	0.23218499
19	0x3da2d3a0	0.079505205
20	0xbc8a9977	-0.01691888
21	0x3e7e9998	0.24863279
22	0x3e0f4c06	0.13993844
23	0x3dbeb367	0.09311562
24	0xbdd64eda	-0.104642585
25	0xbe191130	-0.14947963
26	0xbe4300df	-0.19043301
27	0x3e0bb614	0.13643676
28	0x3e34ee1d	0.17668958
29	0xbe7a0646	-0.24416456
30	0x3e14eee5	0.14544256
31	0x3d7a07b4	0.061042503
32	0x3e18d623	0.14925437
33	0xbe248f39	-0.1607026
34	0x3ce18b36	0.027532201
35	0xbe325c8d	-0.17418118
36	0x3ce36421	0.027757706
37	0xbd9e21a9	-0.07721264
38	0xbdb44419	-0.08802051
39	0x3d6edb68	0.05831471
40	0xbd3a56fd	-0.045493115
41	0x3d52f49b	0.051502805
42	0x3dd59c50	0.10430205
43	0x3e66480c	0.22488421
44	0xbe0bb978	-0.1364497
45	0x3e1c0808	0.15237439
46	0x3deb4708	0.114881575
47	0x3d3ca25a	0.046053268
48	0xbd8b5c77	-0.06804746
49	0x3dc9d7f2	0.098556414
50	0xba5fa037	-0.0008530649
51	0x3e3949bc	0.18094534
52	0x3e3b84ed	0.18312426
53	0xbe455ab9	-0.19272889
54	0xbe0d4d1a	-0.13798943
55	0xbdb42a50	-0.08797133
56	0xbdc9e7f1	-0.098586924
57	0xbe19b236	-0.15009388
58	0xbe1f54a5	-0.15559633
59	0x3d285e11	0.041105334
60	0x3e2050a7	0.15655766
61	0xbd018bfd	-0.031627644
62	0xbe0d8bcd	-0.13822861
63	0xbd88d3f4	-0.06681052
64	0xbe381bb7	-0.17979322
65	0x3d5b5dba	0.05355618
66	0x3c2be105	0.010490661
67	0x3e19159a	0.14949647
68	0x3d6c97be	0.0577619
69	0xbdf526fc	-0.11970326
70	0x3d66d1cf	0.056352433
71	0x3d889b85	0.06670288
72	0x3d6fde54	0.058561638
73	0x3da8db0e	0.08244906
74	0x3db29671	0.08720101
75	0x3e2e31c4	0.17011172
76	0xbde4470c	-0.111463636
77	0x3e13c227	0.14429532
78	0x3e188ed8	0.1489824
79	0x3d3efbc1	0.04662681
80	0xbc9d87cf	-0.019229798
81	0x3defea93	0.11714663
82	0x3e494a53	0.19657259
83	0xbe07d56b	-0.13265006
84	0x3d9554dc	0.07291576
85	0x3d4742a8	0.048647553
86	0xbdebf89d	-0.115220286
87	0xbe38ec7c	-0.18058962
88	0xbe55bffb	-0.20874016
89	0x3e3dfaf0	0.18552756
90	0x3e217150	0.15765882
91	0x3e8339b5	0.25629964
92	0xbd818717	-0.063245945
93	0xbd09f1fa	-0.033678032
94	0x3dfd4efd	0.123685814
95	0x3de3c72c	0.111219734
96	0x3e0fce0e	0.14043447
97	0xbd94c343	-0.07263806
98	0x3c9bca8f	0.019017486
99	0xbd286263	-0.041109454
100	0xbe68c086	-0.22729692
101	0xbda6770d	-0.08128176
102	0xbe5a4155	-0.21313985
103	0xbd2c263d	-0.042028654
104	0xbd4d7a0e	-0.05016523
105	0xbde96d6f	-0.11397826
106	0xbe6a8ef7	-0.229061
107	0xbe319ed6	-0.17345747
108	0x3daba6ed	0.08381448
109	0x3d678d00	0.056530952
110	0x3ddb9c12	0.107231274
111	0xbc372965	-0.011179303
112	0x3d30630c	0.04306321
113	0xbd736d8d	-0.059430648
114	0xbe014d0b	-0.12627046
115	0x3d8ccace	0.068746194
116	0x3d9f07d8	0.07765168
117	0xbd94750e	-0.07248889
118	0x3d2b1da7	0.041776326
119	0xbe400daf	-0.1875522
120	0xbe20ee7f	-0.15715979
121	0xbd8821fa	-0.066471055
122	0x3ce75481	0.028238537
123	0xbdf977c3	-0.12181046
124	0x3cc2130c	0.023690723
125	0x3dd66866	0.10469131
126	0xbe62dbd5	-0.22154172
127	0xbdc73e26	-0.09728651
128	0xbe0d0f9d	-0.13775487
129	0xbb48e455	-0.0030653675
130	0xbc15d034	-0.009143878
131	0xbe17fea8	-0.14843237
132	0xbd24f91b	-0.040276628
133	0x3dbad33d	0.09122322
134	0x3e1d089d	0.15335317
135	0xbd593e37	-0.05303785
136	0x3e0282f9	0.12745275
137	0x3e00f86a	0.12594762
138	0xbe29f6ef	-0.16598104
139	0xbe4b4943	-0.19852166
140	0x3dc4c8be	0.09608601
141	0xbcb93384	-0.022607572
142	0x3e2081cc	0.15674514
143	0xbe0e51fe	-0.13898465
144	0x3d13d581	0.036092285
145	0x3dd91497	0.1059963
146	0xbc6a02fa	-0.014282936
147	0xbdd5a97b	-0.104327165
148	0xbd5c71d7	-0.053819504
149	0xbd713184	-0.058885112
150	0xbe376947	-0.17911254
151	0xbe6fee4b	-0.23430745
152	0xbdd781cc	-0.10522804
153	0x3ddcbd04	0.10778239
154	0x3e27ba25	0.16379602
155	0xbdf8077e	-0.12110804
156	0x3da3c90e	0.079973325
157	0x3e0c91cd	0.13727494
158	0x3e351e4d	0.1768734
159	0xbe5e9da5	-0.21739824
160	0x3e3ed52b	0.18636005
161	0xbe10c2f8	-0.14136875
162	0x3e01b9b9	0.12668504
163	0xbda7ca09	-0.08192832
164	0xbd8626d7	-0.06550377
165	0xbe2a3f47	-0.16625701
166	0xbe327e50	-0.17430997
167	0xbdaa464e	-0.08314191
168	0xbc22a0d3	-0.009926039
169	0xbe0d4fbd	-0.13799949
170	0xbd9348f7	-0.07191651
171	0x3e54ca0e	0.20780203
172	0xbe2d6a12	-0.16934994
173	0xbd1c223a	-0.03811858
174	0xbe03e5ce	-0.12880632
175	0x3e1f016b	0.15527885
176	0x3d83a77f	0.06428432
177	0xbe15c61b	-0.14626352
178	0xbdd7f483	-0.10544684
179	0xbe316047	-0.17321883
180	0x3d35409c	0.04425107
181	0x3e220bc3	0.15824799
182	0x3c9784d2	0.01849595
183	0x3e09623d	0.13416381
184	0x3e3567ef	0.17715429
185	0x3ddef416	0.108863994
186	0x3e04222e	0.12903664
187	0xbdb226ba	-0.08698793
188	0xbe3ffa74	-0.18747884
189	0xbcd981c8	-0.026551142
190	0xbceb811a	-0.028748084
191	0xbe4d0171	-0.20020081
192	0xbd029c2b	-0.031887215
193	0x3d05497b	0.03254078
194	0xbe596a64	-0.21231991
195	0x3de78b56	0.11305873
196	0x3d5a6fb6	0.053329192
197	0xbdaad0d4	-0.08340612
198	0xbbfbe305	-0.007686975
199	0x3e686714	0.22695571
200	0xbe1a1522	-0.15047124
201	0xbe1e0f80	-0.154356
202	0xbe0a7357	-0.13520561
203	0xbe12536b	-0.14289634
204	0xbe169ca0	-0.14708185
205	0xbe443836	-0.19162068
206	0x3e22d224	0.15900475
207	0x3e4b9f48	0.1988498
208	0xbec80178	-0.3906362
209	0xbe4a5e63	-0.19762568
210	0xbe5330b6	-0.2062405
211	0x3e37f1ab	0.17963283
212	0xbce352fc	-0.027749531
213	0xbddcd9c5	-0.10783724
214	0x3ddc2237	0.107487135
215	0xbe5b51b4	-0.21417886
216	0xbe0dd59b	-0.13851015
217	0xbc9cae2a	-0.019126017
218	0xbe90cea1	-0.28282645
219	0x3e2081c0	0.15674496
220	0xbe54bf8e	-0.20776197
221	0xbe1a11f6	-0.15045914
222	0xbe36ec29	-0.17863525
223	0x3c9467c3	0.018115884
224	0x3e201b82	0.15635493
225	0xbdbce9b7	-0.09224265
226	0xbd039037	-0.032119956
227	0x3e1f3d8d	0.15550824
228	0x3e0b235d	0.13587709
229	0x3df1f29b	0.118138514
230	0xbe1001a5	-0.14063127
231	0x3da067c0	0.07832289
232	0xbdd3a159	-0.10333509
233	0xbdd696eb	-0.10478004
234	0x3dfd579c	0.12370226
235	0x3e79e696	0.24404368
236	0xbd9a645a	-0.07538672
237	0x3c5df171	0.013546334
238	0xbdc80f12	-0.097684994
239	0xbe3b1e7f	-0.18273352
240	0x3d1ee959	0.038796756
241	0x3d8f734f	0.07004415
242	0x3e4bc788	0.19900334
243	0xbe0703d5	-0.13185056
244	0xbe688c09	-0.22709669
245	0x3dfcde06	0.12347035
246	0x3d85451a	0.06507321
247	0x3e1289e7	0.14310418
248	0x3d4dee98	0.05027637
249	0xbe35dca8	-0.17759955
250	0x3d6f6ac4	0.05845143
251	0x3e218580	0.15773582
252	0xbe78ab5f	-0.24284123
253	0xbe024bd9	-0.12724246
254	0x3ddade5b	0.10686942
255	0x3df8b42f	0.12143742

model.gnn.gnn_layers.1.graph_conv.bias f4 [64]
0	0xbcf8cb30	-0.030370325
1	0xbd0b10c7	-0.033951547
2	0x3bfc68f9	0.0077029434
3	0x3c245e56	0.010032257
4	0xbcdc5a2f	-0.026898472
5	0xbcb0e21c	-0.021592192
6	0xbc474708	-0.012162931
7	0x3ca1a569	0.019732194
8	0xbc4d6dae	-0.012538357
9	0x3b040c3a	0.002014889
10	0xbcd1f1a5	-0.02562792
11	0x3c62eb9a	0.013850117
12	0xbc91ea5a	-0.017811943
13	0xbc9f5cb0	-0.019453377
14	0x3d61659e	0.05502855
15	0x3b437746	0.0029825731
16	0x3af4240d	0.0018626467
17	0x3c54ae43	0.012981
18	0xbd18f711	-0.037344996
19	0xbc955cea	-0.018232781
20	0xbcb35eab	-0.021895727
21	0x3c9757e6	0.01847453
22	0x3a81ed92	0.000991272
23	0xbcfaa394	-0.030595578
24	0xbc176315	-0.009239932
25	0x3ba26d01	0.004956842
26	0x3d8c12e2	0.06839539
27	0x3c767acf	0.015043928
28	0xbc544409	-0.012955674
29	0xbd3bd4e5	-0.04585733
30	0xbbe0e097	-0.0068627107
31	0xbc9a7240	-0.018853307
32	0xbcd2f907	-0.025753511
33	0xbc5dbaa4	-0.013533268
34	0xbd04748c	-0.03233771
35	0xbcf264b1	-0.029589029
36	0xbc24b22a	-0.010052243
37	0xbcf66f26	-0.030082297
38	0x00000000	0.0
39	0xbc2d0f62	-0.01056275
40	0xbc6b2a79	-0.014353388
41	0x3deb43e8	0.114875615
42	0xbc9d92c0	-0.019235015
43	0xbd1c41de	-0.038148753
44	0xbc82a548	-0.015947953
45	0xbcb6c53d	-0.022310847
46	0xbcaf04f7	-0.021364672
47	0x3c36414f	0.011123969
48	0x3c7287c2	0.014802875
49	0xbbb18452	-0.005417385
50	0x3c8cd79c	0.017192654
51	0xbcea3e4a	-0.028594155
52	0xbcd86839	-0.026416885
53	0x3ab2bd8e	0.0013636814
54	0xbcc1dad3	-0.023663914
55	0xbd043b87	-0.032283332
56	0xba78c8de	-0.0009490381
57	0xbc41d6a6	-0.011830961
58	0xbb03326f	-0.0020019074
59	0xbc118314	-0.008881349
60	0xbc36a939	-0.011148744
61	0xbd18b1b9	-0.037278865
62	0xbc1c1f86	-0.009529
63	0x00000000	0.0

model.gnn.gnn_layers.1.res_connection.weight f4 [64, 64]
0	0xbdaf00a5	-0.08545045
1	0x3e2f138d	0.17097302
2	0xbb59b9a2	-0.0033222218
3	0x3db9e670	0.090771556
4	0x3e322784	0.17397887
5	0x3d61b50c	0.0551043
6	0x3e10ba01	0.14133455
7	0x3e26ccde	0.16289088
8	0xbd8b56e9	-0.06803686
9	0xbd9ff56d	-0.07810483
10	0x3e3cca0a	0.18436447
11	0xbdb8de15	-0.09026734
12	0x3c2e76db	0.010648455
13	0x3e06a996	0.1315063
14	0x3d3f9b1e	0.04677879
15	0xbdb5833a	-0.0886292
16	0x3d4bab8e	0.049724154
17	0x3d86a5f7	0.06574624
18	0xbdcf3479	-0.1011743
19	0x3c7c74b1	0.015408681
20	0x3e2013c9	0.15632547
21	0x3dcec14f	0.100954644
22	0x3d4c8df5	0.04994007
23	0xbc0dc0ff	-0.008651971
24	0x3d89c1b5	0.067264
25	0xba8a2d6a	-0.0010542099
26	0xbdafc14c	-0.0858179
27	0xbd555b75	-0.052089173
28	0x3c99ef20	0.018790781
29	0x3d489492	0.048969813
30	0x3e3d8245	0.18506725
31	0x3e1115f6	0.14168534
32	0xbd12a19e	-0.03579866
33	0x3cecf4b7	0.028925283
34	0x3e157020	0.14593554
35	0x3d33e139	0.04391596
36	0x3c8e8c3a	0.01740085
37	0x3bfeaf53	0.007772365
38	0x3cd28489	0.025697963
39	0xbcb6b31e	-0.022302207
40	0x3de6999e	0.11259769
41	0x3e1be141	0.15222646
42	0x3d991251	0.07474197
43	0xbe2f8d52	-0.17143753
44	0xbd9a87b0	-0.075454116
45	0xbd903b6f	-0.07042586
46	0xbd609801	-0.054832462
47	0x3dcb73d8	0.09934205
48	0xbd6cebe2	-0.057842143
49	0x3d39d771	0.045371477
50	0x3dc85bc6	0.097831294
51	0xbdea75b2	-0.1144823
52	0xbc42b01c	-0.011882808
53	0xbdc79172	-0.09744538
54	0x3e34f89c	0.17672962
55	0xbb89e25b	-0.004207892
56	0xbc8bc4c1	-0.017061593
57	0xbbeb664b	-0.007183825
58	0xbc7922e6	-0.015206074
59	0xbd45a2c2	-0.04825092
60	0xbca650ce	-0.020302203
61	0x3d6d2875	0.05789991
62	0x3e629794	0.22128135
63	0xbcacfdc4	-0.021117099
64	0xbe0954d5	-0.13411267
65	0xbdeb8326	-0.11499624
66	0xbd313705	-0.04326536
67	0xbdacee2e	-0.08443867
68	0x3e336575	0.17519172
69	0x3dc6b253	0.097019814
70	0x3e10053c	0.14064497
71	0x3c36d07a	0.011158103
72	0x3d2b00dd	0.04174887
73	0xbd18b6a0	-0.03728354
74	0x3e483b3c	0.19553846
75	0x3d4d39d8	0.050103992
76	0xbd442b6b	-0.04789297
77	0x3d757137	0.059922423
78	0x3d19dc50	0.037563622
79	0xbdbcc5a6	-0.09217386
80	0xbe495e9b	-0.19664995
81	0x3dc3bdfa	0.095577195
82	0xbdf8900d	-0.121368505
83	0xbda30600	-0.07960129
84	0x3dcb1754	0.09916559
85	0x3d84a196	0.064761326
86	0x3d5dc3a4	0.054141656
87	0xbca79c84	-0.020460375
88	0x3e125ede	0.14294001
89	0x3d3d9343	0.046283018
90	0xbe5bd893	-0.21469335
91	0xbdf00d07	-0.11721235
92	0x3ddaed2f	0.106897704
93	0xbd7ba849	-0.061439786
94	0xbd4acc55	-0.049511272
95	0x3dc99a8d	0.09843931
96	0xbe1885e4	-0.14894825
97	0xbd97c01c	-0.07409689
98	0xbd46ccdc	-0.048535213
99	0x3e11650e	0.14198706
100	0xbde83b75	-0.113394655
101	0xbd73f49b	-0.059559446
102	0x3d9da79d	0.07697985
103	0x3dcee9b0	0.10103166
104	0x3e1dd039	0.15411462
105	0xbd8ea940	-0.069658756
106	0xbdcfed98	-0.10152739
107	0xbde384db	-0.111093245
108	0x3d0d6bbd	0.034526575
109	0x3dadb6db	0.084821425
110	0xbca852f8	-0.020547375
111	0x3cee214d	0.029068613
112	0x3dc04bc2	0.0938945
113	0xbd02df66	-0.03195133
114	0x3d262b56	0.040568672
115	0xbda82b08	-0.082113326
116	0xbdfcc303	-0.12341883
117	0xbd5c59a6	-0.053796433
118	0x3d114a56	0.035471283
119	0x3d6de90a	0.05808357
120	0x3b5d2337	0.0033742914
121	0x3d2117aa	0.03932921
122	0x3e30e9d6	0.17276701
123	0x3d8b8d23	0.06814029
124	0x3d6a8b55	0.057261784
125	0x3dfd6d87	0.12374406
126	0x3d922d43	0.07137539
127	0xbe16ec16	-0.14738497
128	0xbd5d2bda	-0.0539969
129	0xbd8c7089	-0.06857402
130	0xbd1dcc90	-0.038525164
131	0x3d18d0b4	0.03730841
132	0x3cac0b92	0.02100161
133	0x3db35ef0	0.08758342
134	0xbd85e280	-0.06537342
135	0x3d2929e7	0.041299727
136	0xbd59b0a5	-0.053146977
137	0xbd7efe58	-0.06225428
138	0xbd6db33a	-0.058032252
139	0x3d9c86cc	0.07642898
140	0xbdc34aec	-0.095357746
141	0xbd3a3d14	-0.045468405
142	0xbd288534	-0.041142657
143	0xbcd132f5	-0.025536994
144	0xbb03ec34	-0.0020129802
145	0xbdea1376	-0.11429493
146	0xbd724c9d	-0.059155095
147	0xbddbe0ee	-0.10736261
148	0xbcdc8a52	-0.026921425
149	0xbcddc788	-0.027072683
150	0x3d807e0b	0.06274041
151	0xbbf7fd2b	-0.007568022
152	0xbd9cd68e	-0.076581106
153	0xbccab3dc	-0.024743967
154	0x3c994d2a	0.018713553
155	0x3d1206f6	0.03565117
156	0x3c72f84a	0.014829705
157	0xbe03325a	-0.12812176
158	0x3d5ae01c	0.053436384
159	0xbdb21f8b	-0.086974226
160	0x3d9999c4	0.075000316
161	0x3d4467c9	0.04795054
162	0xbdadf4aa	-0.084939316
163	0xbdcf9f7b	-0.1013784
164	0xbd227090	-0.03965813
165	0xbde09393	-0.109656475
166	0xbde59d0e	-0.112115964
167	0xbd957dca	-0.07299383
168	0xbdde116b	-0.10843166
169	0xbda2ebbf	-0.07955121
170	0xbde309bc	-0.11085841
171	0x3c10fab0	0.008848831
172	0x3dc5e5a1	0.09662939
173	0xbd420ed8	-0.047377437
174	0x3d0be710	0.034155905
175	0xbcec7eed	-0.028869117
176	0x3d829e38	0.06377834
177	0xbdbd026f	-0.0922898
178	0xbd796bd8	-0.060893863
179	0x3d096cf1	0.03355116
180	0x3d958f8e	0.073027715
181	0xbd0a4073	-0.03375287
182	0x3dc27715	0.09495369
183	0xbd75b8f4	-0.05999084
184	0x3d295ab6	0.041346274
185	0x3d3c7c9f	0.046017285
186	0xbd072e8f	-0.033003386
187	0xbdf74334	-0.12073365
188	0x3da494db	0.080362044
189	0x3dbeb8e7	0.09312611
190	0xbd89962b	-0.067180954
191	0xbdee3ec2	-0.11633064
192	0xbd944983	-0.07240584
193	0x3d8b8a31	0.06813467
194	0x3df6d3ac	0.12052092
195	0x3de09deb	0.109676205
196	0xbddb4c2d	-0.10707889
197	0x3e50617b	0.20349686
198	0x3e4dbe9e	0.20092246
199	0xbc71c404	-0.014756206
200	0x3dc5bfbb	0.0965571
201	0xbdb9b9bf	-0.090686314
202	0xbd4c1078	-0.049820393
203	0xbd71b86b	-0.059013765
204	0x3e1760cc	0.14783019
205	0x3d283837	0.041069236
206	0xbd62c1ba	-0.055360533
207	0xbd11c137	-0.035584655
208	0xbd9e7ebe	-0.07739018
209	0x3df23f65	0.11828498
210	0xbe079ec3	-0.13244157
211	0x3e22090f	0.15823768
212	0x3a1fa7d6	0.0006090378
213	0x3dde93d0	0.10868037
214	0x3bad1949	0.0052825552
215	0x3da6b713	0.081403874
216	0xbbaff3f6	-0.0053696586
217	0x3dcdc6f8	0.10047716
218	0xbd6fcea3	-0.058546674
219	0xbdae2a19	-0.08504123
220	0x3d1aef13	0.037825655
221	0x3dc3b5cf	0.095561616
222	0xbc9eed49	-0.019400256
223	0xbdb7857b	-0.08961006
224	0xbdc632c0	-0.096776485
225	0x3e4b5c66	0.19859466
226	0x3e1b62f4	0.15174466
227	0x3d85731d	0.06516097
228	0x3d7995d2	0.060933895
229	0x3dd0e33e	0.10199593
230	0xbd7fdeb6	-0.062468253
231	0x3d9df3b7	0.077125005
232	0x3d7c4f3a	0.061598994
233	0x3ca3adda	0.01998036
234	0x3d742fda	0.059615947
235	0xbd394645	-0.04523303
236	0x3e00b1a6	0.12567768
237	0xbe007dd1	-0.12547995
238	0xbbaeefeb	-0.005338659
239	0x3dcf2b0f	0.10115635
240	0x3cc5b2eb	0.024133166
241	0xbe19c4b7	-0.15016447
242	0x3dcf3073	0.10116663
243	0xbe466555	-0.19374593
244	0xbc13a91f	-0.00901249
245	0xbe100f06	-0.14068231
246	0x3da4a768	0.08039743
247	0xbd81bc96	-0.06334798
248	0xbd841411	-0.0644914
249	0xbc2bb83c	-0.010480937
250	0xbc1460c6	-0.009056276
251	0x3ddb3fa4	0.10705498
252	0x3d211843	0.03932978
253	0xbd7d1511	-0.06178767
254	0x3e1223f4	0.14271528
255	0xbd93aa3c	-0.07210204

model.gnn.gnn_layers.1.res_connection.bias f4 [64]
0	0x3d7819e8	0.06057158
1	0xbdb967b1	-0.09052981
2	0xbd9813f0	-0.07425678
3	0x3cf20245	0.029542098
4	0x3baeef2f	0.0053385715
5	0x3dde5e97	0.10857885
6	0x3d93c560	0.07215381
7	0x3c9f12da	0.019418169
8	0xbd527337	-0.05137941
9	0x3dbf7292	0.093480244
10	0x3bf3d23a	0.0074408324
11	0xbd86bbb4	-0.0657877
12	0xbdc05960	-0.09392047
13	0xbd72c98d	-0.059274245
14	0x3d23f636	0.040029727
15	0x3d6c8555	0.057744343
16	0xbda20800	-0.07911682
17	0x3c2401b6	0.010010174
18	0x3ccfab41	0.025350215
19	0x3dd92f90	0.10604775
20	0xbe2460cf	-0.16052555
21	0xbbc3090e	-0.005952007
22	0x3d86a72b	0.065748535
23	0x3d749c7c	0.059719548
24	0x3dd68ced	0.10476098
25	0x3e170130	0.14746547
26	0xbd1c5a5f	-0.038172122
27	0xbd5ebcc5	-0.054379243
28	0xbb6d92d1	-0.003625084
29	0x3ce84c80	0.02835679
30	0xbd0cff78	-0.03442332
31	0xbd680af2	-0.056651063
32	0x3d622698	0.055212587
33	0x3d6624aa	0.05618731
34	0xbd805b23	-0.06267383
35	0x3d226c6a	0.039654173
36	0x3e1629a7	0.14664327
37	0x3d770a82	0.060312755
38	0xbe01c87a	-0.12674132
39	0x3da43aaf	0.080190055
40	0xbd2ce971	-0.042214815
41	0xbce929cd	-0.028462315
42	0xbdd67e41	-0.104733
43	0xbcaf65b4	-0.0214108
44	0xbd75949f	-0.05995619
45	0x3d3cfbec	0.04613869
46	0x3da7b713	0.081892155
47	0x3d245bb3	0.040126514
48	0x3c549115	0.012974043
49	0xbc688ace	-0.01419325
50	0x3c1c47ba	0.009538585
51	0x3e120973	0.14261417
52	0x3e0080bf	0.12549113
53	0x3de8c2cc	0.113652796
54	0x3d94b404	0.07260898
55	0x3d70ebdd	0.058818687
56	0xbba4a641	-0.005024702
57	0xbdd005ca	-0.10157354
58	0xbd62f6da	-0.055411197
59	0xbc2fc96d	-0.010729176
60	0xbe085395	-0.13313134
61	0xbcf583c0	-0.02997005
62	0x3c0cd5cd	0.008595896
63	0x3da60a98	0.08107489

model.readout.weight_and_sum.atom_weighting.0.weight f4 [1, 64]
0	0xbe13b9f3	-0.14426403
1	0xbde33aa5	-0.1109517
2	0xbdc7cdeb	-0.097560726
3	0xbe1a530b	-0.15070741
4	0xbd1ec31b	-0.038760286
5	0x3dcccffa	0.10000606
6	0x3e068d6f	0.1313989
7	0xbd539979	-0.051660035
8	0xbdafb1ad	-0.08578811
9	0xbdcab2c2	-0.098973766
10	0xbc46b942	-0.01212913
11	0xbe2140ad	-0.15747328
12	0xbdda8267	-0.106694035
13	0xbd5e7e3e	-0.054319613
14	0x3c30a456	0.010781368
15	0xbded57e8	-0.115890324
16	0xbdf35ed7	-0.11883324
17	0xbdd0c7fe	-0.101943955
18	0xbda53969	-0.08067591
19	0xbd891834	-0.066940695
20	0x3d821bf6	0.063529894
21	0x3d691d01	0.056912426
22	0x3e445121	0.19171573
23	0xbd0ea38d	-0.034823943
24	0x3d87cd3e	0.06630944
25	0xbe03393d	-0.12814803
26	0xbc35f752	-0.011106329
27	0xbd3e16c2	-0.046408422
28	0xbde70ea7	-0.112820916
29	0xbcb3a3e5	-0.021928737
30	0xbd8761df	-0.06610464
31	0xbd715a73	-0.05892415
32	0xbda5b3fa	-0.080909684
33	0xbe0e5eea	-0.13903394
34	0x3cbacc0e	0.022802379
35	0x3e15fd3d	0.14647384
36	0x3c681141	0.01416427
37	0x3d39aa19	0.045328233
38	0xbd0ed5ba	-0.034871794
39	0xbe076c1e	-0.13224837
40	0xbdfcf90a	-0.12352188
41	0xbdb87fcd	-0.09008751
42	0x3e0168d3	0.12637644
43	0x3cc1f49d	0.023676211
44	0x3dc211c7	0.09476047
45	0xbd9221f0	-0.07135379
46	0xbd5afe65	-0.053465266
47	0xbdeb3f3c	-0.114866704
48	0xbcffce12	-0.031226192
49	0xbdd99ce0	-0.10625625
50	0x3b8abe88	0.004234139
51	0xbe21f07b	-0.15814392
52	0x3dfa9b2c	0.12236628
53	0x3b76ca38	0.0037657153
54	0x3d1c2826	0.038124226
55	0xbc9717e6	-0.018444013
56	0x3d502333	0.05081482
57	0xb9cadd19	-0.00038693173
58	0xbcfafa3e	-0.030636903
59	0xbd43c95f	-0.047799464
60	0x3ce683ce	0.028139021
61	0xbdc68489	-0.09693248
62	0xbc0b7abd	-0.00851315
63	0x3d949f12	0.07256903

model.predict.predict.1.weight f4 [128, 128]
0	0x3d0e3712	0.034720488
1	0x3cf0d06a	0.029396255
2	0xbab5cc1f	-0.0013870037
3	0x3d7b0c93	0.06129129
4	0x3d8a3ef1	0.06750286
5	0xbda5e75b	-0.08100768
6	0xbdd7a6dd	-0.105298735
7	0xbdcadd4b	-0.099054895
8	0xbdb3c89b	-0.08778497
9	0xbd32323e	-0.043504946
10	0x3d42d88b	0.047569793
11	0xbdb83320	-0.08994126
12	0xbd953db9	-0.07287163
13	0xbda3b430	-0.079933524
14	0xbcfe7239	-0.031060325
15	0xbb8f1ef8	-0.0043677054
16	0xbd862488	-0.065499365
17	0xbdb34481	-0.087533005
18	0x3cf40e69	0.029792028
19	0xbd096f7a	-0.033553578
20	0xbce9fb42	-0.028562192
21	0x3d881df0	0.06646335
22	0x3d874d52	0.066065446
23	0xbc672986	-0.014109021
24	0xbda06c7e	-0.07833193
25	0x3bdf4301	0.0068134074
26	0x3d1a3cc7	0.037655618
27	0x3c1f57f7	0.009725562
28	0xbdbc10b5	-0.09182874
29	0x3dc410c8	0.09573513
30	0xbda8e2d8	-0.08246392
31	0x3d537c64	0.0516323
32	0x3c587692	0.013211863
33	0xbd851500	-0.06498146
34	0x3d761e62	0.06008757
35	0x3bc06d49	0.005872403
36	0x3ccca330	0.024980158
37	0x3d564825	0.052314896
38	0xbc52a2e7	-0.012856222
39	0x3d06eecc	0.03294258
40	0xbcafc911	-0.02145818
41	0xbd3f477b	-0.04669903
42	0xbda4c983	-0.08046248
43	0xbd97427e	-0.07385729
44	0xbd36f5f8	-0.044668168
45	0x3d46bc0d	0.048519183
46	0xbde2a58b	-0.11066731
47	0xbcc79711	-0.024364026
48	0xbd8a5c83	-0.067559265
49	0xbd2ba1c0	-0.041902304
50	0xbdb2b2ee	-0.087255344
51	0xbd87e9b4	-0.06636372
52	0xbdb755ce	-0.08951913
53	0x3d7c3f38	0.061583728
54	0x3cedf3f3	0.029046988
55	0xbdc4f72f	-0.09617459
56	0xbd9b081a	-0.075699046
57	0xbd041d76	-0.03225466
58	0x3d48b198	0.04899749
59	0xbdd37bcc	-0.10326347
60	0xbc8fe6ec	-0.017566167
61	0x3d0733e8	0.033008486
62	0xbd281ce3	-0.041043174
63	0x3b7f01bd	0.0038910948
64	0xbda2b8aa	-0.07945378
65	0x3d240858	0.04004702
66	0xbd912a3e	-0.07088135
67	0xbd322308	-0.04349044
68	0x3cec46cc	0.028842352
69	0x3b882403	0.0041546836
70	0xbd8d9a7c	-0.06914231
71	0xbdbda7cf	-0.092605226
72	0xbd806282	-0.06268789
73	0xbde11d96	-0.10991971
74	0xbb93c4d7	-0.004509549
75	0x3c8a72a2	0.016900364
76	0xbd6c18e7	-0.057640936
77	0xbd91b2e9	-0.071142025
78	0xbad1e45a	-0.0016013489
79	0xbbb1eeba	-0.0054300698
80	0xbd980c71	-0.07424248
81	0x3d211795	0.03932913
82	0xbd0d17c2	-0.034446485
83	0xbd8dffdd	-0.06933568
84	0x3d392be8	0.045207888
85	0x3c4df64b	0.012570928
86	0xbd9d6511	-0.076852925
87	0xbd10b3b8	-0.035327643
88	0x3bfc2f06	0.0076960353
89	0xbd717f32	-0.058959194
90	0xbc09f62d	-0.008420509
91	0xbdb4712c	-0.08810648
92	0xbd835ec1	-0.06414557
93	0x3ac3c795	0.0014936799
94	0x3d5b4244	0.053529993
95	0xbc41b8e7	-0.011823869
96	0xbd7db1c6	-0.061937116
97	0x3d155ffc	0.03646849
98	0xbde22bed	-0.110435344
99	0xbc359e04	-0.011085037
100	0x3a475137	0.00076033495
101	0x3b0b58d1	0.0021262656
102	0x3d751321	0.059832696
103	0xbd664afc	-0.056223854
104	0x3d6209ec	0.055185243
105	0x3c68b07d	0.014202234
106	0x3d81eb48	0.063437045
107	0x3c773086	0.0150872525
108	0x3b7e4fac	0.0038804812
109	0x3c7b2151	0.0153277675
110	0xbd995fb2	-0.074889556
111	0xbd9a5bd4	-0.07537046
112	0xbc884a31	-0.01663694
113	0x3c2f359b	0.010693933
114	0xbd2ca755	-0.042151768
115	0xbb88a834	-0.004170442
116	0x3d2f0431	0.042728607
117	0xbd130e7c	-0.035902485
118	0x3d41427b	0.04718254
119	0x3cdfc39d	0.027314955
120	0xb9ca0fc3	-0.00038540186
121	0xbd582983	-0.052773964
122	0x3b856fc3	0.004072161
123	0xbd80d8f8	-0.062913835
124	0x3c429919	0.011877322
125	0xbccd7b80	-0.025083303
126	0x3d238f67	0.03993168
127	0xbcaf7af3	-0.021420931
128	0xbd45842f	-0.048221763
129	0x3d0f2ba7	0.03495374
130	0x3d98b4ef	0.07456385
131	0xbd2b140b	-0.04176716
132	0xbd658f16	-0.05604466
133	0x3d829a31	0.06377066
134	0x3b5a4acc	0.0033308743
135	0xbda4ceef	-0.08047282
136	0x3d2e9f56	0.042632423
137	0x3d21459a	0.039373018
138	0x3d527070	0.05137676
139	0xbdb2efc0	-0.08737135
140	0x3da50c1a	0.08058949
141	0xbc7a484d	-0.015276027
142	0x3d9651b0	0.073397994
143	0xbd49b3fe	-0.04924392
144	0xbd454f55	-0.04817136
145	0xbd58c187	-0.052918937
146	0xbc101699	-0.00879445
147	0xbd4c1b55	-0.049830753
148	0xbce7d4e2	-0.028299753
149	0xbdbb1789	-0.09135348
150	0xbccda37b	-0.025102368
151	0x3d0e6610	0.034765303
152	0x3d902485	0.070382155
153	0x3d84fe47	0.06493812
154	0xbda0662d	-0.078319885
155	0x3d62e005	0.055389423
156	0xbd196e5a	-0.037458755
157	0xbd9f1485	-0.07767586
158	0x3c91dabf	0.017804502
159	0x3d57bc1b	0.052669626
160	0xbd8bba72	-0.06822671
161	0xbc5a3c35	-0.013320019
162	0x3d430a36	0.04761716
163	0x3db6de62	0.08929135
164	0xbd90cc49	-0.07070214
165	0x3d43ebab	0.047832172
166	0x3d521d42	0.051297434
167	0xbd8c3664	-0.06846312
168	0x3d8ab7e8	0.067733586
169	0x3d22f3b1	0.039783183
170	0x3d0b5ee0	0.034026027
171	0x3dacbd5f	0.08434557
172	0xbcd72522	-0.026262823
173	0xbd202353	-0.039096188
174	0x3d6d0b66	0.0578722
175	0xbd427688	-0.04747632
176	0xbc61889c	-0.01376548
177	0xbdd937b6	-0.10606329
178	0xbc2dd926	-0.010610854
179	0xbc785aff	-0.015158414
180	0xbd3ec9bf	-0.04657912
181	0xbbd02c20	-0.0063529164
182	0xbca27534	-0.019831277
183	0xbca4b73c	-0.020106904
184	0xbd57b2bb	-0.052660685
185	0xbc3a0df2	-0.011355864
186	0x3cd8154b	0.02637734
187	0x3c674502	0.014115574
188	0xbd8ed879	-0.06974883
189	0x3da9ef8b	0.08297642
190	0xbd91dbdb	-0.07122012
191	0xbd845ead	-0.064633705
192	0xbd356ea8	-0.044294983
193	0x3cde7ef6	0.027160149
194	0xbda55b8f	-0.08074104
195	0x3d039377	0.032123055
196	0x3d589fef	0.0528869
197	0x3d296b41	0.04136205
198	0xbd41bf78	-0.04730174
199	0x3d51a8f9	0.051186536
200	0xbd1c51f5	-0.038164098
201	0xbc8bd3d2	-0.017068777
202	0xbc15d1e9	-0.009144285
203	0x3d61c353	0.055117916
204	0x3d0cf527	0.034413483
205	0xbdbd87c5	-0.092544116
206	0xbdbae3ae	-0.09125458
207	0xbdc418a0	-0.09575009
208	0xbca68a2d	-0.02032956
209	0x3d96ee6e	0.073696956
210	0xbd931a87	-0.07182794
211	0x3acfb013	0.0015845321
212	0xbd539dd4	-0.05166419
213	0x3b1d9e01	0.0024050476
214	0xbdc9836d	-0.098395206
215	0x3cd5d124	0.026100703
216	0xbda21d9e	-0.07915805
217	0x3a2ce3e8	0.000659524
218	0xbcdbc4bd	-0.02682721
219	0xbcb06a51	-0.02153507
220	0xbdbcd9f4	-0.09221259
221	0xbd095a68	-0.033533484
222	0xbd287935	-0.041131217
223	0x3d855f66	0.065123364
224	0x3bc13892	0.0058966363
225	0x3d84c044	0.06481984
226	0xba770a7b	-0.0009423864
227	0x3cb627e3	0.022235816
228	0xbdb8adf9	-0.09017558
229	0xbc2cc84a	-0.0105457995
230	0x3d4a53f2	0.049396463
231	0x3c3658a9	0.011129537
232	0x3d396a90	0.04526764
233	0x3d2e5bcc	0.042568013
234	0xbd2c9305	-0.042132396
235	0xbd78c938	-0.060738772
236	0xbd53dc96	-0.05172404
237	0x3d89d151	0.06729377
238	0xbda62a08	-0.081134856
239	0xbdb1eca4	-0.08687714
240	0x3cf9eb5d	0.030507738
241	0x3c6885ef	0.0141920885
242	0x3c891228	0.01673229
243	0xbdd2c786	-0.10291962
244	0xbcccb7ee	-0.024990048
245	0xbdb26d1c	-0.08712217
246	0xbd65c8a1	-0.056099538
247	0x3cb71a34	0.022351362
248	0x3d73c7b9	0.059516642
249	0x3da12dfd	0.078701
250	0xbdad2db1	-0.084559806
251	0xbcc71e97	-0.024306579
252	0xbd6a4651	-0.057195965
253	0x3c1f2fe5	0.009716009
254	0xbdb2d48e	-0.08731948
255	0x3d28cd99	0.0412117

model.predict.predict.1.bias f4 [128]
0	0xbdddf77e	-0.10838221
1	0xbdc950bb	-0.09829851
2	0xbd8f936f	-0.070105426
3	0xbb7b7118	-0.003836697
4	0xbd9d3931	-0.07676924
5	0xbdb66faf	-0.08908021
6	0x3d0c3e47	0.03423908
7	0x3c070bee	0.00824259
8	0xbce20115	-0.027588407
9	0x3e59539b	0.21223299
10	0x3d9355dc	0.07194111
11	0x3b5ec4d0	0.003399182
12	0xbd934917	-0.07191675
13	0x3c7b50b8	0.015339069
14	0x3de02cdf	0.109460585
15	0xbe05a4b5	-0.13051112
16	0xbd57b664	-0.052664176
17	0x3d3ab37d	0.04558133
18	0xbc7ee624	-0.0155577995
19	0xbd613518	-0.054982275
20	0x3a9ba34f	0.0011874231
21	0x3de52f71	0.11190689
22	0xbdc93809	-0.09825141
23	0x3d8a6510	0.067575574
24	0x3d106899	0.035256002
25	0x3cdae24f	0.02671924
26	0x3c770a63	0.01507816
27	0x3c0e5159	0.008686387
28	0xbd535cb6	-0.051602088
29	0x3d8e7568	0.06955987
30	0xbccab890	-0.02474621
31	0x3d380ca5	0.044933934
32	0xbc3a3432	-0.011364983
33	0xbdbd2db5	-0.092372335
34	0xbc37581c	-0.0111904405
35	0xbd672ea8	-0.05644098
36	0xbca0feea	-0.019652802
37	0xbd65d064	-0.05610694
38	0x3d8248f1	0.06361569
39	0x3deac0dc	0.11462566
40	0x3bc4d21c	0.0060064923
41	0xbdd62ce6	-0.104577824
42	0x3dc5fe46	0.096676394
43	0xbcb5420a	-0.022126216
44	0x3d8ef1a5	0.06979684
45	0xbdccdaab	-0.10002645
46	0xbd075d8a	-0.03304819
47	0xbd0088d0	-0.031380475
48	0xbdb3fc36	-0.0878834
49	0xbc83e978	-0.016102538
50	0xbd30344d	-0.043018628
51	0xbd301c0d	-0.0429955
52	0xbdcbaf1b	-0.09945508
53	0x3aa51261	0.0012593978
54	0xbd4122ab	-0.047152203
55	0xbcd4f370	-0.025994986
56	0x3c25d992	0.010122674
57	0x3ce188ba	0.027531017
58	0xbd50a44d	-0.05093794
59	0x3d36da1c	0.0446416
60	0xbc92e7e1	-0.017932834
61	0x3d56a430	0.052402675
62	0xbd80737f	-0.06272029
63	0x3d255cc8	0.040371686
64	0x3b8f945c	0.0043816995
65	0x3d8d879a	0.069106296
66	0xbc013e1a	-0.007888341
67	0x3d434c47	0.047680166
68	0x3d91642c	0.070991844
69	0x3ca13590	0.01967886
70	0xbdb68cb2	-0.08913554
71	0x3bb2f781	0.0054616337
72	0x3d85dff4	0.06536856
73	0xbdcae665	-0.099072255
74	0x3ddd9e94	0.10821262
75	0x3dd6a9b8	0.1048159
76	0x3dc25acd	0.09489975
77	0xbd8389f3	-0.06422796
78	0x3d4e4d50	0.0503667
79	0xbdbdad10	-0.09261525
80	0x3d94fd70	0.07274902
81	0xbcae6b5a	-0.021291424
82	0x3d892ed2	0.066983834
83	0xb9c23abc	-0.00037046324
84	0xbd9eb5b2	-0.077494994
85	0x3d248de1	0.04017437
86	0xbc8ef81d	-0.017452294
87	0xbc5e0000	-0.013549805
88	0x3c7d0671	0.01544343
89	0xbd9f1adf	-0.07768797
90	0xbd05e88c	-0.032692477
91	0x3d26286a	0.040565886
92	0x3d751ee6	0.05984392
93	0xbd70d957	-0.05880102
94	0xbc42f91c	-0.011900213
95	0x3b253e22	0.0025214036
96	0xbdb833d4	-0.089942604
97	0xbdeb9e35	-0.11504785
98	0x3dc1c676	0.094616815
99	0xbe37c70c	-0.17947024
100	0x3dc3ce92	0.095608845
101	0x3da9b7d8	0.082870185
102	0x3d82048e	0.06348525
103	0x3d082ed5	0.033247788
104	0xbd79e6aa	-0.061010994
105	0xbc4ce8ff	-0.0125067225
106	0x3a8ef66e	0.0010907182
107	0xbcf62de8	-0.030051187
108	0x3d1a357f	0.037648674
109	0x3d11ebb0	0.03562516
110	0xbc5e5148	-0.013569184
111	0xbde249d3	-0.11049237
112	0xbe078832	-0.13235548
113	0xbd5015ea	-0.05080215
114	0xbce7ea10	-0.028309852
115	0x3d8157ca	0.063155726
116	0x3c108088	0.008819707
117	0x3c5fdf56	0.013664087
118	0x3d79f7f0	0.061027467
119	0xbda7fdbc	-0.08202693
120	0xbe23990f	-0.15976356
121	0x3c1f6abe	0.009730039
122	0xbdb84082	-0.08996679
123	0x3d0c3863	0.034233462
124	0xbda488f8	-0.08033937
125	0x3cab9f41	0.020949962
126	0x3d3ef800	0.04662323
127	0x3d8c6c43	0.06856587

model.predict.predict.3.weight f4 [128]
0	0x3f7a3fc1	0.9775353
1	0x3f7d74df	0.99006456
2	0x3f8169b3	1.0110382
3	0x3f794693	0.9737331
4	0x3f7808af	0.9688825
5	0x3f796f1a	0.9743515
6	0x3f7fca9b	0.99918526
7	0x3f55ec1c	0.835634
8	0x3f789236	0.970981
9	0x3f7a4cad	0.9777325
10	0x3f6a728c	0.91581035
11	0x3f80c800	1.0061035
12	0x3f7badc2	0.9831201
13	0x3f761de6	0.9613937
14	0x3f6c11d6	0.92214715
15	0x3f7813a8	0.96904993
16	0x3f73e016	0.95263803
17	0x3f6a428e	0.91507804
18	0x3f583448	0.84454775
19	0x3f804ca4	1.0023389
20	0x3f7a2530	0.97712994
21	0x3f7964dd	0.9741953
22	0x3f783050	0.9694872
23	0x3f7e766d	0.99399453
24	0x3f776a67	0.9664673
25	0x3f7d0d61	0.9884854
26	0x3f78f735	0.9725221
27	0x3f80a930	1.0051632
28	0x3f7dae74	0.9909432
29	0x3f72d3c5	0.94854385
30	0x3f780f52	0.96898377
31	0x3f7887f6	0.9708246
32	0x3f794e40	0.97385025
33	0x3f7ba829	0.9830347
34	0x3f6d9e69	0.9281984
35	0x3f6d00d4	0.9257939
36	0x3f796e64	0.9743407
37	0x3f73c62f	0.9522428
38	0x3f72adb1	0.9479628
39	0x3f77dd20	0.96821785
40	0x3f75a244	0.9595072
41	0x3f6820ca	0.9067503
42	0x3f44cb6b	0.7687289
43	0x3f7d09fd	0.98843366
44	0x3f70d7d4	0.9407933
45	0x3f7640c0	0.9619255
46	0x3f6bc21f	0.9209308
47	0x3f7e5663	0.99350566
48	0x3f7d6086	0.9897541
49	0x3f7d6180	0.989769
50	0x3f51c713	0.8194439
51	0x3f671505	0.9026645
52	0x3f7cd8ca	0.98768294
53	0x3f7bbbae	0.9833325
54	0x3f78ff89	0.97264916
55	0x3f7b7bc1	0.9823571
56	0x3f701070	0.9377508
57	0x3f7ce20a	0.9878241
58	0x3f7d3cc4	0.98920846
59	0x3f789af8	0.97111464
60	0x3f807e41	1.003853
61	0x3f6b984e	0.92029274
62	0x3f7bea68	0.9840455
63	0x3f790782	0.9727708
64	0x3f7c58d9	0.9857307
65	0x3f80b52d	1.005529
66	0x3f63c0ca	0.8896605
67	0x3f6dede3	0.9294111
68	0x3f7c2071	0.98487
69	0x3f7e5455	0.9934743
70	0x3f71f9b4	0.9452164
71	0x3f7c9a31	0.9867278
72	0x3f801358	1.0005903
73	0x3f7a1cfc	0.97700477
74	0x3f7ae618	0.98007345
75	0x3f7b3390	0.98125553
76	0x3f777c9d	0.9667452
77	0x3f4be75b	0.79649895
78	0x3f759f9f	0.9594669
79	0x3f36f74e	0.71471107
80	0x3f80b45f	1.0055045
81	0x3f798551	0.9746905
82	0x3f76d268	0.96414804
83	0x3f7fb641	0.9988747
84	0x3f7ba7d8	0.98302984
85	0x3f668465	0.9004577
86	0x3f720812	0.94543564
87	0x3f79d93e	0.9759711
88	0x3f818a3d	1.0120312
89	0x3f7a3698	0.97739553
90	0x3f7a3865	0.977423
91	0x3f750098	0.9570403
92	0x3f5c94a9	0.8616434
93	0x3f815136	1.0102909
94	0x3f542a34	0.82876897
95	0x3f682ef5	0.9069665
96	0x3f754bd7	0.9581885
97	0x3f78d1e5	0.97195274
98	0x3f5c8970	0.86147213
99	0x3f7beb61	0.98406035
100	0x3f693113	0.91090506
101	0x3f6afc51	0.91791254
102	0x3f7cb7d6	0.9871801
103	0x3f54c90e	0.83119285
104	0x3f6dc97f	0.92885584
105	0x3f475b34	0.7787354
106	0x3f7f9526	0.9983696
107	0x3f585af1	0.84513766
108	0x3f743605	0.9539493
109	0x3f2b1901	0.6683503
110	0x3f605081	0.8762284
111	0x3f7cff19	0.9882675
112	0x3f7f50f5	0.99732906
113	0x3f776ffc	0.9665525
114	0x3f72ae9c	0.9479768
115	0x3f711848	0.94177675
116	0x3f7b713c	0.98219657
117	0x3f7801f8	0.96878004
118	0x3f6e00fb	0.92970246
119	0x3f806c60	1.0033073
120	0x3f724edb	0.94651574
121	0x3f78c187	0.971703
122	0x3f728e0e	0.9474801
123	0x3f81a3d5	1.0128123
124	0x3f7cc46f	0.98737234
125	0x3f7d9cc8	0.99067354
126	0x3f7d815b	0.99025506
127	0x3f828cbf	1.0199202
