checkpoints/GCM/best_f1_score/checkpoint1.pt (torch, 375109 bytes, 47 tensors)

model.gnn.gnn_layers.0.graph_conv.weight f4 [30, 64]
0	0xbe96f0b7	-0.29480526
1	0x3cd74948	0.02628006
2	0xbd9fbcb6	-0.07799666
3	0xbca3817c	-0.019959204
4	0x3e80adf5	0.2513272
5	0xbe8c1308	-0.2735827
6	0x3e4a22da	0.19739857
7	0xbe4dc197	-0.2009338
8	0xbe482d58	-0.19548547
9	0x3e41c1d0	0.1892159
10	0x3dc046fd	0.0938854
11	0xbea75d9b	-0.32688603
12	0xbdc735de	-0.09727071
13	0xbdae6f54	-0.08517328
14	0x3e2fbdbe	0.17162225
15	0xbe0cdc5b	-0.13755934
16	0xbdb8b953	-0.09019723
17	0x3e33757d	0.17525287
18	0xbc6fcee1	-0.014636726
19	0x3c5012f1	0.0126998285
20	0x3da9ea56	0.08296649
21	0xbdcdd4ee	-0.10050379
22	0x3c47ab0d	0.012186778
23	0x3e8e87dc	0.27838027
24	0xbdca80e2	-0.09887864
25	0xbe4cc3d1	-0.19996573
26	0x3e0c8b0b	0.13724916
27	0xbc4ba8f8	-0.012430422
28	0x3e2034f8	0.15645206
29	0xbe3eb8cf	-0.18625186
30	0xbe7b1ce2	-0.24522737
31	0xbe22a5da	-0.1588358
32	0x3d8a8082	0.06762792
33	0xbe3f7d34	-0.18700105
34	0x3e046a0f	0.12931083
35	0xbe643212	-0.22284725
36	0xbd87492e	-0.06605755
37	0xbda03ea1	-0.078244455
38	0x3e4b86d0	0.19875646
39	0x3e70aa55	0.23502477
40	0x3d65db1f	0.056117173
41	0xbccd067f	-0.025027512
42	0xbe1b6159	-0.15173854
43	0x3ddd146e	0.10794912
44	0xbe5bf4e2	-0.21480134
45	0xbe58d3ca	-0.21174541
46	0x3e5695e9	0.20955624
47	0x3b58d88d	0.0033088059
48	0x3e172cfa	0.14763251
49	0xbe1671ad	-0.14691801
50	0xbe44d1a5	-0.19220598
51	0xbe6a25bd	-0.22865959
52	0xbdc031f6	-0.09384529
53	0xbde8bff9	-0.11364741
54	0xbe3151f9	-0.17316426
55	0xbda9b132	-0.082857504
56	0x3d8fcee9	0.07021887
57	0x3c54e45b	0.012993897
58	0x3e21e9de	0.1581187
59	0xbd0f0fb3	-0.03492708
60	0xbe4bf9ea	-0.19919553
61	0x3c854e5c	0.016272716
62	0xbd5891f4	-0.052873567
63	0x3e0a581c	0.13510174
64	0xbe44df0f	-0.19225715
65	0xbd207d95	-0.039182264
66	0xbf690414	-0.9102185
67	0x3c210823	0.0098286
68	0xbd476359	-0.04867873
69	0x3e427c57	0.18992744
70	0x3d5b157c	0.053487286
71	0x3e81a47d	0.25320807
72	0xbec16882	-0.37775046
73	0x3e290773	0.16506748
74	0x3e86aa4c	0.263018
75	0x3df6f94b	0.120592676
76	0xbe18b7d4	-0.14913875
77	0xbec0038f	-0.37502715
78	0x3e6218c5	0.22079761
79	0x3d804732	0.062635794
80	0x3e09252e	0.13393089
81	0x3dc363d6	0.095405266
82	0x3e79284b	0.24331777
83	0xbe369210	-0.17829156
84	0xbe12e73a	-0.14346018
85	0x3e04763a	0.12935725
86	0xbccbb55b	-0.02486675
87	0xbc562e59	-0.013072574
88	0x3e028b55	0.12748463
89	0xbea37607	-0.31925985
90	0xbcbd0b1a	-0.023076583
91	0xbe154ec3	-0.14580826
92	0xbde3a199	-0.11114807
93	0x3da81990	0.08208001
94	0xbe878552	-0.26468903
95	0xbe247bb5	-0.16062815
96	0xbd73bf0b	-0.059508365
97	0xbc550cdd	-0.013003555
98	0x3d858e74	0.065213114
99	0x3e930fba	0.28722936
100	0x3da8a283	0.08234122
101	0x3ea777cf	0.32708594
102	0xbd169865	-0.03676643
103	0xbe102a73	-0.14078693
104	0x3e82b3ca	0.25527793
105	0x3e3c5479	0.18391599
106	0xbef47cac	-0.47751367
107	0xbeb76089	-0.35815838
108	0x3e115d64	0.14195782
109	0xbe02c02e	-0.12768623
110	0xbca6a7ac	-0.020343624
111	0xbdf32ace	-0.11873399
112	0xbd97b768	-0.07408029
113	0xbd4e8a03	-0.050424587
114	0x3deb53e8	0.11490613
115	0x3e6e143c	0.23249906
116	0xbe276522	-0.16347173
117	0x3e6c0574	0.23048955
118	0x3e76fc41	0.24119665
119	0xbb832b9e	-0.0040030023
120	0xbe39c59f	-0.18141793
121	0xbf1a2f3b	-0.6022832
122	0xbcc63b36	-0.024198156
123	0xbdbf3975	-0.09337131
124	0x3dd529f7	0.10408395
125	0x3de93698	0.11387366
126	0x3bcb2d55	0.0062004724
127	0x3ea8e41b	0.3298653
128	0x3d9bdb5e	0.076102
129	0xbc553a00	-0.013014317
130	0x3d8ccaf6	0.06874649
131	0xbdf0e2ae	-0.11761986
132	0x3e16af6d	0.14715357
133	0xbe0b7c5e	-0.13621661
134	0xbe8671b2	-0.26258618
135	0xbdb53337	-0.08847659
136	0xbdc49410	-0.09598553
137	0x3de52784	0.11189178
138	0xbd1f332e	-0.038867168
139	0xbe3e53ce	-0.18586656
140	0x3e3608df	0.17776822
141	0x3db9c409	0.09070594
142	0x3d60ac3a	0.054851748
143	0x3df8820d	0.1213418
144	0x3e712601	0.23549654
145	0xbe4d1945	-0.20029171
146	0x3e49c266	0.19703063
147	0x3ea92396	0.33034962
148	0xba1d1476	-0.00059921236
149	0x3e6e908d	0.23297329
150	0xbe12b85d	-0.14328142
151	0xbd16a7f3	-0.036781263
152	0x3e050b14	0.12992507
153	0xbd535b4b	-0.051600736
154	0xbdf55ce6	-0.119806096
155	0x3e5eb97a	0.21750441
156	0x3e14dfe7	0.14538537
157	0x3e08eec6	0.13372335
158	0xbd060e03	-0.032728206
159	0x3d87d309	0.06632049
160	0xbe9bc3ef	-0.30422923
161	0x3b9ed709	0.0048474115
162	0xbd269b8b	-0.04067568
163	0xbe80946f	-0.25113246
164	0x3ea1c8ec	0.31598604
165	0x3e3b06bf	0.18264292
166	0xbe95ea9f	-0.29280564
167	0xbd4be2e6	-0.049776934
168	0x3dd314c5	0.10306696
169	0xbef2b563	-0.47404012
170	0x3e0af0ff	0.13568495
171	0xba18cc1f	-0.0005828756
172	0x3e029071	0.12750413
173	0xbd8ea064	-0.06964186
174	0xbe4975a1	-0.19673778
175	0x3e4cb324	0.19990212
176	0x3e38d8b8	0.18051422
177	0x3e33f084	0.17572218
178	0xbe237363	-0.15961985
179	0xbf1fa61f	-0.62362856
180	0x3e52cb95	0.20585473
181	0x3df833c3	0.12119248
182	0xbdaa46cc	-0.08314285
183	0x3c7ac530	0.015305802
184	0x3e7ca3c0	0.2467184
185	0xbdd49813	-0.10380568
186	0xbd474e6c	-0.048658773
187	0x3da13a72	0.07872476
188	0x3d8474af	0.06467568
189	0xbdbf7460	-0.09348369
190	0xbe230d74	-0.159231
191	0xbc833964	-0.016018577
192	0x3d926d86	0.07149796
193	0xbe836281	-0.2566109
194	0xbf34240b	-0.703675
195	0xbdb9ca49	-0.09071786
196	0x3e70ee2e	0.23528358
197	0x3db900cc	0.09033355
198	0xbd5abcd5	-0.05340274
199	0xbe17f811	-0.14840724
200	0xbe2b77a8	-0.16744864
201	0xbd3fbd8e	-0.046811633
202	0x3e97ab23	0.29622754
203	0x3eb74ed2	0.35802323
204	0x3ccb7ea7	0.024840666
205	0x3e8ae1fa	0.2712553
206	0xbed1ce7c	-0.40977848
207	0xbe5898ac	-0.2115199
208	0xbd7b905f	-0.06141698
209	0xbce0f1fc	-0.027459137
210	0xbe4f150b	-0.20222871
211	0x3df4d2e9	0.119542904
212	0xbe7adb5c	-0.24497741
213	0x3c41acdb	0.011820997
214	0x3d78d573	0.060750436
215	0x3e532959	0.20621242
216	0x3dd85949	0.10563905
217	0x3da06f86	0.078337714
218	0xbe0757d8	-0.13217103
219	0x3df1ad5c	0.11800644
220	0xbe65806e	-0.22412273
221	0xbeb15ec1	-0.34642604
222	0xbdc0a28f	-0.094060056
223	0xbdf5b36e	-0.11997114
224	0xbf07ef65	-0.5309966
225	0xbcb2953e	-0.02179968
226	0xbeb476a2	-0.3524676
227	0x3e255c8b	0.16148584
228	0x3dab605e	0.0836799
229	0x3da19df6	0.07891457
230	0xbef6c90d	-0.48200265
231	0xbdbbafb0	-0.09164369
232	0x3c51903f	0.012790739
233	0x3cf221c6	0.02955712
234	0x3cafbca5	0.021452257
235	0x3e8afb71	0.2714496
236	0x3bc71541	0.0060755317
237	0xbd3dfe6f	-0.046385225
238	0x3e2f9501	0.17146684
239	0xbe883e5a	-0.2661007
240	0xbe050fa6	-0.1299425
241	0xbda7b95f	-0.081896536
242	0x3e3cecc5	0.18449695
243	0xbcda147f	-0.026621101
244	0x3e0922d1	0.13392188
245	0x3e8119d8	0.2521503
246	0xbe47aa7d	-0.1949863
247	0xbd1453ad	-0.036212612
248	0x3ee7916a	0.4522813
249	0xbe9e100b	-0.30871615
250	0x3e102243	0.1407557
251	0x3e96a04e	0.29419178
252	0x3d5f9472	0.054584928
253	0xbe12e3f5	-0.14344771
254	0xbda968ce	-0.08271943
255	0xbd8aa70c	-0.06770143

model.gnn.gnn_layers.0.graph_conv.bias f4 [64]
0	0xbd82ca0a	-0.06386192
1	0x3ced450b	0.028963586
2	0xbd358dc8	-0.044324666
3	0x3cf472ec	0.029839955
4	0x3d2a5c44	0.041591898
5	0xbd6cd1e0	-0.05781734
6	0xbdafccee	-0.08584009
7	0x3cb4891c	0.022038035
8	0x3cd33534	0.025782205
9	0xbd2d3550	-0.04228717
10	0x3b6a46df	0.003574781
11	0x3b898b97	0.0041975486
12	0xbc83fa83	-0.016110664
13	0xbd1a99e1	-0.037744407
14	0xbd33950e	-0.04384332
15	0xbcb3b98c	-0.021939062
16	0xbc93e3ef	-0.018053023
17	0x3cc34070	0.023834437
18	0xbd680560	-0.05664575
19	0xbc5cd844	-0.013479296
20	0xbc9542cc	-0.018220328
21	0xbd225960	-0.039636016
22	0x3ad021e0	0.0015879236
23	0xbc222308	-0.009896047
24	0xbc930e24	-0.017951079
25	0xbd8c1aa7	-0.06841021
26	0x3c23d00e	0.009998335
27	0xbb145363	-0.002263271
28	0xbd92aa39	-0.07161374
29	0xbc5c46f8	-0.013444655
30	0x3d0af329	0.0339233
31	0x3c91b23e	0.017785188
32	0xbcff7ae7	-0.031186534
33	0xbd709524	-0.05873598
34	0x3d0e481d	0.03473674
35	0xbcca9340	-0.024728417
36	0xbc83779d	-0.016048247
37	0xbd680de2	-0.056653865
38	0xbcdaf6b9	-0.026728975
39	0x3bbf6b31	0.0058416356
40	0xbb935e1c	-0.0044973027
41	0x3e16b206	0.14716348
42	0x3d4be347	0.049777295
43	0x3d3f3b61	0.046687488
44	0xbbe2959a	-0.0069148066
45	0xbd5db15b	-0.054124217
46	0xbc9d3559	-0.019190477
47	0xbcbd4359	-0.023103403
48	0xbd4fa529	-0.05069462
49	0xbc722293	-0.014778751
50	0xbb5c4e13	-0.0033615872
51	0x3cf07b09	0.029355543
52	0xbc2a38b6	-0.0103894975
53	0xbd9f396e	-0.07774626
54	0x3d1174ba	0.03551171
55	0xbd42601f	-0.04745495
56	0x3aaa2f70	0.0012984108
57	0xbcc8cb78	-0.024511084
58	0x3cc75272	0.024331305
59	0x3b4e704c	0.003150004
60	0xbc56b5b1	-0.013104842
61	0x3bbfc99e	0.005852892
62	0xbddc87b2	-0.10768069
63	0xbd31d580	-0.0434165

model.gnn.gnn_layers.0.res_connection.weight f4 [64, 30]
0	0x3d58299c	0.052774057
1	0x3e07a627	0.13246976
2	0x3d107679	0.035269234
3	0xbe0a52c0	-0.13508129
4	0x3e3b30d5	0.18280347
5	0x3df2e3d9	0.11859865
6	0x3b069ecb	0.0020541425
7	0xbe7104c6	-0.23536977
8	0x3e7f7dd5	0.24950345
9	0xbeb86cd5	-0.36020532
10	0x3e239d4d	0.15977974
11	0xbebfe93a	-0.37482625
12	0xbe88cfb5	-0.26720968
13	0x3e029ba4	0.12754685
14	0x3ea4159c	0.32047737
15	0xbe58e967	-0.21182786
16	0xbed8c230	-0.42335653
17	0xbe721087	-0.23639117
18	0xbd9d7308	-0.07687956
19	0xbd8517c9	-0.06498677
20	0x3d00a736	0.031409465
21	0x3d14ed0a	0.03635887
22	0x3e342ae7	0.17594491
23	0x3d33cfc6	0.04389932
24	0x3d9c2764	0.07624701
25	0xbdeb0351	-0.11475242
26	0x3e807a6c	0.250934
27	0xbe324c84	-0.17412001
28	0xbcbd8292	-0.02313355
29	0x3e189e68	0.14904177
30	0x3ce7e95b	0.028309515
31	0x3d332d9f	0.04374468
32	0xbe7cad00	-0.2467537
33	0xbe068937	-0.13138281
34	0x3c3b4eb5	0.011432339
35	0x3e6b7c4e	0.22996637
36	0xbdcb5a90	-0.09929383
37	0xbd6e0f20	-0.058119893
38	0x3ac17213	0.0014758728
39	0xbe7a1599	-0.24422301
40	0xbd95fe6a	-0.07323916
41	0xbe80e61d	-0.25175563
42	0x3b8f9be5	0.0043825977
43	0xbe30abf4	-0.17253095
44	0x3e35a071	0.17736985
45	0xbd25460f	-0.040350016
46	0x3d4c05a4	0.049810067
47	0xbdfa7282	-0.12228872
48	0x3d944d14	0.07241264
49	0xbe041b4b	-0.12901036
50	0x3e103c6d	0.1408555
51	0x3d2928d2	0.041298695
52	0xbe689d35	-0.2271622
53	0x3cf86a74	0.030324198
54	0x3e2d0dde	0.16899821
55	0xbdfac775	-0.12245075
56	0x3de9f28b	0.114232145
57	0xbe1f2fdb	-0.15545599
58	0x3c7a15d4	0.015263993
59	0x3a4f4bbe	0.000790771
60	0x3c95d9ac	0.01829227
61	0xbd5c0a84	-0.053720966
62	0x3d4777b3	0.04869814
63	0xbdb5c36c	-0.088751644
64	0xbe44f1ee	-0.19232914
65	0xbd164726	-0.036688946
66	0xbcc10011	-0.023559602
67	0xbe8a4481	-0.2700539
68	0x3e8df932	0.27729183
69	0x3ed9b068	0.425174
70	0x3e2b1971	0.16708924
71	0xbe2f4654	-0.17116672
72	0x3e1d0250	0.15332913
73	0x3e311de0	0.17296553
74	0x3ea0af03	0.31383523
75	0xbe892969	-0.26789406
76	0x3c57f005	0.013179784
77	0x3d8d5234	0.069004446
78	0x3ccef808	0.025264755
79	0x3e7be82a	0.24600282
80	0xbcb9c607	-0.022677435
81	0xbde01680	-0.109417915
82	0x3e4f9dab	0.2027499
83	0xbe1c2cd0	-0.1525147
84	0xbe5b62e6	-0.21424446
85	0x3e514857	0.20437752
86	0x3e5e9d01	0.2173958
87	0xbd947519	-0.07248897
88	0x3de644b8	0.11243576
89	0xbc96df6e	-0.018417086
90	0x3aa00a3d	0.0012210082
91	0x3e1fbdcb	0.15599744
92	0x3e0638c6	0.13107595
93	0xbe3bdcb8	-0.18345916
94	0xbe9af185	-0.3026239
95	0xbd4516e0	-0.04811752
96	0x3de6bb22	0.112661615
97	0x3d4cd182	0.05000449
98	0xbeac43a3	-0.33645353
99	0xbd384e0a	-0.0449963
100	0xbe4f522d	-0.20246191
101	0xbe3161cd	-0.17322464
102	0x3df71188	0.12063891
103	0x3c18e361	0.009331555
104	0xbd622141	-0.055207495
105	0x3da12593	0.07868495
106	0xbd824c29	-0.06362183
107	0x3df3d85c	0.11906502
108	0x3c84cd30	0.016211122
109	0x3e8a69dd	0.27033892
110	0xbe82b08f	-0.2552533
111	0xbee619df	-0.44941613
112	0x3da38cb5	0.07985822
113	0xbdc5e4c4	-0.09662774
114	0x3d75cea9	0.06001154
115	0xbe0e742b	-0.13911502
116	0xbe4da3bd	-0.20081992
117	0x3df966d5	0.12177817
118	0xbe0667da	-0.13125554
119	0x3d86e3cf	0.0658642
120	0x3cfe733e	0.031060811
121	0xbd9df91e	-0.07713531
122	0x3e43f9a7	0.19138204
123	0xbd8e3ffc	-0.06945798
124	0xbdbf36ac	-0.093366
125	0xbdd03715	-0.10166756
126	0xbcfef94a	-0.03112473
127	0xbd16aaed	-0.0367841
128	0xbe3e4485	-0.18580826
129	0x3d286b29	0.04111782
130	0xbd885a35	-0.066578306
131	0x3d60e8bf	0.054909464
132	0xbd358e8a	-0.04432539
133	0xbdae96b4	-0.08524838
134	0x3de62fcc	0.11239585
135	0x3d5433ec	0.05180733
136	0xbd16cd09	-0.03681663
137	0x3e125f6d	0.14294215
138	0x3e980c1a	0.29696733
139	0xbe27753d	-0.16353317
140	0x3e80ecca	0.25180656
141	0xbdbe440c	-0.09290323
142	0x3a06611b	0.0005126164
143	0x3e09e57c	0.13466448
144	0xbd4f2322	-0.050570615
145	0x3d5dab07	0.054118183
146	0xbce3b862	-0.027797882
147	0x3e9a9c77	0.30197498
148	0xbe01de4c	-0.12682456
149	0x3de9e0c6	0.11419825
150	0x3dd254db	0.10270091
151	0xbdc9d43b	-0.09854933
152	0x3deece83	0.11660483
153	0xbcf942e8	-0.030427411
154	0xbe3d3b7d	-0.18479724
155	0x3d242d24	0.040082112
156	0xbe51eff9	-0.20501699
157	0xbe350af4	-0.1767996
158	0xbe4473b6	-0.19184765
159	0xbe9618f3	-0.2931591
160	0xbe710e0d	-0.23540516
161	0x3e4e0aeb	0.20121352
162	0xbd5e4d49	-0.054272924
163	0x3d3ae2c4	0.045626417
164	0x3d13cb48	0.036082536
165	0xbda369b5	-0.079791464
166	0x3e794b9c	0.24345249
167	0xbdf32a50	-0.11873305
168	0xbe5835e8	-0.21114314
169	0x3e2834db	0.16426413
170	0xbe1fa7fb	-0.15591423
171	0xbdfde29a	-0.123967364
172	0xbea6b78f	-0.3256192
173	0x3e32c26d	0.1745698
174	0x3e1f3009	0.15545668
175	0xbe5e87eb	-0.21731536
176	0xbe020f8c	-0.12701243
177	0x3e3eb7ec	0.18624848
178	0x3da8fcd7	0.082513504
179	0x3e306b54	0.17228442
180	0x3d498ba1	0.049205426
181	0xbe36b931	-0.17844082
182	0xbdffc325	-0.12488393
183	0x3db3b5d6	0.08774917
184	0xbe0ed63d	-0.13948913
185	0xbe51d5f6	-0.20491776
186	0x3da0f19d	0.07858584
187	0x3d9c2978	0.07625097
188	0xbe0267eb	-0.12734954
189	0x3d8a5f08	0.06756407
190	0xbbd8dd66	-0.0066181896
191	0x3e42f3f7	0.19038378
192	0x3d6efac6	0.058344625
193	0xbe1014dd	-0.14070459
194	0xbe068f74	-0.1314066
195	0xbe3ce053	-0.18444948
196	0xbdf8bff1	-0.12145985
197	0xbd7a0bc0	-0.061046362
198	0x3d288456	0.04114183
199	0xbe0ad8f9	-0.13559331
200	0xbe41a785	-0.1891156
201	0xbe064fe3	-0.13116412
202	0xbd835567	-0.064127736
203	0x3e2a9b2d	0.16660757
204	0x3aa44065	0.0012531398
205	0xbe34dc7c	-0.17662233
206	0xbd410018	-0.04711923
207	0x3dad6506	0.08466534
208	0x3e026453	0.12733583
209	0xbd73a5de	-0.059484355
210	0xbe3b8776	-0.18313393
211	0xbd92af42	-0.07162334
212	0xbe9aa55f	-0.30204293
213	0x3e0ada28	0.13559783
214	0x3d9a3deb	0.07531341
215	0x3ddbff57	0.107420616
216	0x3e18c66f	0.14919446
217	0xbe45f4a4	-0.19331604
218	0x3db76aa3	0.08955886
219	0xbd10d9d6	-0.035363995
220	0x3d80d27c	0.06290147
221	0x3dbce1f6	0.09222786
222	0xbe10c28e	-0.14136717
223	0xbe7f81f5	-0.24951918
224	0x3ca8f07c	0.020622484
225	0x3d84e7a4	0.064894944
226	0xbe970681	-0.2949715
227	0x3b709cc4	0.0036714533
228	0x3e0b7461	0.13618614
229	0x3de12144	0.10992673
230	0xbe44b2be	-0.1920881
231	0xbd984775	-0.07435504
232	0xbdfa5537	-0.12223285
233	0xbe908248	-0.28224397
234	0x3c3d19b9	0.011541777
235	0x3e7d8f7f	0.2476177
236	0xbebf99eb	-0.37422118
237	0x3ddef185	0.1088591
238	0xbe25d6eb	-0.16195266
239	0x3e3907f1	0.18069436
240	0x3d813583	0.06309035
241	0x3d4d0c71	0.050060693
242	0xbd6a13e4	-0.057147875
243	0xbe374fc6	-0.17901525
244	0xbdf1bc5f	-0.11803507
245	0x3d81247a	0.063057855
246	0xbd810bfa	-0.063011125
247	0xbea90cc5	-0.33017555
248	0xbe83105a	-0.25598413
249	0x3e9dd2c7	0.30824873
250	0x3e2813e6	0.1641384
251	0xbe3d077a	-0.18459883
252	0xbe24b6b4	-0.1608532
253	0x3dfd8cf3	0.123803996
254	0x3e1fa33c	0.15589613
255	0x3cc364bd	0.023851747

model.gnn.gnn_layers.0.res_connection.bias f4 [64]
0	0x3d910e9e	0.07082866
1	0xbe1f74c4	-0.15571886
2	0xbd5ff62f	-0.05467814
3	0xbd9cf020	-0.07662988
4	0x3e13aa14	0.14420348
5	0xbcddcd5c	-0.027075462
6	0xbe0930ff	-0.13397597
7	0x3e04bceb	0.12962691
8	0x3c140b77	0.009035937
9	0xbde23e6d	-0.11047063
10	0x3c626f58	0.013820492
11	0xbd90c005	-0.07067875
12	0x3c93ab10	0.018025905
13	0xbd76ffc1	-0.0603025
14	0xbcb04043	-0.021515017
15	0x3e0c81cd	0.1372139
16	0x3dce69a5	0.10078744
17	0x3e340cee	0.17583057
18	0xbe489d52	-0.19591263
19	0xbdf76781	-0.12080289
20	0x3d941d57	0.07232159
21	0xbc027a71	-0.007963763
22	0xbe693644	-0.22774607
23	0x3dc581b7	0.09643882
24	0xbe2fc416	-0.17164645
25	0xbd4b3768	-0.049613386
26	0xbe21397e	-0.15744588
27	0xbc9842d4	-0.018586554
28	0x3d552e89	0.052046333
29	0xbdd421de	-0.10358022
30	0xbda4a1eb	-0.08038696
31	0x3d9ca66a	0.076489285
32	0xbe45e2d2	-0.19324806
33	0x3cb7cbfb	0.022436133
34	0x3e50ae47	0.20378982
35	0xbd934055	-0.07190005
36	0x3dd70843	0.10499623
37	0xbe2e653e	-0.17030808
38	0xbd8f118a	-0.06985767
39	0x3cae79f5	0.021298388
40	0x3d98ec47	0.07466941
41	0xbe2107c3	-0.15725617
42	0x3df2225e	0.11822961
43	0x3c641b53	0.01392253
44	0xbe19ac6c	-0.1500718
45	0xbd2bf31f	-0.041979905
46	0x3e32ebcc	0.17472762
47	0x3d9ed7a9	0.07755978
48	0x3d44d5a0	0.04805529
49	0x3d9abec0	0.07555914
50	0xbd8aff6f	-0.06787001
51	0x3dc73714	0.09727302
52	0xbdd56ebe	-0.10421513
53	0xbd3c7e6d	-0.046019007
54	0xbdbd8d6c	-0.0925549
55	0x3c81662d	0.015795792
56	0xbe45d733	-0.19320373
57	0x3c46564e	0.012105538
58	0xbdb5fca3	-0.08886077
59	0xbc434632	-0.011918591
60	0xbe6a1f76	-0.22863564
61	0x3d24619d	0.040132154
62	0x3df3896d	0.11891446
63	0xbc20794f	-0.009794547

model.gnn.gnn_layers.1.graph_conv.weight f4 [64, 64]
0	0x3d44234e	0.04788523
1	0xbebb76b1	-0.36613992
2	0x3e20670c	0.1566431
3	0x3ded8659	0.115978904
4	0xbe6887e1	-0.22708084
5	0xbe68bc4b	-0.22728078
6	0xbe14d977	-0.14536081
7	0x3df1d665	0.11808471
8	0xbe253c57	-0.16136299
9	0x3a8ad118	0.0010590879
10	0x3d695716	0.056967817
11	0xbd4366d8	-0.0477055
12	0xbd81dad6	-0.06340568
13	0x3ddc1fdf	0.107482664
14	0xbe31f89e	-0.17379996
15	0xbe5bded9	-0.21471728
16	0x3d3c1cfd	0.045926083
17	0xbd337cde	-0.043820255
18	0xbd7f4242	-0.062319048
19	0xbde0f367	-0.10983925
20	0xbdcaf2e7	-0.09909611
21	0x3bff57eb	0.007792463
22	0xbd6d37ca	-0.057914533
23	0xbe8040c6	-0.25049418
24	0xbb7d6578	-0.0038665216
25	0x3dadc156	0.084841415
26	0x3deda98f	0.11604606
27	0x3e1d273b	0.15346996
28	0xbbd7515d	-0.0065709786
29	0x3d07f449	0.033191953
30	0x3dd8efeb	0.10592636
31	0xbe2c13d0	-0.16804433
32	0xbda26bc2	-0.079307094
33	0xbdc55c5d	-0.096367575
34	0x3dd6b70e	0.10484134
35	0xbde6b1c8	-0.11264378
36	0x3d4ab3b4	0.049487785
37	0xbe51d2e1	-0.204906
38	0xbdc14036	-0.094360754
39	0xbe6461bd	-0.22302909
40	0xbe564036	-0.20922932
41	0xbe1352b8	-0.14387023
42	0xbdb3e269	-0.08783419
43	0xbe3c8b66	-0.18412551
44	0x3e9f3260	0.3109312
45	0xbdd5bd98	-0.10436553
46	0xbbbb97a3	-0.0057248636
47	0xbd7f1ef8	-0.062285393
48	0xbd101895	-0.035179693
49	0x3dca8e4d	0.09890423
50	0x3db4f3bc	0.08835551
51	0x3e24cab7	0.16092955
52	0x3db42ad9	0.08797235
53	0xbe2806e6	-0.16408882
54	0xbe0ee0c9	-0.13952936
55	0xbd9d8c64	-0.07692793
56	0xbb9f38fe	-0.004859089
57	0xbd60af11	-0.054854456
58	0xbc3ae2dc	-0.011406627
59	0x3e44b543	0.19209771
60	0x3e514f57	0.20440422
61	0xbe151415	-0.14558442
62	0x3cd365f3	0.02580545
63	0x3e66e499	0.2254814
64	0x3d9d2560	0.07673144
65	0xbd95ec52	-0.07320465
66	0x3d9a8714	0.07545295
67	0xbe21e22d	-0.15808935
68	0xbdfa5b5b	-0.12224456
69	0x3c245044	0.010028902
70	0xbe7e7bab	-0.24851863
71	0xbd8c8d5b	-0.06862899
72	0xbe1eae7b	-0.15496247
73	0x3e0b5fd4	0.13610774
74	0x3e2c4278	0.16822231
75	0xbe03663c	-0.12831968
76	0xbcfac587	-0.030611767
77	0xbd9410c1	-0.07229758
78	0xbb82ad99	-0.0039879796
79	0xbd4ee840	-0.05051446
80	0x3d54a6e4	0.05191697
81	0x3e797d4f	0.24364208
82	0xbe3a89dd	-0.18216653
83	0x3b535b35	0.0032250409
84	0xbe0913d0	-0.13386464
85	0xbd8ed25e	-0.06973718
86	0xbd42022a	-0.047365345
87	0x3def4034	0.11682168
88	0x3e18556a	0.14876333
89	0xbe4eb54b	-0.20186345
90	0x3d8f40bf	0.06994771
91	0x3dc5f23f	0.096653454
92	0xbe24c560	-0.16090918
93	0x3e3905d8	0.18068635
94	0xbe21b4d7	-0.15791641
95	0xbe154435	-0.145768
96	0xbe65fca1	-0.22459652
97	0x3dfdfd17	0.12401789
98	0xbd52c148	-0.05145386
99	0xbe0c3113	-0.13690595
100	0xbc305f2e	-0.01076488
101	0xbd583ff4	-0.052795365
102	0xbdd3e6c7	-0.10346752
103	0x3daa1118	0.083040416
104	0x3df8805a	0.12133856
105	0xbddfc47b	-0.109261476
106	0xbe494d77	-0.19658457
107	0xbd0f030a	-0.034915008
108	0xbdc8507a	-0.09780975
109	0xbd0a4bbe	-0.03376364
110	0xbe06d542	-0.13167289
111	0x3d264e38	0.04060194
112	0xbdfb7a69	-0.12279207
113	0x3e9b2cd0	0.30307627
114	0xbe1d8942	-0.15384391
115	0x3d7e3b65	0.06206836
116	0xbc7d91bd	-0.015476641
117	0x3e225bdc	0.15855354
118	0x3db639e5	0.08897761
119	0xbe344dfb	-0.17607872
120	0xbd9c21da	-0.07623644
121	0xbddb5c64	-0.107109815
122	0x3def8393	0.11695018
123	0x3d9488d9	0.07252664
124	0x3e4a213f	0.19739245
125	0xbdda7951	-0.106676705
126	0x3e81fa49	0.25386265
127	0xbde9a267	-0.11407929
128	0x3dbc6dcb	0.09200629
129	0x3e1fd052	0.15606812
130	0xbe07e73b	-0.13271801
131	0x3d20da8b	0.03927092
132	0x3cb584f4	0.022158124
133	0x3d9f0086	0.07763772
134	0xbdcc1cc7	-0.09966426
135	0x3e6024b8	0.21889007
136	0x3e4a3085	0.19745071
137	0x3d352cc0	0.04423213
138	0xbc070b8d	-0.0082425
139	0xbe6f14c0	-0.23347759
140	0x3e335b10	0.17515206
141	0xbd6ef6c6	-0.05834081
142	0x3e122427	0.14271604
143	0x3e390902	0.18069842
144	0x3eaf3990	0.34223604
145	0x3dfd3637	0.12363856
146	0xbb76552e	-0.0037587392
147	0xbe28f234	-0.16498643
148	0xbd7954b7	-0.060871806
149	0x3e5d9a19	0.21640815
150	0xbd6b34c8	-0.057423383
151	0x3e4759ab	0.194678
152	0xbeafdf69	-0.34350136
153	0xbe3a3989	-0.1818601
154	0x3dfcb3b9	0.12338967
155	0x3e36498d	0.17801495
156	0xbdb565e5	-0.088573255
157	0x3dac0676	0.0839967
158	0x3dd2276b	0.10261425
159	0x3e9090f0	0.2823558
160	0x3de105d6	0.10987441
161	0x3ccb67a6	0.024829697
162	0xbdabfe7a	-0.08398147
163	0xbcb1dcf6	-0.021711808
164	0x3d5111ab	0.05104224
165	0x3e150eb0	0.14556384
166	0xbc363b2a	-0.011122504
167	0x3d34d27f	0.044146057
168	0xbe5cdda0	-0.21568918
169	0x3c7f7b6a	0.015593389
170	0x3d96e2d5	0.073674835
171	0x3e3f15e7	0.18660699
172	0x3dd4d43a	0.103920415
173	0xbe4b0639	-0.19826593
174	0xbcddad85	-0.02706028
175	0xbdc04a79	-0.093892045
176	0x3daa25e3	0.083080076
177	0xbe834a69	-0.25642708
178	0xbdd61fbf	-0.10455274
179	0x3ce9438e	0.028474595
180	0x3e6822b4	0.22669488
181	0x3e75066b	0.2392823
182	0x3dd4170c	0.10355958
183	0xbc035093	-0.008014816
184	0xbe786a61	-0.2425933
185	0x3de9e2f8	0.11420244
186	0x3e4f6d12	0.20256451
187	0xbe7bc5fe	-0.24587247
188	0xbe6caa00	-0.23111725
189	0x3d6ee89a	0.058327295
190	0xbcd9dda2	-0.02659494
191	0x3cb87c64	0.022520252
192	0xbdcaac45	-0.09896139
193	0xbdf80249	-0.12109811
194	0xbd883c21	-0.06652094
195	0x3e204897	0.15652691
196	0xbe8e01d0	-0.27735758
197	0xbdf1864f	-0.117931955
198	0xbe093298	-0.13398206
199	0xbe54fb94	-0.20799094
200	0xbc11b6e8	-0.008893706
201	0xbe1a5c41	-0.15074255
202	0x3ddc131a	0.10745831
203	0xbdb01716	-0.08598153
204	0x3d715b05	0.058924694
205	0xbaf1fdea	-0.0018462513
206	0xbe4a70cb	-0.1976959
207	0x3e0b7842	0.13620093
208	0x3e002061	0.12512352
209	0xbdd53af9	-0.10411639
210	0x3d65f671	0.056143228
211	0xbe18f010	-0.14935327
212	0xbd571e27	-0.05251899
213	0x3dd80394	0.105475575
214	0x3e58ba6a	0.21164861
215	0xba696c61	-0.00089043943
216	0x3e4589c7	0.19290839
217	0xbe41b5ea	-0.18917051
218	0xbcfd70d0	-0.030937582
219	0xbd926ca5	-0.071496285
220	0xbbecd899	-0.007227969
221	0x3cde713f	0.02715361
222	0x3e45895d	0.19290681
223	0xbd586809	-0.05283359
224	0xbd220077	-0.039551225
225	0xbe46d6c9	-0.19417872
226	0xbde08796	-0.10963361
227	0xbe18c872	-0.14920214
228	0xbc33bef2	-0.010970818
229	0xbe50c7c7	-0.20388709
230	0x3db54d9a	0.08852692
231	0xbd8fb449	-0.070168085
232	0xbe26439a	-0.16236725
233	0xbbe8ed17	-0.0071083414
234	0xbd5d10a4	-0.053970948
235	0xbe8ef335	-0.27919927
236	0x3d008897	0.031380262
237	0xbe1568d0	-0.14590764
238	0x3c74522b	0.0149121685
239	0x3e3ba7cd	0.1832573
240	0x3e3c7895	0.18405373
241	0xbd2e73a1	-0.04259074
242	0xbe5f185e	-0.21786639
243	0xbe144e14	-0.1448291
244	0xbcfb84bd	-0.030702943
245	0xbd9078f5	-0.07054321
246	0xbe022bd1	-0.12712027
247	0xbddb421a	-0.10705967
248	0xbdbaf930	-0.0912956
249	0x3d5a8f44	0.053359285
250	0xbe6f5c17	-0.23374973
251	0x3e2f9a76	0.17148766
252	0xbe4ab54f	-0.19795726
253	0xbe6648f7	-0.22488771
254	0xbcaa19e5	-0.0207643
255	0xbc81d7e3	-0.015850013

model.gnn.gnn_layers.1.graph_conv.bias f4 [64]
0	0xbcfcca13	-0.030858075
1	0x3d65baeb	0.056086462
2	0x00000000	0.0
3	0x3cd3f735	0.025874713
4	0x3d80fe55	0.0629851
5	0x3d48fc6d	0.049068857
6	0x3dc88fee	0.097930774
7	0xbae5041c	-0.0017472538
8	0xbcb1bf2a	-0.0216976
9	0xbc781545	-0.01514179
10	0xbdc66a03	-0.09688189
11	0xbd504b26	-0.050852917
12	0xbda1d782	-0.07902433
13	0xbd25d7c4	-0.040488973
14	0xbc8a6517	-0.016893907
15	0x3d16180d	0.03664403
16	0xbdad2db7	-0.08455985
17	0x3da51ec1	0.080625065
18	0xbd464a09	-0.04841045
19	0xbc8c57e0	-0.017131746
20	0x3d5e13c1	0.054218058
21	0x3df2064c	0.11817607
22	0x3c99e018	0.018783614
23	0xbd2c6247	-0.042085912
24	0x3d4d05e0	0.05005443
25	0x3d9ff2c4	0.07809976
26	0x3d5cd326	0.053912304
27	0xbd29b16f	-0.04142898
28	0xbcaea67e	-0.021319624
29	0xbcfee52b	-0.031115135
30	0xbd72cbf1	-0.059276525
31	0xbe072bbb	-0.13200276
32	0xbc9749b3	-0.01846776
33	0xbd29955b	-0.041402202
34	0x3d94738a	0.072486
35	0xbd38453f	-0.044987913
36	0xbd8cfe7c	-0.068844765
37	0x3dc4bc16	0.09606187
38	0xbd19740a	-0.03746418
39	0xbd066331	-0.03280944
40	0xbd1d50f3	-0.038407277
41	0xbda9a2ec	-0.08283028
42	0xbc7a82ce	-0.015289975
43	0x3d076a70	0.03306049
44	0x3df57a48	0.11986214
45	0xbcac278f	-0.021014957
46	0xbdf28295	-0.11841313
47	0xbce19aff	-0.027539728
48	0xbd943aed	-0.07237802
49	0xbd4ec2e3	-0.050478827
50	0xbce02584	-0.027361639
51	0xbd87a1ff	-0.06622695
52	0xbd0b5c6d	-0.03402369
53	0x3cc028df	0.023456989
54	0x3de6c8ee	0.11268793
55	0x3db7d114	0.08975425
56	0xbdadf0e0	-0.08493209
57	0x3b7aa86a	0.0038247355
58	0x3d080741	0.033210043
59	0xbce52978	-0.027973875
60	0xbd42f709	-0.047598872
61	0xbdeea97f	-0.116534226
62	0x39d59b42	0.00040742202
63	0xbd8d6bef	-0.06905352

model.gnn.gnn_layers.1.res_connection.weight f4 [64, 64]
0	0xbe18e157	-0.1492971
1	0xbdd31c8a	-0.10308178
2	0xbc10f9c2	-0.008848609
3	0x3be7cc60	0.007073924
4	0x3e6f33b6	0.2335957
5	0xbe016974	-0.12637883
6	0x3e80faf5	0.25191465
7	0xbdfc964e	-0.12333356
8	0xbe334973	-0.17508487
9	0xbd6c4f59	-0.05769286
10	0xbdcf8275	-0.101323046
11	0x3dd37246	0.1032453
12	0xbe0f0fb4	-0.13970834
13	0x3de4ddf9	0.111751504
14	0x3d8bff1c	0.068357676
15	0x3de601df	0.11230826
16	0x3d18fb4e	0.037349038
17	0x3cc18290	0.023621827
18	0x3b6bb917	0.0035968476
19	0xbd91c548	-0.071177065
20	0xbdb01113	-0.08597007
21	0xbe1116a4	-0.14168793
22	0xbdd88972	-0.105730906
23	0xbd0829dd	-0.03324305
24	0x3d4eac76	0.05045744
25	0xbe255d51	-0.16148879
26	0xbbee20b0	-0.0072670802
27	0x3e511d00	0.20421219
28	0xbe74b043	-0.23895364
29	0xbd7c6462	-0.06161917
30	0xbd8be19f	-0.06830143
31	0xbdc7ebcf	-0.09761774
32	0xbd9ca70c	-0.07649049
33	0x3e272cd8	0.163257
34	0xbe111316	-0.14167437
35	0x3ea23eee	0.31688637
36	0xbddd9f9a	-0.10821457
37	0xbdd6f441	-0.104958065
38	0x3e03c9d9	0.12869968
39	0xbe1b3d51	-0.15160109
40	0x3dbd54c7	0.092446856
41	0xbe5cfe92	-0.21581486
42	0xbd68b04a	-0.056808747
43	0xbc886794	-0.016650952
44	0x3d8e361d	0.06943915
45	0xbd13e7ca	-0.036109723
46	0xbe21fc50	-0.15818906
47	0x3dad10ce	0.08450471
48	0xbdf0f6fc	-0.117658585
49	0xbe23f5c7	-0.16011725
50	0x3cc66bba	0.02422129
51	0xbe051fa3	-0.1300035
52	0xbe8b7279	-0.27235773
53	0x3e353d7b	0.17699234
54	0x3d5e2617	0.054235544
55	0x3c844cee	0.016149964
56	0x3d683de9	0.056699667
57	0xbd255110	-0.04036051
58	0x3d9a0df0	0.075221896
59	0xbc0effd8	-0.00872799
60	0x3dae30e7	0.08505421
61	0x3c815ece	0.015792277
62	0xbd9f530b	-0.07779511
63	0x3eb3978f	0.35076568
64	0x3d87e73c	0.06635901
65	0x3d9a3fbb	0.07531687
66	0xbe072fcc	-0.13201827
67	0x3ddef1e2	0.10885979
68	0xbd45ca16	-0.048288427
69	0x3e76a904	0.24087912
70	0xbca8101a	-0.02051549
71	0xbc6e88b3	-0.014558959
72	0x3d909f41	0.07061625
73	0xbd15af3f	-0.03654408
74	0xbd90bae4	-0.070668966
75	0xbbe01e0b	-0.006839519
76	0x3cb6ca77	0.02231334
77	0x3daf79d3	0.08568158
78	0xbd405971	-0.046960298
79	0x3db2d6c4	0.087323695
80	0xbdd1140b	-0.10208901
81	0x3d91b248	0.071140826
82	0xbe2fec5d	-0.17180009
83	0xbdd1d308	-0.10245329
84	0xbd88f977	-0.06688207
85	0x3c428384	0.011872176
86	0x3e530efd	0.20611186
87	0x3d2fc1a4	0.04290928
88	0x3d8519de	0.064990744
89	0xbcb82db3	-0.022482729
90	0x3e04ef09	0.1298181
91	0x3e6c8d9f	0.23100899
92	0x3e012cbd	0.12614723
93	0xbd52cde7	-0.051465895
94	0x3da8d86b	0.082444035
95	0xbdabadbf	-0.08382749
96	0xbc5e7bed	-0.013579351
97	0xbe10ad78	-0.14128673
98	0x3d414b74	0.0471911
99	0xbd24140e	-0.04005819
100	0x3e51071c	0.20412868
101	0xbd45e80c	-0.048317
102	0x3d61a4da	0.055088855
103	0x3d1f0048	0.038818628
104	0xbc58ddc9	-0.013236471
105	0xbdba257d	-0.090891816
106	0x3d8b8649	0.06812722
107	0x3e3bffd0	0.18359303
108	0xbe21b9cd	-0.15793534
109	0xbca36f11	-0.019950422
110	0x3e3023d3	0.17201166
111	0x3e12d95d	0.1434073
112	0xbe0270a2	-0.12738279
113	0x3e3772c8	0.1791488
114	0x3dcd6465	0.10028914
115	0xbd7e0f0d	-0.062026072
116	0xbde8d6b5	-0.11369077
117	0x3e0cd72f	0.13753961
118	0x3de17d8e	0.11010276
119	0xbd8f1f6e	-0.069884166
120	0x3e0d5746	0.13802823
121	0x3d37eadf	0.044901725
122	0x3e7a856a	0.24464956
123	0x3ce1fa17	0.027585072
124	0x3de15286	0.11002068
125	0x3df26d8a	0.11837299
126	0x3e987e51	0.29783872
127	0xbda25ddf	-0.07928061
128	0x3dd0bcfd	0.10192297
129	0xbdfbf365	-0.12302283
130	0x3da14b3a	0.078756765
131	0xbd6cdeee	-0.05782979
132	0x3dc357f8	0.09538263
133	0xbd17b195	-0.03703459
134	0xbdf34be3	-0.118797086
135	0x3dbfff60	0.09374881
136	0x3b3e68b0	0.0029054098
137	0xbd001d5b	-0.031277996
138	0xbe129e6d	-0.14318247
139	0xbd8ca45c	-0.068672866
140	0xbd9ea28d	-0.07745848
141	0xbd190c2b	-0.03736512
142	0xbd8d4e19	-0.068996616
143	0xbe14bd58	-0.14525354
144	0xbd84de51	-0.06487716
145	0xbdefb89a	-0.11705132
146	0x3c2a135d	0.010380593
147	0xbdb66543	-0.08906033
148	0x3d3976e5	0.045279402
149	0xbdae3783	-0.08506682
150	0xbc171d21	-0.0092232535
151	0xbca5780f	-0.02019885
152	0x3d160a9c	0.03663121
153	0xbd78a6e1	-0.060706023
154	0xbe0b1f98	-0.13586271
155	0xbdbf4de2	-0.09341027
156	0xbc5b51fb	-0.013386245
157	0x3d90a8be	0.07063435
158	0xbbb52f24	-0.0055293012
159	0xbde7cf83	-0.113188766
160	0x3d9eb69a	0.07749672
161	0xbe24389f	-0.16037224
162	0xbcdd6da2	-0.027029816
163	0xbd32ade9	-0.043622885
164	0x3d91250b	0.070871435
165	0x3db76bb5	0.0895609
166	0xbdee7160	-0.11642718
167	0x3d81eedf	0.06344389
168	0x3de1e9aa	0.11030896
169	0x3d32422c	0.043520138
170	0xbc05ce24	-0.008166824
171	0xbd7effe2	-0.062255748
172	0x3dc83def	0.09777438
173	0xbd73740a	-0.059436835
174	0x3cf4b3c8	0.029870883
175	0x3c467771	0.012113438
176	0xbdfdc5b0	-0.123912215
177	0xbaf1666c	-0.0018417365
178	0x3ba03e82	0.004890264
179	0xbdaa02bd	-0.083013035
180	0xbcc88fa3	-0.024482554
181	0xbd70bb55	-0.058772404
182	0xbbb224c0	-0.00543651
183	0xbe288793	-0.16457967
184	0xbbf70895	-0.007538865
185	0xbb5249e0	-0.003208749
186	0xbcabc438	-0.020967588
187	0xbccbcb9f	-0.024877368
188	0xbbfa74f5	-0.007643337
189	0xbb9dddaa	-0.004817684
190	0xbe04b68f	-0.12960266
191	0x3d15c67c	0.036566243
192	0x3db69a74	0.08916178
193	0xbc49a352	-0.012307005
194	0xbe39bf7c	-0.18139452
195	0xbdc4923f	-0.09598207
196	0x3e6e6e96	0.23284373
197	0x3a446711	0.0007492165
198	0x3d94a83b	0.0725865
199	0xbcb7a619	-0.022418069
200	0x3d5aff4a	0.05346612
201	0xbd2c1da4	-0.042020455
202	0x3d556e69	0.05210725
203	0x3e08b072	0.13348559
204	0x3d32aaa1	0.043619756
205	0xbdc07319	-0.09396953
206	0x3db1138e	0.08646308
207	0x3d813351	0.06308616
208	0xbd9fcd07	-0.07802778
209	0x3e2a4c61	0.16630699
210	0xbd970d82	-0.07375623
211	0xbdaf64e0	-0.08564162
212	0x3ddc8c82	0.10768987
213	0x3da7450f	0.08167469
214	0xbc52fb12	-0.012877243
215	0x3bd74cf9	0.006570455
216	0x3dd5dac2	0.10442115
217	0xbe392e3c	-0.18084043
218	0x3db3293c	0.08748099
219	0x3dcb1017	0.09915178
220	0x3e2a3c48	0.16624558
221	0x3e1a9448	0.15095627
222	0x3e57a762	0.21059945
223	0xbd26301c	-0.040573224
224	0xbd611151	-0.054948155
225	0xbd7ce137	-0.06173822
226	0x3d87ee4b	0.06637248
227	0x3e26fcc6	0.16307363
228	0x3b2e7561	0.0026620256
229	0xbe6a5a52	-0.22886017
230	0x3de20a21	0.11037088
231	0x3d8f6678	0.07001966
232	0xbe2a6ea0	-0.16643763
233	0xbdecb22e	-0.115574226
234	0x3d2fcc54	0.04291947
235	0x3e0ad5c2	0.13558105
236	0xbadc587b	-0.0016811037
237	0x3c9c8624	0.019106932
238	0x3e044233	0.12915878
239	0x3e88e7c4	0.26739323
240	0x3d11f799	0.03563652
241	0x3d96fca6	0.073724076
242	0x3df2482c	0.11830172
243	0xbe932525	-0.28739277
244	0xbdcbcddf	-0.09951376
245	0x3daf71eb	0.0856665
246	0x3e4ba56c	0.19887322
247	0x3e817cb7	0.25290462
248	0x3d0c1193	0.034196448
249	0xbd808789	-0.06275851
250	0x3e23d85e	0.16000506
251	0xbd4e8079	-0.05041549
252	0x3db4c0ac	0.08825812
253	0x3e1748e7	0.14773904
254	0x3e2a8be0	0.1665492
255	0x3cc7d905	0.024395475

model.gnn.gnn_layers.1.res_connection.bias f4 [64]
0	0x3da709f9	0.08156199
1	0x3d8df7b6	0.06932013
2	0xbd30185f	-0.042991992
3	0xbd6a7422	-0.05723966
4	0xbe3329eb	-0.17496459
5	0xbdacfccd	-0.084466554
6	0xbcae1f0e	-0.021255042
7	0xbd1e7efb	-0.038695317
8	0x3d00fc02	0.031490333
9	0xbd5c18c7	-0.053734567
10	0xbd558ce0	-0.052136302
11	0x3de13795	0.109969296
12	0xbce885ef	-0.028384177
13	0x3d563648	0.05229786
14	0x3d0479cf	0.03234273
15	0x3d0756ac	0.03304164
16	0x3d0e1a1f	0.03469288
17	0x3d3f84de	0.04675757
18	0xbb012109	-0.0019703528
19	0x3e210a2d	0.15726538
20	0x3cd6cf86	0.026222002
21	0xbda7896f	-0.0818051
22	0xbbe11b6b	-0.0068697236
23	0xbd57b5df	-0.05266368
24	0x3d67e261	0.056612376
25	0xbdef8f65	-0.11697272
26	0xbd998ec7	-0.07497936
27	0x3d1a6ceb	0.03770153
28	0xbdaa7741	-0.08323527
29	0xbc1b53c6	-0.009480422
30	0xbdae3ab4	-0.085072905
31	0x3d44cc9b	0.04804669
32	0xbdb8d085	-0.09024147
33	0x3e63f706	0.222622
34	0x3d6719fd	0.05642127
35	0xbdfb5e4f	-0.12273847
36	0xbdc51fe6	-0.09625225
37	0x3dee8444	0.116463214
38	0xbe3f481d	-0.18679853
39	0xbe1f38ca	-0.15549007
40	0xbd79d643	-0.06099535
41	0xbdbbb3c7	-0.09165149
42	0xba972b03	-0.0011533204
43	0xbd11c70e	-0.035590224
44	0x3dcf03de	0.101081595
45	0x3d305694	0.043051317
46	0x3d061ba0	0.03274119
47	0xbd882c1d	-0.06649039
48	0xbd837f5a	-0.06420775
49	0xbdaa4074	-0.08313075
50	0xbdea5967	-0.114428334
51	0x3daa6311	0.08319677
52	0xbd3ef4a2	-0.04662002
53	0xbda17a8e	-0.078847036
54	0x3e807351	0.2508798
55	0x3da55146	0.08072142
56	0x3d383c16	0.044979177
57	0xbca6b6c1	-0.020350816
58	0x3e0c29a2	0.13687757
59	0x3e6494b9	0.22322358
60	0xbd48df05	-0.049040813
61	0xbe06a091	-0.13147189
62	0x3ca8727f	0.020562408
63	0x3dbb4103	0.091432594

model.readout.weight_and_sum.atom_weighting.0.weight f4 [1, 64]
0	0xbe93db1b	-0.28878102
1	0xbdcf82a2	-0.10132338
2	0x3dbf3fcf	0.093383424
3	0xbe07a63d	-0.13247009
4	0xbe04af34	-0.1295746
5	0xbc9ea975	-0.019367913
6	0xbe1df04c	-0.15423697
7	0x3dfbf0b4	0.1230177
8	0x3ba3013c	0.0049745124
9	0xbe042d9b	-0.12908022
10	0xb9a240b4	-0.00030947255
11	0x3d0ae24d	0.033907223
12	0xbe0a00f6	-0.13476929
13	0xbcdffc7c	-0.027342074
14	0x3da30875	0.079605974
15	0xbda2a5b0	-0.07941759
16	0xbc4acabf	-0.01237744
17	0x3dcd788b	0.10032757
18	0xbe08f1c4	-0.13373476
19	0xbe3c1220	-0.18366289
20	0xbe071afa	-0.13193884
21	0xbd17c583	-0.037053596
22	0xbd653e1b	-0.05596743
23	0xbd78e92b	-0.06076924
24	0xbdf6dd1a	-0.120538905
25	0xbd72b766	-0.059256934
26	0xbdb96437	-0.090523176
27	0xbdb430d5	-0.087983765
28	0x3c338f83	0.010959509
29	0x3c0d6019	0.0086288685
30	0xbd68c934	-0.056832507
31	0xbc41f288	-0.011837609
32	0xbcee2f5c	-0.029075317
33	0x3b58b0bc	0.0033064326
34	0xbdcf5dd6	-0.1012532
35	0xbd0ba05d	-0.03408848
36	0x3cb4ea8b	0.022084495
37	0xbc551b15	-0.013006945
38	0xbdb2da9f	-0.08733105
39	0x3e09e019	0.13464393
40	0x3ccb5f0a	0.024825592
41	0x3d8d4a37	0.06898921
42	0x3d121705	0.035666484
43	0xbdf3ed2b	-0.119104706
44	0xbdde8c89	-0.10866649
45	0xbd8990c5	-0.06717066
46	0x3e2db9f3	0.16965465
47	0xbdc00cb3	-0.09377422
48	0x3c12c146	0.008957213
49	0xbbc30e67	-0.0059526446
50	0xbd626275	-0.055269677
51	0xbd79ff05	-0.06103422
52	0x3a3183d1	0.00067716563
53	0xbd661128	-0.056168705
54	0xbe1cd22a	-0.15314546
55	0xbe115a4b	-0.141946
56	0x3dbe5d27	0.09295111
57	0xbd0048df	-0.031319495
58	0xbdde3763	-0.10850408
59	0xbe354fe7	-0.17706262
60	0xbcf5fa75	-0.030026654
61	0xbc79c29f	-0.015244155
62	0x3dc0bc7d	0.09410951
63	0xbd15876f	-0.036506113

model.predict.predict.1.weight f4 [128, 128]
0	0x3db0688b	0.0861369
1	0x3cdc2602	0.026873592
2	0x3d0eb53d	0.03484081
3	0x3cd89bf0	0.026441544
4	0xbc0b44ad	-0.00850026
5	0xbd7d86a6	-0.06189599
6	0xbca52542	-0.020159367
7	0x3d71bdea	0.059019007
8	0x3d8a246c	0.06745228
9	0x3d0ab78d	0.033866454
10	0xbd9b8261	-0.07593227
11	0xbd37ccf7	-0.044873204
12	0xbd1a878d	-0.037726928
13	0xbd8d5b87	-0.06902223
14	0xbae10332	-0.001716709
15	0xbc9439d7	-0.018093986
16	0x3d68f143	0.05687071
17	0xbd3af446	-0.045643114
18	0xbd256d8e	-0.040387683
19	0x3d7d3987	0.06182244
20	0x3dc7566b	0.0973328
21	0xbd75c9f3	-0.060007047
22	0xbd3e8ef8	-0.046523064
23	0x3cc2ca58	0.023778126
24	0x3cad839a	0.021180917
25	0xbdd00c7c	-0.10158631
26	0xbc5eeba1	-0.013605983
27	0xbab34dd7	-0.0013679814
28	0x3d472775	0.048621614
29	0xbcffd1e9	-0.031228023
30	0x3de3abc8	0.11116749
31	0x3de2b9a3	0.11070564
32	0xbd873f27	-0.06603842
33	0xbd1efb31	-0.038813774
34	0xbd346dac	-0.044049904
35	0x3cecdaba	0.02891289
36	0x3dbb9ca5	0.09160737
37	0xbd88b449	-0.06675012
38	0x3c13c872	0.009019958
39	0x3da278cd	0.07933197
40	0xbd944136	-0.072390005
41	0xbda03167	-0.07821923
42	0x3d8d3bcc	0.06896171
43	0x3c9d415b	0.019196203
44	0x3db30ffb	0.087432824
45	0x3c8cde43	0.017195826
46	0xbd94ca01	-0.07265092
47	0x3d9d993c	0.07695243
48	0x3d309e55	0.043119747
49	0x3cbbf3b2	0.022943351
50	0x3dee2d4c	0.116297334
51	0x3d8c94a0	0.068642855
52	0x3d195cd6	0.03744205
53	0xbce5db12	-0.028058562
54	0x3d1855db	0.037191253
55	0xbcbdfd17	-0.023191972
56	0x3d916a45	0.071003474
57	0xbd225c0c	-0.039638564
58	0x3c3f851a	0.011689449
59	0x3dc9a49f	0.09845852
60	0xbd63f067	-0.055649187
61	0x3cf974a9	0.030451136
62	0x3dc44ac8	0.09584576
63	0x3db58b34	0.088644415
64	0xbc8fe76d	-0.017566407
65	0x3dceb226	0.10092573
66	0xbdb8785d	-0.090073325
67	0xbd53bcd2	-0.051693745
68	0xbe234d58	-0.15947473
69	0xbce363fb	-0.027757635
70	0x3e1c3503	0.15254597
71	0xbcf064be	-0.029344913
72	0xbd933a2f	-0.07188832
73	0xbd876cae	-0.06612526
74	0x3cba73aa	0.022760231
75	0xbde7f8c0	-0.11326742
76	0xbd8ff575	-0.07029239
77	0x3d65daaa	0.056116737
78	0xbdaf8f17	-0.08572214
79	0xbdb80872	-0.08985986
80	0x3dcfd88b	0.10148724
81	0xbd36458c	-0.04449992
82	0x3d00eba1	0.031474713
83	0x3ce95e06	0.028487217
84	0x3e09a602	0.13442233
85	0xbde7e437	-0.113228254
86	0x3d7c8684	0.06165172
87	0x3cd394e6	0.025827836
88	0xbc5ec817	-0.01359751
89	0xbd30140a	-0.04298786
90	0x3e31b4f3	0.17354183
91	0x3cedeb6a	0.029042918
92	0xbd4d5d5b	-0.05013786
93	0xbcce80bf	-0.025207875
94	0xbbf8f24f	-0.007597245
95	0x3d82de5c	0.06390068
96	0x3ca26b19	0.019826459
97	0x3d9b4445	0.07581381
98	0x3dc94a89	0.098286696
99	0x3e351f0f	0.17687629
100	0x3d0bcd59	0.03413138
101	0x3c79373f	0.015210926
102	0x3d68740b	0.056751292
103	0x3dec3230	0.1153301
104	0xbe21d514	-0.15803939
105	0x3e5bf125	0.21478708
106	0x3dafed8e	0.08590232
107	0x3e0cb829	0.13742127
108	0x3df0b26c	0.11752781
109	0xbe3c98ee	-0.18417713
110	0x3dad7511	0.08469594
111	0xbda22247	-0.07916694
112	0x3c2ce914	0.010553617
113	0xbcc0a51b	-0.023516228
114	0xbe1ae38b	-0.15125863
115	0x3e939c5c	0.2883023
116	0xbe0ac1a9	-0.13550438
117	0xbb248c3d	-0.0025108003
118	0xbd07d755	-0.03316434
119	0xbdd974ee	-0.10618006
120	0x3c6354ba	0.013875181
121	0x3d557f9d	0.052123655
122	0x3e1ea282	0.1549168
123	0x3e00377c	0.12521166
124	0x3df516ec	0.119672626
125	0x3d8c1f25	0.06841878
126	0xbcf8f4fc	-0.030390255
127	0x3d2d9aaf	0.042383846
128	0x3da7d733	0.08195343
129	0xbd65f43e	-0.05614113
130	0xbce30291	-0.027711185
131	0x3d80a5ab	0.06281599
132	0x3d22a7fc	0.039710984
133	0xbd7b3dd4	-0.06133826
134	0x3d0fa351	0.03506786
135	0x3da26a60	0.07930446
136	0x3d99022f	0.074711196
137	0xbd32b8be	-0.043633215
138	0xbdc42a6a	-0.09578402
139	0x3aa5d14b	0.0012650875
140	0x3e2571db	0.16156714
141	0x3b6b5065	0.0035906073
142	0x3db89234	0.09012261
143	0xbdba5716	-0.090986416
144	0x3da42fa8	0.08016902
145	0x3b2040e7	0.0024452747
146	0x3bf3fade	0.007445677
147	0x3dd699f7	0.10478585
148	0x3d367a91	0.044550482
149	0x3cbf624c	0.023362301
150	0x3da38168	0.07983667
151	0x3d3e68c9	0.04648665
152	0xbc356fcd	-0.011074019
153	0x3de89f55	0.11358515
154	0x3da2a88e	0.079423055
155	0x3d1ed9b6	0.038781844
156	0x3d48c691	0.049017493
157	0x3dadcf10	0.0848676
158	0x3c4a473a	0.012346083
159	0xbbf336c5	-0.0074223005
160	0xbc85b927	-0.01632364
161	0x3d16c0bc	0.0368049
162	0xbd05ba51	-0.03264839
163	0xbc962736	-0.018329244
164	0xbd0e98bf	-0.03481364
165	0xbd7f97f7	-0.062400784
166	0x3dfbdfc0	0.12298536
167	0xbdb839fb	-0.08995434
168	0xbbec11f6	-0.0072042895
169	0x3ab7b805	0.0014016634
170	0x39d640a9	0.00040865436
171	0x3d83d798	0.064376056
172	0x3cc6d31d	0.024270589
173	0x3d66f572	0.05638642
174	0xbcd760b4	-0.026291229
175	0xbbc2c022	-0.005943314
176	0x3e03eab5	0.12882502
177	0x3d0e6f00	0.034773827
178	0x3db6f14d	0.08932743
179	0x3db6ffb2	0.08935489
180	0xbd3629e6	-0.04447355
181	0xbc20265c	-0.009774771
182	0x3dad7b8e	0.08470832
183	0x3d9cca38	0.07655758
184	0x3bf35e65	0.007427024
185	0x3dfdfc6a	0.1240166
186	0xbce9e866	-0.028553199
187	0x3d956337	0.07294314
188	0xbc7ec5a8	-0.015550055
189	0xbb972a19	-0.0046131727
190	0x3c9412e0	0.018075407
191	0x3d4f0e4d	0.050550748
192	0xbcef1fc4	-0.029189952
193	0x3e1f4af6	0.15555939
194	0xbb3405b0	-0.002746921
195	0xbce50511	-0.027956517
196	0xbd953f79	-0.07287497
197	0xbe3f81e0	-0.18701887
198	0x3e6920b5	0.22766383
199	0xbdc4e194	-0.09613338
200	0x3c4c3690	0.012464181
201	0xbd9363a7	-0.071967416
202	0xbdcdcaf1	-0.100484736
203	0xbe6ffe28	-0.23436797
204	0x3d8d9fe4	0.06915262
205	0x3dfe1dde	0.124080405
206	0x3da4e13c	0.080507725
207	0xbe325fc9	-0.17419352
208	0x3da5d64a	0.08097513
209	0x3e1ba16e	0.151983
210	0xbcb4ee89	-0.022086399
211	0x3c068da9	0.008212485
212	0x3dc10f9e	0.09426807
213	0x3d25a12a	0.0404369
214	0x3d8df688	0.06931788
215	0xbd851fd8	-0.06500214
216	0xbe359ec4	-0.17736346
217	0x3e7e408e	0.24829313
218	0xbd08e27d	-0.03341912
219	0x3d06a439	0.03287146
220	0x3c5397ba	0.012914592
221	0xbb191166	-0.0023356318
222	0xbdea97a7	-0.11454707
223	0xbd6dfba3	-0.058101308
224	0xbcae826b	-0.021302423
225	0x3e76b068	0.24090731
226	0x3dd1aef8	0.10238451
227	0x3d22be0b	0.03973202
228	0xbd038a87	-0.03211453
229	0x3df7d1a1	0.121005304
230	0xbdc155c8	-0.094401896
231	0x3e582b03	0.21110158
232	0xbda40337	-0.08008426
233	0x3dd717b3	0.10502567
234	0x3d6fecd2	0.05857546
235	0xbb858e6a	-0.004075815
236	0x3b1be9e9	0.0023790544
237	0xbe1cb430	-0.15303111
238	0x3e3b36a7	0.18282567
239	0x3c9f1b91	0.019422324
240	0x3d9c9ac7	0.07646709
241	0x3b700baf	0.0036628058
242	0xbdaa84bb	-0.083260976
243	0x3e5bbe07	0.21459208
244	0xbe4a6d70	-0.1976831
245	0xbd23b386	-0.03996613
246	0x3cc39fef	0.023879973
247	0xbe2030dc	-0.15643638
248	0xbd9b4dab	-0.07583173
249	0x3dc73555	0.09726969
250	0x3e05ca0d	0.13065358
251	0x3d5d5bd9	0.05404267
252	0x3ddb68b7	0.10713332
253	0x3dc63f60	0.096800566
254	0x3dbf6902	0.093462005
255	0x3deb6294	0.11493412

model.predict.predict.1.bias f4 [128]
0	0xbc1ae96e	-0.009455068
1	0x3c84048b	0.016115448
2	0xbbc96c79	-0.006146964
3	0xbd9ba2c1	-0.07599402
4	0xbddd98ff	-0.10820197
5	0xbdd36e3c	-0.1032376
6	0xbcc81fc9	-0.024429219
7	0xbcbb7138	-0.022881135
8	0xbd13d222	-0.03608907
9	0xbd80aaff	-0.06282615
10	0xbc7fd2e1	-0.015614242
11	0xbde7ca56	-0.113178894
12	0x3d1099d2	0.035302944
13	0xbdaa38e7	-0.083116345
14	0xbd88aa91	-0.06673158
15	0x3d0e47e1	0.034736518
16	0xbc7f3e65	-0.015578841
17	0xbdb809d1	-0.08986247
18	0xbe090ad4	-0.13383037
19	0x3ca503b5	0.02014337
20	0xbddb1618	-0.106975734
21	0xbda9fb92	-0.08299936
22	0xbca9c912	-0.02072576
23	0xbdbb560d	-0.09147272
24	0x3cf873fa	0.03032874
25	0x3c581c0f	0.013190283
26	0x3d071469	0.03297845
27	0xbd82e55f	-0.06391405
28	0xbd82cf3d	-0.06387184
29	0xbe3618a6	-0.1778284
30	0x3e1f017f	0.15527914
31	0x3d1209e8	0.03565398
32	0xbe10601e	-0.14099166
33	0x3cf20bf3	0.029546713
34	0xbdf841c7	-0.12121921
35	0x3db4e2bf	0.08832311
36	0xbcda1042	-0.02661908
37	0x3d3b9d09	0.045804057
38	0xbd2e5140	-0.042557955
39	0xbe01db97	-0.12681423
40	0xbd67e551	-0.056615178
41	0x3db1cbfa	0.086814836
42	0x3cea0105	0.02856494
43	0xbcaa97d7	-0.020824356
44	0xbd0dd808	-0.03462985
45	0xbdf86761	-0.12129093
46	0xbdf9e61e	-0.122020945
47	0x3dd7e1f1	0.10541142
48	0xbdffc752	-0.12489189
49	0x3e001ef8	0.12511814
50	0xbc74f58d	-0.014951122
51	0xbcdcbed1	-0.026946457
52	0x3b746843	0.003729359
53	0xbd71c044	-0.05902125
54	0x3c1642fe	0.009171246
55	0xba98d63f	-0.001166053
56	0x3d2b621c	0.04184161
57	0x3df220f3	0.11822691
58	0x3cf83a82	0.030301336
59	0xbd311c47	-0.043239858
60	0xbd2caa46	-0.042154573
61	0xbd88578d	-0.06657324
62	0xbdd4c5cf	-0.103892915
63	0xbd059bc5	-0.032619257
64	0xbd426c09	-0.04746631
65	0x3d128b8d	0.035777617
66	0xbc16ae5c	-0.009196844
67	0x3d9644bd	0.073373295
68	0xbb62bb12	-0.0034596366
69	0xbc6d4106	-0.014480835
70	0x389d894a	7.5119155e-05
71	0xbdbd55d7	-0.09244888
72	0xbd5becd5	-0.053692658
73	0xbd0e3996	-0.034722887
74	0x3e24f99d	0.16110845
75	0xbe2e253d	-0.17006393
76	0x3d118440	0.035526514
77	0xbdf375be	-0.11887692
78	0x3b64853d	0.0034869455
79	0xbdd99fd6	-0.106261894
80	0xbd49f931	-0.049309913
81	0xbdce53a4	-0.10074547
82	0x3d249d77	0.040189233
83	0xbbbb000b	-0.005706792
84	0x3a4c9966	0.00078048406
85	0xbd782ac6	-0.060587667
86	0x3d443f93	0.04791219
87	0x3c8ae6aa	0.016955692
88	0xbe09e602	-0.13466647
89	0xbcd2350f	-0.025660066
90	0xbd06bc72	-0.03289456
91	0xbdaf9141	-0.08572627
92	0xbdb03072	-0.0860299
93	0x3d80ac01	0.06282807
94	0xbc977421	-0.018487992
95	0xbce9d0cf	-0.02854195
96	0xbcd4185c	-0.025890522
97	0xbda28935	-0.079363264
98	0xbd76e25a	-0.06027446
99	0xbd03441e	-0.032047383
100	0x3d3ce0d0	0.046112835
101	0x3d9a0102	0.075197235
102	0xbe03200d	-0.12805195
103	0xbcc1ad34	-0.02364216
104	0xbd4fce7f	-0.05073404
105	0x3de2dea9	0.11077625
106	0xbe034887	-0.12820636
107	0x3d8a09c2	0.067401424
108	0xbe0aa75a	-0.13540402
109	0x3e09893b	0.13431256
110	0xbd6706b7	-0.05640289
111	0xbd1d2ad2	-0.038370915
112	0xbd88316b	-0.06650051
113	0xbd8795f5	-0.06620399
114	0x3cbba367	0.022905065
115	0xbd5748a1	-0.0525595
116	0xbdbe89ee	-0.09303652
117	0xbddc5e81	-0.10760213
118	0x3c9ed1ee	0.019387212
119	0xbc0d4daf	-0.008624478
120	0xbafa52f2	-0.0019098206
121	0xbd2e608a	-0.042572536
122	0xbce53e04	-0.027983673
123	0x3ca10d43	0.019659644
124	0x3d382272	0.044954725
125	0x3e1494d7	0.14509903
126	0xbd743b79	-0.05962703
127	0xbafd8510	-0.0019342024

model.predict.predict.3.weight f4 [128]
0	0x3eef56fc	0.4674605
1	0x3f2b9152	0.67018616
2	0x3f808571	1.0040723
3	0x3f7d4747	0.98936886
4	0x3f77923f	0.9670753
5	0x3f78e0e9	0.97218186
6	0x3f81a9ff	1.0130004
7	0x3f7954dd	0.97395116
8	0x3f441e45	0.7660869
9	0x3f81221a	1.0088532
10	0x3f796f1a	0.9743515
11	0x3f6541a4	0.89553285
12	0x3f77edbb	0.9684712
13	0x3f80ebba	1.0071938
14	0x3f83b1b9	1.0288612
15	0x3f883b54	1.0643106
16	0x3f6c0bb5	0.92205364
17	0x3f7619ea	0.9613329
18	0x3f7dbd98	0.9911742
19	0x3f800000	1.0
20	0x3f7a6693	0.97812766
21	0x3f807a26	1.0037277
22	0x3f7351ed	0.95046884
23	0x3f7e9a85	0.9945453
24	0x3f7e2825	0.99280006
25	0x3f82f05a	1.02296
26	0x3f771084	0.96509576
27	0x3f7fb55d	0.99886113
28	0x3f063e19	0.52438504
29	0x3f77e67f	0.96836084
30	0x3f7b56b3	0.9817917
31	0x3f766c28	0.96258783
32	0x3f70650b	0.9390418
33	0x3f7ef137	0.99586815
34	0x3f7ef7e4	0.99597
35	0x3f341d50	0.7035723
36	0x3f827a02	1.0193484
37	0x3f809def	1.0048198
38	0x3f3de57b	0.74178284
39	0x3f6bf8ae	0.9217633
40	0x3f800a79	1.0003196
41	0x3f896e1f	1.0736731
42	0x3f843ff5	1.0332018
43	0x3f6d9083	0.9279863
44	0x3f658dd3	0.8966953
45	0x3f730fcf	0.94945997
46	0x3f7c508c	0.98560405
47	0x3f6e4a17	0.930818
48	0x3f7a5a41	0.97793967
49	0x3f46eea7	0.77707905
50	0x3f81932d	1.012304
51	0x3f7d52bd	0.98954374
52	0x3f333bd2	0.70013154
53	0x3f7d3c22	0.9891988
54	0x3f71b2d6	0.94413507
55	0x3f5e330a	0.8679663
56	0x3f79dfe4	0.97607255
57	0x3f391501	0.72297674
58	0x3f652391	0.89507395
59	0x3f78eded	0.97238046
60	0x3f78eeb5	0.9723924
61	0x3f7bb319	0.98320156
62	0x3f7bf40c	0.9841926
63	0x3f6cbc1e	0.92474544
64	0x3f7c0209	0.98440605
65	0x3f815d98	1.0106688
66	0x3f796eaa	0.97434485
67	0x3f8392c7	1.0279168
68	0x3f807e0d	1.0038468
69	0x3f7ac0e3	0.9795057
70	0x3f5d625e	0.8647822
71	0x3f647e68	0.8925538
72	0x3f7388bd	0.9513052
73	0x3f48b6ef	0.78404135
74	0x3f846eaf	1.0346278
75	0x3f735b61	0.9506131
76	0x3f392a1b	0.7232987
77	0x3f7e461f	0.99325746
78	0x3f698e95	0.9123319
79	0x3f7e3739	0.99303013
80	0x3f6cc800	0.92492676
81	0x3f7566d0	0.95860004
82	0x3f836a1b	1.0266756
83	0x3f7fc30e	0.99907005
84	0x3f78b42d	0.97149926
85	0x3f067e36	0.5253633
86	0x3f824beb	1.0179418
87	0x3f7735fc	0.9656675
88	0x3f659de4	0.89694047
89	0x3f800000	1.0
90	0x3f824dd9	1.0180007
91	0x3f835ba8	1.0262346
92	0x3f62310b	0.88356084
93	0x3f5651af	0.8371839
94	0x3f8126f5	1.0090014
95	0x3f51ab51	0.81902033
96	0x3f8049b8	1.0022497
97	0x3f6facf8	0.93623304
98	0x3e91f5ab	0.28507742
99	0x3f76571a	0.96226656
100	0x3f7cf281	0.9880753
101	0x3f54857a	0.8301617
102	0x3f302deb	0.68820065
103	0x3f7ec1c6	0.99514425
104	0x3f76c942	0.96400845
105	0x3f54901f	0.8303241
106	0x3f8344c0	1.0255356
107	0x3f7c28cd	0.9849976
108	0x3f79bac9	0.97550637
109	0x3e8a1581	0.2696953
110	0x3f7b8dc8	0.98263216
111	0x3f7884a1	0.97077376
112	0x3f7cda16	0.9877027
113	0x3f7cc5db	0.98739403
114	0x3f7ec0b4	0.9951279
115	0x3f7e766d	0.99399453
116	0x3f7a6325	0.9780753
117	0x3f7a126d	0.97684366
118	0x3ed85ff4	0.42260706
119	0x3f7c2bc3	0.98504275
120	0x3f7c88f5	0.9864648
121	0x3f71ef1e	0.9450549
122	0x3f7bf940	0.984272
123	0x3f7c3af2	0.98527443
124	0x3f5c8891	0.86145884
125	0x3f8732b5	1.056235
126	0x3f7a6887	0.97815746
127	0x3f68521a	0.9075028
