checkpoints/GCM/best_roc_auc_score/checkpoint1.pt (torch, 375109 bytes, 47 tensors)

model.gnn.gnn_layers.0.graph_conv.weight f4 [30, 64]
0	0xbe963c36	-0.29342812
1	0x3c7cfe2e	0.015441461
2	0xbd8eef89	-0.069792815
3	0xbc064e73	-0.008197415
4	0x3e8585ad	0.2607855
5	0xbe8c8473	-0.274448
6	0x3e4b3ffc	0.19848627
7	0xbe3de2e5	-0.18543585
8	0xbe45f929	-0.19333328
9	0x3e3f8ca2	0.18705991
10	0x3dedd8ec	0.1161364
11	0xbeafe084	-0.3435098
12	0xbdfdcf2b	-0.1239303
13	0xbda80eeb	-0.082059704
14	0x3e3e1ea5	0.18566377
15	0xbe1e03ce	-0.15431139
16	0xbdb5fdf7	-0.088863306
17	0x3e28d19a	0.16486207
18	0xb9fcf8ac	-0.0004825046
19	0x3b7260cf	0.0036983972
20	0x3dc862e7	0.09784489
21	0xbdd83f0d	-0.10558901
22	0x3c4851a4	0.012226496
23	0x3e940c5a	0.28915673
24	0xbdcacbc5	-0.09902147
25	0xbe5432c3	-0.20722489
26	0x3e196e8a	0.14983574
27	0xbc0c9ed9	-0.008582794
28	0x3e234e5b	0.15947859
29	0xbe34845d	-0.17628618
30	0xbe7b1ce2	-0.24522737
31	0xbe16a25e	-0.14710376
32	0x3d82081e	0.063492045
33	0xbe3f6660	-0.18691397
34	0x3e00210f	0.12512611
35	0xbe548930	-0.20755458
36	0xbd9d8f99	-0.07693405
37	0xbdac296f	-0.0840634
38	0x3e55e605	0.20888527
39	0x3e6b8ddc	0.23003334
40	0x3da58440	0.08081865
41	0xbc842cd9	-0.016134666
42	0xbe17b538	-0.14815223
43	0x3dec1e21	0.11529184
44	0xbe74bab2	-0.23899344
45	0xbe52aa17	-0.20572697
46	0x3e46a9ac	0.19400662
47	0x3ba6d884	0.0050917286
48	0x3e14f26f	0.14545606
49	0xbe1e72c3	-0.15473466
50	0xbe492970	-0.19644713
51	0xbe650485	-0.22365005
52	0xbdb30eb5	-0.087430395
53	0xbdcad079	-0.09903044
54	0xbe289f97	-0.16467129
55	0xbcf3bd6f	-0.029753415
56	0x3d8f525b	0.0699813
57	0x3cf7f3d1	0.030267628
58	0x3e0e43a5	0.13892992
59	0xbd3823e3	-0.0449561
60	0xbe6215e0	-0.22078657
61	0x3cbc2ea0	0.022971451
62	0xbd65ace3	-0.05607308
63	0x3decc41e	0.11560844
64	0xbe3ceafe	-0.18449017
65	0xba533546	-0.00080569496
66	0xbf81a01f	-1.012699
67	0x3c817e65	0.01580734
68	0xbd6e3119	-0.058152292
69	0x3e5add0f	0.2137339
70	0x3d311101	0.043229107
71	0x3e6f43c0	0.23365688
72	0xbebf937f	-0.37417218
73	0x3e35f2c7	0.17768393
74	0x3e62a4f5	0.22133239
75	0x3e0f8e69	0.14019169
76	0xbe2a1ba0	-0.166121
77	0xbec181d8	-0.37794375
78	0x3e32980f	0.17440818
79	0x3d5d8c65	0.05408897
80	0x3e0bbaab	0.13645427
81	0x3e067a9e	0.13132712
82	0x3e87a345	0.26491752
83	0xbe2d65b4	-0.16933328
84	0xbe07e4a0	-0.13270807
85	0x3e132722	0.14370397
86	0xbcb0e331	-0.021592708
87	0xbd6acde0	-0.057325244
88	0x3dd29a93	0.10283389
89	0xbeb0de6e	-0.345447
90	0xbd17fcfa	-0.03710649
91	0xbe199af4	-0.15000516
92	0xbe1512ce	-0.14557955
93	0x3db0265d	0.08601067
94	0xbe878552	-0.26468903
95	0xbe045dbe	-0.12926385
96	0xbd0e35c6	-0.03471925
97	0x3b14e3d4	0.0022718804
98	0x3d880c0e	0.06642924
99	0x3e8c21d1	0.2736955
100	0x3d878bdd	0.06618474
101	0x3ebe13aa	0.37124377
102	0xbd06f0a9	-0.032944355
103	0xbe2abc9e	-0.16673514
104	0x3e603fde	0.21899363
105	0x3e3bc83a	0.18338099
106	0xbf0aad94	-0.5417111
107	0xbee34b77	-0.44393513
108	0x3e2861c6	0.16443548
109	0xbdcdb478	-0.10044187
110	0xbbb51bd1	-0.0055269976
111	0xbdbc18e2	-0.091844335
112	0xbdc145ad	-0.09437118
113	0xbd4b70c6	-0.049668096
114	0x3dc45ead	0.095883705
115	0x3e68139b	0.22663729
116	0xbe42e46c	-0.19032449
117	0x3e669b29	0.22520126
118	0x3e80d218	0.2516029
119	0xbc6f9b90	-0.014624491
120	0xbe40fca5	-0.18846376
121	0xbf1d3bb2	-0.6141921
122	0xbc0407d8	-0.008058511
123	0xbdb75afc	-0.08952901
124	0x3de4874b	0.111586176
125	0x3dd17d7e	0.10229014
126	0x3caf6014	0.021408118
127	0x3eb0a77a	0.34502774
128	0x3db8913c	0.09012076
129	0x3bbabf21	0.005699054
130	0x3da0e0c2	0.07855369
131	0xbe169409	-0.14704908
132	0x3e34a580	0.17641258
133	0xbe27afd3	-0.16375665
134	0xbe8e0bc9	-0.27743366
135	0xbdb1c23e	-0.08679627
136	0xbddcbbbd	-0.10777996
137	0x3dda429c	0.10657236
138	0x3d16e4fd	0.036839474
139	0xbe48a05e	-0.19592425
140	0x3e4a7ca0	0.19774103
141	0x3dbc6ee0	0.09200835
142	0x3cf78b2d	0.030217731
143	0x3dfbe5a3	0.12299659
144	0x3e6d4c17	0.23173557
145	0xbe83a9a3	-0.2571536
146	0x3e2efc1b	0.17088358
147	0x3eb2cccd	0.34921876
148	0x3aa843dd	0.0012837608
149	0x3e801799	0.25018004
150	0xbe3e0bb9	-0.1855916
151	0xbcb7cd12	-0.022436652
152	0x3e0a47a4	0.13503891
153	0xbd4879a6	-0.048944138
154	0xbdd14db0	-0.10219896
155	0x3e57dc04	0.21080023
156	0x3e06d444	0.1316691
157	0x3df85e1c	0.12127325
158	0xbcee9132	-0.029121969
159	0x3d731c43	0.059353124
160	0xbea3a89e	-0.31964582
161	0x3c776897	0.01510062
162	0xbd485b57	-0.048915233
163	0xbe66be27	-0.22533475
164	0x3eaa94ea	0.33316737
165	0x3e338f11	0.17535044
166	0xbeac157c	-0.3361014
167	0xbd2cf1ba	-0.042222716
168	0x3dde9e19	0.108699985
169	0xbefe2b10	-0.4964223
170	0x3e150c26	0.14555416
171	0x3b4a4b43	0.0030867613
172	0x3e112d50	0.14177442
173	0xbdb65465	-0.08902816
174	0xbe4b6deb	-0.19866149
175	0x3e543cb9	0.20726289
176	0x3e3c8eba	0.18413821
177	0x3e28522c	0.16437596
178	0xbe2436c4	-0.16036516
179	0xbf2c1b25	-0.6722892
180	0x3e329129	0.17438187
181	0x3e03ec21	0.12883045
182	0xbd85f776	-0.0654134
183	0xbb90dc0f	-0.0044207643
184	0x3e89fe65	0.269519
185	0xbdee6872	-0.11641015
186	0xbd6478a0	-0.0557791
187	0x3d804cdf	0.06264662
188	0x3d806d41	0.062708385
189	0xbde238b6	-0.11045973
190	0xbe14288a	-0.1446859
191	0xbcebd3de	-0.02878755
192	0x3d7f9d46	0.062405847
193	0xbe87bf8b	-0.26513323
194	0xbf32fe5a	-0.6991936
195	0xbda7797f	-0.081774704
196	0x3e4f9149	0.20270266
197	0x3db900cc	0.09033355
198	0xbd6a3835	-0.05718251
199	0xbe298111	-0.16553141
200	0xbe05b9d5	-0.1305917
201	0xbdae9d39	-0.085260816
202	0x3e90951f	0.2823877
203	0x3edb5bf0	0.4284358
204	0xba90393d	-0.0011003386
205	0x3e84a247	0.25905058
206	0xbeea8f1a	-0.45812303
207	0xbe607228	-0.21918547
208	0xbd4ee2df	-0.05050933
209	0x3c82e53d	0.01597845
210	0xbe484fa5	-0.19561632
211	0x3de91cc8	0.11382443
212	0xbe77a78f	-0.24185012
213	0xbca5060b	-0.020144483
214	0x3d8076fd	0.06272695
215	0x3e55c20f	0.20874809
216	0x3de7c259	0.11316366
217	0x3d49bc7c	0.04925202
218	0xbe391774	-0.18075353
219	0x3dda5662	0.106610075
220	0xbe7892c4	-0.24274737
221	0xbeb4bd02	-0.35300452
222	0xbdc0a28f	-0.094060056
223	0xbe0223d3	-0.12708978
224	0xbf15d6ac	-0.5853069
225	0xbc04ea14	-0.008112449
226	0xbea983e2	-0.3310843
227	0x3e20ce24	0.15703636
228	0x3db672f4	0.08908644
229	0x3cebe3be	0.02879512
230	0xbf118ec9	-0.568585
231	0xbddb0ee2	-0.10696198
232	0x3cb7ba4d	0.022427702
233	0xbc5b9abc	-0.013403591
234	0xbc68112b	-0.014164249
235	0x3e8a48b2	0.27008587
236	0x3d188420	0.03723538
237	0xbd5c489e	-0.05378019
238	0x3e38b65a	0.18038312
239	0xbe883e5a	-0.2661007
240	0xbe2b3300	-0.16718674
241	0xbd85802e	-0.06518589
242	0x3e488c32	0.1958473
243	0xbda6c2a5	-0.08142594
244	0x3e17fe0a	0.14843002
245	0x3e8b11f1	0.27162126
246	0xbe3ea379	-0.18617047
247	0xbd888757	-0.06666439
248	0x3ef1f999	0.4726074
249	0xbebc817a	-0.36817533
250	0x3e24b7e9	0.16085781
251	0x3e9a0b32	0.30086666
252	0x3e3f8b10	0.18705392
253	0xbe1ea63c	-0.15493101
254	0xbd563543	-0.052296888
255	0xbd987234	-0.074436575

model.gnn.gnn_layers.0.graph_conv.bias f4 [64]
0	0xbd4ff0cc	-0.05076675
1	0x3d3f82aa	0.04675547
2	0xbcfa62db	-0.030564716
3	0x3d0ecad0	0.034861386
4	0x3d2c6053	0.04208405
5	0xbd412712	-0.0471564
6	0xbddabf0c	-0.106809705
7	0x3d4aa360	0.049472213
8	0x3cd09282	0.025460485
9	0xbd2b2973	-0.041787576
10	0x3bb9c104	0.005668761
11	0xbb3f164a	-0.0029157572
12	0xbcdac5e9	-0.026705699
13	0xbd287693	-0.041128706
14	0xbd805ead	-0.06268058
15	0xbd146a0a	-0.03623394
16	0xbcc3b67d	-0.023890728
17	0x3c9fda18	0.019513175
18	0xbd643f30	-0.055724323
19	0xbbc6da3d	-0.0060684965
20	0x3c9fa72a	0.01948889
21	0xbd3c2a40	-0.04593873
22	0xbc3e5562	-0.011617037
23	0xbc7ae633	-0.015313673
24	0xbc4720b2	-0.012153791
25	0xbdb79fbb	-0.08966013
26	0x3c384f9c	0.011249449
27	0xbb2130cf	-0.0024595743
28	0xbd9d071e	-0.07667373
29	0xbc16cdf0	-0.009204373
30	0x3cfa4731	0.030551525
31	0x3cfe7728	0.031062678
32	0xbd2e1609	-0.042501483
33	0xbd6347b8	-0.05548832
34	0x3d0fced3	0.035109352
35	0xbc987f26	-0.018615317
36	0xbcdf3d07	-0.02725078
37	0xbd8669b6	-0.065631315
38	0xbccf7266	-0.025323104
39	0x3c43dd37	0.011954597
40	0x3c5e582c	0.0135708265
41	0x3e2c01a8	0.16797507
42	0x3d50648e	0.050877146
43	0x3d23377b	0.039847832
44	0xbc53e7a9	-0.01293365
45	0xbd6d3854	-0.057915047
46	0xbd192631	-0.037389938
47	0xbcb73907	-0.02236606
48	0xbd58bf66	-0.052916907
49	0xbcf55c06	-0.029951107
50	0xbc52ce49	-0.012866565
51	0x3cf2aa56	0.029622238
52	0xbc849781	-0.016185524
53	0xbd9f03f4	-0.07764426
54	0x3d17039e	0.036868684
55	0xbd51901f	-0.051162835
56	0x3bcdc4d8	0.006279569
57	0xbcc9a14e	-0.024613049
58	0x3b42c096	0.002971684
59	0x3b9aee34	0.004728103
60	0xbd07be3b	-0.033140402
61	0xbc244a5f	-0.010027497
62	0xbde617f3	-0.11235037
63	0xbd63d7ce	-0.05562573

model.gnn.gnn_layers.0.res_connection.weight f4 [64, 30]
0	0x3d41981f	0.047264215
1	0x3e22f614	0.15914184
2	0x3abb7d8e	0.0014304386
3	0xbe19d950	-0.15024304
4	0x3e25382d	0.1613471
5	0x3e1621e8	0.14661372
6	0xbc637f8d	-0.013885391
7	0xbe79b260	-0.24384451
8	0x3e8ee901	0.27912143
9	0xbec9a625	-0.3938457
10	0x3e2ae37f	0.16688345
11	0xbed02b64	-0.40658104
12	0xbe8209c0	-0.25398064
13	0x3e07f0ad	0.13275404
14	0x3eaa3edc	0.33251083
15	0xbe793f94	-0.2434066
16	0xbee2f1f8	-0.44325233
17	0xbe85a93d	-0.2610568
18	0xbdd800a5	-0.10546998
19	0xbd586d04	-0.05283834
20	0x3d390c7a	0.045177914
21	0x3d254f38	0.040358752
22	0x3e07d4b2	0.1326473
23	0xbd1e56f8	-0.03865716
24	0x3da9883f	0.0827794
25	0xbe04c0b0	-0.1296413
26	0x3e85e903	0.26154336
27	0xbe141934	-0.14462739
28	0xbcbd8292	-0.02313355
29	0x3e189e68	0.14904177
30	0x3c46646a	0.0121089015
31	0x3d7fc233	0.062441062
32	0xbe7cad00	-0.2467537
33	0xbe068937	-0.13138281
34	0x3c49e171	0.012321816
35	0x3e7f8462	0.24952844
36	0xbdcb5a90	-0.09929383
37	0xbd6e0f20	-0.058119893
38	0xbc42c436	-0.011887601
39	0xbe855555	-0.26041666
40	0xbda774ee	-0.081765994
41	0xbe80e61d	-0.25175563
42	0x3a703b3f	0.0009164102
43	0xbe1c2659	-0.15249003
44	0x3e4c2ba8	0.19938529
45	0xbd50357f	-0.050832268
46	0x3d86a002	0.06573488
47	0xbdfa7282	-0.12228872
48	0x3deb59c2	0.11491729
49	0xbe060a50	-0.13089871
50	0x3e0ec4ce	0.13942263
51	0x3d3ac0d6	0.04559406
52	0xbe689d35	-0.2271622
53	0x3c706efc	0.014674898
54	0x3e377e96	0.17919382
55	0xbe08ce21	-0.13359882
56	0x3dedbf75	0.11608783
57	0xbe1f2fdb	-0.15545599
58	0x3c7a15d4	0.015263993
59	0x3a4f4bbe	0.000790771
60	0xb90e0a99	-0.00013546123
61	0xbd4623a1	-0.048373822
62	0x3d489e23	0.048978936
63	0xbd77ad39	-0.060467932
64	0xbe60304d	-0.21893425
65	0xbcac375e	-0.021022495
66	0xbd7df7ac	-0.062003776
67	0xbe56e1d8	-0.2098459
68	0x3eacf4bc	0.33780468
69	0x3ef28baa	0.4737218
70	0x3e29c232	0.16577986
71	0xbe5279fb	-0.20554344
72	0x3e1e5aaf	0.1546428
73	0x3e35ba71	0.17746903
74	0x3eace2ca	0.33766776
75	0xbe90207e	-0.2814979
76	0x3c95d318	0.018289134
77	0x3d48b2ed	0.048998762
78	0x3d329553	0.043599438
79	0x3e7c8970	0.24661803
80	0xbc6d7fe4	-0.0144958235
81	0xbdebd4ad	-0.11515174
82	0x3e63567e	0.22200963
83	0xbdee3e0d	-0.11632929
84	0xbe563047	-0.20916854
85	0x3e470315	0.1943477
86	0x3e6b8e99	0.23003615
87	0xbd8bfabb	-0.068349324
88	0x3de644b8	0.11243576
89	0xbc96df6e	-0.018417086
90	0xbd3aeb13	-0.04563434
91	0x3e2ac4bf	0.16676615
92	0x3e0479ca	0.12937084
93	0xbe3bdcb8	-0.18345916
94	0xbeaf5788	-0.3424647
95	0xbd4675c6	-0.04845216
96	0x3e14d65f	0.14534901
97	0xbc00ac7d	-0.007853624
98	0xbebf7e57	-0.37401077
99	0xbd41cdfc	-0.047315583
100	0xbe418fc9	-0.18902506
101	0xbe6806c5	-0.22658832
102	0x3df586a3	0.119885705
103	0x3cb5f83a	0.02221309
104	0xbdb8ba23	-0.09019878
105	0x3d70bf5c	0.058776245
106	0xbdb81627	-0.089886
107	0x3e222674	0.15834981
108	0x3c50cec0	0.012744606
109	0x3e87ddc4	0.2653638
110	0xbe3934f2	-0.18086603
111	0xbec9e5da	-0.39433175
112	0x3d09cb5d	0.033641208
113	0xbda50c8b	-0.08059033
114	0x3d77dc94	0.060513094
115	0xbe1c53de	-0.15266368
116	0xbe4da3bd	-0.20081992
117	0x3e71fad0	0.23630834
118	0xbe0667da	-0.13125554
119	0x3d86e3cf	0.0658642
120	0x3d0f95eb	0.035055082
121	0xbdb7b922	-0.08970858
122	0x3e54db6b	0.20786826
123	0xbd8b5b2a	-0.068044975
124	0xbd07e773	-0.03317971
125	0xbde80b9f	-0.113303415
126	0xbd9d0ce9	-0.07668478
127	0x3b12927f	0.002236515
128	0xbe70d4aa	-0.23518625
129	0x3d3264c8	0.043553144
130	0xbdb0f7d1	-0.08641017
131	0x3d42ff9c	0.04760705
132	0xbd704470	-0.058659017
133	0xbda1e876	-0.079056665
134	0x3e0af690	0.13570619
135	0x3d763157	0.060105648
136	0xbd604843	-0.054756414
137	0x3dcd9875	0.100388445
138	0x3e8ca8db	0.27472576
139	0xbe2e012b	-0.16992633
140	0x3e7a9e46	0.24474439
141	0xbd9f07d8	-0.07765168
142	0x3d7f2ac1	0.062296633
143	0x3e0303dc	0.12794441
144	0xbd8f858e	-0.070078954
145	0x3d7fc4a0	0.062443376
146	0xbcd8f69e	-0.026484784
147	0x3e9ee136	0.31031197
148	0xbe01de4c	-0.12682456
149	0x3de9e0c6	0.11419825
150	0x3dd83d40	0.105585575
151	0xbe037f50	-0.12841535
152	0x3dd52a7f	0.10408496
153	0xbcf942e8	-0.030427411
154	0xbe4091da	-0.18805638
155	0x3d9c0a2d	0.076191284
156	0xbe2ced31	-0.16887356
157	0xbe16c276	-0.14722618
158	0xbe7f71f0	-0.24945807
159	0xbeac2569	-0.33622292
160	0xbe7fa7bc	-0.2496633
161	0x3e7062a0	0.23475122
162	0xbd7a9f7f	-0.061187264
163	0x3d2e47ea	0.04254905
164	0x3adbcc3d	0.0016769242
165	0xbdc5cd2a	-0.096582726
166	0x3e6c85d7	0.23097931
167	0xbda75eff	-0.08172416
168	0xbe56cae4	-0.20975834
169	0x3e28ce7f	0.16485022
170	0xbe1ec0c8	-0.15503228
171	0xbe035961	-0.12827064
172	0xbeaf8a8c	-0.3428539
173	0x3e336a8e	0.17521116
174	0x3e1e5822	0.15463307
175	0xbe6bc489	-0.23024191
176	0xbe0208be	-0.12698647
177	0x3e41f43f	0.18940829
178	0x3da8fcd7	0.082513504
179	0x3e306b54	0.17228442
180	0x3d489dcf	0.048978623
181	0xbe36b931	-0.17844082
182	0xbdffc325	-0.12488393
183	0x3db3b5d6	0.08774917
184	0xbe0ed63d	-0.13948913
185	0xbe51d5f6	-0.20491776
186	0x3da0f19d	0.07858584
187	0x3d9c2978	0.07625097
188	0xbe0267eb	-0.12734954
189	0x3d4b04dd	0.049565185
190	0xbd1cb81c	-0.038261518
191	0x3e41de49	0.18932451
192	0x3d683ac2	0.05669666
193	0xbe1014dd	-0.14070459
194	0xbe068f74	-0.1314066
195	0xbe3ce053	-0.18444948
196	0xbdf8bff1	-0.12145985
197	0xbd7a0bc0	-0.061046362
198	0x3d21955d	0.039449085
199	0xbe0c0d0f	-0.13676856
200	0xbe41a785	-0.1891156
201	0xbe064fe3	-0.13116412
202	0xbdc2d189	-0.09512622
203	0x3e26e8b9	0.16299714
204	0xbba33396	-0.0049805148
205	0xbe34dc7c	-0.17662233
206	0xbd410018	-0.04711923
207	0x3dad6506	0.08466534
208	0x3e026453	0.12733583
209	0xbd73a5de	-0.059484355
210	0xbe3f7579	-0.18697156
211	0xbd91be9a	-0.071164325
212	0xbeb0e70f	-0.34551284
213	0x3e193483	0.14961438
214	0x3d8355fc	0.064128846
215	0x3e049f92	0.12951496
216	0x3e3a50a4	0.18194824
217	0xbe8f5b90	-0.27999544
218	0x3e2d9e28	0.16954863
219	0xbd81bd49	-0.063349314
220	0x3d66a70b	0.05631165
221	0x3dd6cde7	0.104884915
222	0xbe2f5028	-0.17120421
223	0xbe554957	-0.20828758
224	0x3bb8b686	0.005636993
225	0x3cfaeaa0	0.030629456
226	0xbe9e3089	-0.30896404
227	0xbc8c70ea	-0.017143685
228	0x3e3d7d27	0.18504773
229	0x3dd28a53	0.102802895
230	0xbe4610a2	-0.19342282
231	0xbdcb6cd3	-0.09932866
232	0xbe063b89	-0.13108648
233	0xbe908248	-0.28224397
234	0x3c9cf4b7	0.019159658
235	0x3e7b32ab	0.24531047
236	0xbebf99eb	-0.37422118
237	0x3ddef185	0.1088591
238	0xbe25d6eb	-0.16195266
239	0x3e3907f1	0.18069436
240	0x3d41f633	0.047353934
241	0x3da495c7	0.0803638
242	0xbd9b5a27	-0.075855546
243	0xbe374fc6	-0.17901525
244	0xbe00161c	-0.12508434
245	0x3d93541d	0.07193778
246	0xbd9bf0b7	-0.07614272
247	0xbeb0d8b2	-0.34540325
248	0xbe99d26d	-0.30043355
249	0x3ec06cd9	0.37583044
250	0x3e3140d9	0.17309894
251	0xbe4451b4	-0.19171792
252	0xbe0a8898	-0.13528669
253	0x3de50b31	0.11183775
254	0x3e490cc9	0.19633783
255	0x3b95196c	0.0045501497

model.gnn.gnn_layers.0.res_connection.bias f4 [64]
0	0x3da4cd2a	0.080469444
1	0xbe197dfa	-0.14989462
2	0xbd4d09c8	-0.050058156
3	0xbda68fa6	-0.081328675
4	0x3e0ea597	0.13930355
5	0xbcf42fa0	-0.029807866
6	0xbe0f87e9	-0.1401669
7	0x3e095165	0.13409956
8	0x3c4f4f1a	0.012653137
9	0xbdf46357	-0.1193301
10	0x3d0b4267	0.033998873
11	0xbdb2f879	-0.08738799
12	0x3b3c75d5	0.0028756757
13	0xbd8af9a1	-0.06785894
14	0xbd0e6a1f	-0.034769174
15	0x3de7f229	0.11325485
16	0x3dea582e	0.114426
17	0x3e1ced56	0.15324911
18	0xbe5415b6	-0.20711407
19	0xbdf541a7	-0.11975413
20	0x3d6b7fc7	0.057494905
21	0xbb9e3502	-0.0048280964
22	0xbe70d011	-0.23516871
23	0x3da5ff0d	0.08105288
24	0xbe3f5a54	-0.18686801
25	0xbcdf9a28	-0.027295187
26	0xbe08149f	-0.13289116
27	0xbc5dbd2e	-0.0135338735
28	0x3d3176c9	0.043326173
29	0xbdc382c2	-0.095464244
30	0xbd995b5c	-0.074881285
31	0x3d8c033a	0.06836553
32	0xbe433e0d	-0.19066639
33	0x3c625d5e	0.013816206
34	0x3e2e0f47	0.16998015
35	0xbd764af9	-0.060130093
36	0x3de1ef4f	0.110319726
37	0xbe2a4f79	-0.16631879
38	0xbd946059	-0.07244939
39	0x3ca34a4e	0.019932892
40	0x3d9d6e3d	0.07687042
41	0xbe1a476f	-0.15066312
42	0x3dc9e51c	0.09858152
43	0x3d0325bd	0.032018412
44	0xbe23c95a	-0.15994778
45	0xbca313a6	-0.01990683
46	0x3e345063	0.1760879
47	0x3d9497cd	0.07255516
48	0x3d9cc4b6	0.07654707
49	0x3d896653	0.0670897
50	0xbd897ea0	-0.06713605
51	0x3da330a1	0.079682596
52	0xbdde2117	-0.10846155
53	0xbd2c8978	-0.042123288
54	0xbdebb5f1	-0.11509312
55	0x3c887dec	0.016661607
56	0xbe499870	-0.19687057
57	0x3ca23a2f	0.019803135
58	0xbdb8ebc3	-0.09029343
59	0xbc889fcb	-0.016677758
60	0xbe6b55cb	-0.22981946
61	0x3d46044f	0.048343953
62	0x3e058ef2	0.1304281
63	0xbccb7c6a	-0.024839599

model.gnn.gnn_layers.1.graph_conv.weight f4 [64, 64]
0	0x3d44234e	0.04788523
1	0xbeb8af18	-0.36071086
2	0x3e20670c	0.1566431
3	0x3dd4df41	0.10394145
4	0xbe6a8bae	-0.22904846
5	0xbe4ea6cf	-0.2018082
6	0xbe118d80	-0.14214134
7	0x3da4167f	0.08012103
8	0xbe246fa2	-0.1605821
9	0x3cb928e4	0.022602506
10	0x3d695716	0.056967817
11	0xbd4366d8	-0.0477055
12	0xbd666fbb	-0.0562589
13	0x3e00a430	0.12562633
14	0xbe31f89e	-0.17379996
15	0xbe2d29b4	-0.1691044
16	0x3d3f093b	0.046639662
17	0xbd679042	-0.05653406
18	0xbd860814	-0.065445095
19	0xbddaa107	-0.10675245
20	0xbdab3f63	-0.083616994
21	0x3c1db79c	0.009626295
22	0xbd91bc37	-0.07115977
23	0xbe9055e3	-0.28190526
24	0xbc47d7dc	-0.012197461
25	0x3dbd67fa	0.092483476
26	0x3e126b31	0.14298703
27	0x3e08c18c	0.13355082
28	0xbbae911f	-0.0053273584
29	0xbd02527f	-0.031816956
30	0x3dbbdc06	0.091728255
31	0xbe299787	-0.1656171
32	0xbda26bc2	-0.079307094
33	0xbdc56ec8	-0.096402705
34	0x3e1a80fe	0.15088269
35	0xbe0021c6	-0.12512884
36	0x3d2f71e5	0.042833228
37	0xbe68f3a1	-0.22749187
38	0xbdc14036	-0.094360754
39	0xbe58d5ed	-0.21175356
40	0xbe564036	-0.20922932
41	0xbe377964	-0.179174
42	0xbd213cfb	-0.039364796
43	0xbe45f071	-0.19330002
44	0x3ea2a711	0.31768087
45	0xbdd5bd98	-0.10436553
46	0xbce903d5	-0.02844421
47	0xbd7f1ef8	-0.062285393
48	0xbd6bfbe0	-0.057613254
49	0x3dc72292	0.09723391
50	0x3db4f3bc	0.08835551
51	0x3e3407c4	0.17581087
52	0x3da5e4e7	0.081003
53	0xbe2c4a96	-0.16825327
54	0xbe2297f7	-0.15878282
55	0xbd7dd6a2	-0.061972268
56	0x3b53ace8	0.0032299105
57	0xbd5e9bb3	-0.054347705
58	0xbc854b10	-0.016271144
59	0x3e5c511c	0.21515316
60	0x3e499284	0.19684798
61	0xbe14ca47	-0.14530288
62	0x3aad68fb	0.0013230139
63	0x3e6637cb	0.22482221
64	0x3d9d2560	0.07673144
65	0xbcea949a	-0.028635312
66	0x3d9a8714	0.07545295
67	0xbe14b697	-0.14522777
68	0xbdde67b2	-0.10859622
69	0x3ca6ea72	0.020375464
70	0xbe955591	-0.29166844
71	0xbd91755e	-0.07102464
72	0xbe25f663	-0.1620727
73	0x3e267e5e	0.16259143
74	0x3e2c4278	0.16822231
75	0xbe03663c	-0.12831968
76	0x3d3083db	0.043094497
77	0xbdbaf161	-0.091280706
78	0xbb82ad99	-0.0039879796
79	0xbd389d1e	-0.045071714
80	0x3d62cd94	0.055371836
81	0x3e88095a	0.26569635
82	0xbe3e5cfc	-0.18590158
83	0x3c86b874	0.016445376
84	0xbdd7f730	-0.10545194
85	0xbd311a49	-0.043237958
86	0xbda7d1ea	-0.08194335
87	0x3de3dedc	0.111264914
88	0x3e2e85cd	0.17043228
89	0xbe466211	-0.19373347
90	0x3de5db8e	0.11223517
91	0x3dd3f279	0.10348982
92	0xbe22a588	-0.15883458
93	0x3e35fc6a	0.1777207
94	0xbe3797ab	-0.1792895
95	0xbe196b55	-0.1498235
96	0xbe65fca1	-0.22459652
97	0x3dfdde91	0.12395967
98	0xbdbb0b8d	-0.091330625
99	0xbe14700e	-0.1449587
100	0xbc2fafc7	-0.010723061
101	0xbd36929e	-0.04457342
102	0xbdd3e6c7	-0.10346752
103	0x3d91f77c	0.07127282
104	0x3df8805a	0.12133856
105	0xbe151818	-0.14559972
106	0xbe2166f9	-0.15761937
107	0xbd80f786	-0.06297211
108	0xbd9ee073	-0.07757654
109	0xbd0a4bbe	-0.03376364
110	0xbddc7118	-0.107637584
111	0x3d264e38	0.04060194
112	0xbe0dd6d9	-0.13851489
113	0x3eaba223	0.33522138
114	0xbe1d8942	-0.15384391
115	0x3db3893b	0.08766409
116	0x3a96491c	0.001146588
117	0x3e3cf826	0.18454036
118	0x3d9687aa	0.073500946
119	0xbe3581dd	-0.1772532
120	0xbd9c45be	-0.0763049
121	0xbdf90876	-0.12159817
122	0x3de3cf53	0.11123528
123	0x3d668b77	0.056285348
124	0x3e485284	0.19562727
125	0xbdd83285	-0.10556511
126	0x3e96873c	0.2940005
127	0xbdc14cfd	-0.094385125
128	0x3dbc6dcb	0.09200629
129	0x3e1e294b	0.1544544
130	0xbe07e73b	-0.13271801
131	0x3d7652f6	0.06013771
132	0x3d482f7b	0.048873406
133	0x3dcf76d3	0.10130086
134	0xbdb600f1	-0.08886898
135	0x3e5d5f53	0.21618395
136	0x3e6c0edc	0.23052543
137	0x3d7ed77b	0.062217217
138	0xbc070b8d	-0.0082425
139	0xbe6f14c0	-0.23347759
140	0x3e37a936	0.17935643
141	0xbd63d315	-0.055621225
142	0x3e122427	0.14271604
143	0x3e3a7389	0.18208136
144	0x3eafb41b	0.34317097
145	0x3dc5e294	0.09662357
146	0xbb9dd334	-0.004816437
147	0xbe2272fe	-0.15864179
148	0xbd079b56	-0.033107124
149	0x3e60b3c6	0.21943578
150	0xbd98da73	-0.07463541
151	0x3e631231	0.22174908
152	0xbeb9c0c6	-0.36279887
153	0xbe5d03a4	-0.2158342
154	0x3dd2743f	0.102760784
155	0x3e3986f9	0.18117894
156	0xbdb2a01a	-0.08721943
157	0x3d8cf355	0.068823494
158	0x3dcc9cd7	0.09990852
159	0x3e957f15	0.29198518
160	0x3de105d6	0.10987441
161	0x3cca8e71	0.024726124
162	0xbda97ec8	-0.08276135
163	0xbc2ef019	-0.010677361
164	0x3d48cd29	0.04902378
165	0x3e02a155	0.12756856
166	0xbc363b2a	-0.011122504
167	0x3ccaf6a5	0.024775812
168	0xbe5cdda0	-0.21568918
169	0x3ca9c509	0.020723836
170	0x3da78d5f	0.08181261
171	0x3e3a9faa	0.1822497
172	0x3da518d1	0.08061374
173	0xbe4b0639	-0.19826593
174	0xbcae8737	-0.02130471
175	0xbdc04a79	-0.093892045
176	0x3d3cdc3f	0.04610848
177	0xbe8be3a9	-0.27322128
178	0xbdd61fbf	-0.10455274
179	0x3d4781c7	0.04870775
180	0x3e7f372b	0.24923389
181	0x3e6aa632	0.22914961
182	0x3dd7e8dd	0.10542462
183	0x3cfc40dd	0.030792648
184	0xbe887c95	-0.2665755
185	0x3e126ea8	0.14300025
186	0x3e6e390d	0.2326395
187	0xbe6baa3b	-0.23014157
188	0xbe6e6bb9	-0.2328328
189	0x3d6b2022	0.05740369
190	0xbd3c3f58	-0.045958847
191	0x3b91cf88	0.0044497885
192	0xbdcaac45	-0.09896139
193	0xbe062a87	-0.1310216
194	0xbd883c21	-0.06652094
195	0x3e3a4999	0.18192138
196	0xbe90eeb4	-0.28307116
197	0xbd919dc3	-0.07110169
198	0xbe0c323d	-0.1369104
199	0xbe5d82f2	-0.21631983
200	0xbc72e15d	-0.014824239
201	0xbe18a976	-0.14908394
202	0x3ddc131a	0.10745831
203	0xbdb01716	-0.08598153
204	0x3d5d4d0c	0.054028556
205	0xbce44bfb	-0.027868262
206	0xbe4a70cb	-0.1976959
207	0x3e177fb2	0.14794806
208	0x3ddd047a	0.107918695
209	0xbd6d1f47	-0.057891157
210	0x3d616f04	0.055037513
211	0xbe1133ae	-0.1417987
212	0xbdcb22b1	-0.09918726
213	0x3dc80ced	0.097680904
214	0x3e4bc568	0.19899523
215	0xbcd559ff	-0.02604389
216	0x3e4a0e04	0.19731909
217	0xbe36f335	-0.17866214
218	0xbc9c57cd	-0.019084835
219	0xbd7e5be7	-0.062099364
220	0xbbd87faa	-0.0066070156
221	0xbd1a73db	-0.037708145
222	0x3e267eec	0.16259354
223	0xbdac459d	-0.08411715
224	0xbd220077	-0.039551225
225	0xbe46ddef	-0.19420598
226	0xbdd98cbc	-0.10622546
227	0xbe205e74	-0.15661031
228	0xbc2842e9	-0.010269859
229	0xbe3f71b4	-0.18695718
230	0x3db54d9a	0.08852692
231	0xbdb11e6d	-0.086483814
232	0xbe26439a	-0.16236725
233	0xbca8111c	-0.02051597
234	0xbab16c46	-0.0013536296
235	0xbe9c74e5	-0.30557933
236	0x3d35d30e	0.04439073
237	0xbe1568d0	-0.14590764
238	0xbc9a41c7	-0.018830193
239	0x3e3ba7cd	0.1832573
240	0x3e478e56	0.1948789
241	0xbd3d40cc	-0.046204373
242	0xbe5f185e	-0.21786639
243	0xbe041779	-0.12899579
244	0xbdabac96	-0.083825275
245	0xbd2d2d76	-0.042279683
246	0xbe20ce53	-0.15703706
247	0xbdf68ac2	-0.12038185
248	0xbd855800	-0.06510925
249	0x3d5254fd	0.051350582
250	0xbe6e6765	-0.2328163
251	0x3e19869c	0.14992756
252	0xbe4bb110	-0.19891763
253	0xbe67c8f7	-0.22635256
254	0xba4c9a9c	-0.0007805021
255	0x3b046877	0.0020203867

model.gnn.gnn_layers.1.graph_conv.bias f4 [64]
0	0xbcfcca13	-0.030858075
1	0x3d950a6d	0.07277379
2	0x00000000	0.0
3	0x3c87b3ea	0.016565282
4	0x3d9dc373	0.077032946
5	0x3dbcab49	0.092123576
6	0x3dd088ba	0.101823285
7	0x3bf16899	0.0073672053
8	0xbcbafa91	-0.022824557
9	0xbc7aeacb	-0.015314768
10	0xbdc66a03	-0.09688189
11	0xbd504b26	-0.050852917
12	0xbd9a0e38	-0.07522243
13	0xbde6f173	-0.112765215
14	0xbc8a6517	-0.016893907
15	0x3ce9fe83	0.028563743
16	0xbd537ca2	-0.05163253
17	0x3dc37f45	0.09545759
18	0xbd531e49	-0.051542554
19	0xbca916f0	-0.02064082
20	0x3d3a1454	0.045429543
21	0x3dfc42af	0.123174064
22	0x3cbf723e	0.023369905
23	0xbd93e10d	-0.072206594
24	0x3d92c883	0.07167151
25	0x3d57ba05	0.052667636
26	0x3d76f2bd	0.060290087
27	0xbc5230a5	-0.012828981
28	0xbca4f537	-0.020136459
29	0xbc34ee13	-0.011043089
30	0xbcf681ac	-0.03009113
31	0xbe15a5ed	-0.14614077
32	0xbc9749b3	-0.01846776
33	0xbd29c333	-0.041445922
34	0x3d3debb6	0.04636737
35	0xbcd9ea18	-0.026600882
36	0xbd95fd1f	-0.0732367
37	0x3df3c7f7	0.11903375
38	0xbd19740a	-0.03746418
39	0xbd18079c	-0.037116632
40	0xbd1d50f3	-0.038407277
41	0xbdd2ce6f	-0.1029328
42	0xbc39b2a0	-0.011334091
43	0x3d345bdf	0.044032928
44	0x3e02a1fa	0.12757102
45	0xbcac278f	-0.021014957
46	0xbdf68a93	-0.1203815
47	0xbce19aff	-0.027539728
48	0xbdae92a6	-0.08524065
49	0xbc88ec71	-0.016714307
50	0xbce02584	-0.027361639
51	0xbd82f291	-0.06393922
52	0xbc909d85	-0.017653236
53	0x3d240d9d	0.040052045
54	0x3def7873	0.11692896
55	0x3e0ea8da	0.139316
56	0xbdb2c562	-0.08729054
57	0x3ca82e0e	0.020529773
58	0x3d60ec51	0.05491287
59	0xbd031e39	-0.032011244
60	0xbd4e7ce2	-0.050412066
61	0xbdefcb7b	-0.11708733
62	0xbcc0a8d0	-0.023517996
63	0xbd8c26ae	-0.06843315

model.gnn.gnn_layers.1.res_connection.weight f4 [64, 64]
0	0xbe453f85	-0.19262512
1	0xbddd6817	-0.10810869
2	0xbd0c12a9	-0.034197483
3	0x3c707930	0.014677331
4	0x3e9e6e94	0.3094374
5	0xbe034e0d	-0.12822743
6	0x3e8d1733	0.27556762
7	0xbe2b2149	-0.16711916
8	0xbe47e9cc	-0.1952278
9	0xbd3ccb0a	-0.04609207
10	0xbd2df9e1	-0.04247463
11	0x3dc11d4e	0.094294176
12	0xbe0ed6a7	-0.13949071
13	0x3e0e18f0	0.138767
14	0x3da9700a	0.08273323
15	0x3e0d695e	0.13809726
16	0x3d88faec	0.066884845
17	0x3b4ce0fd	0.0031262033
18	0x3c6aae50	0.014323786
19	0xbd341c8c	-0.043972537
20	0xbd173d34	-0.036923602
21	0xbe098e74	-0.13433248
22	0xbe08b460	-0.13350058
23	0xba8e01cd	-0.0010834277
24	0x3d7a1953	0.061059307
25	0xbe1f9508	-0.15584195
26	0x3c991269	0.018685536
27	0x3e849914	0.2589804
28	0xbe84738a	-0.258694
29	0xbd7a7dca	-0.061155118
30	0xbd954a3f	-0.07289552
31	0xbdc90772	-0.09815873
32	0xbdb9fc98	-0.090813816
33	0x3e273a57	0.16330849
34	0xbe1900b5	-0.14941676
35	0x3e953874	0.29144633
36	0xbdfd3286	-0.12363152
37	0xbdfa56ae	-0.12223564
38	0x3dfae239	0.1225018
39	0xbe14703e	-0.14495942
40	0x3dd15189	0.1022063
41	0xbe882ddf	-0.26597497
42	0xbdb63d96	-0.08898465
43	0x3b516246	0.0031949445
44	0x3db6ac44	0.08919576
45	0xbc9961cc	-0.018723391
46	0xbe113c4e	-0.1418316
47	0x3da604b3	0.08106365
48	0xbd89d504	-0.06730083
49	0xbe3cba4d	-0.18430443
50	0x3ccfbfa3	0.025359934
51	0xbe13627c	-0.14393038
52	0xbe7e02d4	-0.24805766
53	0x3e285f66	0.16442642
54	0x3cab803b	0.020935168
55	0x3d3934e2	0.04521645
56	0x3d449cac	0.048000976
57	0xbd926966	-0.071490094
58	0x3d9a3e30	0.075313926
59	0xbccffaa5	-0.025388071
60	0x3d9b835e	0.07593416
61	0xbbe1e743	-0.0068940236
62	0xbdc7384e	-0.09727536
63	0x3ec42559	0.38309744
64	0x3db7b7db	0.089706145
65	0x3d9592b9	0.07303376
66	0xbe3a41ad	-0.18189116
67	0x3da0b664	0.07847288
68	0xbd41acae	-0.04728382
69	0x3e7daa51	0.24772002
70	0xbc3df1d3	-0.0115933
71	0xbc9aa186	-0.018875849
72	0x3d6fabd0	0.058513463
73	0xbc19ddcb	-0.0093912585
74	0xbda37340	-0.079809666
75	0x3c6b5887	0.014364368
76	0xbca8acc4	-0.020590194
77	0x3d80c48d	0.06287489
78	0xbd3da6a6	-0.046301506
79	0x3dde622c	0.108585685
80	0xbe00e7ff	-0.125885
81	0x3d9f4303	0.07776453
82	0xbe314a01	-0.17313386
83	0xbd983405	-0.07431797
84	0xbda86356	-0.08222072
85	0x3b403118	0.0029326137
86	0x3e78a98c	0.24283427
87	0x3d22eb93	0.039775442
88	0x3d5b4b33	0.053538512
89	0xbc2059c6	-0.009787029
90	0x3e17731d	0.14790006
91	0x3e66bb8d	0.22532482
92	0x3df4993b	0.11943289
93	0xbd4dbd00	-0.050229073
94	0x3da07a8a	0.078358725
95	0xbdc1896e	-0.09450041
96	0x3c2982ef	0.010346158
97	0xbe240459	-0.16017283
98	0x3c9cf16d	0.01915809
99	0xbd673d16	-0.05645474
100	0x3e71e67b	0.23623078
101	0xbd88c2a4	-0.0667775
102	0x3db3ab88	0.08772951
103	0x3c7a63f7	0.015282623
104	0xbc8377d9	-0.016048359
105	0xbdd97f07	-0.10619932
106	0x3dae5e1a	0.08514042
107	0x3e1df7c5	0.15426548
108	0xbe0c31dd	-0.13690896
109	0xbd834463	-0.06409528
110	0x3e2aa09f	0.16662835
111	0x3e126906	0.14297876
112	0xbe21c8e9	-0.15799297
113	0x3e25bf1e	0.16186187
114	0x3e01d080	0.12677193
115	0xbd9daf14	-0.07699409
116	0xbe1781ff	-0.14795683
117	0x3e192a7c	0.14957613
118	0x3dc2c34f	0.095099084
119	0xbd335b5f	-0.04378831
120	0x3e262afb	0.16227333
121	0x3d4ea573	0.050450753
122	0x3e84dbec	0.25949037
123	0x3d24cd4e	0.040234856
124	0x3e0af289	0.13569082
125	0x3e0c418d	0.1369688
126	0x3e989489	0.29800823
127	0xbdaae07c	-0.08343598
128	0x3dd0bcfd	0.10192297
129	0xbdfbf365	-0.12302283
130	0x3da14b3a	0.078756765
131	0xbd6cdeee	-0.05782979
132	0x3dc357f8	0.09538263
133	0xbd17b195	-0.03703459
134	0xbdf34be3	-0.118797086
135	0x3dbfff60	0.09374881
136	0x3b3e68b0	0.0029054098
137	0xbd001d5b	-0.031277996
138	0xbe129e6d	-0.14318247
139	0xbd8ca45c	-0.068672866
140	0xbd9ea28d	-0.07745848
141	0xbd190c2b	-0.03736512
142	0xbd8d4e19	-0.068996616
143	0xbe14bd58	-0.14525354
144	0xbd84de51	-0.06487716
145	0xbdefb89a	-0.11705132
146	0x3c2a135d	0.010380593
147	0xbdb66543	-0.08906033
148	0x3d3976e5	0.045279402
149	0xbdae3783	-0.08506682
150	0xbc171d21	-0.0092232535
151	0xbca5780f	-0.02019885
152	0x3d160a9c	0.03663121
153	0xbd78a6e1	-0.060706023
154	0xbe0b1f98	-0.13586271
155	0xbdbf4de2	-0.09341027
156	0xbc5b51fb	-0.013386245
157	0x3d90a8be	0.07063435
158	0xbbb52f24	-0.0055293012
159	0xbde7cf83	-0.113188766
160	0x3d9eb69a	0.07749672
161	0xbe24389f	-0.16037224
162	0xbcdd6da2	-0.027029816
163	0xbd32ade9	-0.043622885
164	0x3d91250b	0.070871435
165	0x3db76bb5	0.0895609
166	0xbdee7160	-0.11642718
167	0x3d81eedf	0.06344389
168	0x3de1e9aa	0.11030896
169	0x3d32422c	0.043520138
170	0xbc05ce24	-0.008166824
171	0xbd7effe2	-0.062255748
172	0x3dc83def	0.09777438
173	0xbd73740a	-0.059436835
174	0x3cf4b3c8	0.029870883
175	0x3c467771	0.012113438
176	0xbdfdc5b0	-0.123912215
177	0xbaf1666c	-0.0018417365
178	0x3ba03e82	0.004890264
179	0xbdaa02bd	-0.083013035
180	0xbcc88fa3	-0.024482554
181	0xbd70bb55	-0.058772404
182	0xbbb224c0	-0.00543651
183	0xbe288793	-0.16457967
184	0xbbf70895	-0.007538865
185	0xbb5249e0	-0.003208749
186	0xbcabc438	-0.020967588
187	0xbccbcb9f	-0.024877368
188	0xbbfa74f5	-0.007643337
189	0xbb9dddaa	-0.004817684
190	0xbe04b68f	-0.12960266
191	0x3d15c67c	0.036566243
192	0x3db35633	0.087566756
193	0x3c9b0a62	0.01892585
194	0xbe414c4d	-0.18876763
195	0xbdc1b7ee	-0.0945891
196	0x3e6f41e7	0.23364983
197	0x3c2a41eb	0.010391693
198	0x3df2c0da	0.1185319
199	0xbcab6800	-0.020923615
200	0x3d3cf39c	0.04613076
201	0xbccb9274	-0.024850108
202	0x3daf80d7	0.08569496
203	0x3e30dc18	0.17271459
204	0x3d589b7b	0.052882653
205	0xbdc45799	-0.095870204
206	0x3dcaf96f	0.09910857
207	0x3d755800	0.059898376
208	0xbdf1505d	-0.11782906
209	0x3e36286c	0.17788857
210	0xbd9a9a44	-0.07548955
211	0xbdd681e0	-0.104739904
212	0x3da3c087	0.07995706
213	0x3da371bd	0.07980678
214	0x3be3973d	0.0069455192
215	0xbc25ce94	-0.010120053
216	0x3defbb5a	0.11705656
217	0xbe6d0a64	-0.23148495
218	0x3d89011f	0.06689667
219	0x3d89a15f	0.06720232
220	0x3e2aa781	0.1666546
221	0x3e35d1e4	0.17755848
222	0x3e5de369	0.21668781
223	0xbd39c8d5	-0.045357544
224	0xbd6cb676	-0.057791196
225	0xbdad3ceb	-0.08458885
226	0x3d85b3c4	0.06528428
227	0x3e324f61	0.17413093
228	0x3c67c3d3	0.014145809
229	0xbe86333d	-0.26210967
230	0x3df9e8de	0.12202619
231	0x3d9c069a	0.07618447
232	0xbe209132	-0.15680388
233	0xbe30c0a6	-0.1726099
234	0x3d15c60a	0.036565818
235	0x3e025a82	0.12729838
236	0xbd0a3211	-0.033739153
237	0x3cb0e379	0.021592842
238	0x3dfa9c07	0.12236791
239	0x3e8b39fa	0.2719267
240	0x3d14b010	0.03630072
241	0x3decb620	0.11558175
242	0x3e00ee68	0.12590945
243	0xbe933cc1	-0.2875729
244	0xbdbf2b41	-0.09334422
245	0x3ddbe105	0.107362784
246	0x3e3d47bd	0.18484397
247	0x3e8251be	0.2545299
248	0x3d096224	0.03354086
249	0xbda68e62	-0.08132626
250	0x3e36694c	0.17813605
251	0xbd698f8f	-0.057021674
252	0x3e15b682	0.14620402
253	0x3e0844e6	0.13307533
254	0x3e12cda1	0.14336254
255	0x3ce370bc	0.027763717

model.gnn.gnn_layers.1.res_connection.bias f4 [64]
0	0x3da32eea	0.079679325
1	0x3d5cb458	0.053882927
2	0xbd30185f	-0.042991992
3	0xbd7d2344	-0.06180121
4	0xbe37a696	-0.17934641
5	0xbdb9ae66	-0.09066467
6	0xbca873bb	-0.020562997
7	0xbd0c3112	-0.034226485
8	0x3d027e7f	0.031858917
9	0xbd5c18c7	-0.053734567
10	0xbd558ce0	-0.052136302
11	0x3dd9bbb1	0.106315024
12	0xbb60caee	-0.0034300643
13	0x3b8c0b1c	0.0042737853
14	0x3d029ba5	0.031886715
15	0x3cfd6b8e	0.030935075
16	0x3d8ad990	0.06779778
17	0x3d3f84de	0.04675757
18	0xbb012109	-0.0019703528
19	0x3e2373f0	0.15962195
20	0x3cd6cf86	0.026222002
21	0xbda7896f	-0.0818051
22	0x3af17e97	0.0018424568
23	0xbd34b8e7	-0.04412165
24	0x3dbaa323	0.09113147
25	0xbdef8f65	-0.11697272
26	0xbd6b4657	-0.05744013
27	0x3d44c349	0.0480378
28	0xbdaea4ec	-0.0852755
29	0xbc913e04	-0.017729767
30	0xbdae3ab4	-0.085072905
31	0x3d7e10b0	0.062027633
32	0xbde42f1e	-0.111417994
33	0x3e74acf9	0.23894109
34	0x3d96b705	0.07359127
35	0xbdfb5e4f	-0.12273847
36	0xbdea8622	-0.11451365
37	0x3e005965	0.12534101
38	0xbe3399ab	-0.17539088
39	0xbe46ffeb	-0.19433562
40	0xbd92b68e	-0.07163726
41	0xbdaf69d3	-0.08565106
42	0x3c13e32d	0.009026331
43	0xbc49e5ee	-0.012322886
44	0x3dd7eabf	0.10542821
45	0x3d59e3aa	0.053195633
46	0x3d182e0c	0.03715329
47	0xbdac3311	-0.08408178
48	0xbd929d52	-0.07158913
49	0xbda574d2	-0.08078922
50	0xbd78951a	-0.06068907
51	0x3de67f7f	0.11254787
52	0xbd11f8f0	-0.035637796
53	0xbda17a8e	-0.078847036
54	0x3e7e45ae	0.24831268
55	0x3dc30e55	0.09524218
56	0x3d4c889a	0.04993496
57	0xbc669cd4	-0.014075477
58	0x3e186abb	0.14884464
59	0x3e603337	0.21894537
60	0x3be2f4ce	0.0069261556
61	0xbdeae089	-0.11468608
62	0x3c7b8c07	0.015353209
63	0x3d9b14f8	0.07572359

model.readout.weight_and_sum.atom_weighting.0.weight f4 [1, 64]
0	0xbea8468a	-0.32866317
1	0xbdd62b21	-0.10457445
2	0x3dbf3fcf	0.093383424
3	0xbdf1e724	-0.11811665
4	0xbe037fbf	-0.128417
5	0xbcaf7048	-0.021415845
6	0xbe04fa1c	-0.12986034
7	0x3e0a7381	0.13520624
8	0x3b5a9824	0.0033354843
9	0xbe2444e2	-0.16041902
10	0xb9a240b4	-0.00030947255
11	0x3c9154bd	0.017740602
12	0xbe234378	-0.15943706
13	0xbc929603	-0.017893797
14	0x3da30874	0.07960597
15	0xbdd52eb8	-0.104093015
16	0xbca7dadc	-0.020490102
17	0x3de5d13c	0.11221549
18	0xbe08ffa3	-0.13378768
19	0xbe4790fe	-0.19488904
20	0xbdeeff9b	-0.116698466
21	0xbd168217	-0.036745157
22	0xbd4a36f7	-0.049368825
23	0xbda90a23	-0.082538866
24	0xbe0535a4	-0.13008744
25	0xbd87018b	-0.06592091
26	0xbdaf5ed0	-0.08563006
27	0xbda667ae	-0.08125244
28	0x3c33784a	0.010953972
29	0x3ccba740	0.024860024
30	0xbd904a90	-0.07045472
31	0xbce0b7d9	-0.027431415
32	0xbcecd259	-0.028908895
33	0x3aac4ba9	0.0013145107
34	0xbdc33897	-0.09532278
35	0xbc874978	-0.016514525
36	0x3cb1d16f	0.021706311
37	0xbc3da915	-0.011575957
38	0xbdd3ea98	-0.103474796
39	0x3e13575a	0.1438879
40	0x3ba38d08	0.0049911775
41	0x3da0e7aa	0.078566864
42	0x3d413d8b	0.047177833
43	0xbdeb4f5d	-0.11489747
44	0xbdd14070	-0.102173686
45	0xbd850a97	-0.064961605
46	0x3e403566	0.1877037
47	0xbdd573ee	-0.104225025
48	0xbc509c82	-0.012732627
49	0xbbb18c4b	-0.0054183356
50	0xbce51f86	-0.027969133
51	0xbd8765fc	-0.06611249
52	0x3a8ddd59	0.0010823413
53	0xbd2699b2	-0.04067392
54	0xbe27cc87	-0.16386615
55	0xbe1c3e96	-0.1525825
56	0x3d7637cd	0.06011181
57	0xbd201de0	-0.03909099
58	0xbdeb3d45	-0.114862956
59	0xbe35de3c	-0.17760557
60	0xbd34cc6c	-0.044140264
61	0xbc95d077	-0.01828788
62	0x3dbb6786	0.09150605
63	0xbc17b7f1	-0.009260164

model.predict.predict.1.weight f4 [128, 128]
0	0x3d9bc8dc	0.0760667
1	0x3cd4f627	0.02599628
2	0x3d0eb53d	0.03484081
3	0x3cab54e9	0.020914512
4	0xbc9626c5	-0.018329034
5	0xbd8ef94e	-0.06981145
6	0xbd2a64eb	-0.04160015
7	0x3d344e07	0.044019725
8	0x3d8aec4d	0.06783352
9	0x3d44313d	0.04789852
10	0xbd9b8261	-0.07593227
11	0xbd40df7f	-0.047088142
12	0xbd134d47	-0.03596237
13	0xbda7394b	-0.08165225
14	0xbae102ce	-0.0017166974
15	0xbc5b0b9e	-0.013369469
16	0x3d4385b1	0.04773492
17	0xbd4030ff	-0.046921726
18	0xbd255ccc	-0.0403717
19	0x3d4df226	0.05027976
20	0x3daa7989	0.08323962
21	0xbdc57f97	-0.096434765
22	0xbd421679	-0.047384713
23	0x3c9b373a	0.018947233
24	0x3c80a977	0.015705807
25	0xbe005bf2	-0.12535074
26	0xbccb7283	-0.024834877
27	0xbcca2bc7	-0.024679078
28	0x3d4727c3	0.048621904
29	0xbd4e1eda	-0.05032239
30	0x3df48070	0.1193856
31	0x3de540c9	0.111939974
32	0xbd87355d	-0.06601975
33	0xbd26d8f5	-0.04073425
34	0xbd475cc5	-0.048672456
35	0x3cca5bbd	0.024701947
36	0x3dbb9ee3	0.091611646
37	0xbd85a8a4	-0.06526306
38	0x3b227cc3	0.0024793602
39	0x3d916ff5	0.07101432
40	0xbd766a74	-0.060160115
41	0xbdb7b6c1	-0.089704044
42	0x3d89c34e	0.067267045
43	0x3c5e2261	0.013558001
44	0x3d983f40	0.07433939
45	0x3c6526d9	0.013986313
46	0xbdada34b	-0.08478411
47	0x3d9dc25b	0.07703086
48	0x3d2e06b5	0.042486865
49	0x3cc6f441	0.024286391
50	0x3deabb7b	0.1146154
51	0x3d2adf9b	0.041717153
52	0x3cde7bf2	0.027158711
53	0xbd42cd0f	-0.04755884
54	0x3d0fbf80	0.035094738
55	0xbc8935b3	-0.016749239
56	0x3d949ef5	0.07256881
57	0xbd2d9ad0	-0.04238397
58	0x3c088f66	0.00833497
59	0x3db74b5d	0.08949921
60	0xbd585a47	-0.05282047
61	0x3cec0207	0.02880956
62	0x3dc8e94b	0.09810122
63	0x3da90ce4	0.08254412
64	0xbda0e9f8	-0.07857126
65	0x3de26eca	0.110562876
66	0xbdb8785d	-0.090073325
67	0xbd4b7dec	-0.049680635
68	0xbe3d205b	-0.18469374
69	0xbcd06403	-0.025438314
70	0x3e0737bd	0.13204856
71	0xbd687d27	-0.05675998
72	0xbd8627ae	-0.06550537
73	0xbda82238	-0.08209652
74	0x3cba73aa	0.022760231
75	0xbe1232a9	-0.14277138
76	0xbd8f79c9	-0.070056506
77	0x3d2f38ba	0.042778708
78	0xbdaf890e	-0.08571063
79	0xbd931287	-0.07181268
80	0x3dd9d4c7	0.10636287
81	0xbd35c4e2	-0.044377215
82	0x3cf2d78a	0.029643793
83	0x3d0965e2	0.03354443
84	0x3e0c87a1	0.13723613
85	0xbe1eb42d	-0.15498419
86	0x3da2c42f	0.07947575
87	0xbcf1a37a	-0.029496897
88	0xbca07115	-0.019585172
89	0xbd8ad914	-0.067796856
90	0x3e55ab85	0.20866211
91	0x3cf84aef	0.030309169
92	0xbd5b97e1	-0.05361164
93	0xbcee0cf1	-0.029058905
94	0xbada86d0	-0.0016672257
95	0x3d527297	0.051378813
96	0x3cb3735e	0.021905597
97	0x3dcc7978	0.09984106
98	0x3dd9e572	0.10639466
99	0x3e4f65f3	0.20253734
100	0x3d10fbd8	0.035396427
101	0x3d00896d	0.03138106
102	0x3c5b1511	0.013371722
103	0x3dd126e7	0.10212498
104	0xbe23398a	-0.15939918
105	0x3e5d40fd	0.21606822
106	0x3dd5a3cf	0.10431635
107	0x3e038dd2	0.12847069
108	0x3df3688a	0.118851736
109	0xbe527838	-0.20553672
110	0x3dbf5add	0.09343503
111	0xbd96a1a2	-0.07355048
112	0xbd262947	-0.04056671
113	0xbd13ed99	-0.036115263
114	0xbe29f3b5	-0.16596873
115	0x3e96b911	0.2943807
116	0xbe22d3bc	-0.15901083
117	0xbc91218f	-0.017716197
118	0xbb85dd63	-0.0040852292
119	0xbdccead5	-0.10005728
120	0x3bfa670c	0.0076416787
121	0x3d3bf9fa	0.045892693
122	0x3e17dd33	0.14830475
123	0x3e089656	0.13338599
124	0x3e09526e	0.1341035
125	0x3d3cb9fc	0.046075806
126	0xbcaa321c	-0.020775847
127	0x3d1eb464	0.038746253
128	0x3d7a5436	0.061115466
129	0xbd83d64d	-0.06437359
130	0xbce30291	-0.027711185
131	0x3d3d58df	0.046227332
132	0x3d128bed	0.035777975
133	0xbd8ccc85	-0.068749465
134	0x3c4f382a	0.012647668
135	0x3d849134	0.06473008
136	0x3d9adb65	0.075613774
137	0xbcc1b641	-0.023646476
138	0xbdc42a6a	-0.09578402
139	0x3baa0e12	0.0051896656
140	0x3e220784	0.1582318
141	0xbc8d60c8	-0.017258063
142	0x3db89234	0.09012261
143	0xbd93e9d0	-0.072223306
144	0x3d8ce0ac	0.0687879
145	0xbb1a4c4d	-0.0023544014
146	0x3bf4e719	0.007473838
147	0x3db0a78b	0.08625706
148	0x3cedd6c6	0.029033076
149	0xbc83aa83	-0.016072517
150	0x3d906cd8	0.0705201
151	0x3d18b4b1	0.037281696
152	0xbc92ff7b	-0.017944088
153	0x3dc64034	0.096802145
154	0x3d77bb26	0.060481213
155	0x3c8c215e	0.017105754
156	0x3d48c6ec	0.04901783
157	0x3ce78221	0.028260292
158	0x3c7438dd	0.014906135
159	0xbbe4a4e3	-0.006977664
160	0xbc85f9f9	-0.016354548
161	0x3cc3fa1d	0.023922974
162	0xbd29b081	-0.041428093
163	0xbc9ec79c	-0.01938229
164	0xbd0e8132	-0.03479118
165	0xbd8860e3	-0.06659105
166	0x3dfcf573	0.12351503
167	0xbddf0cb4	-0.10891095
168	0xbce373e0	-0.027765214
169	0x3a06ba3f	0.0005139447
170	0xbc0d2a53	-0.008616048
171	0x3d69836d	0.057010103
172	0x3bcc9c87	0.0062442455
173	0x3d61af6c	0.055098936
174	0xbd56ba04	-0.052423492
175	0xbbbec261	-0.0058215116
176	0x3e05967d	0.13045688
177	0x3d044773	0.0322947
178	0x3d8c26dc	0.06843349
179	0x3d9fb26f	0.077977054
180	0xbd577a47	-0.052606847
181	0xbca7ea93	-0.020497596
182	0x3d9ff486	0.07810311
183	0x3db3a1b2	0.08771075
184	0x3c585d91	0.013205902
185	0x3de2ea93	0.11079898
186	0xbcdfc03c	-0.027313344
187	0x3d80edc7	0.062953524
188	0xbc4eaa97	-0.012613914
189	0xbc177884	-0.009245042
190	0x3bac8735	0.0052651414
191	0x3cd33f76	0.025787096
192	0xbd425b3f	-0.0474503
193	0x3e160cb1	0.14653279
194	0xbb3405b0	-0.002746921
195	0xbd0c5c71	-0.034267846
196	0xbdc8d858	-0.09806889
197	0xbe3d22bf	-0.18470286
198	0x3e6b604e	0.22985956
199	0xbe02e3ac	-0.12782162
200	0x3c92f381	0.017938377
201	0xbd9896c8	-0.07450634
202	0xbdcdcaf1	-0.100484736
203	0xbe733847	-0.23751937
204	0x3d4a918b	0.049455207
205	0x3e02c58a	0.12770668
206	0x3da4e5b0	0.08051622
207	0xbe273fb9	-0.16332902
208	0x3d8c4e27	0.06850844
209	0x3e153942	0.14572623
210	0xbc9f88c7	-0.0194744
211	0x3cd6342d	0.026147926
212	0x3dc01e51	0.093807824
213	0x3c06502c	0.008197825
214	0x3dbab615	0.09116761
215	0xbdd45dff	-0.10369491
216	0xbe25cb17	-0.16190754
217	0x3e7f3cfd	0.24925609
218	0xbcae58f1	-0.021282645
219	0x3cb42d7b	0.021994343
220	0x3c4fccc7	0.0126831
221	0xbc8da118	-0.01728873
222	0xbdeb3240	-0.11484194
223	0xbd9c99a9	-0.07646496
224	0xbccc16ee	-0.024913277
225	0x3e839a7d	0.25703803
226	0x3dce5879	0.100754686
227	0x3d793326	0.060839795
228	0xbce557cd	-0.027995968
229	0x3e01ea1d	0.12686963
230	0xbe072d87	-0.13200961
231	0x3e666f7d	0.22503467
232	0xbd990445	-0.074715175
233	0x3dece960	0.1156795
234	0x3d74309e	0.059616677
235	0xbc125df2	-0.008933531
236	0x39a0c8e7	0.00030667262
237	0xbe2b5b4c	-0.16734046
238	0x3e2b8ab8	0.16752136
239	0x3cee70cc	0.02910652
240	0x3d2111c4	0.039323583
241	0xbc9061c2	-0.01762474
242	0xbdb2c94e	-0.08729802
243	0x3e5a0ddc	0.2129435
244	0xbe6b7c5d	-0.2299666
245	0xbd5d177d	-0.05397748
246	0x3d011074	0.03150983
247	0xbe211ab6	-0.15732846
248	0xbda196cd	-0.07890091
249	0x3dda7278	0.106663644
250	0x3e2bdca1	0.16783382
251	0x3d7eafd3	0.062179398
252	0x3dd05c7c	0.1017389
253	0x3dbdde57	0.092709236
254	0x3de04033	0.10949745
255	0x3e031bc4	0.1280356

model.predict.predict.1.bias f4 [128]
0	0xbc1add95	-0.009452243
1	0x3c995fed	0.018722499
2	0xbbc96c79	-0.006146964
3	0xbd9ba2c1	-0.07599402
4	0xbddd98ff	-0.10820197
5	0xbdd36e3c	-0.1032376
6	0xbd63e285	-0.055635948
7	0xbcbb7138	-0.022881135
8	0xbd13d220	-0.036089063
9	0xbd80aaff	-0.06282615
10	0xbc7fd2e1	-0.015614242
11	0xbde7ca56	-0.113178894
12	0x3d1099d2	0.035302944
13	0xbdaa38e7	-0.083116345
14	0xbd88aa91	-0.06673158
15	0x3d505357	0.05086073
16	0xbd1bbfa6	-0.038024567
17	0xbdb809d1	-0.08986247
18	0xbe090ad4	-0.13383037
19	0x3ca503b5	0.02014337
20	0xbddb1618	-0.106975734
21	0xbda9fb92	-0.08299936
22	0xbca9c912	-0.02072576
23	0xbdbb560d	-0.09147272
24	0x3cf873fa	0.03032874
25	0x3c7d5b43	0.015463653
26	0x3d071469	0.03297845
27	0xbd82e55f	-0.06391405
28	0xbd1c547f	-0.03816652
29	0xbe3618a6	-0.1778284
30	0x3da08a80	0.07838917
31	0x3d1209e8	0.03565398
32	0xbe10601e	-0.14099166
33	0x3cf20bf3	0.029546713
34	0xbdf841c7	-0.12121921
35	0x3db4e2c0	0.08832312
36	0xbcda1042	-0.02661908
37	0x3d3b9d09	0.045804057
38	0xbd2e513e	-0.042557947
39	0xbe01db97	-0.12681423
40	0xbd67e551	-0.056615178
41	0xbc14dae7	-0.0090853935
42	0x3cea0105	0.02856494
43	0xbcaa97d7	-0.020824356
44	0xbd4ecfa4	-0.05049099
45	0xbdf86761	-0.12129093
46	0xbdf9e61e	-0.122020945
47	0x3dc35b7f	0.09538936
48	0xbdffc752	-0.12489189
49	0x3e001ee1	0.1251178
50	0xbc82a251	-0.01594654
51	0xbcdcbed1	-0.026946457
52	0x3b73a3d4	0.0037176507
53	0xbd71c044	-0.05902125
54	0xbd444e7a	-0.047926404
55	0xba98d63f	-0.001166053
56	0x3d2b621c	0.04184161
57	0x3df22105	0.11822704
58	0x3d2599e1	0.040429953
59	0xbd311c47	-0.043239858
60	0xbd2caa46	-0.042154573
61	0xbd88578d	-0.06657324
62	0xbdd4c5cf	-0.103892915
63	0xbd059bc5	-0.032619257
64	0xbd426c09	-0.04746631
65	0x3d255d93	0.040372442
66	0xbc16ae5c	-0.009196844
67	0x3da39d30	0.079889655
68	0xbb62bb12	-0.0034596366
69	0xbc6d4106	-0.014480835
70	0x389d894a	7.5119155e-05
71	0xbdbd55d7	-0.09244888
72	0xbd5becd5	-0.053692658
73	0xbc1e2e29	-0.00965456
74	0x3e3367f7	0.17520128
75	0xbe2e253d	-0.17006393
76	0x3d118481	0.035526756
77	0xbdf375be	-0.11887692
78	0x3bb4d184	0.0055181403
79	0xbdd99fd6	-0.106261894
80	0xbd49f931	-0.049309913
81	0xbdce53a4	-0.10074547
82	0x3d249d77	0.040189233
83	0xbbbb000b	-0.005706792
84	0x3a4c9966	0.00078048406
85	0xbd6645dd	-0.05621897
86	0x3d443f93	0.04791219
87	0x3c4163ea	0.0118036065
88	0xbe00d0ae	-0.12579605
89	0xbcd2350f	-0.025660066
90	0xbd06bc72	-0.03289456
91	0xbdf097a9	-0.11747677
92	0xbd5dc51a	-0.05414305
93	0x3d99b8d5	0.07505957
94	0xbc977421	-0.018487992
95	0x3ba3868c	0.0049904045
96	0xbcd4185c	-0.025890522
97	0xbda28935	-0.079363264
98	0xbd76e19c	-0.06027375
99	0xbd03441e	-0.032047383
100	0x3d3ce0d0	0.046112835
101	0x3da380ad	0.07983527
102	0xbe03200d	-0.12805195
103	0xbcc1ad34	-0.02364216
104	0xbd4fce7f	-0.05073404
105	0x3de2e3e4	0.11078623
106	0xbe034887	-0.12820636
107	0x3d8a09ae	0.067401275
108	0xbe0aa75a	-0.13540402
109	0x3e098978	0.13431346
110	0xbd6706b7	-0.05640289
111	0xbd1d2ad2	-0.038370915
112	0xbd88316b	-0.06650051
113	0xbd8795f5	-0.06620399
114	0x3cbba367	0.022905065
115	0xbd5748a1	-0.0525595
116	0xbdbe89ee	-0.09303652
117	0xbddc5e81	-0.10760213
118	0x3ca020c4	0.019546874
119	0xbc0d4daf	-0.008624478
120	0xbafa52f2	-0.0019098206
121	0xbc599290	-0.013279572
122	0xbce53e04	-0.027983673
123	0x3d91319a	0.07089539
124	0x3d325e4f	0.04354697
125	0x3e1910b4	0.14947778
126	0xbd743b79	-0.05962703
127	0x3a571462	0.00082046364

model.predict.predict.3.weight f4 [128]
0	0x3eafc98f	0.34333465
1	0x3f174490	0.59088993
2	0x3f808571	1.0040723
3	0x3f7d4747	0.98936886
4	0x3f77923f	0.9670753
5	0x3f78e0e9	0.97218186
6	0x3f838ecf	1.0277957
7	0x3f7954dd	0.97395116
8	0x3f3651be	0.7121848
9	0x3f81221a	1.0088532
10	0x3f796f1a	0.9743515
11	0x3f6541a4	0.89553285
12	0x3f77edbb	0.9684712
13	0x3f80ebba	1.0071938
14	0x3f83b1b9	1.0288612
15	0x3f8a30a7	1.0796098
16	0x3f678d4d	0.9044998
17	0x3f7619ea	0.9613329
18	0x3f7dbd98	0.9911742
19	0x3f800000	1.0
20	0x3f7a6693	0.97812766
21	0x3f807a26	1.0037277
22	0x3f7351ed	0.95046884
23	0x3f7e9a85	0.9945453
24	0x3f7e2825	0.99280006
25	0x3f8526a7	1.0402421
26	0x3f771084	0.96509576
27	0x3f7fb55d	0.99886113
28	0x3ed62931	0.41828302
29	0x3f77e67f	0.96836084
30	0x3f7f6a11	0.9977122
31	0x3f766c28	0.96258783
32	0x3f70650b	0.9390418
33	0x3f7ef137	0.99586815
34	0x3f7ef7e4	0.99597
35	0x3f164b63	0.5870878
36	0x3f827a02	1.0193484
37	0x3f809def	1.0048198
38	0x3f20ad82	0.6276475
39	0x3f6bf8ae	0.9217633
40	0x3f800a79	1.0003196
41	0x3f8a3c39	1.0799628
42	0x3f843ff5	1.0332018
43	0x3f6d9083	0.9279863
44	0x3f6241b9	0.88381535
45	0x3f730fcf	0.94945997
46	0x3f7c508c	0.98560405
47	0x3f703b78	0.9384074
48	0x3f7a5a41	0.97793967
49	0x3f3a9efb	0.72898835
50	0x3f82ca85	1.0218054
51	0x3f7d52bd	0.98954374
52	0x3f313eac	0.69236255
53	0x3f7d3c22	0.9891988
54	0x3f6e4300	0.93070984
55	0x3f5e330a	0.8679663
56	0x3f79dfe4	0.97607255
57	0x3f1c6dd9	0.61105114
58	0x3f6353fd	0.8880003
59	0x3f78eded	0.97238046
60	0x3f78eeb5	0.9723924
61	0x3f7bb319	0.98320156
62	0x3f7bf40c	0.9841926
63	0x3f6cbc1e	0.92474544
64	0x3f7c0209	0.98440605
65	0x3f82ee22	1.0228922
66	0x3f796eaa	0.97434485
67	0x3f8598e0	1.0437279
68	0x3f807e0d	1.0038468
69	0x3f7ac0e3	0.9795057
70	0x3f5d625e	0.8647822
71	0x3f647e68	0.8925538
72	0x3f7388bd	0.9513052
73	0x3f4251da	0.75906146
74	0x3f86650b	1.0499586
75	0x3f735b61	0.9506131
76	0x3f0e32eb	0.55546445
77	0x3f7e461f	0.99325746
78	0x3f69ae98	0.91282034
79	0x3f7e3739	0.99303013
80	0x3f6cc800	0.92492676
81	0x3f7566d0	0.95860004
82	0x3f836a1b	1.0266756
83	0x3f7fc30e	0.99907005
84	0x3f78b42d	0.97149926
85	0x3ec2de13	0.38060054
86	0x3f824beb	1.0179418
87	0x3f7652e7	0.9622025
88	0x3f62da40	0.88614273
89	0x3f800000	1.0
90	0x3f824dd9	1.0180007
91	0x3f821920	1.0163918
92	0x3f5f346c	0.87189364
93	0x3f4dda48	0.80411196
94	0x3f8126f5	1.0090014
95	0x3f47c2c1	0.78031546
96	0x3f8049b8	1.0022497
97	0x3f6facf8	0.93623304
98	0x3e0e3b77	0.13889872
99	0x3f76571a	0.96226656
100	0x3f7cf281	0.9880753
101	0x3f425ea2	0.7592565
102	0x3f302deb	0.68820065
103	0x3f7ec1c6	0.99514425
104	0x3f76c942	0.96400845
105	0x3f4f5517	0.8098921
106	0x3f8344c0	1.0255356
107	0x3f7cdbf4	0.9877312
108	0x3f79bac9	0.97550637
109	0x3e30b41f	0.1725621
110	0x3f7b8dc8	0.98263216
111	0x3f7884a1	0.97077376
112	0x3f7cda16	0.9877027
113	0x3f7cc5db	0.98739403
114	0x3f7ec0b4	0.9951279
115	0x3f7e766d	0.99399453
116	0x3f7a6325	0.9780753
117	0x3f7a126d	0.97684366
118	0x3e854c0b	0.2603458
119	0x3f7c2bc3	0.98504275
120	0x3f7c88f5	0.9864648
121	0x3f73538e	0.9504937
122	0x3f7bf940	0.984272
123	0x3f6ac6c2	0.9170953
124	0x3f595d6c	0.84908175
125	0x3f88a76c	1.0676093
126	0x3f7a6887	0.97815746
127	0x3f63bc29	0.88958985
