checkpoints/GCM/best_roc_auc_score/checkpoint1.pt (torch, 375109 bytes, 47 tensors)

model.gnn.gnn_layers.0.graph_conv.weight f4 [30, 64]
00000000: bcda 0cbe f737 02be 4dd7 6dbd e301 88be
00000010: 0721 2e3e 03cc 5abd 26e6 afbd e37f 12bd
00000020: e039 fabd bf8d 3dbe 7611 9a3d c591 e2bd
00000030: 1f90 f0bd 4090 adbd cb1f 113e d267 ddbc
00000040: ddf3 d6bd 6ce8 ff3d 53ac ca3c 3e94 a8bd
00000050: 8d34 813e 21ef f73d 481d 733e ae4a 993d
00000060: 45dc 2a3e 919e 373e 759b 51be 599a 6cbc
00000070: cfa2 393e 9583 5c3d 189b 8bbe 9c23 fd3d
00000080: 7f21 5fbe 4826 92bd 4fe1 8e3e ae32 053e
00000090: 683e 10be 5b2f 4e3d 2aeb d33d 56df 093e
000000a0: 49ca 73bd 4b46 57bd a917 49bd 1885 c2bd
000000b0: 57a2 093e ff81 28be d53f c83d d789 35bc
000000c0: f61c 0fbe d99c 393d 7e68 243d 5210 7fbe
000000d0: 1ccb fcbd 8992 5bbe 8e45 4a3e 8d48 9abd
000000e0: 39b6 083e 0e9c 16be d0aa e23c 5d6a d1bc
000000f0: 391a 493e 6b48 303e cd45 863e 5036 4dbe
00000100: 3745 8abe 3448 b0bd ce03 523e 1cab f5bd
00000110: 7c71 433d 24cf 723e 501a 0bbd fec7 f2bd
00000120: 82f0 8ebe 2b78 063e e7a9 69be 7df3 283e
00000130: 33ea aebd ba52 62be bb89 4abe a0ed 343e
00000140: e387 9fbd 2656 ac3d 4dfa 963c e733 b53d
00000150: 28af 2ebe 8e94 a03d af12 423e dfa1 b73d
00000160: c922 b83d 4682 183e 334e 2dbd e870 483e
00000170: a434 8cbe fb41 b9bd 62d4 673e c87b e0bd
00000180: 85b6 abbd 77b1 e33d 8392 a2bd 4a30 1ebe
00000190: 1f2a dc3d 244d ae3d 438c c83d c0fa 85be
000001a0: 13dc a73e e251 9ebe 5e89 793e 60ff 07be
000001b0: a893 273e ddd0 923e 374e 0abe f6e7 023e
000001c0: 2456 893d c1cc 5c3d a985 b3be 90cf 7f3e
000001d0: 2236 253e 1400 7a3e 2dce 423e c576 ef3b
000001e0: 2d8f a2bd 41b2 8c3d 4340 3f3e 4cbc 4c3e
000001f0: 69c8 5b3e fa9c 423e 3e12 a6be 4719 28bd
00000200: 786b 73bc d53b 2ebe c5d7 8d3e a627 963e
00000210: 3cbb b23d 25eb 2ebc 2d28 90bc f8da 1bbe
00000220: 3701 693e bb88 903d 5f21 253e cfa6 c9bd
00000230: ae73 2fbe fd6a 84bd 5bc6 72be 2ddf 6fbe
00000240: ab97 83be f955 a23c aaed 7c3e d254 213e
00000250: 22e5 b93d b7f3 fc3d 0790 1d3e 6b00 33be
00000260: f8b8 4dbe 4e7a 16be 84d8 19be fba2 073e
00000270: 9594 54be 1cfa d9bd 035c bebd a0d7 3bbe
00000280: 1e44 d33d 1434 a73e 1612 8fbd 765f 21be
00000290: 315f 2c3e 0632 f43d e581 6c3e 8ea5 2a3e
000002a0: d984 0ebe 1aca cbbc 600b 6cbe 0f3a 1dbe
000002b0: eb6e 233d 4d7a 3bbe bbde 98bb 6489 1c3e
000002c0: 01ff 81be f6f1 5c3e 3e8a 653e 139d b53a
000002d0: 8364 2cbe f5f1 4f3e 69f4 8e3d f2c5 3c3c
000002e0: e703 52bd 64fb 60be 81f5 dabd 0cfb 24be
000002f0: 8524 373e e3ac b33c bd1b 6cbe 6593 99bd
00000300: 87dc 99be 6b5b cf3c 215a f5bd c3ec 393e
00000310: 961e 4d3d cebc a53d 9320 f4bd 677c 38be
00000320: f366 bd3d 7c4f 963d e2f2 3ebe 4312 89be
00000330: b56b e53d e226 5cbe 1186 fa3e 8098 16be
00000340: 25b5 1a3e 0eb1 693e b27b 843e 527f 8e3e
00000350: f776 073e c72d 923e f018 813e 0f9e ddbc
00000360: f8ee 85bd 90ac 633d 267c 88be 9de9 163e
00000370: 1bde 3a3c f578 de3d 94e0 da3e 00b8 d7be
00000380: d288 d03d 666d 32bf 1a6c 993c 58e3 d93c
00000390: d258 0bbf 11a0 85bd d5c4 5fbd a02b 833e
000003a0: 98c7 243e af08 913c ca2c 213e f37e cc3c
000003b0: cfa0 3f3e 1352 253e 49bc 96bd 7980 b33d
000003c0: 1438 0f3e e120 e4be 355a 5c3e 4b96 983d
000003d0: 2ff3 b6be 1539 5bbe e088 313e 2bc0 0abe
000003e0: b5dd b8bd 4610 353e c428 4f3e 2fdc aebe
000003f0: 25bd fbbd a352 bebd 4fe4 bf3d 4097 e13c
-0.13755316 -0.12716661 -0.058066655 -0.2656394 0.17004786 -0.053417217 -0.08588819 -0.035766494
-0.1221807 -0.18511103 0.07522862 -0.110629596 -0.11746239 -0.08474779 0.14172284 -0.027027044
-0.10495732 0.12495503 0.024740374 -0.082314 0.25235406 0.12106157 0.23741639 0.07484947
0.16685589 0.17931582 -0.20469458 -0.014441096 0.18128513 0.053836424 -0.27266765 0.123603076
-0.21790121 -0.07136208 0.27906272 0.13007614 -0.14086306 0.05033813 0.10347588 0.13464102
-0.059519086 -0.05255727 -0.04909483 -0.09498042 0.13440834 -0.1645584 0.097778 -0.011080227
-0.13975891 0.045315597 0.040138714 -0.2490857 -0.123434275 -0.21442617 0.19753096 -0.07533369
0.13350762 -0.14707968 0.02766934 -0.025563413 0.1963891 0.17215125 0.2622513 -0.2004025
-0.27005932 -0.08607522 0.20509264 -0.11995527 0.04771565 0.2371183 -0.03396064 -0.11854552
-0.27917868 0.13131778 -0.22818719 0.16499133 -0.08540764 -0.2210187 -0.19779103 0.17668772
-0.0778959 0.08414869 0.0184299 0.0884779 -0.17059004 0.078408346 0.1895244 0.08966421
0.0899101 0.14893445 -0.042310905 0.1957432 -0.27383912 -0.09045788 0.22639611 -0.109611094
-0.08384422 0.11117833 -0.07938101 -0.15448108 0.107502215 0.08510807 0.09792378 -0.2616787
0.3278509 -0.30921847 0.24368808 -0.13281012 0.1636492 0.28674975 -0.13506399 0.12783799
0.06705883 0.053906206 -0.35062912 0.24981523 0.16133931 0.24414092 0.19023962 0.0073078596
-0.07937465 0.06869937 0.18676858 0.19993705 0.21463169 0.19005194 -0.32435793 -0.04103973
-0.0148571655 -0.17015012 0.27703682 0.29327124 0.087271184 -0.01067618 -0.017597282 -0.15220249
0.2275437 0.07057329 0.16126011 -0.09846269 -0.17133972 -0.06465719 -0.23708479 -0.23424979
-0.2570165 0.019816386 0.24700037 0.15755013 0.09076907 0.123511724 0.15386973 -0.17480628
-0.20090091 -0.14695093 -0.15024 0.13245766 -0.20759805 -0.10643408 -0.092948936 -0.18343973
0.10315727 0.3265692 -0.069858715 -0.15759072 0.16833188 0.11923604 0.23096426 0.16664717
-0.13917865 -0.024876643 -0.23051214 -0.15354179 0.0399007 -0.18308373 -0.0046652234 0.15286785
-0.25389865 0.21576676 0.22416016 0.0013856016 -0.16835217 0.20307143 0.06980211 0.011521803
-0.051273253 -0.21970898 -0.106913574 -0.16111392 0.17885025 0.021933025 -0.23057456 -0.074988164
-0.30051062 0.025312146 -0.11980081 0.18156724 0.050077997 0.08092652 -0.119202755 -0.18016206
0.09248152 0.07339379 -0.1864734 -0.26771745 0.11202184 -0.21499208 0.4893041 -0.14706612
0.15108164 0.22821447 0.25875622 0.27831513 0.13228975 0.2855055 0.25214338 -0.027052907
-0.0653972 0.05558449 -0.26657218 0.14737554 0.011405493 0.108629145 0.42749465 -0.42132568
0.101823464 -0.6969818 0.018728305 0.026597664 -0.54432404 -0.06524671 -0.054631073 0.2561922
0.16091764 0.017704336 0.15739742 0.024962878 0.18713687 0.1614459 -0.07360131 0.087647386
0.13986236 -0.44556335 0.21518786 0.07450541 -0.3573241 -0.21408494 0.1733737 -0.13549869
-0.09026662 0.17681989 0.20230395 -0.34152362 -0.12291936 -0.092931055 0.09369718 0.027537942

model.gnn.gnn_layers.0.graph_conv.bias f4 [64]
00000000: 7735 98bc 19a5 d83b a753 4cbd 3862 f03c
00000010: 8bcc 383c 1cbd 07bd 6e0b a23c 68e4 13bd
00000020: 8815 89bd 3d5f 14bd 6de4 5d3d 3a69 ff3a
00000030: cb01 3ebd ef1f 17bc ebaa d93c 81f0 0bbc
00000040: 5f20 20bc 589f 90bd 264b ffbb 45ed 13bd
00000050: e619 d4bc 00de 08bd 8ec2 e33c 9bc9 35bd
00000060: e92a f5bb ecc7 c73c f2b1 18bc ea58 8cbb
00000070: 7f50 f8bc 2c55 e93a 1999 d3bb a326 d8bc
00000080: 6be8 dfba 3494 03bc 4fc0 2dbc d1e6 6abc
00000090: c746 09bb 9489 d2bc 29be 20bd d91e b8bc
000000a0: 2670 fb3c ddfc d8bc 7fdb b8bc 408b b73d
000000b0: 56f7 d03c 1d4a 263d 6897 83bc c4a3 28bd
000000c0: dd41 95bd 4f34 08bd 7e20 463d 9b7f 19bc
000000d0: 7fa6 3cbd 9d0f 89bb 30ac 25bd ab42 ae3b
000000e0: 91db 493c f146 0abd 21bf 0dbc 0375 a03d
000000f0: effa 10bd 8b21 85bd 1a9b d13c 06ec 37bc
-0.018580182 0.006611478 -0.049884465 0.02934371 0.011279236 -0.033139333 0.01978084 -0.036106497
-0.0669356 -0.03622364 0.054172922 0.0019486316 -0.04638843 -0.009223922 0.026570758 -0.008541227
-0.009773343 -0.070616424 -0.007790941 -0.03611495 -0.025891256 -0.03341484 0.027802732 -0.04438172
-0.007481922 0.024387322 -0.009319769 -0.0042830603 -0.030311821 0.0017801872 -0.0064574596 -0.02638561
-0.0017082816 -0.00803094 -0.010604932 -0.0143372575 -0.0020946728 -0.025700368 -0.03924385 -0.022475647
0.030693125 -0.026487762 -0.022565601 0.08962107 0.025508564 0.040598024 -0.016063407 -0.041171804
-0.07287953 -0.03325301 0.04837083 -0.009368802 -0.04605722 -0.0041827695 -0.040447414 0.005318006
0.012320415 -0.03375906 -0.008651526 0.07834818 -0.03539556 -0.065005384 0.025586654 -0.011225706

model.gnn.gnn_layers.0.res_connection.weight f4 [64, 30]
00000000: a409 05be 2ab0 b0bd e5d5 cebd f0ae 873b
00000010: 44ed 7fbe e29c 713e f039 e03d a4a8 74bc
00000020: 4b4d debe 1f66 d33d 39b9 94bd f400 28bd
00000030: a977 06be 5eef 04be d590 fe3d 74d4 f03b
00000040: 8de5 103e 206f 213e d67f 3cbe 56a7 a93e
00000050: 309f 91be 053e 5abd 95a4 053d 5f85 c0bd
00000060: a08e ff3d 659d 483d 2041 d03d 9a65 4fbe
00000070: 42bd 0c3e 6068 a9bd d7e5 f43d 40ce 7fbe
00000080: 555d d0bd 9b09 82be efd6 4cbe 68e5 ccbc
00000090: e21a 79bd f3d6 203e b035 40be 8389 953e
000000a0: 1d9c b3bd 9dec 20be 354b 0d3e 42ac 8f3d
000000b0: 83fb 3fbe 5851 a53d fb30 39be 52e3 793d
000000c0: 217c a9bd ff1d 03bd 42a9 353e 08bc 8fbd
000000d0: 58e6 243c 183e 8fbd 42f6 c53d 2bac 543e
000000e0: 636b 73be bd24 2e3e 00e5 96bd 3939 9abd
000000f0: 30f2 31be ed0c 65be 13cf 033e 285c e9bd
00000100: eecf e8bd e11e 413e bfe8 2f3e 451e d1bd
00000110: 3635 6fbd f2d6 453d 9814 e9bd 2bdb a53e
00000120: bd29 abbd dedc ebbd 728f 0b3e 5c00 5b3c
00000130: 8dc5 033e 7b36 1d3e 2aaf b9bd a789 4c3e
00000140: 1174 b03d a4fc 263e f121 17be 0216 d23d
00000150: 7598 dcbd a04b acbc e437 cebc 01dd b5bd
00000160: e85c 053e f688 033e 0837 83bd 7954 0f3e
00000170: 5c2c df3c 574c c83d 57f1 17be aff1 8c3e
00000180: c752 8ebd 6f8d c1bd 7e1e c1bd 940f 47be
00000190: 3a16 403e 17d6 883a 1135 3ebe 6bff 183e
000001a0: eac4 6c3e d310 9f3b 03c1 47be 6959 6fbd
000001b0: ef46 2fbc 2ef0 84bd b379 00be 11e2 113e
000001c0: f477 da3d 3375 bfbd 7e05 bfbd 1c95 8a3e
000001d0: a583 243e f813 ed3d 5b10 713c 4d39 853d
000001e0: 5358 d4bc 1973 0c3e d48a 843d cb80 473e
000001f0: 6522 f9bd 6cab 83be c1d0 29be 835b 0e3e
00000200: 4950 553e 63a3 ac3d e84b 8dbd 77f5 9a3d
00000210: 9414 113d 37ee dbbd 49ae 6cbe 0cd5 d7bd
00000220: b25f 1b3e 7933 933d ec07 bcbb 7659 5e3d
00000230: 14b0 203e d846 073e 8d2e 6bbe 476d 50bd
00000240: 3d24 063e e94f 39be 6186 e2bd cd7d 7c3d
00000250: 15f1 003e 7ad5 1abe 2909 31bd 839b 3ebe
00000260: dad3 d03d 0419 38bd 8a8c c93d 474f 343e
00000270: 35b9 d03d 5f69 55be f987 97bc f4fa 753d
00000280: c639 58be 82b7 2dbe 5057 debd af02 b3bd
00000290: f235 34be f193 26be 48a4 adbd 8a85 863c
000002a0: 2563 50bd eb40 e9bd b082 2bbb b5c6 a03d
000002b0: 2a96 853b 6f65 0fbe b2cb ddbb 8fd6 0abc
000002c0: 364f 263e 9da6 ed3d 0da4 0abe c2c7 243e
000002d0: 39e9 ea3a 56cc adbd 3c68 953d b8eb 27be
000002e0: 4f6e b63c 6d1c 93bd 8f72 a33d 244b 44bd
000002f0: dbcd 433d 8cc7 26be 7e75 e43d 314a 863d
00000300: dd92 773d 6dd1 c23a 6ccf 2bbe 2b76 a93c
00000310: ec89 ae3d dddd 14be bccd ccbc c318 cd3d
00000320: 63a3 2dbe a360 54bd 6a5a a5bd 1365 0abe
00000330: c4a5 9dbd 34d5 163c ba2a 3cbe 15ae 253e
00000340: b842 ad3d f32c 253e adaa 573e a910 c8bd
00000350: a1d9 313d 41d0 ea3d 1e99 a8bc 48b4 b93c
00000360: 0b22 083d 574f 96be d53d dfba 58c4 0b3e
00000370: 14f2 1f3c 69fa 073e e643 8ebd c613 15bd
00000380: 98a2 d23d 3b0a 1fbd 6373 35bd bc62 40be
00000390: 7d93 66bd 07a9 fdbd 3a7b 093e a942 8fbc
000003a0: d3f8 9b3e 1e4d 71bd 16f7 c7bd ca41 293e
000003b0: ef01 b7bd fc46 46bd 2f39 ed3d d837 173d
000003c0: 14f1 cbbd d7a5 233e 7dc5 46be 8d11 843d
000003d0: b9ce 9abd c449 433c 2629 173e feff 8abe
000003e0: bea8 26bd 59f5 16be c410 e43d 2117 bdbd
000003f0: 70ba e83c ab23 23bc ea12 a33e 3320 14bd
-0.12991959 -0.08627351 -0.10099391 0.004140727 -0.24992853 0.23595002 0.10948551 -0.014932785
-0.43418345 0.103222124 -0.07261891 -0.041016534 -0.13131584 -0.12981936 0.12429968 0.007349545
0.14150067 0.15765047 -0.1840814 0.3313548 -0.28441763 -0.053281803 0.03262766 -0.094004385
0.124783754 0.048978228 0.101686716 -0.20253602 0.13744071 -0.08271861 0.11957901 -0.24981022
-0.10174052 -0.25397953 -0.20003866 -0.025011733 -0.060816653 0.15706997 -0.1877048 0.29206476
-0.087700106 -0.15715261 0.1379822 0.070152774 -0.18748288 0.08072156 -0.18085091 0.061007805
-0.08275629 -0.03201103 0.17740348 -0.07018286 0.010064684 -0.06994265 0.096661106 0.20768802
-0.23771434 0.17006202 -0.07367897 -0.075304456 -0.17377543 -0.22368212 0.12871961 -0.113945305
-0.113677844 0.18859436 0.1717863 -0.102108516 -0.058400355 0.04830069 -0.11380881 0.32393774
-0.0835757 -0.115167364 0.13628939 0.013366785 0.12868328 0.15352814 -0.09066613 0.19974385
0.08615888 0.16307312 -0.14759041 0.10258104 -0.10771266 -0.021032155 -0.025173135 -0.08880044
0.13023722 0.12845215 -0.06406981 0.13997068 0.027242832 0.09780186 -0.14838158 0.2752814
-0.06949382 -0.094508044 -0.09429644 -0.19439536 0.18758479 0.001043978 -0.1857493 0.14941184
0.23121992 0.0048543005 -0.19507222 -0.058434878 -0.010698064 -0.06491123 -0.12546425 0.14246394
0.106674105 -0.09348526 -0.093272194 0.27066886 0.16065843 0.11576074 0.014713372 0.0650507
-0.025921023 0.13715781 0.06471792 0.19482724 -0.12164763 -0.25716722 -0.1658354 0.13902096
0.20831408 0.08429601 -0.068992436 0.0756635 0.035420015 -0.10738795 -0.2311336 -0.10538682
0.15173224 0.07187552 -0.005738249 0.054284535 0.15692168 0.13210618 -0.22966976 -0.050885465
0.13099761 -0.1809689 -0.11060787 0.06164341 0.12591965 -0.15120497 -0.043221626 -0.1861401
0.101966575 -0.04494573 0.09841259 0.17608367 0.101915754 -0.20840977 -0.018497454 0.06005378
-0.21115789 -0.16964534 -0.10856497 -0.08740746 -0.17598704 -0.16267373 -0.084786 0.016421098
-0.0508758 -0.11389335 -0.0026170425 0.078504 0.004076739 -0.14003538 -0.006768667 -0.008474006
0.16241154 0.116040446 -0.13539143 0.16091827 0.0017922289 -0.084862396 0.07295272 -0.16398513
0.022269396 -0.07183156 0.07980835 -0.047923222 0.04780374 -0.16287059 0.11155222 0.0655712
0.060442794 0.0014863439 -0.16778344 0.02068623 0.085224 -0.14537759 -0.025000446 0.100144885
-0.16956858 -0.051849972 -0.08073886 -0.13515119 -0.07697633 0.009206105 -0.18375674 0.16179688
0.08459991 0.16130428 0.21061201 -0.09768803 0.043420438 0.114655025 -0.020580824 0.022668973
0.03323559 -0.29357406 -0.0017031977 0.13649118 0.009762306 0.13279118 -0.06946544 -0.03639581
0.102849185 -0.038828116 -0.044299494 -0.18787664 -0.056293 -0.12385755 0.13425913 -0.01748784
0.30463275 -0.058911435 -0.09763925 0.16529003 -0.08935916 -0.04840754 0.115831725 0.03691849
-0.099580914 0.15981232 -0.19411273 0.0644866 -0.075589605 0.011919443 0.1476179 -0.27148432
-0.04068827 -0.1474203 0.1113601 -0.09232927 0.028409213 -0.009957234 0.31850368 -0.03616352

model.gnn.gnn_layers.0.res_connection.bias f4 [64]
00000000: fa58 283e 5682 163e a6e1 eb3b 8e91 3c3e
00000010: e64c 093e 3222 123e 9a14 4a3e aa14 0d3e
00000020: e576 903d 998d bebd 5731 3bbe e8fc d4bd
00000030: e236 b43d 3d90 cfbd 8a56 2cbe f6ef dfbb
00000040: a72c fe3d 00cd 46bd bced 003e 28a7 093e
00000050: 1bfb 173e 99ee ca3b dd00 05be 4ca8 293d
00000060: e81f 11be 78af 04be e858 dabd 47b2 be3d
00000070: 56bc 203e f8e8 57bd 4431 c23c e6c2 adbd
00000080: e1f0 143e ea61 143e 5935 c4bd 761e 20bd
00000090: 493f 3bbe 8836 7d3d 02ba 0b3e 2805 30bc
000000a0: 4779 12be e842 04be 7734 97bd 0cdf a4bc
000000b0: ed01 133d fc02 3f3d bea9 193e 36c0 083e
000000c0: 0891 e83d 3e6b 11be e087 b53d e181 e7bd
000000d0: 4c91 19bd 72db 3dbe c446 b9bd 66f3 b1bd
000000e0: ba38 8abd 09ee 0d3e 6c56 17be 95ea 5c3c
000000f0: e77e 873d 2ac5 813d cb66 abbd 1641 423d
0.16440192 0.14698157 0.0071985302 0.184149 0.1340824 0.14270857 0.19734421 0.13777414
0.07053927 -0.09304351 -0.1828054 -0.103998005 0.087995306 -0.10134933 -0.16829887 -0.0068340255
0.124108605 -0.048535347 0.12590688 0.13442671 0.14841883 0.006192994 -0.1298861 0.041420266
-0.14172328 -0.12957561 -0.10661489 0.093113475 0.15696844 -0.05271241 0.023705132 -0.084844396
0.14545013 0.14490476 -0.09580488 -0.03909155 -0.1828586 0.061819583 0.13645175 -0.010743417
-0.14304076 -0.12916148 -0.07383054 -0.020125888 0.03589051 0.046633705 0.15006158 0.13354573
0.113557875 -0.14201066 0.08863807 -0.11304069 -0.03749208 -0.18540743 -0.090467006 -0.08689003
-0.06749101 0.13860334 -0.14779061 0.013483663 0.066160016 0.06336434 -0.083692156 0.047425352

model.gnn.gnn_layers.1.graph_conv.weight f4 [64, 64]
00000000: 73df c1bc 33df 273e 6d4a bfbd 2e7e e73c
00000010: 7cfb d83d cb84 1ebd f952 2a3e e876 413e
00000020: 51bf 2b3e d3ab 133e 9e1d 85bd 6400 31bc
00000030: b2a3 0ebe 4c43 81be de3d 9f3e 4cd2 69be
00000040: a678 d0bc 6080 ec3d 0976 723e 0829 d53d
00000050: 3f5e 52bd 288f 913e af53 f53d 2311 e23d
00000060: da4e d6bd ad2e 2dbe bba0 30be 3c65 023e
00000070: c9d2 3f3e 4606 7abe 4e91 1a3e 93c1 7a3d
00000080: 2332 113e 398f 24be 5c41 253d 8d5c 32be
00000090: e010 373c 6db7 9cbd 1944 b4bd 69e2 193e
000000a0: cede 07bd ad87 813d 509c d53d b67b 7d3e
000000b0: 78b9 0bbe 0808 1c3e dd27 eb3d b294 8b3d
000000c0: 1932 82bd 6b04 e33d 11ad 65bc bc49 393e
000000d0: c244 3a3e 5d9c 59be fe4f 0ebe e24f f4bd
000000e0: d6ae 97bd cb45 19be 0652 2cbe c6ce 683d
000000f0: b53c 203e 9fef 1cbd d14a 0dbe b96f cabd
00000100: 9549 2ebe 0e67 5b3d 0744 1d3d 0b4c 333e
00000110: be97 6c3d 5164 cbbd e821 9d3d 37b3 0a3d
00000120: 364d 6b3d 9fbc b93d a1e8 b23d 5b73 223e
00000130: 0c47 e4bd 4731 0b3e 18fa 073e 904a 9f3d
00000140: e638 a1bc 97d3 fc3d 9592 5c3e 7080 25be
00000150: e368 223d c791 4c3d 4d97 14be a54d 60be
00000160: fbbf 55be 1ef5 283e 1ebf 2c3e ac42 8e3e
00000170: 0e7c 66bd faf1 09bd f300 e23d 0f30 d43d
00000180: aa57 433e 43c3 94bd 13cb d6bb 6362 28bd
00000190: d94d 77be 9037 aabd 5541 5abe 0fca 30bd
000001a0: d94e 9abc 0df6 c2bd f78e 6abe dc7c 35be
000001b0: eda6 ab3d 008d 673d 4fdd db3d d2d6 abbb
000001c0: dfb8 763c f250 46bd a3f0 0ebe a8e8 8c3d
000001d0: bff1 9d3d 6c50 dfbd 843b 2a3d e939 31be
000001e0: c6c8 f5bd 87e2 98bd 56c9 e73c 5f17 fbbd
000001f0: bda6 c13c 067a bc3d 2802 67be a443 01be
00000200: 2b31 04be 60da 47bb e1e8 3d39 52b7 ffbd
00000210: 1bf9 24bd 61bf c23d eca0 2c3e 4cf5 78bd
00000220: 1f64 003e 1eb0 093e f9da 29be c0e7 55be
00000230: bec8 c43d bf2c a3bc 7804 0f3e 50bc 02be
00000240: 3402 273d 40c9 d23d 6afb bfbc 19da c1bd
00000250: f8ff 8bbd 1e86 21bd 4bfc 38be 7440 85be
00000260: cc81 d7bd 3ae4 a53d 89b4 2e3e 7b5b 08be
00000270: 6a69 a13d cd91 0c3e 6056 463e f537 66be
00000280: 68eb 3c3e f8c2 10be f15e bc3d 09ca a7bd
00000290: 6ef1 83bd 5837 2bbe 507e 32be 5101 76bd
000002a0: 525a 97b9 ed53 13be f748 93bd 0870 5c3e
000002b0: 126a 2dbe 3a22 1cbd dddb 03be 520f 1f3e
000002c0: 968b 053d 3528 14be c11c f7bd 825e 31be
000002d0: 9cf7 2c3d b83b 0b3e 597a 913c 1282 173e
000002e0: c656 3d3e 1f4c d13d 46ef ec3d c888 adbd
000002f0: ab06 40be af4e 05bd b6e0 e7bc 2072 6dbe
00000300: 3840 85ba 6763 053d d1c2 44be 9a8e eb3d
00000310: b66f 5a3d 06bf 92bd d082 9dbc 38da 6d3e
00000320: e3f0 1fbe fbca 1ebe 486e 0abe ffe1 19be
00000330: a09c 16be 512a 51be e52d 2f3e 4935 373e
00000340: 82b9 f9be d3d7 5abe 28f6 59be 1b5c 523e
00000350: 03d4 39bd 62b4 bebd 7608 fd3d 08bc 7bbe
00000360: 9bd5 0dbe 4f9d 61bd 4b47 b0be faff 163e
00000370: bce9 46be f611 1abe cb20 22be 11af 6d3b
00000380: c7e6 163e b7e9 bcbd 413c 92bd 8d3d 1f3e
00000390: a260 033e 3e95 ec3d a501 10be 114e 083e
000003a0: aaeb b7bd 4f1e 9abd 9c57 fd3d 66de 8f3e
000003b0: 5a64 9abd 71f1 5d3c 6fe6 c7bd 6cf4 49be
000003c0: 00a2 5f3d 89a3 a93d fc0d 3c3e a4d5 06be
000003d0: da58 69be beca df3d ceef 813d 9043 f23d
000003e0: 6dd8 393d 1913 36be b381 2a3d b430 5d3e
000003f0: 9fcb 78be af3d 1cbe 0f36 d43d 6577 ad3d
-0.02366612 0.16393737 -0.093403675 0.02825841 0.10594842 -0.03870086 0.16633214 0.18893015
0.167722 0.14421014 -0.0649979 -0.010803316 -0.13929632 -0.25246656 0.31101888 -0.22834128
-0.025448155 0.11547923 0.2367784 0.10408217 -0.05135941 0.28429532 0.11978852 0.11038425
-0.104642585 -0.16912337 -0.17248814 0.1273393 0.18732752 -0.24416456 0.15094492 0.061219763
0.14179282 -0.1607026 0.040345535 -0.17418118 0.011173457 -0.07652173 -0.08802051 0.15027775
-0.033171467 0.06324706 0.10430205 0.24754223 -0.1364497 0.15237439 0.11482213 0.06815471
-0.063572116 0.11084827 -0.014018313 0.18094534 0.18190292 -0.21251054 -0.13897702 -0.11929299
-0.07406394 -0.1496803 -0.16828164 0.05683782 0.15648158 -0.038314458 -0.13798071 -0.09884591
-0.17020257 0.053565077 0.038394954 0.17509477 0.0577619 -0.09931243 0.07672483 0.03386232
0.05744668 0.0906918 0.08735777 0.15864317 -0.111463636 0.13593017 0.13278997 0.077778935
-0.019680452 0.12345045 0.21540292 -0.16162276 0.03965081 0.04994371 -0.14510842 -0.21904619
-0.20874016 0.16499755 0.1686978 0.27785242 -0.05627065 -0.033678032 0.11035337 0.10360729
0.1907641 -0.07263806 -0.00655497 -0.041109454 -0.2415079 -0.08311379 -0.21313985 -0.043161448
-0.018836426 -0.09519587 -0.229061 -0.17723411 0.08381448 0.056530952 0.10735571 -0.0052441144
0.015058725 -0.04841704 -0.13958983 0.06880313 0.07712125 -0.10904011 0.041560665 -0.17307247
-0.12001185 -0.07465082 0.028294247 -0.12260317 0.023639077 0.092029616 -0.22559416 -0.12623459
-0.12909381 -0.0030495152 0.00018111199 -0.124861374 -0.040276628 0.09509159 0.16858262 -0.06078081
0.12538193 0.1344609 -0.16587438 -0.20889187 0.09608601 -0.019918798 0.13966548 -0.12767148
0.040773585 0.10292292 -0.023435313 -0.09465427 -0.068359315 -0.039434545 -0.18064992 -0.26025736
-0.10522804 0.081001714 0.17061056 -0.13316147 0.07881434 0.13727494 0.19368887 -0.22482283
0.18449175 -0.14136875 0.09197796 -0.08192832 -0.064425334 -0.1672033 -0.17430997 -0.06005985
-0.00028868258 -0.14387484 -0.07191651 0.21527112 -0.16934994 -0.03811858 -0.1287684 0.15533188
0.032603823 -0.14468463 -0.12066031 -0.17321208 0.042228326 0.13597 0.017758535 0.14795712
0.18490133 0.10219597 0.11569075 -0.084733546 -0.18752544 -0.03254574 -0.028305393 -0.23188066
-0.0010166233 0.0325655 -0.19214942 0.115018085 0.053329192 -0.07165341 -0.019227415 0.23227775
-0.15619235 -0.15507118 -0.13518631 -0.15027617 -0.14708185 -0.20426299 0.17107351 0.1789142
-0.48774344 -0.21371393 -0.21285307 0.20542948 -0.045368206 -0.09311749 0.123551294 -0.24583447
-0.13851015 -0.05508166 -0.34429392 0.14746085 -0.194251 -0.15045914 -0.15832822 0.0036267678
0.14736472 -0.09224265 -0.07140399 0.15550824 0.12829831 0.11551903 -0.14063127 0.1331103
-0.08980496 -0.07525312 0.12370226 0.28099364 -0.07538672 0.013546334 -0.097607486 -0.19722146
0.054597855 0.08283145 0.1836471 -0.13167435 -0.227878 0.10927342 0.06344567 0.11829293
0.045372415 -0.17780723 0.041627597 0.2160061 -0.24296425 -0.15257905 0.10361873 0.08470038

model.gnn.gnn_layers.1.graph_conv.bias f4 [64]
00000000: 9421 8fbc d1ea 0abd cf09 0f3d ea01 c53c
00000010: 2f5a dcbc 98e5 e3bb 2f00 1a3b 4b09 52bc
00000020: 83e3 45bb a860 183c 8fdf d0bc 3c42 043d
00000030: 5aea 91bc 3fce 06bc 64b3 763d d465 c4bb
00000040: 4513 8e3c 431f 4b3c 6935 b0bc c06d c039
00000050: fe68 3bbd 9a92 f0ba aa39 9e3c de27 69bd
00000060: 1563 17bc afcc 5cbc 63e5 d93d 9551 28bb
00000070: 1773 ab3b e5d4 3bbd 0993 cdbc 780e d3bc
00000080: 8c2d b7bc a4ba 5dbc bca3 7dbd b164 f2bc
00000090: 33e6 36bd 0fc7 2abd 0000 0000 0c6d 903c
000000a0: 5d81 193b e3c1 313e c092 9dbc eadd 19bd
000000b0: 48a5 82bc 3dc5 b6bc e17d aebc 5cb4 5a3c
000000c0: eb04 9dbb ad4f 2cba 6a96 a9bb 0a58 e9bc
000000d0: ef93 f3bc ad3f 6dbc d0c4 c7bc 62fa eebc
000000e0: f1fc 2ebc 052a a0bc 78af 23bc 2d9f 77bc
000000f0: 0a85 38bc 0c58 1dbd bb28 68bc 36d5 f9bc
-0.017472066 -0.033915345 0.034921464 0.024048764 -0.026898472 -0.00695486 0.0023498645 -0.012819598
-0.0030195422 0.009300388 -0.025497226 0.03228973 -0.017811943 -0.008227884 0.060229674 -0.005993584
0.017343173 0.01239759 -0.021509843 0.00036702864 -0.045754425 -0.0018354238 0.019314606 -0.056922786
-0.009239932 -0.013476535 0.10639455 -0.0025683392 0.0052322256 -0.04585733 -0.025094526 -0.025763735
-0.022360586 -0.013533268 -0.061923727 -0.029589029 -0.04465313 -0.041693743 0.0 0.017630123
0.0023423054 0.17359118 -0.019235015 -0.03756515 -0.015947953 -0.022310847 -0.021300258 0.013348665
-0.004791846 -0.0006573152 -0.0051754015 -0.028484363 -0.029733626 -0.0144805135 -0.02438584 -0.029172126
-0.010680423 -0.019551286 -0.0099905655 -0.015113634 -0.011262188 -0.038414046 -0.014169867 -0.030497175

model.gnn.gnn_layers.1.res_connection.weight f4 [64, 64]
00000000: 9d77 a2bd e2d0 3c3e a4ab 6dba e1cd c03d
00000010: f93e 4a3e 8984 273d 04bb 173e f682 2a3e
00000020: 37e2 68bd 9ffa acbd b850 483e edb8 8bbd
00000030: 0331 563c 5f31 213e 9bc8 a63d cd3f 94bd
00000040: 220c 173d 02cc bb3d 480a babd 57d2 623c
00000050: 551c 363e baa8 f93d 7347 3a3d 4a49 a3bb
00000060: 5df8 a23d 0d9c c8b9 3109 bfbd 1828 77bd
00000070: 8ddf 443d 6f7a 423d 70e3 2a3e 7700 0b3e
00000080: 513f 4bbd 24f2 7e3d 90b5 413e 3cc9 613d
00000090: 4501 c23b 296e 3a3c 76a1 003d 27db 543c
000000a0: f251 e33d f499 363e 97b7 323d 9786 3bbe
000000b0: be84 77bd eda0 85bd bba1 2dbd a0ef db3d
000000c0: 21fe 71bd 2607 283d b884 e43d 801c 02be
000000d0: c9fd f6bc 6a18 e2bd 8a71 293e 658d 9fbc
000000e0: 2d52 94bc c2fe bcba ccfe ccbc 0ae3 87bd
000000f0: 2dcb 0dbd 89ca 663d 6275 6f3e b658 f2bc
00000100: c2ec 51be 6f43 08be f7d2 54bd 0ada 7cbd
00000110: cad2 503e 28c9 b83d cdc2 1d3e bafb d93b
00000120: 70b3 3a3d 1060 37bd 3e4a 633e 9530 8d3d
00000130: ae2d 47bd 7f10 943d 9952 963c f90a c9bd
00000140: f5a2 45be e240 fb3d 4af0 e0bd 352b 04bd
00000150: 2b0a ee3d 2269 f43c 281f 4a3d 0dc7 81bc
00000160: a05d 1f3e 60b6 403d 76c4 4bbe 0bb3 04be
00000170: 75ae 003e 86f5 8ebd 7f10 f9bb 225f f63d
00000180: 552e 34be 6a81 d4bd 6d24 48bc e0c0 323e
00000190: 61ed 35be 6abc 88bd 69d8 da3d 0657 f93d
000001a0: 3634 1c3e 23e9 f2bd 3352 10be 9397 bebd
000001b0: b620 2a3d 51ed 5f3d dd67 393b c2d3 613c
000001c0: a713 d33d 737f 1fbd 8377 943d c625 0bbe
000001d0: de0c 21be 6c7b 0cbd 91c5 233d aeb0 823d
000001e0: 35fd a7bc 90be 303d c0cb 363e 6e35 093d
000001f0: ab59 8e3d e4d7 f83d 4530 9d3d 955d 24be
00000200: 5280 5bbd eb86 8ebd a34b 2bbd 8690 0f3d
00000210: bc25 8c3c 7269 b23d 1e70 87bd 7f81 233d
00000220: 3216 5fbd 26d0 88bd 6997 6dbd cc86 9c3d
00000230: e144 cabd 6ae9 40bd 7574 35bd 2efd fabc
00000240: 9815 18bc 7613 eabd 19d5 76bd eee0 dbbd
00000250: c260 eebc 56e0 f4bc e281 733d 8ca6 f7bb
00000260: 1c08 9ebd 38b0 e6bc c8ac 8e3c bcaa f73c
00000270: 5021 433c 1b60 05be 1ce0 5a3d 19ae bcbd
00000280: 3dd2 8f3d c967 443d e6e1 afbd bc08 d0bd
00000290: 9c6c 22bd 9097 eabd 2d4d e6bd a3b4 97bd
000002a0: 0024 debd bfeb a2bd 039d e9bd f896 433b
000002b0: f83d bd3d c7cc 4dbd 9292 023d 0fff 09bd
000002c0: 5993 733d 4055 bebd d178 85bd 2564 083d
000002d0: bec0 8e3d 1a2b 0fbd d4f2 b93d f7a3 81bd
000002e0: 2982 0f3d ee9a 373d 1d49 13bd 153f f7bd
000002f0: 85ba a13d b04f b63d b26f a1bd 5124 f2bd
00000300: 8d10 f0bd f8a5 a23d a3d4 223e 9bc5 073e
00000310: 28e7 00be f669 303e 5b09 8a3e 25cb 42bc
00000320: ec6d 963d 0688 e6bd 6053 9dbd 2d6b 88bd
00000330: dbc2 1b3e 4d0e 363d 476c aabd d5ae 41bd
00000340: 959c b3bd 6e0d ce3d cf8c d4bd 1523 363e
00000350: 0f02 b53c 5b92 d13d f3b3 0cbc 988b 9f3d
00000360: 4705 0ebd 0e49 d23d 2cec acbd 4b1a b2bd
00000370: 9a66 123d 1f6d dc3d e595 13bd f6f0 bebd
00000380: 0b0e ecbd 7ab0 483e d075 153e 23a4 003d
00000390: 18d5 553d e1b8 063e d148 8fbd 75f9 c13d
000003a0: e164 163d e539 c13b 1739 ec3b 7951 63bd
000003b0: 5e45 0e3e a110 1dbe 97fc 9b3c 9c31 f43d
000003c0: 141a 213d 430e 43be bf31 c23d 2904 58be
000003d0: 2e15 11bd 90ee e0bd c860 c13d e402 00be
000003e0: fd4c f1bd 3ce8 3fbd b00b a33c 5032 bf3d
000003f0: 7d3c cd3c 63e8 76bd fa9b 353e 31cb 88bd
-0.07932971 0.18439057 -0.0009066409 0.09414268 0.19750585 0.04089788 0.14817435 0.1665152
-0.05685636 -0.0844624 0.19562042 -0.06822381 0.013073209 0.1574149 0.08143731 -0.072387315
0.036876805 0.09169771 -0.09083992 0.013844094 0.17784245 0.12190385 0.045478296 -0.004983102
0.07957528 -0.0003826324 -0.09327925 -0.06034097 0.048064757 0.047480043 0.16688323 0.13574396
-0.04962093 0.062242642 0.18916917 0.055123553 0.0059205615 0.011378803 0.03140398 0.012991703
0.11099614 0.17832166 0.043632116 -0.1831306 -0.060429327 -0.06524835 -0.042390566 0.10739064
-0.059080247 0.041022442 0.111581266 -0.12706184 -0.030150311 -0.11039813 0.16547218 -0.019476602
-0.01810559 -0.0014419185 -0.02502384 -0.06635101 -0.03461759 0.056345496 0.23384622 -0.029583316
-0.20500472 -0.13306974 -0.051959004 -0.061731376 0.2039291 0.090227425 0.15406342 0.0066523226
0.04558128 -0.044769347 0.2219629 0.06894032 -0.048627548 0.07229709 0.018349933 -0.09816546
-0.19300444 0.12268235 -0.109833315 -0.032267768 0.11623033 0.029835287 0.04934612 -0.015841985
0.15563059 0.047048926 -0.19899163 -0.12958924 0.1256655 -0.06980424 -0.0076008434 0.12029864
-0.175958 -0.10376246 -0.012215716 0.17456388 -0.17766334 -0.06676562 0.10685808 0.121748015
0.15254292 -0.118608736 -0.14093857 -0.09306254 0.0415351 0.054669682 0.0028290667 0.013783397
0.10306483 -0.038939904 0.072493576 -0.13588628 -0.15727565 -0.03429739 0.039983336 0.06381355
-0.02050648 0.043150485 0.17851162 0.03349822 0.069506966 0.12150553 0.07675222 -0.16051324
-0.053589173 -0.06959327 -0.04182018 0.035049938 0.017107837 0.08711518 -0.066131815 0.03991842
-0.054464526 -0.06680326 -0.058005724 0.07642898 -0.09876419 -0.0470976 -0.044300515 -0.030638304
-0.009282492 -0.11429493 -0.06026182 -0.10736261 -0.029098872 -0.029892128 0.059450038 -0.0075576957
-0.077163905 -0.0281602 0.017416373 0.03023278 0.011909798 -0.13024943 0.053436384 -0.09212894
0.07022522 0.04795054 -0.085880086 -0.10157916 -0.03965436 -0.114546895 -0.11245189 -0.074075006
-0.1084671 -0.07955121 -0.11406901 0.0029844623 0.09240335 -0.05024412 0.03187806 -0.03369051
0.059466694 -0.09293604 -0.065171845 0.03329863 0.069703564 -0.034953214 0.09079519 -0.06330102
0.03503624 0.044825487 -0.035958398 -0.12072579 0.07896904 0.08901918 -0.07882632 -0.11823333
-0.11721907 0.07941812 0.15901427 0.13258974 -0.12588179 0.17227921 0.26960263 -0.011889254
0.07345185 -0.11256413 -0.07681918 -0.06661067 0.1521105 0.044447232 -0.083214335 -0.047285873
-0.087701 0.10061155 -0.103784196 0.1778682 0.022095708 0.10232993 -0.008587825 0.07790297
-0.034673 0.1026784 -0.08443484 -0.08696421 0.03574238 0.10763001 -0.036031622 -0.093233034
-0.11526116 0.1959857 0.14595723 0.031406533 0.052205175 0.13156463 -0.069963105 0.09471408
0.0367173 0.005896794 0.007208954 -0.05549762 0.13893649 -0.15338375 0.019041343 0.11923525
0.03933151 -0.19048409 0.094821446 -0.21095337 -0.03542059 -0.10983002 0.09442288 -0.12501103
-0.117822625 -0.046852335 0.019903034 0.09335768 0.025053257 -0.060280215 0.17735282 -0.06679381

model.gnn.gnn_layers.1.res_connection.bias f4 [64]
00000000: 1309 923d 6d80 b6bd 21f2 9ebd 8868 443d
00000010: 301c 22bd ef38 c53d 0c13 923d 4b49 1e3b
00000020: 5b37 52bd 95fd b93d 15a1 fa3c a35a afbd
00000030: d5be c4bd 41d2 5abd 36f6 233d b8a3 9a3d
00000040: e9ab c3bd e502 d53c 12af cc3a c467 0c3e
00000050: 27fe 26be a110 033b cba3 ac3d d771 6e3d
00000060: b09e d33d 00be 183e 58fd 3fbd bae7 87bd
00000070: 55df e83b 020d b43c a762 12bd 8a57 bd3c
00000080: f123 aa3d 2bad 833d c15c a4bd d068 b83d
00000090: 397a 1f3e a90d 543d 9bb3 08be 6ddb 9d3d
000000a0: fef1 bebc 36ad 58bc 845f dabd dfab 88bd
000000b0: 2df9 81bd f721 9a3d fef2 a73d dbe0 1f3d
000000c0: d96f 2d3d 03bf ac3b 2efb 013c 9cbc 103e
000000d0: 905e 1a3e a9c8 d03d 61be 823d ddeb 703d
000000e0: 7e7e b63b 05f9 fdbd 00cc 2fbd 14f1 0cbd
000000f0: 0d6a 69be fcdd e0bc ac12 393c 878c 813d
0.07130637 -0.08911214 -0.07761026 0.04795125 -0.039577663 0.0963 0.07132539 0.0024152573
-0.051322322 0.0908157 0.030594388 -0.085622095 -0.09606711 -0.05342317 0.040029727 0.07550758
-0.09554274 0.026002357 0.001561614 0.13711458 -0.16307889 0.0019998925 0.084296785 0.058214035
0.103330016 0.14916229 -0.046872467 -0.06635995 0.0071067014 0.021978859 -0.035738613 0.023113031
0.083076365 0.064295135 -0.08025504 0.090043664 0.15573968 0.05177084 -0.13349764 0.07707868
-0.02330875 -0.01322489 -0.106627494 -0.06673407 -0.06346355 0.075260095 0.08200644 0.0390328
0.042342994 0.005271794 0.007933421 0.14134449 0.15075135 0.10194523 0.06383968 0.058818687
0.0055692783 -0.12401012 -0.04291916 -0.034409598 -0.22794361 -0.0274496 0.011295956 0.063256316

model.readout.weight_and_sum.atom_weighting.0.weight f4 [1, 64]
00000000: baa4 3cbe e111 f1bd 50ca d7bd 7d89 36be
00000010: 2977 3ebd 1dd1 b13d e7cb e23d 78d3 7abd
00000020: d40d b3bd 1eab e1bd 93bc 3bbd d1e9 26be
00000030: 0e7f f4bd 9e2c 6dbd 2120 b33b 4ecf e2bd
00000040: 0ed1 fbbd f66f e0bd 16da c7bd e92e 96bd
00000050: 4cd5 673d e7f4 4c3d 754b 423e 0518 91bc
00000060: 10cd 873d abab 02be 37f9 36bd b93e f1bc
00000070: f2b0 0dbe 0ef9 aabc 2253 9cbd 719a adbd
00000080: 3505 9cbd 21c0 16be 804b 2e3d 5c88 103e
00000090: f081 a3bb 4102 1a3d 70de 30bd 54dd 0fbe
000000a0: 38a5 09be b44b 93bd 3a6a 013e e8be ed3b
000000b0: 434a 903d 41c7 a4bd 5b55 8bbd b9a2 0dbe
000000c0: d099 c2bc 5620 fabd 4673 973b 496e 32be
000000d0: 6a66 db3d 18be 90bc d250 be3c 27a8 06bd
000000e0: 74fa 133d 5668 34bb 26e0 e5bc 742b a2bd
000000f0: 6ae8 86bb 9cf1 d1bd 4f20 d9bc 83f6 383d
-0.18422213 -0.11770988 -0.10536635 -0.17825885 -0.04650036 0.08682463 0.110740475 -0.06123683
-0.08742872 -0.11018966 -0.045834135 -0.16300131 -0.11938296 -0.05790388 0.0054664765 -0.110746965
-0.122957334 -0.10958855 -0.097583935 -0.07333166 0.0565999 0.050038245 0.18974097 -0.017711649
0.066309094 -0.12760799 -0.044671264 -0.029448854 -0.1383703 -0.020870712 -0.07633044 -0.08476723
-0.07618181 -0.14721729 0.04255247 0.14114517 -0.004989855 0.037599806 -0.043180883 -0.14049274
-0.13441932 -0.071921736 0.12638178 0.007255424 0.07045414 -0.08045817 -0.0680339 -0.13831605
-0.023754984 -0.12213199 0.004621896 -0.17424883 0.10712893 -0.017668769 0.023231898 -0.032875206
0.036127523 -0.002752801 -0.028060984 -0.07918444 -0.0041170614 -0.102511615 -0.026504664 0.045156967

model.predict.predict.1.weight f4 [128, 128]
00000000: 1237 0e3d 6ad0 f03c 1fcc b5ba 930c 7b3d
00000010: f13e 8a3d 5be7 a5bd dda6 d7bd 4bdd cabd
00000020: 9bc8 b3bd 3e32 32bd 8bd8 423d 2033 b8bd
00000030: b93d 95bd 30b4 a3bd 3972 febc f81e 8fbb
00000040: 8824 86bd 8144 b3bd 690e f43c 7a6f 09bd
00000050: 42fb e9bc f01d 883d 524d 873d 8629 67bc
00000060: 7e6c a0bd 0143 df3b c73c 1a3d f757 1f3c
00000070: b510 bcbd c810 c43d d8e2 a8bd 647c 533d
00000080: 9276 583c 0015 85bd 621e 763d 496d c03b
00000090: 30a3 cc3c 2548 563d e7a2 52bc ccee 063d
000000a0: 11c9 afbc 7b47 3fbd 83c9 a4bd 7e42 97bd
000000b0: f8f5 36bd 0dbc 463d 8ba5 e2bd 1197 c7bc
000000c0: 835c 8abd c0a1 2bbd eeb2 b2bd b4e9 87bd
000000d0: ce55 b7bd 383f 7c3d f3f3 ed3c 2ff7 c4bd
000000e0: 1a08 9bbd 761d 04bd 98b1 483d cc7b d3bd
000000f0: ece6 8fbc e833 073d e31c 28bd bd01 7f3b
00000100: aab8 a2bd 5808 243d 3e2a 91bd 0823 32bd
00000110: cc46 ec3c 0324 883b 7c9a 8dbd cfa7 bdbd
00000120: 8262 80bd 961d e1bd d7c4 93bb a272 8a3c
00000130: e718 6cbd e9b2 91bd 5ae4 d1ba baee b1bb
00000140: 710c 98bd 9517 213d c217 0dbd ddff 8dbd
00000150: e82b 393d 4bf6 4d3c 1165 9dbd b8b3 10bd
00000160: 062f fc3b 327f 71bd 2df6 09bc 2c71 b4bd
00000170: c15e 83bd 95c7 c33a 4442 5b3d e7b8 41bc
00000180: c6b1 7dbd fc5f 153d ed2b e2bd 049e 35bc
00000190: 3751 473a d158 0b3b 2113 753d fc4a 66bd
000001a0: ec09 623d 7db0 683c 48eb 813d 8630 773c
000001b0: ac4f 7e3b 5121 7b3c b25f 99bd d45b 9abd
000001c0: 314a 88bc 9b35 2f3c 55a7 2cbd 34a8 88bb
000001d0: 3104 2f3d 7c0e 13bd 7b42 413d 9dc3 df3c
000001e0: c30f cab9 8329 58bd c36f 853b f8d8 80bd
000001f0: 1999 423c 807b cdbc 678f 233d f37a afbc
00000200: 2f84 45bd a72b 0f3d efb4 983d 0b14 2bbd
00000210: 168f 65bd 319a 823d cc4a 5a3b efce a4bd
00000220: 569f 2e3d 9a45 213d 7070 523d c0ef b2bd
00000230: 1a0c a53d 4d48 7abc b051 963d feb3 49bd
00000240: 554f 45bd 87c1 58bd 9916 10bc 551b 4cbd
00000250: e2d4 e7bc 8917 bbbd 7ba3 cdbc 1066 0e3d
00000260: 8524 903d 47fe 843d 2d66 a0bd 05e0 623d
00000270: 5a6e 19bd 8514 9fbd bfda 913c 1bbc 573d
00000280: 72ba 8bbd 353c 5abc 360a 433d 62de b63d
00000290: 49cc 90bd abeb 433d 421d 523d 6436 8cbd
000002a0: e8b7 8a3d b1f3 223d e05e 0b3d 5fbd ac3d
000002b0: 2225 d7bc 5323 20bd 660b 6d3d 8876 42bd
000002c0: 9c88 61bc b637 d9bd 26d9 2dbc ff5a 78bc
000002d0: bfc9 3ebd 202c d0bb 3475 a2bc 3cb7 a4bc
000002e0: bbb2 57bd f20d 3abc 4b15 d83c 0245 673c
000002f0: 79d8 8ebd 8bef a93d dbdb 91bd ad5e 84bd
00000300: a86e 35bd f67e de3c 8f5b a5bd 7793 033d
00000310: ef9f 583d 416b 293d 78bf 41bd f9a8 513d
00000320: f551 1cbd d2d3 8bbc e9d1 15bc 53c3 613d
00000330: 27f5 0c3d c587 bdbd aee3 babd a018 c4bd
00000340: 2d8a a6bc 6eee 963d 871a 93bd 13b0 cf3a
00000350: d49d 53bd 019e 1d3b 6d83 c9bd 24d1 d53c
00000360: 9e1d a2bd e8e3 2c3a bdc4 dbbc 516a b0bc
00000370: f4d9 bcbd 685a 09bd 3579 28bd 665f 853d
00000380: 9238 c13b 44c0 843d 7b0a 77ba e327 b63c
00000390: f9ad b8bd 4ac8 2cbc f253 4a3d a958 363c
000003a0: 906a 393d cc5b 2e3d 0593 2cbd 38c9 78bd
000003b0: 96dc 53bd 51d1 893d 082a a6bd a4ec b1bd
000003c0: 5deb f93c ef85 683c 2812 893c 86c7 d2bd
000003d0: eeb7 ccbc 1c6d b2bd a1c8 65bd 341a b73c
000003e0: b9c7 733d fd2d a13d b12d adbd 971e c7bc
000003f0: 5146 6abd e52f 1f3c 8ed4 b2bd 99cd 283d
0.034720488 0.029396255 -0.0013870037 0.06129129 0.06750286 -0.08100768 -0.105298735 -0.099054895
-0.08778497 -0.043504946 0.047569793 -0.08994126 -0.07287163 -0.079933524 -0.031060325 -0.0043677054
-0.065499365 -0.087533005 0.029792028 -0.033553578 -0.028562192 0.06646335 0.066065446 -0.014109021
-0.07833193 0.0068134074 0.037655618 0.009725562 -0.09182874 0.09573513 -0.08246392 0.0516323
0.013211863 -0.06498146 0.06008757 0.005872403 0.024980158 0.052314896 -0.012856222 0.03294258
-0.02145818 -0.04669903 -0.08046248 -0.07385729 -0.044668168 0.048519183 -0.11066731 -0.024364026
-0.067559265 -0.041902304 -0.087255344 -0.06636372 -0.08951913 0.061583728 0.029046988 -0.09617459
-0.075699046 -0.03225466 0.04899749 -0.10326347 -0.017566167 0.033008486 -0.041043174 0.0038910948
-0.07945378 0.04004702 -0.07088135 -0.04349044 0.028842352 0.0041546836 -0.06914231 -0.092605226
-0.06268789 -0.10991971 -0.004509549 0.016900364 -0.057640936 -0.071142025 -0.0016013489 -0.0054300698
-0.07424248 0.03932913 -0.034446485 -0.06933568 0.045207888 0.012570928 -0.076852925 -0.035327643
0.0076960353 -0.058959194 -0.008420509 -0.08810648 -0.06414557 0.0014936799 0.053529993 -0.011823869
-0.061937116 0.03646849 -0.110435344 -0.011085037 0.00076033495 0.0021262656 0.059832696 -0.056223854
0.055185243 0.014202234 0.063437045 0.0150872525 0.0038804812 0.0153277675 -0.074889556 -0.07537046
-0.01663694 0.010693933 -0.042151768 -0.004170442 0.042728607 -0.035902485 0.04718254 0.027314955
-0.00038540186 -0.052773964 0.004072161 -0.062913835 0.011877322 -0.025083303 0.03993168 -0.021420931
-0.048221763 0.03495374 0.07456385 -0.04176716 -0.05604466 0.06377066 0.0033308743 -0.08047282
0.042632423 0.039373018 0.05137676 -0.08737135 0.08058949 -0.015276027 0.073397994 -0.04924392
-0.04817136 -0.052918937 -0.00879445 -0.049830753 -0.028299753 -0.09135348 -0.025102368 0.034765303
0.070382155 0.06493812 -0.078319885 0.055389423 -0.037458755 -0.07767586 0.017804502 0.052669626
-0.06822671 -0.013320019 0.04761716 0.08929135 -0.07070214 0.047832172 0.051297434 -0.06846312
0.067733586 0.039783183 0.034026027 0.08434557 -0.026262823 -0.039096188 0.0578722 -0.04747632
-0.01376548 -0.10606329 -0.010610854 -0.015158414 -0.04657912 -0.0063529164 -0.019831277 -0.020106904
-0.052660685 -0.011355864 0.02637734 0.014115574 -0.06974883 0.08297642 -0.07122012 -0.064633705
-0.044294983 0.027160149 -0.08074104 0.032123055 0.0528869 0.04136205 -0.04730174 0.051186536
-0.038164098 -0.017068777 -0.009144285 0.055117916 0.034413483 -0.092544116 -0.09125458 -0.09575009
-0.02032956 0.073696956 -0.07182794 0.0015845321 -0.05166419 0.0024050476 -0.098395206 0.026100703
-0.07915805 0.000659524 -0.02682721 -0.02153507 -0.09221259 -0.033533484 -0.041131217 0.065123364
0.0058966363 0.06481984 -0.0009423864 0.022235816 -0.09017558 -0.0105457995 0.049396463 0.011129537
0.04526764 0.042568013 -0.042132396 -0.060738772 -0.05172404 0.06729377 -0.081134856 -0.08687714
0.030507738 0.0141920885 0.01673229 -0.10291962 -0.024990048 -0.08712217 -0.056099538 0.022351362
0.059516642 0.078701 -0.084559806 -0.024306579 -0.057195965 0.009716009 -0.08731948 0.0412117

model.predict.predict.1.bias f4 [128]
00000000: 7ef7 ddbd bb50 c9bd 6f93 8fbd 0833 ffbc
00000010: 3139 9dbd af6f b6bd 473e 0c3d dec7 10bd
00000020: 5566 6dbd 03fd 853e 859b b63d d0c4 5e3b
00000030: 1749 93bd b850 7b3c cfa3 953d b5a4 05be
00000040: 64b6 57bd bc31 843d 8652 6fbc 1835 61bd
00000050: 81ee 9c3a a340 e93d 0938 c9bd 1065 8a3d
00000060: 9968 103d 04d4 90bb e15c 863c 5951 0e3c
00000070: b65c 53bd bc77 8e3d 86f7 49bd eece 263d
00000080: 8080 e2ba b52d bdbd c3c6 3dbc f2ea 83bd
00000090: eafe a0bc f0cd 67bd 0149 823d 0a5a 043e
000000a0: 1955 f5bb e62c d6bd 46fe c53d 0a42 b5bc
000000b0: a50b 813d abda ccbd 25ff 03bd 1461 69bb
000000c0: acf2 e9bd 78e9 83bc 2834 30bd cb8d 31bd
000000d0: 1baf cbbd 6112 a53a ab22 41bd 9b5f 08bd
000000e0: 5f35 5fbc ba88 e13c d01c 36bd 1cda 363d
000000f0: e738 93bc 3278 573d 7f73 80bd 1128 293d
00000100: 5c94 8f3b 0f8f ae3d 3622 e6bb 444c 433d
00000110: 2c64 913d 9035 a13c 8ef9 f1bd 7d13 813d
00000120: f4df 853d 65e6 cabd ea26 dd3d c48f ac3d
00000130: 0e00 d93d f389 83bd fe64 cb3c fb0a b2bd
00000140: 70fd 943d 5a6b aebc f337 683d bc3a c2b9
00000150: b2b5 9ebd 01c4 a43d edf7 8ebc 0000 5ebc
00000160: 7106 7d3c df1a 9fbd fb3c e7bc 4026 593d
00000170: 2928 743d 57d9 70bd fe30 b3bb 14dc 9abc
00000180: d433 b8bd 359e ebbd 76c6 c13d 0cc7 37be
00000190: f053 c43d 1afd 303e 8e04 823d 9345 0e3d
000001a0: 4659 98bd 0585 e93b 6ef6 8e3a fe2c f6bc
000001b0: 8b34 1a3d fd05 153d a1f4 a73b d349 e2bd
000001c0: 3288 07be e4a0 3c3b f9e9 e7bc cb57 813d
000001d0: c018 b7bc 56df 5f3c 1d4e 723d bcfd a7bd
000001e0: 0f99 23be 7393 323b be30 b8bd 6338 0c3d
000001f0: f888 a4bd 419f ab3c 00f8 3e3d 436c 8c3d
-0.10838221 -0.09829851 -0.070105426 -0.031152263 -0.07676924 -0.08908021 0.03423908 -0.03534686
-0.05795892 0.26169595 0.08916382 0.003399182 -0.07191675 0.015339069 0.07306635 -0.13051112
-0.052664176 0.064547986 -0.014607077 -0.054982275 0.0011972935 0.113892816 -0.09825141 0.067575574
0.035256002 -0.0044198055 0.01640171 0.008686387 -0.051602088 0.06956431 -0.049308322 0.040724687
-0.0017280728 -0.092372335 -0.011583033 -0.06441297 -0.019652802 -0.05659288 0.06361581 0.12924972
-0.007486951 -0.104577824 0.096676394 -0.022126216 0.06301049 -0.10002645 -0.032225747 -0.0035610842
-0.11423239 -0.016102538 -0.04301849 -0.043348115 -0.09945508 0.0012593978 -0.047152203 -0.0332943
-0.0136235645 0.027531017 -0.04446107 0.0446416 -0.01797147 0.05260486 -0.06272029 0.041297976
0.0043816995 0.0852338 -0.007023121 0.047680154 0.070991844 0.01967886 -0.11815177 0.06302545
0.06536856 -0.099072255 0.10798438 0.084258586 0.105957136 -0.06422796 0.02482843 -0.086935006
0.07274902 -0.021291424 0.056693982 -0.00037046324 -0.077494994 0.08045197 -0.017452205 -0.013549805
0.01544343 -0.07768797 -0.02822732 0.053014994 0.059608612 -0.05880102 -0.005468487 -0.01890377
-0.089942604 -0.11504785 0.094616815 -0.17947024 0.09586322 0.1728405 0.06348525 0.03473432
-0.074389026 0.007126453 0.0010907182 -0.03005075 0.037647765 0.036382664 0.0051255976 -0.11049237
-0.13235548 0.0028782422 -0.028309809 0.06315573 -0.022350669 0.013664087 0.059156526 -0.08202693
-0.15976356 0.002724853 -0.08993672 0.034233462 -0.08033937 0.020949962 0.04662323 0.06856587

model.predict.predict.3.weight f4 [128]
00000000: c13f 7a3f df74 7d3f b369 813f 5285 743f
00000010: af08 783f 1a6f 793f 9bca 7f3f 268a 453f
00000020: 8b58 783f 6d7c 7c3f 50c8 5a3f 00c8 803f
00000030: c2ad 7b3f e61d 763f 548b 5d3f a813 783f
00000040: 16e0 733f 9286 623f 1462 433f a44c 803f
00000050: 130d 7a3f 33d5 763f 5030 783f 6d76 7e3f
00000060: 676a 773f afac 773f c989 773f 30a9 803f
00000070: 74ae 7d3f 7586 6e3f 26e1 723f 06b3 783f
00000080: abce 783f 29a8 7b3f c7dc 5f3f 0b23 613f
00000090: 646e 793f 0011 6e3f 2e57 663f 9273 763f
000000a0: 0b4c 723f ca20 683f 9c69 1b3f fd09 7d3f
000000b0: 58f0 673f c040 763f 5e26 5f3f 832e 7f3f
000000c0: a759 7d3f 8061 7d3f 6029 353f ca75 583f
000000d0: cad8 7c3f aebb 7b3f 89ff 783f 1ca9 7c3f
000000e0: 22c1 6d3f 0ae2 7c3f 21f8 733f f89a 783f
000000f0: 959d 803f b6eb 613f 68ea 7b3f 0fbd 713f
00000100: d958 7c3f 5b22 813f 36e9 533f e89a 653f
00000110: 7120 7c3f 5554 7e3f 328e 713f 9bb3 7f3f
00000120: 5813 803f fc1c 7a3f e0a2 773f 6f0c 7d3f
00000130: 82fd 743f bba4 2d3f 017a 743f b32e 123f
00000140: 5fb4 803f 5185 793f d037 743f 41b6 7f3f
00000150: d8a7 7b3f efd9 523f c52f 6d3f 3ed9 793f
00000160: 3d8a 813f 9836 7a3f c35f 7d3f 7d2c 743f
00000170: e888 473f 3651 813f b97d 323f 777d 5e3f
00000180: d74b 753f e5d1 783f 5598 453f 61eb 7b3f
00000190: 5554 5a3f a3d9 653f d6b7 7c3f 05d5 3c3f
000001a0: ab7f 653f a132 2c3f 2695 7f3f b857 3f3f
000001b0: e1fe 6f3f 56d1 083f d4dd 4b3f 19ff 7c3f
000001c0: f550 7f3f 0c37 773f 5c1a 6a3f ae88 6a3f
000001d0: 0bba 773f f801 783f fa09 613f 606c 803f
000001e0: db4e 723f 294c 793f 6d06 6c3f d5a3 813f
000001f0: 6fc4 7c3f c89c 7d3f 5b81 7d3f bf8c 823f
0.9775353 0.99006456 1.0110382 0.9551593 0.9688825 0.9743515 0.99918526 0.7716392
0.97010106 0.9862736 0.854619 1.0061035 0.9831201 0.9613937 0.8654072 0.96904993
0.95263803 0.8848659 0.7632153 1.0023389 0.976762 0.96419066 0.9694872 0.99399453
0.9664673 0.9674787 0.9669462 1.0051632 0.9909432 0.93173915 0.948748 0.9714817
0.9719035 0.9830347 0.87446254 0.87944096 0.9743407 0.9299469 0.89976776 0.96270096
0.9464728 0.9067503 0.6070802 0.98843366 0.9060111 0.9619255 0.8716792 0.99680346
0.98964924 0.989769 0.7076626 0.8455473 0.98768294 0.9833325 0.97264916 0.9869554
0.9287282 0.9878241 0.9530049 0.97111464 1.004809 0.8825029 0.9840455 0.94429106
0.9857307 1.008861 0.82777727 0.89689493 0.98487 0.9934743 0.943576 0.9988343
1.0005903 0.97700477 0.967329 0.988471 0.9569932 0.67829484 0.95498663 0.5710251
1.0055045 0.9746905 0.95397663 0.9988747 0.98302984 0.8236379 0.92651016 0.9759711
1.0120312 0.97739553 0.98974246 0.95380384 0.7794328 1.0102909 0.6972309 0.86910194
0.9581885 0.97195274 0.77185565 0.98406035 0.8528493 0.8978521 0.9871801 0.7376254
0.8964793 0.67264754 0.9983696 0.74743223 0.9374829 0.5344442 0.7963536 0.9882675
0.99732906 0.9656837 0.9144647 0.91614807 0.96768254 0.96878004 0.8790585 1.0033073
0.94651574 0.97381836 0.92197305 1.0128123 0.98737234 0.99067354 0.99025506 1.0199202

model.predict.predict.3.bias f4 [128]
00000000: 5834 89bd b912 833d d6b5 aabd 3263 af3d
00000010: ce00 acbd 470e 96bd 6b69 4cbd 4a85 5a3d
00000020: 5182 4dbd 11ee b5bd 1bdb 79bd be6d b63d
00000030: 3904 5136 ac50 a6bd d9f2 93bd 3939 363d
00000040: 2be7 4cbd 14a8 a23d 1966 0bbc 6237 5bbd
00000050: d97e b4bd 6862 b5bd e3c8 8bbd fb52 bf36
00000060: 1bf2 a5bc 0535 903d c6d2 b2bd 04f7 a7bd
00000070: af80 d9b6 5833 b4bd 4d7e b03d 7236 b3bd
00000080: 20e4 bdbd 816a 71b2 214b 67bd 9190 8c3d
00000090: 0ee6 a5bd 4e70 a83d 2193 a83d f959 c13d
000000a0: 39aa a33d 419d 2d3d a966 4c3d 7972 42bd
000000b0: 915b 983d 38de 973d f6a3 84bd 343b bebd
000000c0: 66de 453a 0e94 da39 19de 6f3d 5fa8 8cbd
000000d0: f920 78bd 130a 83bd 70c9 aa3d b7f6 9a3d
000000e0: f309 853d e9ac 1833 90af e73d ffb8 633d
000000f0: b5fc b7bd 156f be3d 26f1 cb36 48e5 b13d
00000100: d990 883d 6a72 c6bd de0c 7d3d 5b1a a53d
00000110: 9d34 9d3d 8f90 9abd 3aca a33d acba b8bd
00000120: ffda 9dbd c921 84bd 906a ac3d e009 bcbd
00000130: 95a8 abbd 4e8d a73d b2bf 933d cfe5 303d
00000140: b080 82bd f59a 40bd 113c b8bd 9fbd b2bd
00000150: dcec 883d aa21 303d 648c ac3d d328 a13c
00000160: d7da a4bd 2d54 0b3d 05ac b8bd a390 a73d
00000170: be33 a0bd 8387 abbd 23c7 d33c 0200 e8bd
00000180: 4ec8 893d 031e 57bd 9859 763d 014b a83d
00000190: 8406 843d 9f00 acbd 844c 503d fd69 62bd
000001a0: da3c a83d 1174 743d 6d64 9e3d 5c91 c8bc
000001b0: c0fb a53d 1319 6f3d 8212 903d ee20 aabd
000001c0: 75eb aabd fe69 bdbd 0927 af3d 54fc c73d
000001d0: ee15 84bd f354 b3bd 639b 503d a965 b3bd
000001e0: bf77 603d 0a34 b7bd 9bc1 a33d 5bc4 a2bd
000001f0: 0ee1 ad3d 664e 45bc 80f9 6cbd 8289 acbd
-0.06699437 0.064000554 -0.08335464 0.08563842 -0.08398591 -0.07326942 -0.049905222 0.05334977
-0.050173108 -0.08883298 -0.06099997 0.089076504 3.1145885e-06 -0.08120856 -0.07224054 0.044488166
-0.050025146 0.079422146 -0.008508229 -0.053519614 -0.08813257 -0.0885666 -0.068254255 5.701904e-06
-0.020257046 0.07041363 -0.08731608 -0.08201411 -6.4820847e-06 -0.087988555 0.0861784 -0.08750619
-0.09272027 -1.40522625e-08 -0.056468133 0.06863511 -0.0810052 0.082245454 0.082311876 0.09440989
0.07991452 0.042386297 0.04990259 -0.04747245 0.0743934 0.07415432 -0.064765856 -0.09288636
0.00075480936 0.0004169051 0.05856142 -0.06868052 -0.06057832 -0.06398406 0.083392024 0.07566588
0.06496038 3.554752e-08 0.11312783 0.055596348 -0.08983747 0.09298531 6.077945e-06 0.0868631
0.066682525 -0.096897915 0.06177985 0.080616675 0.07676051 -0.075471036 0.07997556 -0.0901998
-0.07707786 -0.064517565 0.08418763 -0.09181571 -0.08381764 0.081812486 0.07214297 0.043187913
-0.063722014 -0.04702278 -0.08995832 -0.087275736 0.06685802 0.043000855 0.08425215 0.019672787
-0.08049553 0.034015823 -0.09017185 0.08181884 -0.07822369 -0.08375456 0.025851792 -0.113281265
0.06727658 -0.052518856 0.060144037 0.08217431 0.06446555 -0.08398556 0.05085422 -0.05527686
0.082147315 0.059681002 0.077339984 -0.024483375 0.08104658 0.058373522 0.0703478 -0.08307062
-0.08345691 -0.09248732 0.08552367 0.09764925 -0.06449495 -0.08756437 0.05092944 -0.087596245
0.0548017 -0.089454725 0.07995912 -0.07947608 0.084901914 -0.012042617 -0.05785513 -0.08424665
