checkpoints/GCM_undersampled/best_roc_auc_score/checkpoint1.pt (torch, 375109 bytes, 47 tensors)

model.gnn.gnn_layers.0.graph_conv.weight f4 [30, 64]
-0.1350535 0.21180193 0.17104341 0.22722918 -0.034366924 -0.17402498 0.08893631 0.2143885
0.07570756 -0.1925341 0.05460062 -0.0062960046 0.16862515 0.09507726 0.012728211 -0.29992568
0.10090721 0.0033175384 -0.21680538 0.07630518 -0.028226621 0.091604106 -0.08962403 0.1331241
0.15166776 -0.19665627 -0.16893357 -0.1597188 0.16279615 0.19854605 0.06292843 0.13183613
-0.18249132 -0.107272185 0.09425566 -0.18052746 -0.08704634 0.17883275 0.1393502 0.11164512
0.22341244 0.16566293 0.21940787 0.14425723 -0.008606389 -0.040891122 0.21889614 -0.08608749
-0.06323333 -0.08194125 0.19550304 0.1505207 0.25977147 -0.010531905 -0.14314759 0.21280426
0.12108784 -0.034882493 -0.07929534 0.16665606 0.19196293 -0.0183815 0.10521472 -0.24303442
0.07263743 0.10597729 -0.01170189 -0.026265042 0.1932442 -0.017886087 -0.15254956 0.23649834
0.25020695 0.22361375 -0.10424813 0.012833493 0.13639429 0.20119062 0.26169366 0.26072255
-0.40166903 -0.111810274 0.04615214 0.09650403 -0.21399204 -0.11072879 -0.104173906 0.069505766
-0.0014940337 0.085195966 0.046055917 0.1786201 -0.052885883 -0.44422123 -0.036727306 0.015175463
-0.21496987 0.17970017 -0.25676993 -0.2796219 -0.15210408 0.118408665 -0.05594407 -0.021847392
-0.17320399 0.1849311 -0.1087085 0.11431304 -0.1980514 -0.011504922 0.06367746 -0.04185366
0.11104765 -0.24810255 0.09841385 -0.046050455 -0.01087043 0.14570071 -0.030113282 0.18911983
-0.074675046 -0.040165585 0.18012264 -0.058510683 0.17959552 0.24758415 0.023504768 0.030257015
0.23261866 -0.12750305 0.24796766 0.10185421 0.16950211 0.2243148 -0.051582467 -0.06059999
-0.20326042 0.062292304 -0.15643162 -0.21617861 0.22300325 -0.104385786 -0.10773802 0.01783051
-0.21346007 -0.08336378 -0.07923447 0.05495888 0.18680973 -0.23240231 0.06606998 -0.2759889
0.0985647 0.056407817 0.07279268 -0.22957078 0.12193381 0.24265847 0.20666426 -0.06218619
0.17090991 0.051743895 0.12657493 0.09642206 0.2481183 -0.282168 -0.098105595 -0.0636203
-0.19319887 0.003244335 0.007633751 0.27695754 0.025567733 -0.19429985 0.058609772 -0.01296909
-0.19160475 -0.029090567 0.15385497 -0.13639584 0.024558652 -0.101347074 -0.01616717 -0.13895695
0.10796844 0.12596904 -0.16615275 0.24133374 -0.080656014 -0.10056366 0.08512471 0.1279075
0.23990893 -0.22179297 -0.24922158 -0.36896238 -0.14704771 0.24356318 -0.16022271 -0.029881453
0.15442415 -0.38766116 0.17286783 -0.13839397 -0.1283031 -0.024018288 0.2725125 -0.21073271
0.008929604 0.16386819 0.16471982 0.19384663 0.025038777 0.21477178 -0.013973733 -0.07179516
0.115989946 0.16978875 -0.17534299 0.19995742 -0.12403778 -0.3238293 0.0070040883 -0.13713224
0.06504388 -0.1864969 -0.36779398 -0.10371488 0.17632665 0.2557187 -0.10180692 -0.004078066
-0.028693594 -0.15047185 0.061396766 0.11796859 0.055354856 -0.21157226 0.04286205 -0.022518536
0.2355563 -0.079831034 -0.46195105 -0.09595555 0.20652197 0.22998118 0.025330225 0.21005666
0.18541189 0.020052096 0.014615013 0.13857777 -0.1819077 -0.07202288 -0.080493 -0.059834953
00000000: 774b 0abe 9be2 583e 0126 2f3e c4ae 683e
00000010: 55c4 0cbd 9b33 32be 3d24 b63d a988 5b3e
00000020: 910c 9b3d a927 45be e6a4 5f3d b74e cebb
00000030: 12ac 2c3e deb7 c23d fc89 503c dc8f 99be
00000040: 70a8 ce3d 0f6b 593b 3b02 5ebe e445 9c3d
00000050: 843b e7bc ef9a bb3d ce8c b7bd af51 083e
00000060: cb4e 1b3e 4360 49be ecfc 2cbe 538d 23be
00000070: 09b4 263e a84f 4b3e 9fe0 803d 0d00 073e
00000080: 01df 3abe 85b1 dbbd 1d09 c13d 31dc 38be
00000090: 5a45 b2bd ef1f 373e d2b1 0e3e 32a6 e43d
000000a0: 3bc6 643e 8ba3 293e 75ac 603e 2bb8 133e
000000b0: d001 0dbc 737d 27bd 4f26 603e a34e b0bd
000000c0: 7a80 81bd d0d0 a7bd f331 483e 1922 1a3e
000000d0: c400 853e 038e 2cbc 4895 12be 5ce9 593e
000000e0: e7fc f73d f2e0 0ebd 9865 a2bd e3a7 2a3e
000000f0: ee91 443e cd94 96bc d17a d73d 04de 78be
00000100: efc2 943d 9f0a d93d 49b9 3fbc c929 d7bc
00000110: cfe1 453e d885 92bc f435 1cbe 9f2c 723e
00000120: 201b 803e 01fb 643e 0b80 d5bd 9243 523c
00000130: f2aa 0b3e ea04 4e3e b6fc 853e 6d7d 853e
00000140: 90a7 cdbe c9fc e4bd 070a 3d3d e8a3 c53d
00000150: bb20 5bbe c7c5 e2bd 2159 d5bd 0a59 8e3d
00000160: 74d3 c3ba 397b ae3d 21a5 3c3d 30e8 363e
00000170: de9e 58bd f770 e3be 5f6f 16bd 81a2 783c
00000180: 1021 5cbe 5203 383e 5977 83be 9a2a 8fbe
00000190: 2cc1 1bbe 3e80 f23d 9c25 65bd 4df9 b2bc
000001a0: 635c 31be 945e 3d3e 90a2 debd f51c ea3d
000001b0: fccd 4abe 247f 3cbc 5469 823d be6e 2bbd
000001c0: f36c e33d 980e 7ebe 338d c93d 679f 3cbd
000001d0: e319 32bc 9132 153e 21b0 f6bc a1a8 413e
000001e0: 3bef 98bd ab84 24bd 1272 383e e6a8 6fbd
000001f0: e3e7 373e b386 7d3e 128d c03c 8fdd f73c
00000200: 9633 6e3e 2990 02be 3ceb 7d3e f198 d03d
00000210: f691 2d3e c7b2 653e 2348 53bd b237 78bd
00000220: 8023 50be 3726 7f3d 9c2f 20be ed5d 5dbe
00000230: f75a 643e 37c8 d5bd c0a5 dcbd 4a11 923c
00000240: 4795 5abe a1ba aabd af45 a2bd 901c 613d
00000250: 0d4b 3f3e dffa 6dbe b34f 873d 6b4e 8dbe
00000260: 4adc c93d e20b 673d 5414 953d 9a14 6bbe
00000270: 6fb8 f93d 767b 783e cc9f 533e f2b6 7ebd
00000280: 0203 2f3e 68f1 533d dc9c 013e ee78 c53d
00000290: b912 7e3e 5378 90be 96eb c8bd 5c4b 82bd
000002a0: edd5 45be e99e 543b 8b24 fa3b 61cd 8d3e
000002b0: 6c73 d13c 8af6 46be cd10 703d 4e7c 54bc
000002c0: 0934 44be 574f eebc 288c 1d3e 5aab 0bbe
000002d0: 3a2f c93c 0e8f cfbd 0371 84bc bb4a 0ebe
000002e0: 8f1e dd3d 07fe 003e f223 2abe 3120 773e
000002f0: fb2e a5bd 52f4 cdbd dd55 ae3d 2ffa 023e
00000300: b0aa 753e b21d 63be f133 7fbe a3e8 bcbe
00000310: ad93 16be a068 793e 6c11 24be f3c9 f4bc
00000320: 5d21 1e3e 867b c6be 4404 313e 26b7 0dbe
00000330: e361 03be 00c2 c4bc c286 8b3e 51ca 57be
00000340: 794d 123c 10cd 273e 50ac 283e bb7f 463e
00000350: 1f1e cd3c 22ed 5b3e 16f2 64bc 5709 93bd
00000360: 238c ed3d 1add 2d3e 1d8d 33be a3c1 4c3e
00000370: 8507 febd f4cc a5be 8d82 e53b 656c 0cbe
00000380: ba35 853d 0bf9 3ebe 7e4f bcbe 7868 d4bd
00000390: f98e 343e 90ed 823e 2580 d0bd 4ca1 85bb
000003a0: d40e ebbc 4b15 1abe 2d7b 7b3d 8499 f13d
000003b0: c6bb 623d 66a6 58be 1e90 2f3d cb78 b8bc
000003c0: ac35 713e 747e a3bd d984 ecbe 5884 c4bd
000003d0: 7f7a 533e 3080 6b3e 5581 cf3c 1819 573e
000003e0: 9ddc 3d3e 4b44 a43c cf73 6f3c 55e7 0d3e
000003f0: 0346 3abe bb80 93bd 84d9 a4bd 7f15 75bd

model.gnn.gnn_layers.0.graph_conv.bias f4 [64]
0.013127006 -0.015982 -0.012181328 -0.009009151 0.0028806678 -0.004107203 -0.009057245 -0.015840294
-0.014669426 -0.011151417 0.012767714 -0.0012953326 -0.0031604432 -0.014014401 -0.025497723 0.05280697
-0.017873144 -0.0106163835 -0.0026148232 -0.015438076 -0.012232158 -0.028838655 -0.004704409 0.00022420117
-0.005127408 0.055899795 5.2066378e-05 0.0007640618 -0.007937748 0.029567925 -0.011155237 -0.009235685
0.016676256 0.015565552 0.0059654065 -0.002766968 -0.0036486783 -0.017307423 -0.013660592 -0.017870802
-0.03593144 -0.0012408454 -0.0075002816 0.011789673 -0.014910245 -0.001792176 -0.04612822 0.0010878922
0.0063005094 -0.04327735 0.025507296 -0.015483288 -0.00056671543 -0.024316609 0.00057849684 -0.044103034
0.004043986 -0.007513654 0.0070038983 -0.0016478309 -0.0030439901 -0.0075928634 -0.012620185 -0.019756919
00000000: a712 573c afec 82bc 3194 47bc 1e9b 13bc
00000010: 96c9 3c3b b795 86bb d764 14bc 81c3 81bc
00000020: 0858 70bc 6fb4 36bc ad2f 513c 26c8 a9ba
00000030: 701f 4fbb a89c 65bc 9ae0 d0bc 1f4c 583d
00000040: b36a 92bc 57f0 2dbc 745d 2bbb fcef 7cbc
00000050: 6469 48bc 0b3f ecbc 7127 9abb 8b17 6b39
00000060: d103 a8bb 2ff7 643d d961 5a38 524b 483a
00000070: 540d 02bc 6f38 f23c 75c4 36bc 4551 17bc
00000080: a59c 883c a806 7f3c 7579 c33b 0556 35bb
00000090: aa1e 6fbb 4cc8 8dbc add0 5fbc ca65 92bc
000000a0: d82c 13bd dda3 a2ba ecc4 f5bb 7929 413c
000000b0: 1a4a 74bc 73e7 eaba f2f0 3cbd 9b97 8e3a
000000c0: 8174 ce3b 9743 31bd adf4 d03c 9ead 7dbc
000000d0: a18f 14ba a033 c7bc 44a6 173a 62a5 34bd
000000e0: 6a83 843b 1935 f6bb f580 e53b 08fc d7ba
000000f0: ae7d 47bb 8ecd f8bb e4c4 4ebc 43d9 a1bc

model.gnn.gnn_layers.0.res_connection.weight f4 [64, 30]
0.031787593 -0.05249751 0.082470834 0.054378822 -0.24187875 -0.0043085464 0.10705024 -0.0023441855
0.2137642 -0.007868025 0.17139164 0.20501594 0.13804722 -0.028181147 0.0013895006 -0.098363526
-0.110828795 0.1630095 0.15970866 0.16717139 0.0042314255 0.06612535 -0.09593547 0.055014998
-0.025247186 -0.15438227 -0.22153793 0.03347208 0.021932147 0.038548503 -0.066737615 -0.10417232
0.062401175 -0.15303777 -0.0595619 -0.054635115 0.10088443 -0.19524571 0.18457599 0.10063107
0.049956936 -0.1141463 0.1406828 0.09764876 -0.015732454 0.23742644 0.26419848 0.22951806
0.0611571 0.12907058 -0.1999436 -0.037199035 0.07770486 0.1789254 -0.07922109 0.06043704
-0.03596301 0.12695618 -0.13796906 0.11431297 0.11822642 0.13697405 0.09669034 -0.046012808
0.0906618 -0.016042978 -0.047370795 -0.055554986 -0.19327907 -0.16361538 -0.09202907 -0.12985356
0.029411389 0.064725146 0.13337824 0.12531361 -0.18691634 0.036544167 0.13107544 -0.14875083
0.025444563 0.18352611 -0.20233122 -0.11662875 -0.14763768 0.08168966 0.006979906 -0.042127687
0.03126994 -0.11079158 -0.10964984 -0.058634195 0.13887358 0.22563252 0.1532298 0.0067186034
-0.031073125 0.050294496 0.15294632 0.13997425 0.13623701 -0.08289999 -0.042258807 0.012973714
-0.21264248 -0.12987323 0.07580109 -0.06662439 -0.07521726 -0.054259982 0.027291574 -0.07349767
0.07647055 -0.16948602 -0.20760809 0.0648929 0.14576137 0.02039412 0.15917432 -0.13139579
-0.17617963 0.18098721 -0.25929275 0.1342347 0.04347758 0.014175492 0.25456333 0.038361818
-0.010203404 0.112851664 -0.10971861 0.020500844 0.14444225 -0.023446864 0.06544083 -0.18778327
0.12050744 -0.03712383 0.2201595 -0.045615625 0.17733844 0.10972792 0.19306727 0.088719316
-0.1253607 0.11385739 0.0075411075 0.09626874 -0.17341566 0.046965044 -0.07691659 -0.17365555
0.059280496 0.16281042 0.21826747 0.059386164 0.08840372 0.112865776 -0.021560634 -0.08471933
0.13719635 -0.17712289 0.015221793 0.16693781 -0.11405216 -0.12475601 0.06411287 -0.053373832
0.08459961 0.026757492 0.07580129 -0.29181358 -0.13286003 -0.054509066 -0.13402154 -0.06856392
0.005409349 -0.14715843 -0.1701318 -0.15218419 0.0498928 -0.011484845 0.09738784 -0.04128223
-0.1912068 -0.08089178 -0.15136161 -0.19228029 -0.10493437 0.061631266 -0.12203501 0.16719764
-0.07247511 0.14151637 0.14860046 0.0024476552 -0.15392767 0.00956049 0.14832272 -0.2452334
-0.025999421 0.093510054 -0.11809043 -0.23807874 0.15601087 -0.179447 0.16230254 -0.06924875
-0.16758558 0.11388303 -0.10436481 0.13705468 0.0063324254 -0.03686637 -0.14537016 0.18515901
-0.03388587 -0.035999376 -0.058025405 -0.05609529 0.03227737 0.048467316 -0.03350875 0.1616344
0.23901692 0.055546142 -0.10253786 -0.031745255 0.16204715 -0.028208733 0.08783956 -0.23834787
-0.11421203 -0.16153353 5.3984346e-05 0.16928647 0.0034003642 -0.13279694 0.005444508 0.1716137
-0.2063088 -0.047276523 0.09594226 -0.079878695 0.048649356 -0.047337275 -0.0131013915 -0.014440222
0.046025604 0.1786318 0.17322887 -0.010941104 -0.09149621 0.12999852 -0.12587944 -0.17333889
00000000: b533 023d a107 57bd 78e6 a83d 54bc 5e3d
00000010: 10af 77be b52e 8dbb 283d db3d e8a0 19bb
00000020: 01e5 5a3e e4e8 00bc 4a81 2f3e b3ef 513e
00000030: 405c 0d3e 26dc e6bc e71f b63a d172 c9bd
00000040: 35fa e2bd f6eb 263e ab8a 233e fa2e 2b3e
00000050: c5a7 8a3b ba6c 873d d179 c4bd 6857 613d
00000060: 30d3 cebc 6316 1ebe d7da 62be 051a 093d
00000070: 0cab b33c 09e5 1d3d bbad 88bd 4c58 d5bd
00000080: 6098 7f3d efb5 1cbe 2ef7 73bd 12c9 5fbd
00000090: 7f9c ce3d 7eee 47be 7d01 3d3e aa17 ce3d
000000a0: a59f 4c3d 89c5 e9bd 270f 103e 13fc c73d
000000b0: 59e1 80bc eb1f 733e 0645 873e c806 6b3e
000000c0: de7f 7a3d 142b 043e 04be 4cbe 045e 18bd
000000d0: ba23 9f3d 3838 373e ab3e a2bd d48c 773d
000000e0: f34d 13bd cd00 023e c347 0dbe eb1c ea3d
000000f0: b120 f23d ed42 0c3e 9605 c63d ed77 3cbd
00000100: e5ac b93d 906c 83bc e107 42bd a08d 63bd
00000110: f3ea 45be ca8a 27be bd79 bcbd 55f8 04be
00000120: 27f0 f03c 9e8e 843d 4e94 083e 3652 003e
00000130: ff66 3fbe 56af 153d a438 063e 2352 18be
00000140: 1e71 d03c 45ee 3b3e ea2f 4fbe 0edb eebd
00000150: 552e 17be e94c a73d b2b7 e43b 158e 2cbd
00000160: e914 003d b2e6 e2bd 1890 e0bd 692a 70bd
00000170: e034 0e3e 360c 673e 46e8 1c3e bb27 dc3b
00000180: 118d febc 9a01 4e3d f69d 1c3e 6955 0f3e
00000190: b781 0b3e 78c7 a9bd 9217 2dbd b38f 543c
000001a0: f3be 59be 7dfd 04be 9a3d 9b3d 5e72 88bd
000001b0: 820b 9abd b73f 5ebd 9492 df3c f285 96bd
000001c0: 979c 9c3d be8d 2dbe 3797 54be 92e6 843d
000001d0: 7842 153e 9211 a73c 98fe 223e 9e8c 06be
000001e0: 6f68 34be b654 393e 05c2 84be d274 093e
000001f0: 8c15 323d 5340 683c 2056 823e 4821 1d3d
00000200: 2e2c 27bc c61e e73d 27b4 e0bd 63f1 a73c
00000210: abe8 133e a313 c0bc d805 863d 424a 40be
00000220: 9bcc f63d 280f 18bd 7e71 613e 73d7 3abd
00000230: 3598 353e 08b9 e03d 6db3 453e 79b2 b53d
00000240: 8e5e 00be 102e e93d 651b f73b 8c28 c53d
00000250: e093 31be 6b5e 403d 7286 9dbd c3d2 31be
00000260: 1bd0 723d c6b7 263e 8281 5f3e e83e 733d
00000270: 020d b53d 2c26 e73d ed9f b0bc 5481 adbd
00000280: 337d 0c3e b45f 35be d464 793c bff1 2a3e
00000290: 2e94 e9bd 1480 ffbd 9c4d 833d 859e 5abd
000002a0: 8f42 ad3d 8732 db3c b53d 9b3d 9768 95be
000002b0: 760c 08be e644 5fbd f13c 09be 3e6b 8cbd
000002c0: e940 b13b b3b0 16be 0837 2ebe 2cd6 1bbe
000002d0: 655c 4c3d ee2a 3cbc 4773 c73d 8e17 29bd
000002e0: b7cb 43be 97aa a5bd 8afe 1abe 20e5 44be
000002f0: d5e7 d6bd 1171 7c3d 7eed f9bd dc35 2b3e
00000300: d56d 94bd abe9 103e b82a 183e d768 203b
00000310: 379f 1dbe 9aa3 1c3c e9e1 173e 771e 7bbe
00000320: bdfc d4bc 3382 bf3d 65d9 f1bd eaca 73be
00000330: 50c1 1f3e f4c0 37be a332 263e 4ad2 8dbd
00000340: 8e9b 2bbe 823b e93d 38bd d5bd 1058 0c3e
00000350: 3c80 cf3b 3101 17bd eadb 14be 539a 3d3e
00000360: e9cb 0abd 1574 13bd 0cac 6dbd 2dc4 65bd
00000370: 4735 043d aa85 463d 7940 09bd 7d83 253e
00000380: dac0 743e 5a84 633d 5fff d1bd 5007 02bd
00000390: b0ef 253e 0016 e7bc 3ae5 b33d 7711 74be
000003a0: ffe7 e9bd 0c69 25be 406d 6238 6f59 2d3e
000003b0: a5d8 5e3b ecfb 07be d867 b23b 80bb 2f3e
000003c0: 9d42 53be 07a5 41bd 607d c43d 7197 a3bd
000003d0: 8c44 473d bbe4 41bd 38a7 56bc ae96 6cbc
000003e0: 5885 3c3d 41eb 363e e962 313e 5142 33bc
000003f0: 5d62 bbbd 551e 053e 8ae6 00be c07f 31be

model.gnn.gnn_layers.0.res_connection.bias f4 [64]
0.05590326 -0.047578316 0.010610298 0.09183978 -0.020344865 -0.04119371 -0.16319329 -0.12890477
-0.14385164 0.15909748 0.03660502 0.15315889 -0.0007977788 0.015899017 -0.14733134 0.092512205
0.08361406 0.14540565 -0.07278844 0.112337336 0.045037553 0.014063225 0.09944157 -0.09219178
-0.058080163 -0.027068395 -0.08481743 0.13525213 0.023480978 -0.120444946 -0.1442486 0.06624831
-0.022656646 -0.16067503 0.07893553 -0.038488507 -0.006426424 -0.019237202 -0.1605174 0.09126393
0.14635514 -0.047312222 -0.023792746 0.050246157 0.18183091 0.021973059 0.031013442 0.020313874
0.15265884 -0.06639283 -0.05269886 -0.03933341 0.007990144 0.13674162 0.07567837 -0.10515108
0.011833044 0.17879571 0.17287606 -0.06281977 -0.08802463 0.16096225 -0.025531247 -0.07441668
00000000: d1fa 643d 7be1 42bd d1d6 2d3c 7f16 bc3d
00000010: 46aa a6bc bcba 28bd 241c 27be 9dff 03be
00000020: d84d 13be 73ea 223e 25ef 153d afd5 1c3e
00000030: 0722 51ba a83e 823c 07de 16be 0a77 bd3d
00000040: d93d ab3d 38e5 143e 1b12 95bd 1e11 e63d
00000050: 4c79 383d 7169 663c 06a8 cb3d 0bcf bcbd
00000060: 77e5 6dbd 8abe ddbc c3b4 adbd 897f 0a3e
00000070: 2e5b c03c d7ab f6bd e8b5 13be 32ad 873d
00000080: 6e9a b9bc ff87 24be f3a8 a13d 20a6 1dbd
00000090: c094 d2bb 5697 9dbc ac5e 24be 95e8 ba3d
000000a0: 1fde 153e 76ca 41bd 01e9 c2bc eace 4d3d
000000b0: e231 3a3e d800 b43c e70f fe3c 4869 a63c
000000c0: 9952 1c3e f7f8 87bd c3da 57bd 121c 21bd
000000d0: 18e9 023c ff05 0c3e 43fd 9a3d 7359 d7bd
000000e0: 62df 413c 3916 373e 6c06 313e a7a7 80bd
000000f0: 4246 b4bd 4ad3 243e e826 d1bc c667 98bd

model.gnn.gnn_layers.1.graph_conv.weight f4 [64, 64]
0.2273825 -0.22387129 0.04436725 0.09563245 0.15367089 0.10360409 0.14751223 0.11502613
-0.15175582 -0.11767002 0.09653168 -0.11773434 0.093088016 -0.056501616 0.07463731 0.06623879
-0.041783486 0.091628954 -0.18958531 -0.020344809 -0.17389502 0.05394618 0.120303996 0.10624421
0.22736926 -0.13393833 -0.17914973 -0.19707993 -0.110156156 0.20903492 -0.1732716 -0.13973856
-0.039645195 0.2375317 0.13317735 -0.1262195 0.20449872 0.07601563 -0.030896995 -0.16499732
-0.10162511 -0.14556654 -0.117273495 -0.030762224 -0.20879683 0.08845931 0.19073087 0.062317
0.21999134 0.25430477 0.030195136 0.073350765 -0.009169169 -0.18751854 0.081145875 0.20375764
0.13762046 0.11108277 0.17030802 -0.065438636 -0.1739901 0.24168912 0.06075635 -0.11441695
-0.19029404 -0.2283018 0.081059195 0.018564686 -0.15400748 -0.038607262 0.25489205 0.14597568
-0.022890976 -0.02910118 0.06567608 -0.07724195 0.11854073 -0.022663215 0.19430922 -0.07141997
-0.022143802 -0.13044176 0.15894999 -0.12385363 0.12664382 -0.10438535 -0.1824998 0.18219644
-0.18797573 0.11659201 0.07722715 0.12510663 -0.116138995 -0.12453681 0.100560464 0.035885725
-0.11506962 0.1437076 -0.17997295 0.008807153 0.22110282 0.22656584 0.01157425 -0.071606345
-0.17434767 0.043821245 0.006703031 -0.20531273 -0.17877434 -0.038454268 0.1625676 0.17270614
0.024391131 -0.22568212 0.19740044 -0.007081525 0.04732192 0.17633595 -0.085077785 0.13622981
-0.12198526 0.11447666 -0.020480212 0.12726384 0.09954442 -0.11486897 0.14077854 -0.045180876
-0.1461092 0.18160811 -0.09081376 -0.022341711 -0.033691876 0.14211644 -0.08973029 -0.17296892
-0.22086796 -0.063224554 0.031130562 -0.16621116 0.0013384153 -0.1330413 0.13245116 -0.03744094
-0.050860856 -0.10884088 -0.16979985 -0.21746682 0.010631387 0.15036534 -0.15888032 0.18333676
-0.076183975 -0.035191175 -0.2078575 0.10961978 -0.23084234 -0.11115527 0.08571204 -0.0087080775
0.1330846 -0.048501123 -0.1728448 -0.08793371 0.031405758 0.21432549 0.1762322 0.06141887
-0.08555863 0.03489866 -0.14516109 -0.08227185 -0.11106737 -0.13128415 0.08173249 0.15484956
0.16569418 0.13630663 0.14300501 -0.26316425 -0.20414177 -0.16270065 -0.2154673 0.034240842
0.1144371 -0.14782287 0.1699948 0.20853227 0.045083005 -0.1344914 -0.07717017 -0.053702105
-0.12911402 0.14296699 0.035000477 0.041341286 0.025874995 -0.09688161 -0.026212089 0.18761624
-0.17729394 -0.17034307 -0.10294364 -0.071573146 -0.017405223 0.1263114 -0.028314969 -0.2131913
-0.025079139 0.11118145 0.18558823 0.0022929376 0.13764356 -0.095921695 -0.19914949 -0.22302063
0.1089891 0.167648 -0.16823941 -0.21789958 -0.057497576 -0.1095935 -0.11291097 0.044591166
-0.18485145 0.0054848366 -0.13587102 -0.1413143 -0.053587094 0.07965469 -0.268186 -0.08122949
-0.06943752 -0.2267263 -0.13823129 0.073801726 0.12430749 0.05952256 0.06932914 -0.17391762
0.14985232 -0.0034007104 0.1674245 -0.11991002 0.06844076 -0.17902412 -0.11429669 -0.011826979
-0.06814387 -0.16216578 0.16584021 -0.20572698 -0.18683952 -0.124185346 -0.17609219 0.18396112
00000000: f5d6 683e 843e 65be 6fba 353d f2da c33d
00000010: e75b 1d3e 622e d43d 720d 173e d292 eb3d
00000020: e165 1bbe fbfc f0bd 67b2 c53d b41e f1bd
00000030: eea4 be3d 3d6e 67bd 72db 983d 34a8 873d
00000040: 2925 2bbd f6a7 bb3d a722 42be 28aa a6bc
00000050: 8911 32be abf6 5c3d f161 f63d 9096 d93d
00000060: 7dd3 683e 2127 09be 0773 37be 52cf 49be
00000070: 8d99 e1bd 400d 563e 1c6e 31be a017 0fbe
00000080: 0063 22bd 833b 733e a55f 083e af3f 01be
00000090: 1d68 513e 15ae 9b3d b21b fdbc 0ff5 28be
000000a0: d320 d0bd 650f 15be 162d f0bd 0f01 fcbc
000000b0: d6ce 55be 282a b53d f44e 433e 1c40 7f3d
000000c0: 6945 613e 3c34 823e ca5b f73c ed38 963d
000000d0: 483a 16bc dc04 40be cf2f a63d d8a5 503e
000000e0: 61ec 0c3e 5d7f e33d 3a65 2e3e b104 86bd
000000f0: 762a 32be 5a7d 773e a7db 783d 6f53 eabd
00000100: 71dc 42be f2c7 69be 5d02 a63d f814 983c
00000110: 23b4 1dbe a622 1ebd 3681 823e a67a 153e
00000120: db85 bbbc 9965 eebc 2e81 863d 0731 9ebd
00000130: 7bc5 f23d 35a8 b9bc fff8 463e a244 92bd
00000140: eb66 b5bc 8692 05be c9c3 223e f9a6 fdbd
00000150: ebae 013e fdc7 d5bd 3ae1 3abe b491 3a3e
00000160: b67c 40be cbc7 ee3d 4529 9e3d f41b 003e
00000170: 48da edbd 280d ffbd a5f2 cd3d e9fc 123d
00000180: 9fa9 ebbd 1628 133e d44a 38be e14b 103c
00000190: c768 623e e000 683e eca1 3d3c 59a6 92bd
000001a0: 3288 32be e87d 333d 19a5 db3b 803d 52be
000001b0: 9f10 37be 3982 1dbd 1f78 263e e1d9 303e
000001c0: e9cf c73c 3719 67be 5723 4a3e 230c e8bb
000001d0: a1d4 413d 6991 343e 433d aebd d47f 0b3e
000001e0: 68d3 f9bd bd72 ea3d 1ec6 a7bc 7451 023e
000001f0: f2dd cb3d 6c40 ebbd 4028 103e 950f 39bd
00000200: a69d 15be 7af7 393e 91fc b9bd f705 b7bc
00000210: 7e00 0abd f986 113e 84c4 b7bd c41e 31be
00000220: 362b 62be e07b 81bd 8505 ff3c 4233 2abe
00000230: c46d af3a fb3b 08be 47a1 073e ac5b 19bd
00000240: 7953 50bd f8e7 debd 03e0 2dbe 9faf 5ebe
00000250: 452f 2e3c 5ff9 193e 86b1 22be a2bc 3b3e
00000260: 5806 9cbd 9f24 10bd 99d8 54be 5680 e03d
00000270: ef61 6cbe 60a5 e3bd cb89 af3d 53ac 0ebc
00000280: 5447 083e 1da9 46bd 3afe 30be 9716 b4bd
00000290: 53a3 003d 2478 5b3e 3776 343e 5a92 7b3d
000002a0: 5d39 afbd e6f1 0e3d 1ca5 14be 257e a8bd
000002b0: 4a77 e3bd 5a6f 06be 5d63 a73d e290 1e3e
000002c0: bcab 293e f793 0b3e e86f 123e 77bd 86be
000002d0: 8a0a 51be 009b 26be 76a3 5cbe 2040 0c3d
000002e0: 005e ea3d e15e 17be 1e13 2e3e 7c89 553e
000002f0: f5a8 383d 1db8 09be 650b 9ebd bdf6 5bbd
00000300: 7736 04be f065 123e a95c 0f3d 7b55 293d
00000310: ccf7 d33c de69 c6bd bcba d6bc 791e 403e
00000320: 8b8c 35be 6a6e 2ebe 1dd4 d2bd f194 92bd
00000330: 6695 8ebc c757 013e cbf4 e7bc d24e 5abe
00000340: c472 cdbc 1ab3 e33d d70a 3e3e 1c45 163b
00000350: 6ff2 0c3e 9872 c4bd d8ed 4bbe 855f 64be
00000360: ad35 df3d ebab 2b3e f446 2cbe 1121 5fbe
00000370: 9482 6bbd 8f72 e0bd de3d e7bd 3aa5 363d
00000380: b349 3dbe 25ba b33b c621 0bbe b2b4 10be
00000390: 247e 5bbd 0022 a33d ad4f 89be a65b a6bd
000003a0: 4235 8ebd f02a 68be 818c 0dbe 5c25 973d
000003b0: ed94 fe3d eecd 733d 70fc 8d3d 7617 32be
000003c0: e372 193e 74de 5ebb 5471 2b3e 6293 f5bd
000003d0: ab2a 8c3d 1952 37be 6214 eabd f2c5 41bc
000003e0: 038f 8bbd c90e 26be 04d2 293e 18aa 52be
000003f0: dc52 3fbe e354 febd 8351 34be 4e60 3c3e

model.gnn.gnn_layers.1.graph_conv.bias f4 [64]
0.022761738 -0.011888744 -0.025459867 0.026818153 -0.01975325 -0.017382719 0.023689434 -0.0037586468
-0.0053238207 0.011118502 0.01756247 0.025284076 -0.0021196972 -0.004858398 0.018990586 -0.00073984143
-0.009241329 0.0039229197 0.0124110365 0.00065186183 0.01449949 0.039992824 0.0 -0.0011061338
0.002843501 -0.025376631 -0.0011048318 -0.014176769 -0.013331829 0.0012800287 0.044202704 0.0035551693
-0.019666076 -0.006177304 -0.00841635 0.0 0.02098229 0.012732798 -0.03731686 -0.017930558
0.0040276283 -0.0059570745 0.0015595471 0.004572079 0.056222837 0.014960769 -0.011263259 0.018791461
0.023984572 0.018807853 -0.0032244043 -0.023815727 0.0026460246 -0.0032153672 -0.0008191675 -0.007459593
-0.02012679 0.019294301 0.0010667389 0.004508225 -0.015197057 0.019767607 -0.0037849536 0.024896774
00000000: d376 ba3c 02c9 42bc 3691 d0bc beb1 db3c
00000010: 91d1 a1bc 3466 8ebc 5810 c23c a153 76bb
00000020: 7273 aebb 612a 363c 2bdf 8f3c 8d20 cf3c
00000030: 9eea 0abb 3233 9fbb 2592 9b3c ebf1 41ba
00000040: f168 17bc d68b 803b a957 4b3c b5e1 2a3a
00000050: 458f 6d3c 84cf 233d 0000 0000 b1fb 90ba
00000060: 085a 3a3b a7e2 cfbc 01d0 90ba ae45 68bc
00000070: be6d 5abc a3c6 a73a e50d 353d d8fd 683b
00000080: c01a a1bc fb6a cabb bbe4 09bc 0000 0000
00000090: 0de3 ab3c 3a9d 503c 90d9 18bd 1be3 92bc
000000a0: 32fa 833b 9033 c3bb b869 cc3a 61d1 953b
000000b0: eb49 663d 031e 753c 8889 38bc 8df0 993c
000000c0: 4b7b c43c ed12 9a3c 8750 53bb 3319 c3bc
000000d0: ed68 2d3b e9b8 52bb 66bd 56ba 9a6f f4bb
000000e0: f0e0 a4bc 150f 9e3c d1d1 8b3a bbb9 933b
000000f0: 14fd 78bc adef a13c fc0c 78bb 52f4 cb3c

model.gnn.gnn_layers.1.res_connection.weight f4 [64, 64]
0.03284878 0.081234194 -0.047583904 0.03904841 0.090034075 0.06679405 -0.017620223 0.09154832
-0.010520851 -0.14481854 0.015214411 0.0168517 -0.092082985 0.017241022 0.053612415 -0.09836628
0.100719534 -0.006128751 0.05377988 0.07680735 -0.042454276 -0.034469053 0.122453466 0.0746862
-0.0153395515 0.07809393 -0.017002748 0.04023845 0.105130516 0.099232845 0.07492722 0.032742847
-0.1988693 0.07049239 -0.037420396 -0.07302615 -0.06081284 0.03594686 -0.039785717 -0.045006607
0.010253773 -0.064842165 0.11529765 -0.03161509 -0.014068847 0.13411206 -0.06415899 -0.06814629
0.095740214 -0.02615728 0.16395652 -0.110765144 -0.030510776 0.020476926 -0.110391155 0.031233717
0.032458406 -0.096001245 0.019665183 -0.057756785 -0.030504812 -0.031948198 -0.07051613 -0.009742149
-0.026957925 -0.048678912 0.07866335 0.106265366 0.05467517 -0.13169415 0.06681723 0.09631961
0.10091664 0.07746757 -0.08971477 -0.07198273 -0.07703692 -0.03767475 0.006280389 0.04316249
0.09452066 0.010290373 -0.10019448 -0.021520475 0.023682531 -0.06271963 -0.053966958 0.14969794
-0.002309952 -0.08181227 0.031455662 0.11078862 0.06274362 0.038464636 0.11915134 -0.010463766
0.12642832 -0.059120674 -0.08488901 0.030469224 0.028430805 -0.1065774 0.034958806 0.02833751
0.12657027 0.030382412 0.10080765 0.04459052 -0.12241266 -0.075434014 -0.05445999 -0.118277386
0.041846093 0.09989571 -0.013038477 0.11519756 -0.032733902 -0.08036833 0.0140259145 0.07332465
0.052398067 -0.095591165 0.16194095 0.07198133 0.13881171 -0.06343256 -0.066562325 -0.01606732
-0.05650487 0.043719865 -0.06827923 -0.009403417 0.09034072 -0.0054567247 0.09057757 0.042994507
0.11860327 -0.0686291 -0.09051517 -0.01886653 0.10007393 -0.0036892104 0.12883493 -0.13311471
-0.050325178 -0.0010273778 0.017977405 -0.08826336 0.09335082 0.009051671 -0.067599095 0.04046338
0.058972128 0.028327314 0.055870168 -0.09522583 -0.0025458492 0.08031646 0.046708345 0.0040170564
-0.13724104 -0.14131622 0.122565195 -0.052928377 -0.06812472 -0.03202119 0.10374767 -0.139526
-0.065694794 -0.0025121814 -0.090650715 -0.0724398 0.015558203 -0.102071136 -0.012682794 0.0075311246
-0.02670678 0.021862729 -0.027090427 0.114522025 0.09238644 0.12657106 0.014279743 -0.044684958
0.062448014 -0.061163183 -0.14825949 0.073896155 -0.071930796 -0.0023601642 0.103721656 0.07226522
-0.072394304 0.09089997 -0.18739645 0.08289906 -0.08869865 0.1687579 -0.005389828 0.008650283
0.15460615 -0.11770112 0.10932908 0.08182168 -0.09242791 0.0022757303 0.09884983 -0.074449986
-0.06623047 0.13498093 -0.09907807 0.04250621 0.17939655 0.025177345 0.09723145 0.005366403
-0.13643481 0.0012042471 -0.0066117244 -0.05636097 -0.11180849 -0.123938836 0.06286399 -0.031820416
-0.011744802 0.031725567 0.10106212 0.042103406 0.19588798 0.028675767 0.04579891 0.06502286
0.054232802 -0.03769861 -0.08558136 -0.07188129 -0.0638258 0.034505133 0.06002475 0.056337662
0.03418293 0.0013724216 -0.10595608 0.066010915 0.03547441 0.06978287 -0.062686086 -0.12000671
-0.0945235 -0.022431208 -0.007982867 0.0442732 -0.100197636 0.026449874 0.040872004 0.16016252
00000000: 718c 063d 1d5e a63d 57e7 42bd 3af1 1f3d
00000010: c963 b83d 52cb 883d 4958 90bc b07d bb3d
00000020: a65f 2cbc 504b 14be dd45 793c 940c 8a3c
00000030: 0196 bcbd 0b3d 8d3c b198 5b3d 4374 c9bd
00000040: 0b46 ce3d b1d3 c8bb 4b48 5c3d 2c4d 9d3d
00000050: 89e4 2dbd 6c2f 0dbd e2c8 fa3d 14f5 983d
00000060: be52 7bbc b6ef 9f3d 5949 8bbc 13d1 243d
00000070: ab4e d73d 973a cb3d 7173 993d 5d1d 063d
00000080: 65a4 4bbe 505e 903d 2146 19bd bc8e 95bd
00000090: e216 79bd 043d 133d 59f6 22bd d958 38bd
000000a0: 71ff 273c f8cb 84bd 2d21 ec3d d37e 01bd
000000b0: 0581 66bc ac54 093e ca65 83bd 4890 8bbd
000000c0: 7213 c43d cb47 d6bc 38e4 273e d6d8 e2bd
000000d0: bcf1 f9bc 3abf a73c c214 e2bd dadd ff3c
000000e0: 1bf3 043d 4d9c c4bd e118 a13c 6192 6cbd
000000f0: 3ae5 f9bc 1ddc 02bd c36a 90bd 899d 1fbc
00000100: ded6 dcbc 8a63 47bd 401a a13d a8a1 d93d
00000110: 12f3 5f3d d5da 06be 79d7 883d 3743 c53d
00000120: 62ad ce3d 51a7 9e3d 61bc b7bd ae6b 93bd
00000130: 88c5 9dbd d750 1abd b9cb cd3b 27cb 303d
00000140: 0c94 c13d f498 283c c332 cdbd b54b b0bc
00000150: de01 c23c 2673 80bd 750c 5dbd 6b4a 193e
00000160: 9062 17bb 318d a7bd a7d7 003d 25e5 e23d
00000170: ba7f 803d 188d 1d3d 9e05 f43d 3770 2bbc
00000180: 6d76 013e 8528 72bd 4ada adbd 989a f93c
00000190: b8e7 e83c 4045 dabd f730 0f3d 1124 e83c
000001a0: a39b 013e 89e4 f83c 3e74 ce3d 8da4 363d
000001b0: 7db3 fabd 267d 9abd 7011 5fbd 6a3b f2bd
000001c0: cf66 2b3d 1f96 cc3d 569f 55bc b3ec eb3d
000001d0: fc13 06bd 2798 a4bd f3cc 653c 3c2b 963d
000001e0: 5b9f 563d 4dc5 c3bd d9d3 253e f36a 933d
000001f0: a824 0e3e eee8 81bd d451 88bd 9d9f 83bc
00000200: a771 67bd 9a13 333d fbd5 8bbd ca10 1abc
00000210: 8e04 b93d 53ce b2bb bc80 b93d 021b 303d
00000220: 45e6 f23d 6a8d 8cbd 0460 b9bd fb8d 9abc
00000230: 90f3 cc3d aec6 71bb 4eed 033e 394f 08be
00000240: c621 4ebd 14a9 86ba 5a45 933c 6cc3 b4bd
00000250: b72e bf3d 764d 143c 6571 8abd eebc 253d
00000260: c28c 713d af0e e83c 1ed8 643d c305 c3bd
00000270: 43d8 26bb f57c a43d 4051 3f3d 83a1 833b
00000280: ea88 0cbe 33b5 10be 7603 fb3d 6dcb 58bd
00000290: f984 8bbd a728 03bd a979 d43d e7df 0ebe
000002a0: fe8a 86bd 69a3 24bb 15a7 b9bd 515b 94bd
000002b0: d5e7 7e3c ac0a d1bd 7ecb 4fbc a7c7 f63b
000002c0: 2dc8 dabc 7719 b33c beec ddbc 868a ea3d
000002d0: 1a35 bd3d d89b 013e 95f5 693c 9307 37bd
000002e0: 7dc9 7f3d 3f86 7abd 56d1 17be de56 973d
000002f0: 7450 93bd fcac 1abb 056c d43d caff 933d
00000300: 7743 94bd c329 ba3d dbe4 3fbe fbc6 a93d
00000310: a3a7 b5bd dfce 2c3e 279d b0bb ebb9 0d3c
00000320: 1351 1e3e 490d f1bd ede7 df3d 2092 a73d
00000330: d84a bdbd 6b24 153b c871 ca3d 3c79 98bd
00000340: d7a3 87bd 7138 0a3e 71e9 cabd fe1a 2e3d
00000350: bbb3 373e b840 ce3c 4821 c73d a7d8 af3b
00000360: 91b5 0bbe d4d7 9d3a 2aa7 d8bb c3da 66bd
00000370: d9fb e4bd a5d3 fdbd d6be 803d 2056 02bd
00000380: 456d 40bc abf2 013d a8f9 ce3d 9f74 2c3d
00000390: dc96 483e 71e9 ea3c a397 3b3d b52a 853d
000003a0: 3723 5e3d dc69 1abd 4845 afbd 7f36 93bd
000003b0: 1ab7 82bd 4155 0d3d 83dc 753d 52c2 663d
000003c0: 6603 0c3d d4e2 b33a 80ff d8bd bb30 873d
000003d0: 9d4d 113d 52ea 8e3d 9061 80bd 14c6 f5bd
000003e0: 8995 c1bd a7c1 b7bc 92ca 02bc d157 353d
000003f0: 6b34 cdbd 68ad d83c 6769 273d a501 243e

model.gnn.gnn_layers.1.res_connection.bias f4 [64]
0.106063776 -0.07274378 -0.09149057 0.0951635 -0.07863021 0.05005105 0.11537246 -0.0709799
-0.09174355 -0.05762506 -0.0002997647 -0.06218282 -0.07965942 0.07941668 0.025372185 0.075639956
-0.12028946 0.061792538 -0.076516256 0.121810205 0.057009816 0.024311258 0.06472616 0.039942496
0.111213356 0.050901543 -0.041284412 -0.103171065 0.07843452 -0.0354894 0.053904317 -0.040106457
-0.12803079 -0.017559826 0.028083507 0.056231357 -0.0031298927 0.07654091 -0.12695983 -0.07712302
0.019179177 0.04045018 -0.117733024 0.08070323 -0.024271654 -0.021207748 0.10866078 0.0021697567
0.12320843 0.0572584 -0.0028895484 0.10209114 0.03218094 0.015488103 0.052140787 -0.12273199
0.021774998 -0.028922867 0.048033137 -0.115524866 -0.053694278 -0.046245933 -0.07029543 -0.0808445
00000000: f737 d93d b1fa 94bd 685f bbbd 15e5 c23d
00000010: e008 a1bd 5402 4d3d 6548 ec3d e95d 91bd
00000020: 0be4 bbbd 4108 6cbd bd29 9db9 6ab3 7ebd
00000030: 7a24 a3bd 36a5 a23d 54d9 cf3c 1fe9 9a3d
00000040: 525a f6bd 2c1a 7d3d 8eb4 9cbd a177 f93d
00000050: 2083 693d 6728 c73c 268f 843d be9a 233d
00000060: d4c3 e33d 237e 503d d819 29bd 5a4b d3bd
00000070: 47a2 a03d 555d 11bd c6ca 5c3d ab46 24bd
00000080: 811a 03be a0d9 8fbc 620f e63c da52 663d
00000090: e31e 4dbb 7bc1 9c3d c201 02be adf2 9dbd
000000a0: a61d 9d3c 17af 253d 031e f1bd bc47 a53d
000000b0: 59d5 c6bc dfbb adbc 8b89 de3d 7a32 0e3b
000000c0: b454 fc3d c987 6a3d 945e 3dbb 2915 d13d
000000d0: 29d0 033d d0c1 7d3c 9491 553d e95a fbbd
000000e0: 7b61 b23c a6ef ecbc 65be 443d 4d98 ecbd
000000f0: 88ee 5bbd 606c 3dbd 0df7 8fbd cd91 a5bd

model.readout.weight_and_sum.atom_weighting.0.weight f4 [1, 64]
-0.092376634 0.027546002 -0.050221413 0.06802168 -0.10403038 -0.002369467 0.045037232 0.087678514
0.073394276 -0.09963099 -0.13200353 -0.0225231 0.029660365 -0.022652993 -0.016853234 0.06944998
-0.079212286 -0.09186743 -0.060813714 -0.11405654 -0.10476492 -0.030745186 -0.08403133 -0.12348599
0.06478099 0.0782414 -0.04360035 -0.023712298 -0.048651338 0.01429312 0.06558647 -0.10044015
-0.04158025 -0.060288757 -0.0064177755 0.08837059 -0.12358334 -0.16040768 -0.044476304 -0.033106495
-0.11687582 -0.1999032 0.00084256055 -0.12674308 -0.149934 -0.022406824 0.0072413497 -0.08280457
-0.15781246 -0.011352731 0.0034162907 0.092695594 -0.014549818 0.06406925 -0.01022402 0.1234928
0.10424151 -0.08901546 -0.009892143 -0.02639921 0.039112877 -0.12369682 0.07714522 -0.15901373
00000000: f62f bdbd 27a8 e13c f8b4 4dbd f34e 8b3d
00000010: e10d d5bd 0f49 1bbb f678 383d cb90 b33d
00000020: bd4f 963d 550b ccbd ef2b 07be 5d82 b8bc
00000030: 4bfa f23c c592 b9bc cb0f 8abc cb3b 8e3d
00000040: 0d3a a2bd fe24 bcbd cd17 79bd 7a96 e9bd
00000050: fe8e d6bd 54dd fbbc 9e18 acbd 39e6 fcbd
00000060: e5ab 843d 073d a03d 4896 32bd 4b40 c2bc
00000070: a046 47bd b12d 6a3c 3352 863d 91b3 cdbd
00000080: 0d50 2abd 58f1 76bd 344c d2bb a4fb b43d
00000090: 4319 fdbd e941 24be c92c 36bd ad9a 07bd
000000a0: 975c efbd 6db3 4cbe 48df 5c3a f0c8 01be
000000b0: 4c88 19be 848e b7bc d848 ed3b 7195 a9bd
000000c0: 9799 21be ce00 3abc d9e3 5f3b 30d7 bd3d
000000d0: 5c62 6ebc bd36 833d a682 27bc cbe9 fc3d
000000e0: 937c d53d bd4d b6bd a812 22bc 2843 d8bc
000000f0: d334 203d c254 fdbd 50fe 9d3d 7fd4 22be

model.predict.predict.1.weight f4 [128, 128]
-0.035164725 0.023895849 -0.06504485 -0.07158259 -0.08517256 -0.09559331 -0.11257561 -0.00064346456
-0.014344109 -0.14594729 0.06825923 -0.04777403 -0.0076164803 -0.12148079 0.0014513078 -0.0023682301
-0.036970146 -0.09513566 -0.053239044 -0.040533174 -0.018108588 0.0029758269 -0.060369775 0.06840403
0.05872667 0.08764462 0.012237754 -0.019879645 -0.067191824 0.01047185 -0.010311956 0.009916828
-0.07813027 0.04517249 0.008628719 -0.08815674 0.0044497726 0.026853384 0.07509602 -0.023383813
-0.046556976 0.006343735 0.13133746 0.008904831 -0.004727147 -0.018904544 -0.06920034 0.04080297
-0.10491546 0.021826254 -0.075643755 -0.04500735 0.031404104 0.0046422393 0.024430752 -0.06395056
0.06482635 -0.0009769347 0.0469982 0.01563282 -0.02160027 0.030017063 0.020082012 -0.017193079
0.006830102 -0.04427638 0.08281675 0.11135736 -0.14537859 0.027130423 0.23402315 -0.08465015
0.06727421 0.006957491 -0.06213501 -0.0142041175 0.039832402 -0.11177333 -0.08048179 0.14524744
0.11943465 0.021520663 0.002877574 -0.09269458 -0.08821957 0.1404093 0.09419199 0.07128782
-0.033742476 0.07812159 0.005206008 0.008929344 -0.09447467 -0.009767271 0.20086235 -0.15267068
0.11964852 -0.124618806 0.0882109 -0.08673477 0.07574454 -0.017783191 0.054922607 0.15148988
0.09055752 0.17672588 0.12820624 0.10268427 0.08641049 -0.013537906 0.10964431 0.08579494
0.028462145 0.10474967 0.060014382 0.00883952 0.02315637 -0.064481035 -0.0022749663 0.02122233
-0.11321546 -0.06388705 -0.12277113 -0.03885503 0.03406018 0.0019404569 0.008775455 0.0135317445
0.050582044 -0.02515805 0.081135206 0.05760933 -0.041099444 -0.09547359 -0.031970892 0.052809313
-0.07025461 0.104622014 -0.041607026 -0.077984124 0.043909147 0.02166466 -0.044081405 0.026469754
-0.03269567 0.054255184 -0.030017808 0.02857816 -0.048557322 -0.0131149255 -0.030949166 -0.07225981
-0.105911024 -0.0758409 0.004372423 0.040758573 0.024326675 0.043473415 -0.051289592 -0.092557564
-0.05940476 0.042283658 0.0020464764 0.035695817 0.022816284 -0.033450667 -0.06286808 0.036806483
0.05124019 0.021439472 -0.13080588 0.002937249 0.08639756 -0.00034563104 0.028478956 -0.05560359
0.06226392 -0.00063715276 -0.04060581 0.0108077945 -0.03640211 0.08578626 -0.046242483 0.03462879
0.029889114 0.12325912 -0.07425224 0.050147418 -0.027675286 0.0114885885 0.044493694 0.06370919
0.064328745 -0.035161264 -0.012226573 0.04165949 0.07735025 -0.04190826 -0.046254747 -0.037133418
0.019654697 -0.05146791 -0.035779253 0.007283669 0.004236707 0.121036366 -0.06134656 -0.02222389
-0.021707192 0.034285743 0.017161418 -0.016576493 -0.050700888 -0.10293315 -0.032101706 -0.018799743
0.04791122 -0.106839105 0.05026757 -0.04368145 0.040101003 0.12696584 -0.21155336 0.09949385
-0.037060075 -0.023507392 0.034459513 -0.05543307 -0.12196529 -0.0007262738 0.002606375 -0.17569347
-0.11416336 -0.098695956 -0.08688604 -0.12876536 -0.12623127 0.025603544 -0.14375445 0.03476496
0.12444903 -0.10382745 -0.05149699 0.053339675 0.021168133 -0.003780264 -0.06818486 0.033756938
0.115213744 -0.016756266 0.09764472 -0.055381097 -0.05066917 -0.01204718 -0.08301409 0.02268455
00000000: e308 10bd 3ac1 c33c 3c36 85bd e599 92bd
00000010: f36e aebd 6dc6 c3bd 0b8e e6bd 2dae 28ba
00000020: 8e03 6bbc 3573 15be 7fcb 8b3d b4ae 43bd
00000030: ab93 f9bb ecca f8bd cf39 be3a 4f34 1bbb
00000040: 026e 17bd 7cd6 c2bd 2f11 5abd 1d06 26bd
00000050: 7658 94bc 1706 433b 4c46 77bd 6917 8c3d
00000060: 608b 703d 067f b33d dc80 483c a3da a2bc
00000070: de9b 89bd 1f92 2b3c 7af3 28bc 317a 223c
00000080: c302 a0bd ca06 393d 785f 0d3c 858b b4bd
00000090: 66cf 913b a1fb db3c f1cb 993d 698f bfbc
000000a0: 87b2 3ebd 1bdf cf3b 547d 063e 91e5 113c
000000b0: 2fe6 9abb b4dd 9abc e8b8 8dbd 0421 273d
000000c0: ebdd d6bd f9cc b23c 1deb 9abd a159 38bd
000000d0: 97a1 003d ed1d 983b 0023 c83c 83f8 82bd
000000e0: adc3 843d 7d0c 80ba 2f81 403d 6610 803c
000000f0: 0df3 b0bc 58e6 f53c 0883 a43c 80d8 8cbc
00000100: 0ccf df3b 265b 35bd d49b a93d 540f e43d
00000110: 20de 14be 9f40 de3c c4a3 6f3e 0f5d adbd
00000120: 10c7 893d aafb e33b 4881 7ebd 63b8 68bc
00000130: 4d27 233d 6ae9 e4bd a3d3 a4bd bfbb 143e
00000140: 279a f43d 1a4c b03c ae95 3c3b a8d6 bdbd
00000150: 76ac b4bd 75c7 0f3e bbe7 c03d 59ff 913d
00000160: 8d35 0abd 36fe 9f3d 2997 aa3b 624c 123c
00000170: f07b c1bd e706 20bc dcae 4d3e b455 1cbe
00000180: 490a f53d 2538 ffbd eba7 b43d 00a2 b1bd
00000190: f41f 9b3d 0eae 91bc 87f6 603d 2a20 1b3e
000001a0: 3976 b93d a1f7 343e 7f48 033e 214c d23d
000001b0: fcf7 b03d 18ce 5dbc 328d e03d 42b5 af3d
000001c0: 7229 e93c ff86 d63d a4d1 753d a2d3 103c
000001d0: 6db2 bd3c a20e 84bd 9a17 15bb 74da ad3c
000001e0: 82dd e7bd 37d7 82bd 6e6f fbbd 7426 1fbd
000001f0: b082 0b3d ee56 fe3a edc6 0f3c 40b4 5d3c
00000200: 1e2f 4f3d 4118 cebc 372a a63d c3f7 6b3d
00000210: e457 28bd a887 c3bd e9f3 02bd 944e 583d
00000220: a6e1 8fbd 1144 d63d 216c 2abd 24b6 9fbd
00000230: 14da 333d 167a b13c b48e 34bd 19d7 d83c
00000240: e5eb 05bd af3a 5e3d e8e7 f5bc bf1c ea3c
00000250: 0be4 46bd fcdf 56bc 1b89 fdbc f4fc 93bd
00000260: e1e7 d8bd 7952 9bbd 8b46 8f3b 76f2 263d
00000270: bc48 c73c 2e11 323d 0915 52bd d28e bdbd
00000280: 6852 73bd a131 2d3d 2d1e 063b c735 123d
00000290: 37e9 ba3c 9103 09bd fbc0 80bd 65c2 163d
000002a0: 3ce1 513d d5a1 af3c faf1 05be dc7e 403b
000002b0: 34f1 b03d d035 b5b9 b34c e93c 97c0 63bd
000002c0: 7408 7f3d 9906 27ba 4752 26bd 2d13 313c
000002d0: 611a 15bd b5b0 af3d c268 3dbd ebd6 0d3d
000002e0: 04da f43c 476f fc3d 8f11 98bd 6167 4d3d
000002f0: 48b7 e2bc a23a 3c3c 053f 363d f779 823d
00000300: cabe 833d 4205 10bd f751 48bc 24a3 2a3d
00000310: cf69 9e3d ffa7 2bbd 9e75 3dbd 3619 18bd
00000320: e302 a13c 04d0 52bd 448d 12bd d8ab ee3b
00000330: 13d4 8a3b eae1 f73d 8846 7bbd e00e b6bc
00000340: 48d3 b1bc 356f 0c3d 1a96 8c3c 6dcb 87bc
00000350: bcab 4fbd 9ece d2bd 147d 03bd eb01 9abc
00000360: 8e3e 443d 76ce dabd 5ee5 4d3d 52eb 32bd
00000370: f340 243d 5503 023e 72a1 58be 6ec3 cb3d
00000380: 4ecc 17bd 9392 c0bc 6b25 0d3d c90d 63bd
00000390: f0c8 f9bd 6963 3eba b7cf 2a3b fde8 33be
000003a0: 7bce e9bd 1b21 cabd 4ff1 b1bd 11db 03be
000003b0: c542 01be 86be d13c 5e34 13be b465 0e3d
000003c0: 22df fe3d 7ca3 d4bd 82ee 52bd b47a 5a3d
000003d0: cb68 ad3c 4ebe 77bb 81a4 8bbd b744 0a3d
000003e0: 2ff5 eb3d 7044 89bc f4f9 c73d 4ad7 62bd
000003f0: 7a8a 4fbd 8961 45bc 4b03 aabd f3d4 b93c

model.predict.predict.1.bias f4 [128]
0.05331469 0.0023943665 -0.06548114 0.029860225 -0.009909714 -0.028474357 0.00939881 -0.043975506
-0.03894509 0.06758929 -0.06648447 0.012105874 0.06039617 0.048692655 -0.012277733 0.044799183
-0.025369754 0.024363581 -0.07857444 -0.059824087 -0.07653826 -0.15474984 -0.032390244 -0.08395797
-0.057490833 0.03234192 0.021417808 -0.0542772 0.005044669 -0.083209924 0.0050594793 -0.05465812
-0.08781889 -0.041457713 -0.06911154 0.014319967 0.013431768 0.051585466 -0.04183354 -0.070710205
0.13262296 0.044446874 -0.007967022 0.035984542 0.027349534 -0.04790128 0.023772297 0.008030239
-0.0021212748 0.0290204 0.0033063933 -0.063915886 0.031811852 0.049406476 0.04361052 0.078747064
0.08965414 0.0012345272 -0.061615888 -0.09949582 -0.00021672033 -0.00037379126 -0.011192035 0.093632475
-0.03967419 -0.058805965 -0.046237864 -0.04451595 0.043283403 -0.060752977 -0.021016978 -0.04312819
-0.0010846773 0.06058542 -0.029730037 0.01769273 -0.034453116 -0.09498355 0.03280897 0.018152019
0.099324465 0.055237405 -0.04678568 -0.06159454 -0.008454309 -0.09236946 0.08067517 0.053186536
0.018929254 -0.048846774 0.004233887 0.06240484 -0.07794231 -0.020561485 0.008703745 -0.056559734
0.004045657 -0.02953635 -0.062634885 -0.0031531963 0.03273469 0.06650793 -0.015756607 -0.04561139
0.08096899 -0.08267087 0.047416523 -0.07570214 0.08594464 -0.11413016 0.11453427 -0.0015146127
-0.006210214 -0.06602887 -0.051554028 -0.046535335 -0.004389592 -0.049751833 -0.07292095 0.068905815
0.010091131 -0.032011118 -0.018327901 -0.058116063 -0.09387987 0.022230482 -0.051594384 -0.0116334325
00000000: 8160 5a3d ceea 1c3b fa1a 86bd 6e9d f43c
00000010: 5a5c 22bc 0e43 e9bc 77fd 193c a91f 34bd
00000020: e384 1fbd 416c 8a3d 0329 88bd b757 463c
00000030: f961 773d f371 473d 8b28 49bc 597f 373d
00000040: 3bd4 cfbc 2296 c73c a3eb a0bd 1a0a 75bd
00000050: 17c0 9cbd be76 1ebe a2ab 04bd 28f2 abbd
00000060: 827b 6bbd f678 043d 6674 af3c c551 5ebd
00000070: c04d a53b f769 aabd fdc9 a53b 31e1 5fbd
00000080: 64da b3bd 90cf 29bd 5a8a 8dbd 4b9e 6a3c
00000090: eb10 5c3c 484b 533d a559 2bbd 83d0 90bd
000000a0: 50ce 073e ed0d 363d 1d88 02bc 8764 133d
000000b0: 210c e03c 2234 44bd 1fbe c23c 4391 033c
000000c0: 1605 0bbb 31bc ed3c 13b0 583b 55e6 82bd
000000d0: 254d 023d 725e 4a3d f2a0 323d 2446 a13d
000000e0: 979c b73d dccf a13a f160 7cbd 77c4 cbbd
000000f0: 6c3f 63b9 6af9 c3b9 cc5e 37bc 62c2 bf3d
00000100: 6781 22bd 86de 70bd ea63 3dbd 5b56 36bd
00000110: f049 313d 1dd8 78bd cc2b acbc 2fa7 30bd
00000120: bb2b 8eba 6b28 783d 688c f3bc 58f0 903c
00000130: b61e 0dbd bc86 c2bd b362 063d 8bb3 943c
00000140: a06a cb3d 9e40 623d 57a2 3fbd 8e4a 7cbd
00000150: f183 0abc 332c bdbd 0639 a53d 20da 593d
00000160: 8611 9b3c 8e13 48bd 6bbc 8a3b 389c 7f3d
00000170: 38a0 9fbd 8f70 a8bc 279a 0e3c 2eab 67bd
00000180: 6e91 843b 37f6 f1bc b846 80bd dba5 4ebb
00000190: cf14 063d 4f35 883d 0014 81bc 02d3 3abd
000001a0: 12d3 a53d 584f a9bd d437 423d b909 9bbd
000001b0: be03 b03d 13bd e9bd f190 ea3d f885 c6ba
000001c0: 0d7f cbbb 253a 87bd 512a 53bd d69b 3ebd
000001d0: 91d6 8fbb 94c8 4bbd 9457 95bd 7e1e 8d3d
000001e0: 4555 253c 171e 03bd 6524 96bc 1c0b 6ebd
000001f0: 1744 c0bd b31c b63c a254 53bd 279a 3ebc

model.predict.predict.3.weight f4 [128]
1.1077446 1.0095221 1.0326555 1.008387 0.98648125 1.0107944 0.98214555 1.0429012
0.9741715 1.0258105 0.99510616 1.0095005 0.98807365 1.0167109 0.98369277 1.0069867
1.0181664 1.0221884 0.99488705 0.98981583 1.0 0.99483055 0.9100279 1.010547
0.96318525 1.0059325 1.0250344 0.98638433 0.94517577 1.0065622 0.996608 1.0
0.9882304 1.0165517 0.986116 0.98116463 1.0 1.0276533 1.0199891 1.0545323
1.0011686 1.0390364 1.0376741 0.9619877 0.9945444 1.025718 1.0 1.0
0.99682075 1.0142369 1.0119673 0.9935311 1.0213103 1.0315843 0.9886343 0.9899471
1.0034866 0.9964383 1.023377 1.0227987 1.0293453 0.99754816 0.9590535 0.9136268
1.0035332 0.99008894 1.0 0.99269545 1.0005561 0.99597335 1.0347883 1.0346341
1.0064948 0.9991498 1.000243 1.0 0.9675259 1.0253668 0.98923004 0.99035144
1.0401208 0.9826863 1.0296104 0.99369085 1.0204201 1.0092363 1.001969 1.0581998
1.0165287 1.0103568 1.0221349 0.9836388 1.0 1.0227495 1.0163515 0.98579824
0.9949375 0.9675559 1.0363065 0.9919202 0.99485457 0.9838548 1.0015999 1.0289401
0.991541 0.9946534 0.99741125 1.002334 0.9981388 1.005471 0.94661766 1.0589458
0.9917797 0.99064326 0.9754692 1.0060055 0.9869441 1.0115304 0.966952 1.0036508
1.0632907 0.9486543 1.041739 0.9700648 0.9992876 1.0 0.93118936 1.0129368
00000000: 93ca 8d3f 0538 813f 0e2e 843f d312 813f
00000010: 098a 7c3f b661 813f e46d 7b3f c97d 853f
00000020: 4e63 793f c24d 833f 47bf 7e3f 5037 813f
00000030: 65f2 7c3f 9523 823f 4ad3 7b3f f1e4 803f
00000040: 4753 823f 12d7 823f ebb0 7e3f 9264 7d3f
00000050: 0000 803f 37ad 7e3f 97f7 683f 9b59 813f
00000060: 4f93 763f 65c2 803f 5434 833f af83 7c3f
00000070: 0af7 713f 08d7 803f b421 7f3f 0000 803f
00000080: abfc 7c3f 5e1e 823f 1972 7c3f 9b2d 7b3f
00000090: 0000 803f 258a 833f 018f 823f eafa 863f
000000a0: 4b26 803f 25ff 843f 81d2 843f d344 763f
000000b0: 769a 7e3f ba4a 833f 0000 803f 0000 803f
000000c0: a52f 7f3f 84d2 813f 2588 813f 0e58 7e3f
000000d0: 4cba 823f f40a 843f 2317 7d3f 2c6d 7d3f
000000e0: 4072 803f 9516 7f3f 04fe 823f 11eb 823f
000000f0: 96c1 833f 515f 7f3f 8884 753f 72e3 693f
00000100: c773 803f 7876 7d3f 0000 803f 4a21 7e3f
00000110: 3912 803f 1cf8 7e3f f173 843f e46e 843f
00000120: d2d4 803f 48c8 7f3f f607 803f 0000 803f
00000130: c7af 773f 383f 833f 2e3e 7d3f ac87 7d3f
00000140: ae22 853f 5491 7b3f 46ca 833f 8662 7e3f
00000150: 209d 823f a82e 813f 8540 803f 1773 873f
00000160: 9d1d 823f 5f53 813f 51d5 823f c1cf 7b3f
00000170: 0000 803f 75e9 823f ce17 823f 465d 7c3f
00000180: 39b4 7e3f beb1 773f b1a5 843f 7bee 7d3f
00000190: caae 7e3f e8dd 7b3f 6d34 803f 4fb4 833f
000001a0: a2d5 7d3f 9ba1 7e3f 5856 7f3f 7b4c 803f
000001b0: 0686 7f3f 46b3 803f 8955 723f 898b 873f
000001c0: 46e5 7d3f cc9a 7d3f 59b8 793f cac4 803f
000001d0: 5ea8 7c3f d479 813f 2b8a 773f a177 803f
000001e0: e919 883f 02db 723f b457 853f 2b56 783f
000001f0: 50d1 7f3f 0000 803f 6d62 6e3f eaa7 813f

model.predict.predict.3.bias f4 [128]
0.024062503 -0.02336007 -0.025188593 0.023439463 0.018381607 -0.02273707 0.018326657 0.02357017
-0.015035411 -0.02391558 -0.020880686 0.024137458 -0.021658687 0.022996353 0.015529006 0.011029759
-0.023750737 -0.023070714 -0.022107972 0.01275216 0.01704805 0.023500415 0.0032348686 0.023882458
0.020398466 0.023434846 0.02303175 0.021939294 0.034105804 0.023489084 -0.022456685 0.01841842
0.022562105 0.023497855 -0.020831658 0.021434087 -0.020638913 -0.023184475 -0.022573132 0.023231259
-0.018833734 0.023989998 0.025259076 -0.015131443 -0.031791523 0.023437532 0.0174923 -0.01585788
-0.022324502 0.023646489 -0.022107331 -0.022840066 -0.024728147 0.02371619 0.020360157 -0.020169487
-0.02205797 -0.023210403 0.023626646 0.024002064 -0.02380789 0.02118232 -0.024171406 0.03227114
0.021594172 0.017668236 0.012218119 -0.023013271 0.022800256 -0.022020312 0.023937453 0.022880943
-0.023255724 -0.02294006 0.02256345 0.020978913 -0.02315217 -0.023760159 -0.022192342 -0.020289257
0.023149606 0.023374159 -0.022121651 0.016428806 0.024256257 0.023321116 0.023098653 -0.022415103
-0.021229047 0.023787059 0.024043292 -0.022230266 0.018707147 -0.022988139 -0.023065606 0.021032896
0.011025481 0.02061873 0.0235364 0.015253713 -0.023009667 0.017365517 0.022929728 0.021124184
0.019315954 0.011246858 0.023728801 0.02421635 -0.022757228 0.023921333 -0.007981143 -0.02463073
-0.021069242 -0.022201031 -0.022497242 0.022869037 0.020195644 -0.023792375 -0.012747658 0.022581609
0.023209712 -0.020818759 0.023037413 -0.01904037 -0.021355828 0.021006234 0.019988483 0.023004506
00000000: ba1e c53c 9e5d bfbc 4f58 cebc 1e04 c03c
00000010: 0695 963c 1843 babc c921 963c 3b16 c13c
00000020: 1657 76bc 9bea c3bc f90d abbc ebbb c53c
00000030: 8f6d b1bc d962 bc3c 5f6d 7e3c 2ab6 343c
00000040: e890 c2bc cbfe bcbc c71b b5bc 70ee 503c
00000050: 5aa8 8b3c f183 c03c 1700 543b 25a5 c33c
00000060: af1a a73c 6ffa bf3c 15ad bc3c 09ba b33c
00000070: 87b2 0b3d 2e6c c03c 15f7 b7bc 3ae2 963c
00000080: 2ad4 b83c 937e c03c 27a7 aabc 8a96 af3c
00000090: f012 a9bc 5eed bdbc 4aeb b8bc 7b4f be3c
000000a0: 3449 9abc ac86 c43c 1fec ce3c dfe9 77bc
000000b0: d437 02bd 1100 c03c 034c 8f3c 62e8 81bc
000000c0: e0e1 b6bc 48b6 c13c 6f1a b5bc 171b bbbc
000000d0: af92 cabc 7548 c23c 58ca a63c 7b3a a5bc
000000e0: eab2 b4bc be23 bebc ab8c c13c fa9f c43c
000000f0: c408 c3bc 8b86 ad3c 1d03 c6bc be2e 043d
00000100: 43e6 b03c fabc 903c 812e 483c 5486 bcbc
00000110: 9ac7 ba3c f163 b4bc 7a18 c43c d170 bb3c
00000120: ca82 bebc cbec bbbc fcd6 b83c f8db ab3c
00000130: 9fa9 bdbc aaa4 c2bc b7cc b5bc a835 a6bc
00000140: 3ea4 bd3c 2a7b bf3c 7738 b5bc b495 863c
00000150: 0fb5 c63c ed0b bf3c 6339 bd3c e19f b7bc
00000160: 8ae8 adbc 14dd c23c 70f6 c43c 3f1c b6bc
00000170: bb3f 993c 9f51 bcbc 15f4 bcbc 2e4d ac3c
00000180: 38a4 343c 9ce8 a83c 69cf c03c b6ea 793c
00000190: c57e bcbc 2142 8e3c 20d7 bb3c a00c ad3c
000001a0: 7e3c 9e3c be44 383c e762 c23c 5e61 c63c
000001b0: 5e6d babc acf6 c33c 57c3 02bc 62c6 c9bc
000001c0: 6799 acbc f0de b5bc 234c b8bc d957 bb3c
000001d0: 5671 a53c 3ae8 c2bc 8edb 50bc 11fd b83c
000001e0: 4b22 be3c 1a8c aabc f5b8 bc3c 8dfa 9bbc
000001f0: 6bf2 aebc 4415 ac3c e3be a33c f273 bc3c
