checkpoints/GAT/best_roc_auc_score/checkpoint1.pt (torch, 156441 bytes, 50 tensors)

model.gnn.gnn_layers.0.gat_conv.attn_l f4 [1, 8, 8]
000000 f7 e4 c7 3c 2e 2f 40 3b 11 a8 90 3e 26 9c 65 3e
       0.024401171 0.0029324996 0.28253224 0.22422847
000010 0e 30 41 bc a2 ad 69 be 47 2e 7e 3c 02 04 29 be
       -0.011791242 -0.22820142 0.015513963 -0.16505435
000020 1b ad f5 3d 6a 4c 38 3c d0 8d 1e 3e a5 31 20 be
       0.11995908 0.011248687 0.15483785 -0.15643938
000030 a4 a3 33 be 44 25 8b 3d 96 b8 5a be 1e 77 b0 be
       -0.17542893 0.06794217 -0.21359476 -0.3446588
000040 0d da 6b be c6 f1 1a be af 40 5b 3d 7f 6b a7 be
       -0.23032399 -0.15131292 0.053528484 -0.326992
000050 9a 58 3e be 25 9f aa 3b 5f 19 18 3e c5 22 38 3d
       -0.18588486 0.00520696 0.14853428 0.044955034
000060 f6 c3 a8 bc 71 45 f2 3d 0e 3b bd 3e fe 4b 94 3e
       -0.020601254 0.11829651 0.36959118 0.28964227
000070 c6 4c 3e 3d 57 e0 be 3d a3 d5 3b 3e ac 0a 0e be
       0.046459936 0.09320133 0.18343215 -0.13871258
000080 fe c8 50 bd 4a e3 af 3e 07 73 b9 be 93 78 0d be
       -0.05097293 0.34353095 -0.3622057 -0.13815527
000090 9d 6f a6 3e 66 87 ca bd 60 c4 73 bd 86 95 bf be
       0.3250703 -0.098891065 -0.05951345 -0.37418765
0000a0 20 01 a5 3d ce ce b5 3e 3a 46 e0 3e 25 0d 38 bf
       0.08056855 0.35509342 0.4380358 -0.71895057
0000b0 94 1b 24 3e 85 8c e2 3d 1f ce 0a 3e 7b 77 fe be
       0.16026145 0.11061958 0.13555191 -0.4970053
0000c0 41 47 0e 3e f2 3c 57 be 78 8d 8a 3e 71 dc 9a 3d
       0.13894369 -0.21019343 0.27061057 0.07561577
0000d0 57 54 0f 3e cd 59 1d bf 45 6c 03 3f 0b f3 58 be
       0.13997017 -0.6146515 0.5133708 -0.21186464
0000e0 dc 88 8f 3d a5 37 34 be ac b5 61 3e dd 9a 8a 3e
       0.07008526 -0.17599352 0.22041959 0.27071276
0000f0 fc e2 7c bd 3a 64 6c be 9c 1d ae 3e e6 90 6c be
       -0.061739907 -0.23085108 0.34006965 -0.2310215

model.gnn.gnn_layers.0.gat_conv.attn_r f4 [1, 8, 8]
000000 93 aa 83 3c 8d 0d 5c 3d 4c 7a 21 be 80 07 7d 3e
       0.016072547 0.05372386 -0.15769309 0.24709892
000010 02 00 01 3f 23 b3 b8 3e eb 42 37 3e 33 3d ea bd
       0.50390637 0.3607417 0.17896621 -0.11437454
000020 f4 c9 88 bd 3c 59 5a bd 84 8d 88 3e f7 ef ad be
       -0.066791445 -0.053307757 0.26670468 -0.3397214
000030 59 7a 9e 3e 55 9e 4b be eb 10 5e bd ef 5a 0d bd
       0.3095272 -0.19884618 -0.054215353 -0.03451055
000040 ec b3 42 bf 70 b3 d6 be 52 f6 fb 3e 96 8f 7a 3d
       -0.7605579 -0.41933775 0.49211365 0.06117209
000050 fe 57 83 be 67 19 a6 3e 61 cc b0 bc 18 79 08 be
       -0.2565307 0.32441255 -0.02158183 -0.13327444
000060 0c 74 92 3b 7c af b9 be 09 18 ab be 4a 88 93 3e
       0.0044694003 -0.36266696 -0.33416775 0.28814918
000070 02 34 08 bd 8d f4 18 be 65 85 29 3d 45 2e 07 bd
       -0.033252724 -0.14937039 0.04138698 -0.03300311
000080 5c d2 40 be e8 b6 b7 bd 2f bf a9 bd 2d 29 01 bf
       -0.18830246 -0.089704335 -0.082884185 -0.50453454
000090 ae d3 59 be a4 23 d7 3d b2 34 9c be 8f c6 44 3d
       -0.21272156 0.10504845 -0.30508953 0.048040923
0000a0 24 0e a2 3e da b3 ef be 44 75 e5 bd 9e c8 a6 be
       0.31651413 -0.46816903 -0.11204007 -0.32574934
0000b0 86 73 ac 3d 30 54 49 3c 54 7c 35 3e 9d f2 ba 3d
       0.08420472 0.012288138 0.17723209 0.09128306
0000c0 b0 e7 dc 3d 76 4d 99 bd 8e 04 84 3e b9 20 93 be
       0.107863784 -0.074854776 0.25784725 -0.28735903
0000d0 5a 3f 0e 3f 4e fb 0f 3e 61 6c 9b bc 40 1f 19 bc
       0.55565417 0.14060709 -0.018972578 -0.0093458295
0000e0 ea d3 de bd 81 a9 1c bf 8b d5 52 3e c0 87 0b 3d
       -0.10880263 -0.6119614 0.20589273 0.03406501
0000f0 f5 94 ce 3e cc 91 01 3d e0 89 48 3e a5 4d 9d 3e
       0.4034802 0.031633183 0.19583845 0.307233

model.gnn.gnn_layers.0.gat_conv.fc.weight f4 [64, 30]
000000 3b b4 c5 3c e0 8f f3 be 74 94 5b be bb 1b c3 be
       0.024133792 -0.47570705 -0.21443349 -0.38107094
000010 43 3b a9 3e f5 40 81 be 88 a7 b9 3e 8c 03 eb 3d
       0.33053026 -0.2524487 0.3626063 0.11475286
000020 cb 5a 43 3e a9 f1 e8 bd 0e 68 63 3e 78 2f bc ba
       0.19077604 -0.11374218 0.22207662 -0.0014357409
000030 3f 69 24 bd af 12 a1 bd 09 ee 44 3d 26 36 91 3c
       -0.040139433 -0.07864892 0.04807857 0.017726015
000040 98 47 c7 3d d9 a6 09 3e b4 20 d4 3d 52 a8 7f be
       0.09730452 0.13442554 0.103578 -0.24966553
000050 a7 68 30 bd c5 6e 1c 3f 75 25 b5 3d e0 dd 21 3a
       -0.043068554 0.6110652 0.08845035 0.00061747245
000060 df 4f d7 3d b9 08 a0 3d 9f e0 5b bc fc dc f1 be
       0.10513281 0.07814164 -0.013420253 -0.4723891
000070 bc 40 3f be 0d d7 29 be 3e ab 37 be 23 4a a0 3e
       -0.18677038 -0.16585942 -0.17936417 0.31306562
000080 49 ac 72 3e a3 65 a7 be 91 b2 05 3f dd d4 44 3e
       0.23698534 -0.3269473 0.52225596 0.19221826
000090 bc 18 47 3e d9 a3 11 bd 17 30 f9 be 88 88 f2 3c
       0.19443029 -0.035556648 -0.48669502 0.029606119
0000a0 dc cf f6 bd f5 83 82 be 58 05 b0 be a4 da a9 be
       -0.12051365 -0.254913 -0.34379077 -0.33174622
0000b0 5a cb 96 3c c1 f1 b7 bd 15 07 86 be 57 f7 6f 3e
       0.018407512 -0.08981658 -0.26177278 0.23434196
0000c0 64 33 4f 3e 50 a2 11 3e a6 b4 ad be ef 30 6d be
       0.20234448 0.14222074 -0.33926886 -0.23163198
0000d0 a1 e4 19 bd dd 0a d2 3e 24 de af 3e 09 d9 73 bd
       -0.037571553 0.41023913 0.34349167 -0.059533153
0000e0 40 44 5a be ab 2d ea bd 33 50 d0 3c 3c 32 a2 3e
       -0.21315098 -0.11434492 0.025428867 0.3167895
0000f0 38 32 e8 3d ec 1b a9 bd a1 52 0d bf 1e 70 70 be
       0.113377035 -0.08257279 -0.55204207 -0.2348027
000100 d6 31 3b be 87 d2 8d bd 1b 23 45 be 43 11 26 3e
       -0.1828073 -0.069249205 -0.19251673 0.16217522
000110 5b ff 06 bd f6 0d a9 ba b5 30 a8 be e1 b4 7a be
       -0.03295837 -0.0012897837 -0.3284966 -0.24483062
000120 79 ba aa 3c a8 8e 55 bd f4 f2 33 be bf bb 4c 3d
       0.02084087 -0.052138 -0.17573148 0.049983736
000130 6d 66 93 3e 35 32 ea bc 7c 51 23 be 4d d3 a2 3e
       0.28789082 -0.028588394 -0.15949053 0.31801835
000140 2d a3 0a be af cd 3e 3e 90 55 ee bc 6e a1 c6 bd
       -0.13538809 0.1863315 -0.029093534 -0.09698759
000150 29 d3 ca 3e 60 31 e9 3d 8a 39 12 3e 82 ee df bd
       0.39614227 0.11386371 0.14279762 -0.10934164
000160 67 ac 9b 3d 6a c3 39 3d 3c a0 69 3e 66 28 1b 3e
       0.076012425 0.045352377 0.22815031 0.1515213
000170 15 5c 85 be 1c a5 b8 bd 52 28 92 3e 0e 4e bb be
       -0.26046816 -0.09015867 0.28546387 -0.36582989
000180 74 93 61 3d 1f 72 77 be de 25 9e 3e 97 d4 0b be
       0.055072263 -0.24164627 0.30888265 -0.13655315
000190 dc e3 94 3e cb de 6e 3e 37 1b 95 be dd a6 e0 be
       0.29080093 0.23327176 -0.29122326 -0.43877307
0001a0 97 06 83 be 27 e2 62 3d c0 db e7 bd 81 f2 e3 3d
       -0.25590965 0.055391457 -0.11321211 0.11130238
0001b0 03 e6 20 be a5 f5 99 3d a6 20 fa 3c 85 d5 2d 3e
       -0.15712743 0.07517556 0.030533146 0.16975982
0001c0 e5 66 c4 3e a9 88 00 3e 30 9b 04 3d 44 24 b4 3e
       0.38359752 0.12552132 0.03237456 0.35183918
0001d0 fc a3 ca bd 7d 4b 32 be fe 79 ed be 9f 10 cc be
       -0.09894559 -0.17411609 -0.46382135 -0.3985643
0001e0 d2 7c 04 3e f0 92 14 bd ea d1 0c 3e 1b 6e 36 be
       0.1293824 -0.036272943 0.13751951 -0.1781544
0001f0 d5 ea 70 be 4f 1e 47 bd 9f e3 3d be 7c cd ff bb
       -0.23527081 -0.04861289 -0.18543862 -0.007806478
000200 ef e8 82 3e c9 4e 92 3d 55 2c f8 be 4b f7 00 3d
       0.2556834 0.07143933 -0.48471323 0.031485837
000210 33 3d 7b 3e 12 73 19 bf 0b 20 a4 3e ba b1 37 be
       0.24535064 -0.5994121 0.32055697 -0.17938891
000220 21 4f f1 bd 90 6d 04 be a3 eb e0 be b3 9b 26 bd
       -0.11782671 -0.1293242 -0.43929777 -0.04067583
000230 e7 c5 8f 3c 70 01 80 3e b1 da 79 bd 62 c6 ff bd
       0.017550422 0.25001097 -0.060999576 -0.124890104
000240 96 a6 76 3e f5 e9 47 3d 3e 43 92 bd 49 c6 8b bd
       0.24086985 0.048807103 -0.07141732 -0.06824929
000250 6c b7 5d bd 99 c6 d7 bd 53 c6 aa bd 03 01 f2 3e
       -0.054130003 -0.10535926 -0.083386086 0.47266397
000260 69 6b 0d be f0 39 64 be af f7 6d bd df c3 59 bd
       -0.13810505 -0.22287726 -0.058097538 -0.053165313
000270 87 28 b5 bd f0 1c 4d be 40 d2 48 be 4f dd 2b be
       -0.088456206 -0.2003057 -0.19611454 -0.16783641
000280 8d 0d 9d 3d d7 85 9f 3e ba fb e1 bd 7d bd 85 be
       0.076686 0.311568 -0.11034341 -0.2612113
000290 ec f5 35 3c ff 3c 64 3c 12 8d 12 3e e1 0d 4c be
       0.011105996 0.013930558 0.14311627 -0.1992717
0002a0 79 3f 54 be e8 7d 26 be 64 f1 10 be 16 f3 c0 be
       -0.20727338 -0.16258967 -0.14154583 -0.3768546
0002b0 d1 fe b6 bc 5e f3 cf 3e ea 7b 4d be d9 e0 1d 3e
       -0.022338303 0.40615362 -0.200668 0.15417804
0002c0 8f 7a 8a 3e 21 1a a0 be 0b 67 d8 3d 90 2c fc be
       0.2704663 -0.31269935 0.10566529 -0.49252748
0002d0 4c 83 da 3e 6d 4b 48 3e fd 20 39 bd 6e 9c 83 be
       0.42678297 0.19560023 -0.045197476 -0.25705284
0002e0 c1 9a 41 3c 20 dc 03 bd bd 1e 5b bd 95 44 83 be
       0.011816681 -0.03219235 -0.05349611 -0.2563826
0002f0 20 76 08 3f b0 8f 09 3c 6e 55 01 be 67 b5 5b 3e
       0.53305244 0.008396074 -0.12630245 0.21455918
000300 73 34 6a 3d 1d 26 14 be dc 4b 88 bd 27 48 35 3e
       0.057178926 -0.14467664 -0.06655094 0.17703305
000310 55 99 22 be ca ef 9d be de 73 aa be 1a dc 88 bd
       -0.15878804 -0.30847007 -0.33291525 -0.06682606
000320 e2 48 12 bc 03 fd b2 3e f1 2a 08 bd 12 9a 27 be
       -0.008928509 0.34958658 -0.033244077 -0.16367367
000330 83 67 64 be c9 9d ad bd 9d 5f 12 bd dc 77 1a 3d
       -0.22305112 -0.08477361 -0.035735715 0.037711963
000340 c6 af 7e bd 1c 41 de ba 84 2a c2 3e c3 49 46 3e
       -0.06217935 -0.001695666 0.37923062 0.19364075
000350 d3 f0 d5 bd 16 d0 28 bb 0c 04 d4 bd 66 b1 8b be
       -0.10446324 -0.0025758795 -0.103523344 -0.27283782
000360 90 09 c8 bd 77 fd be bd b4 2f ef be a8 32 99 3d
       -0.09767449 -0.09325688 -0.46716082 0.07480365
000370 56 f4 bf be e2 d2 1c 3d 37 04 37 be fb c9 2c 3e
       -0.374911 0.03828705 -0.17872702 0.16873924
000380 c8 27 c9 be 33 b8 af 3e 0d 02 11 be 15 b1 a4 3d
       -0.39288163 0.3432022 -0.14160939 0.08041588
000390 ae 49 90 3b 1c 71 10 be 1e 2f 85 be ca ae a1 be
       0.0044033146 -0.14105648 -0.2601251 -0.31578666
0003a0 62 0a 42 3d 44 cd 8c be 9e b8 fc bc d5 89 dd 3e
       0.047373183 -0.27500355 -0.030849751 0.4326922
0003b0 3e ba a9 bd 7d b7 91 be bc 48 aa 3c 85 a4 54 3d
       -0.08287476 -0.28460303 0.020786636 0.05191471
0003c0 2e 3e db 3c c4 38 14 3e 2d 00 8a 3e c5 a1 a5 3c
       0.026763048 0.1447478 0.2695326 0.02021874
0003d0 07 04 ba 3d c8 62 05 3e 2c 6a 7d 3d 1c 48 87 3e
       0.090827994 0.13025963 0.06186883 0.26422203
0003e0 a7 7e d1 be 48 81 65 be 5b 4e 3b 3e 09 0e 27 3b
       -0.4091694 -0.22412598 0.18291609 0.0025490543
0003f0 e9 1f 5a 3e 52 ac a6 3e 35 1f 71 3d 66 0e e2 3c
       0.21301235 0.32553345 0.058867652 0.027594756

model.gnn.gnn_layers.0.gat_conv.res_fc.weight f4 [64, 30]
000000 ce 03 fd 3a 0f 4d 91 3e 96 f0 a8 3e b8 e9 d8 be
       0.0019303502 0.28379104 0.32996053 -0.42365813
000010 6e 3a 2e 3e f0 aa 9a 3c 07 cf 66 be a1 2d 35 3e
       0.17014477 0.018880337 -0.22539912 0.17693187
000020 0f 82 99 3d bb 61 9b 3e 28 4a 77 3c 15 48 f5 3c
       0.0749551 0.30348 0.015093364 0.029941598
000030 fb ef b5 3e e4 ca f4 bc 83 40 1a be db 3d ee 3d
       0.35534653 -0.029881902 -0.15063672 0.11632892
000040 f8 c7 cc bd 16 24 f0 bd 70 00 3e 3d e0 45 dd 3e
       -0.099990785 -0.11725633 0.046387136 0.43217373
000050 0c 62 ee bd 79 85 8b be 8c 9d 5b be c5 5d 47 be
       -0.11639795 -0.2725027 -0.21446818 -0.19469364
000060 40 12 f6 3e 35 79 05 3e 21 70 42 bd f5 49 c9 3c
       0.480608 0.13034518 -0.047470216 0.024571398
000070 b0 9d b9 be 93 57 78 3e ce 59 ed 3d f8 82 4c 3d
       -0.3625312 0.24252157 0.115893945 0.04992959
000080 2c e1 d6 3e 56 c5 02 be 12 98 1e 3e f4 4f a5 3e
       0.41968668 -0.1277059 0.15487698 0.32287562
000090 73 06 53 bd 3d 30 c1 bb b4 80 cc be 3e 09 09 3e
       -0.051519822 -0.005895643 -0.39941943 0.13382432
0000a0 e6 80 0d bc 77 9c b9 be d3 f0 0b be a4 2f 00 bd
       -0.008636689 -0.36252186 -0.13666086 -0.031295434
0000b0 72 a3 0f be ef 14 00 bf 92 a0 44 bd c6 55 93 3e
       -0.14027193 -0.5003194 -0.048004694 0.28776377
0000c0 3f c5 5e 3e 29 29 61 3e 87 b9 4f be ed 54 9e 3e
       0.21754931 0.21988358 -0.20285617 0.30924168
0000d0 d2 7e 30 3e 5b 19 f6 be 7a 0e 00 3e fa 0f ab 3d
       0.17235878 -0.4806622 0.12505522 0.08352657
0000e0 9c c8 93 3d db 88 d4 3d 03 37 e6 bd 0a 2a 2b bc
       0.072159976 0.103776656 -0.112409614 -0.010447035
0000f0 54 50 06 3e 9e c2 5e be 28 2e 5c be 60 f6 a1 be
       0.1311658 -0.21753928 -0.21501982 -0.31633282
000100 77 51 9b 3d e5 a8 4c 3e 03 11 0d 3e 7e 63 9f be
       0.075838976 0.19986303 0.1377602 -0.31130594
000110 1f e1 77 be ee 3c 02 be 7c d9 31 be 6a a2 bc bd
       -0.2420697 -0.12718555 -0.1736812 -0.092106655
000120 d8 8c ab be e7 5d b7 bd b8 90 c5 3e 69 e5 5c be
       -0.33505893 -0.08953457 0.38586974 -0.21571888
000130 c0 60 7d 3e 84 b7 9f bd 18 fc 85 be 68 29 58 be
       0.24743938 -0.07798675 -0.26168895 -0.21109545
000140 86 12 9c be 6b e3 e6 bd a9 3d b2 bd ad ff 9e 3c
       -0.30482882 -0.11273845 -0.08703167 0.019409025
000150 ca 19 96 3d d6 66 36 bd 04 4c 4e 3e 28 62 ba bd
       0.073291376 -0.044531666 0.20146185 -0.09100753
000160 25 e0 4a be 2e e4 3f 3c 58 82 11 bd 74 52 36 3b
       -0.19812067 0.011712117 -0.035524696 0.0027820142
000170 db bc d8 3d 26 41 cb 3e 42 ae 81 be 38 10 8a 39
       0.10582896 0.39698142 -0.2532826 0.00026333495
000180 2f 21 a6 bd 35 cb 01 be bb 90 98 be d1 c5 53 3b
       -0.08111798 -0.12675174 -0.2979792 0.0032313953
000190 da 80 1e 3e f7 8c f8 bc 26 2b 1b 3e ac 30 26 3e
       0.1547884 -0.030340655 0.15153179 0.16229504
0001a0 7a 8a 7c be 36 99 35 bd ba 31 33 ba c9 16 05 be
       -0.246622 -0.044335566 -0.0006835718 -0.12996973
0001b0 62 1b 01 bf c7 e1 e2 be fb 76 31 3d 3d 3e dd 3d
       -0.5043241 -0.4431288 0.04332636 0.10802887
0001c0 f0 01 f9 3a fb dc d5 3e d7 d6 a5 be da 83 68 bb
       0.001899777 0.41770157 -0.32390472 -0.003547898
0001d0 d8 f0 ac 3e eb 6e dd bd 6c c8 76 bd ca cf c0 3e
       0.337775 -0.108121715 -0.06024973 0.3765853
0001e0 5f 30 18 be c1 b2 61 bd 04 b5 59 be d1 2c e2 3d
       -0.14862202 -0.055102114 -0.21260458 0.11043704
0001f0 0f 54 95 be f0 7b 3c 3e db bc a4 3e a0 65 e8 3a
       -0.29165694 0.18406653 0.32175335 0.0017730482
000200 a8 d1 95 bd 9c 6c 10 3e 2f eb 00 3d 2c 40 89 be
       -0.073153794 0.14103931 0.03147429 -0.26806772
000210 8f 5a b1 3e 16 74 df 3d c9 9e 19 bd 23 1b b8 3e
       0.34639403 0.109108135 -0.037504945 0.35958204
000220 82 19 b6 be 9a 74 0c be fe 62 c3 be 99 f1 f9 3d
       -0.35566336 -0.13716355 -0.38161463 0.12204284
000230 d4 8c 97 3d b3 f1 27 3e 60 86 c2 be d2 dd 19 3e
       0.07399908 0.16400795 -0.37993145 0.15026024
000240 f9 b2 51 bd 8a 17 9a 3e bf 59 3d be 3a 53 76 3d
       -0.051196072 0.30096084 -0.18491267 0.060137965
000250 63 a0 c5 bd b4 52 ec ba e9 e0 94 bc f8 c1 b3 3d
       -0.09649732 -0.0018030019 -0.018173652 0.08777231
000260 fd 9d a4 bd 63 82 2d be 6b 6b 12 bd 11 6a c9 be
       -0.080379464 -0.1694427 -0.035746973 -0.39338735
000270 c6 68 52 3d f8 78 2a bd 36 ef 15 3b 72 d2 8e be
       0.05136945 -0.04161927 0.0022878177 -0.27894932
000280 03 58 e7 be 0b 5e 98 be 06 fa d2 bd 2d b2 b2 3e
       -0.45184335 -0.2975925 -0.103015944 0.34901562
000290 dc ee f4 3c 30 e0 a1 be 89 ee 92 3e da 3d 9b 3d
       0.029899053 -0.31616354 0.28697613 0.075801566
0002a0 11 ca b1 3d 18 d0 93 be b5 62 dc 3e ed 2a aa 3d
       0.08681119 -0.288697 0.43044057 0.08308969
0002b0 8a 6f 17 be ba dd 62 3e 2d d1 47 bd a8 42 f6 3b
       -0.14788643 0.22154894 -0.04878347 0.0075152703
0002c0 96 00 c2 3a b4 4b 72 3e 99 60 40 be 4a 88 dc 3e
       0.00148012 0.23661691 -0.18786849 0.4307273
0002d0 2d 9f 83 be e4 c5 2a be 18 60 1c 3e ce 20 9d 3e
       -0.2570738 -0.16677052 0.15271032 0.3068909
0002e0 41 5a df be cd cd ec 3d 24 8c ab be 06 7f cd bd
       -0.43623546 0.11562691 -0.33505356 -0.100339934
0002f0 d1 18 79 3e e0 85 2f be c7 ca 29 3e bc a0 0f 3e
       0.24325873 -0.17140913 0.1658126 0.14026159
000300 3d 7f 0e 3d dd c5 61 3e 84 9d 55 3e 59 e0 8b 3e
       0.034789313 0.22048135 0.20860869 0.273196
000310 cd f1 03 be 5c ed 1b 3d c3 f3 68 bd 33 10 43 be
       -0.12885208 0.03806816 -0.056873094 -0.19049148
000320 f7 e0 c9 bd f5 6d 8c be 92 8b f2 3b e6 e8 a9 3e
       -0.09857362 -0.2742764 0.007401892 0.331855
000330 56 4c b8 3e 10 32 fa 3c d3 99 13 3f f2 23 03 be
       0.3599574 0.03054145 0.5765659 -0.12806681
000340 ab ee 8e 3e 6f 6c 1d 3d 45 cd 96 3d ab 9f 22 3d
       0.27916464 0.03843349 0.07363371 0.039703052
000350 66 99 af be 52 db b5 be 2b ff 83 bc e4 63 4b 3e
       -0.3429672 -0.3551889 -0.016112885 0.19862324
000360 9f 05 57 be 4b ed a9 bd 26 da 3f 3d 1f 6a 97 bb
       -0.20998238 -0.08297213 0.046838902 -0.004620805
000370 f5 fe c1 3c 2a 7a 1f 3e f1 94 20 be d5 5c 9c bc
       0.023681143 0.15573946 -0.15681817 -0.019087235
000380 e9 65 ca bd fa 24 59 3e 16 ac eb bd ba 63 32 3e
       -0.09882719 0.21205512 -0.11507432 0.17420855
000390 f6 2f a4 3d eb 4d 05 3e 1d 53 72 be 8c f7 a0 bd
       0.0801696 0.13018005 -0.23664518 -0.07859716
0003a0 ba 7b 34 be 1f 14 41 be 4f 26 3d be 23 40 f1 3d
       -0.17625323 -0.18855332 -0.18471645 0.11779811
0003b0 7c 82 21 3e c1 12 e0 bd c9 a9 73 3e c1 57 35 be
       0.15772432 -0.10941077 0.23795237 -0.17709257
0003c0 0b 2d c4 3e e9 f3 42 bc e1 8e b7 3c 9f ee a0 bd
       0.38315615 -0.011898973 0.022406997 -0.07858013
0003d0 6a 66 cf bc d0 f2 a6 3c 47 c7 75 bd d8 64 bf bc
       -0.02531739 0.020379454 -0.0600045 -0.023363516
0003e0 2f 3e 52 be 38 3c d5 bd 41 af 92 bd 98 fe c6 3d
       -0.20531534 -0.104118764 -0.07162333 0.09716529
0003f0 7b b0 47 3e 04 8d 21 be b3 c7 87 be 52 3e 74 3e
       0.19500916 -0.1577645 -0.26519546 0.23851898

model.gnn.gnn_layers.0.gat_conv.res_fc.bias f4 [64]
000000 94 48 e1 3c 28 1e 34 3c ac 8d ae 3c 7f 74 ad bc
       0.027500428 0.010993518 0.021307789 -0.021173714
000010 77 38 c1 3a 21 96 29 bd 88 fc ce bc bf 47 f8 3b
       0.0014741559 -0.04140294 -0.0252669 0.007576912
000020 7e bf 0b 3c b6 88 d7 bc 30 2b 6b 3c fb fa 30 3c
       0.008529542 -0.026310306 0.014353558 0.010802026
000030 a1 80 39 bc 13 96 b7 bc ba c8 30 bd 7b 14 f3 3c
       -0.011322171 -0.022410428 -0.043160178 0.029672852
000040 fa ba c5 3b 95 46 88 bc 01 e1 1d bc aa f5 94 3d
       0.0060342522 -0.016635219 -0.009636165 0.07273419
000050 34 a3 b3 bb 3a 1b d5 3a da 2d 4f 3c 6f 4c 04 bd
       -0.005482102 0.0016258724 0.012645209 -0.032299455
000060 e7 e9 51 3d e4 32 db 3b ec ac 88 3c 50 ff ee bc
       0.051248457 0.0066894162 0.016684018 -0.029174477
000070 77 0f 18 3d f6 82 58 3c 3d fe 92 bc be 17 ec 3b
       0.037124123 0.013214817 -0.017943496 0.0072049787
000080 96 c6 03 3d d0 a6 07 bd 94 d5 7c bc 1e b1 1b 3d
       0.03217181 -0.03311807 -0.01543178 0.03801071
000090 a3 8d 8b 3c 90 d7 a0 bb fb ab 58 bc 5a 94 54 3c
       0.017035311 -0.0049085096 -0.013224597 0.012974823
0000a0 ad 5e f0 3c b1 82 bf bc 0a af f6 3c 60 f4 22 3c
       0.02934202 -0.023377748 0.030112762 0.009945959
0000b0 da 50 e6 3c 6a 9f ad 3c 1e b2 9a 3c 72 f8 61 bb
       0.028114725 0.021194179 0.018883761 -0.003448036
0000c0 42 bb 49 3c d5 de 1d bd 4e 84 90 bc 42 aa 00 bd
       0.012312712 -0.038542587 -0.017641213 -0.03141237
0000d0 42 74 f9 bc 33 75 51 3c ac c9 c1 3c a7 a5 22 bd
       -0.030450944 0.01278429 0.023655735 -0.03970876
0000e0 26 b8 72 3d 8e 3d db 3c 92 81 c6 3c 4c e6 06 bc
       0.05925765 0.02676275 0.024231706 -0.008233618
0000f0 3d 28 55 3c 0d b6 a2 3c e0 66 29 bc 1e bd 0b 3d
       0.013010082 0.0198622 -0.010339469 0.034115903

model.gnn.gnn_layers.1.gat_conv.attn_l f4 [1, 8, 8]
000000 88 2b 06 3d 9c 7b 15 bf 75 60 be 3e d1 a5 e4 3e
       0.03275636 -0.5839174 0.37182966 0.44657758
000010 9b 36 f7 3d 6b b4 3d 3e 43 d5 07 3f b5 21 00 3e
       0.12070962 0.18525855 0.53059787 0.12512858
000020 da 57 97 3e bd 93 56 3e 30 8f b8 be bf cf 71 3e
       0.29559213 0.20954795 -0.36046743 0.23614405
000030 35 cf 0e 3f d0 1c 44 be 98 79 e3 3e 81 0d 0d 3e
       0.5578492 -0.19151616 0.44428706 0.13774683
000040 71 2e 25 bc c2 1d ff 3d 80 5f 56 be 55 03 85 be
       -0.010081873 0.12456848 -0.20934868 -0.25979105
000050 7f 21 c1 bc 85 cf b3 bb 06 62 97 be a0 4f 24 bf
       -0.023575542 -0.0054873847 -0.29566973 -0.64184
000060 d0 7a bf 3d 8f 37 f3 3e 6d c1 bc be e9 a4 a2 be
       0.093495965 0.47503325 -0.36866322 -0.3176644
000070 31 57 39 bd e0 d9 62 be d0 bd 80 be 9b f0 ae 3e
       -0.045249168 -0.22153425 -0.25144815 0.34167942
000080 10 76 92 3e b7 0a 2c 3d 68 78 89 3e 91 41 28 be
       0.286057 0.042002406 0.26849675 -0.16431262
000090 3f b7 94 3e ce 6e 4d 3d 06 41 57 3e 7d d5 4b 3e
       0.29046056 0.0501545 0.21020898 0.19905658
0000a0 30 15 cd 3d 3b 43 44 be 4e 65 ac 3c 3f 01 ea 3c
       0.10013807 -0.19166271 0.0210444 0.028565047
0000b0 1d 94 54 be a9 69 5d 3e 60 91 d4 3d c9 51 da 3d
       -0.20759626 0.21622337 0.103792906 0.106601305
0000c0 8f 6f 89 3e 7d 5d a7 3e e7 43 06 3e 8a 86 80 3e
       0.26842925 0.32688513 0.1311184 0.25102645
0000d0 3e bd 1c 3e 21 fd 1e be 5e 0e 4c be d2 5d 31 bf
       0.15306565 -0.15526249 -0.19927356 -0.69283783
0000e0 a3 2f 42 be 29 41 34 be dc 0a e4 bc 48 4d 91 be
       -0.18963484 -0.17602982 -0.02783721 -0.28379273
0000f0 f4 dd 16 be 24 07 b5 be 58 a5 a4 bd d1 f7 e2 3e
       -0.14733106 -0.3535701 -0.08039349 0.44329694

model.gnn.gnn_layers.1.gat_conv.attn_r f4 [1, 8, 8]
000000 50 b4 40 bd dc a3 1b bf 3d cf 87 bc b1 6a 97 3e
       -0.04704696 -0.60796905 -0.016578311 0.29573587
000010 9d 28 4f be 51 bb d3 bd 38 7b a8 3d c5 93 08 3d
       -0.20230336 -0.10338462 0.08226627 0.03334405
000020 be 74 91 be f4 36 b9 be 27 15 02 3e 67 c9 64 3e
       -0.2840938 -0.36174738 0.12703381 0.22342454
000030 18 b5 6b be 45 9b 0c bf 39 5f 89 be 62 b5 38 3e
       -0.230183 -0.5492442 -0.26830462 0.18037942
000040 27 7c 7e 3e ca b1 8e be fa 2b 1c 3d ac 0c 33 be
       0.24852048 -0.27870017 0.038127877 -0.17485303
000050 6a 6a 7b bd bc 98 6a bd 91 56 0a 3f 7c f8 2c 3e
       -0.06138078 -0.057274565 0.5403834 0.16891664
000060 9e 86 2f be 30 6c 1f be 8b 22 61 be ee c7 ce bd
       -0.17141196 -0.15568614 -0.21985833 -0.10096727
000070 5e c9 64 3e 7c 2d be bd 09 22 9a 3e 21 be 7d bd
       0.2234244 -0.09286019 0.30104092 -0.0619489
000080 26 18 4f bd 9d 00 16 be 3a 1c 30 bf cc 59 26 3e
       -0.05056014 -0.14648671 -0.6879307 0.16245192
000090 87 da c9 3e ea ea 7f 3e b2 a2 d5 be 63 9e 38 be
       0.39424536 0.24991956 -0.4172569 -0.1802917
0000a0 68 f5 1e be fa d9 21 be 67 3f 09 3f 72 26 82 3e
       -0.15523303 -0.15805808 0.5361237 0.25419956
0000b0 58 9b 3c bd bf c7 22 be b2 13 1c 3e b7 95 3d 3e
       -0.046046585 -0.1589651 0.15241888 0.18514143
0000c0 4d 7f bb bb f7 e2 64 3e 50 60 1f be f1 04 f5 be
       -0.0057219625 0.22352205 -0.15564084 -0.47855332
0000d0 56 b1 93 3e a0 8a 49 bd 07 7d 8c 3b b2 7c ab bc
       0.28846234 -0.04920447 0.0042873654 -0.020933483
0000e0 ca 54 c2 be 1c 8b c2 3e 06 b6 7d 3e 59 7d 42 3e
       -0.37955314 0.37996757 0.24776468 0.18993129
0000f0 62 77 64 3d cf 21 4f 3d ca d5 8d bc 13 32 b9 3e
       0.055777915 0.05056935 -0.017313857 0.36171016

model.gnn.gnn_layers.1.gat_conv.bias f4 [64]
000000 06 9d 1e 3d d4 68 0e bd 10 c9 83 3a 58 9a 2d bc
       0.038723968 -0.03476794 0.0010054428 -0.01059588
000010 c8 7a b7 3c 5f 50 e9 bc b4 3e 42 bc 46 60 03 3b
       0.022397414 -0.028480707 -0.01185577 0.0020046397
000020 06 9d 1e 3d d4 68 0e bd 10 c9 83 3a 58 9a 2d bc
       0.038723968 -0.03476794 0.0010054428 -0.01059588
000030 c8 7a b7 3c 5f 50 e9 bc b4 3e 42 bc 46 60 03 3b
       0.022397414 -0.028480707 -0.01185577 0.0020046397
000040 06 9d 1e 3d d4 68 0e bd 10 c9 83 3a 58 9a 2d bc
       0.038723968 -0.03476794 0.0010054428 -0.01059588
000050 c8 7a b7 3c 5f 50 e9 bc b4 3e 42 bc 46 60 03 3b
       0.022397414 -0.028480707 -0.01185577 0.0020046397
000060 06 9d 1e 3d d4 68 0e bd 10 c9 83 3a 58 9a 2d bc
       0.038723968 -0.03476794 0.0010054428 -0.01059588
000070 c8 7a b7 3c 5f 50 e9 bc b4 3e 42 bc 46 60 03 3b
       0.022397414 -0.028480707 -0.01185577 0.0020046397
000080 06 9d 1e 3d d4 68 0e bd 10 c9 83 3a 58 9a 2d bc
       0.038723968 -0.03476794 0.0010054428 -0.01059588
000090 c8 7a b7 3c 5f 50 e9 bc b4 3e 42 bc 46 60 03 3b
       0.022397414 -0.028480707 -0.01185577 0.0020046397
0000a0 06 9d 1e 3d d4 68 0e bd 10 c9 83 3a 58 9a 2d bc
       0.038723968 -0.03476794 0.0010054428 -0.01059588
0000b0 c8 7a b7 3c 5f 50 e9 bc b4 3e 42 bc 46 60 03 3b
       0.022397414 -0.028480707 -0.01185577 0.0020046397
0000c0 06 9d 1e 3d d4 68 0e bd 10 c9 83 3a 58 9a 2d bc
       0.038723968 -0.03476794 0.0010054428 -0.01059588
0000d0 c8 7a b7 3c 5f 50 e9 bc b4 3e 42 bc 46 60 03 3b
       0.022397414 -0.028480707 -0.01185577 0.0020046397
0000e0 06 9d 1e 3d d4 68 0e bd 10 c9 83 3a 58 9a 2d bc
       0.038723968 -0.03476794 0.0010054428 -0.01059588
0000f0 c8 7a b7 3c 5f 50 e9 bc b4 3e 42 bc 46 60 03 3b
       0.022397414 -0.028480707 -0.01185577 0.0020046397

model.gnn.gnn_layers.1.gat_conv.fc.weight f4 [64, 64]
000000 41 24 78 bd 8a 68 b5 bd 6d b5 33 bd b1 12 ab be
       -0.06058145 -0.0885783 -0.043874193 -0.33412698
000010 d2 ce 89 bd 42 9e e3 bd 2f c7 b3 be 4b 7a 4c bc
       -0.06728901 -0.1111417 -0.35112903 -0.012480329
000020 d6 65 80 bc 4b 06 16 3e 4b 2a 6d 3e e7 c6 b1 be
       -0.01567356 0.14650838 0.23160665 -0.34722063
000030 a1 fd 12 bd 0f df 1a be 27 2c cb bd cf 50 1e 3f
       -0.03588641 -0.15124153 -0.09920531 0.61842054
000040 42 31 03 3c 30 6d bd be ff 89 9c 3d 3b b1 ef 3b
       0.008007349 -0.36997366 0.07643508 0.0073148287
000050 02 2f a4 3e aa eb 9c bd 46 ab c6 bd 5a 4b d8 3c
       0.32067114 -0.07662137 -0.097006366 0.026403118
000060 2a 1d 5f 3d fd 26 c4 be ee e5 5e 3e 6f cb d0 bd
       0.054471172 -0.38310996 0.21767399 -0.10195052
000070 82 57 98 be 31 fd 58 3e a9 ef 20 3e 30 fe db 3b
       -0.29754263 0.21190335 0.15716423 0.006713651
000080 87 5e 09 be 85 63 86 be b7 ca 8e be 79 32 a8 3e
       -0.13414966 -0.26247802 -0.27889034 0.32851008
000090 0d e7 63 be 46 69 12 be 68 d8 ab 3d 13 bb aa 3c
       -0.22256108 -0.14297971 0.083908856 0.020841157
0000a0 db 52 b1 3e e4 8c 97 bb ae 0d c1 3d e7 9c 73 be
       0.34633526 -0.00462495 0.09426437 -0.23790322
0000b0 12 44 28 3e 6f 36 28 3e 28 dc 5b 3e 46 55 23 3e
       0.16432217 0.16427015 0.21470702 0.15950498
0000c0 1c 4b 90 3e 91 61 1d be 48 ae de be a1 ac 4c 3d
       0.28182304 -0.1536925 -0.4349234 0.04996932
0000d0 fc cb 90 be 6c 8b a2 3c 11 73 72 3e fd 73 f1 bd
       -0.28280628 0.019841872 0.23676707 -0.11789701
0000e0 32 5f 1d 3e e3 46 b3 bd a4 de 29 3e 54 fc 82 bd
       0.15368345 -0.08753755 0.16588837 -0.06395784
0000f0 45 e1 98 bd 88 7b b0 3e e5 c9 43 3c 63 b0 1d 3d
       -0.07464842 0.34469247 0.011949991 0.038498294
000100 44 0c 9e bc 3f f9 98 3d 22 01 55 3d df 5c 36 3e
       -0.019292958 0.07469415 0.052003033 0.17808865
000110 e5 d8 b3 bd 99 5d 39 be d7 f9 2a be ad 59 a0 3d
       -0.08781604 -0.18102111 -0.16696869 0.07829604
000120 0b ee 13 3e 09 a3 73 3d 1f 3a 82 3e 86 11 3b be
       0.14446275 0.059481654 0.25434968 -0.18268403
000130 61 45 d9 3c 70 6c 41 be ee 93 65 3e 21 e9 79 bd
       0.02652234 -0.18889022 0.22419712 -0.061013345
000140 ea b1 03 bc cd 74 87 3d 49 c9 3f 3d 62 38 fb 3c
       -0.0080380235 0.06614075 0.04682282 0.030666534
000150 2b cb 81 be bc 76 37 3d a3 e9 de 3d db e2 4f 3c
       -0.25350317 0.04479097 0.108844064 0.012688364
000160 d0 5f 17 bb 79 f9 26 3e e4 f9 c4 be eb 0a f0 3d
       -0.002309788 0.16306104 -0.384719 0.117208324
000170 ac 6a bb bc f1 6f 29 be cd c8 02 bd ca 8e 11 3f
       -0.022878014 -0.16546609 -0.03192978 0.56858504
000180 7e 9a f7 bd 81 9e 7c 3e d9 38 fa 3e d6 03 48 be
       -0.12090014 0.2466984 0.48871496 -0.19532713
000190 16 fc 1b be 0e 06 d9 bb a3 7f 46 be b8 63 13 be
       -0.15232882 -0.006623036 -0.19384627 -0.14393508
0001a0 38 1b cb be 33 b9 75 3e cb 57 ee 3d 9c 3d e5 bc
       -0.39669204 0.23996429 0.11637839 -0.02798348
0001b0 43 f8 99 be c3 c5 2e 3e 0e 79 f1 3d 7a 56 63 3e
       -0.3007222 0.17067628 0.117906675 0.22200957
0001c0 7c 43 35 3e b0 2d 22 3e b6 f5 47 3e 83 52 98 be
       0.17701524 0.15837741 0.19527325 -0.2975045
0001d0 6f f9 06 3e db 9c 72 3e 72 27 ce bc 35 6b ad 3e
       0.13181089 0.23692648 -0.025165293 0.33870855
0001e0 34 8c 59 bd 6b bf db bc 34 29 b9 be 50 d0 21 be
       -0.053112224 -0.026824674 -0.36164248 -0.15802121
0001f0 94 8b 16 be 7f 16 b8 3d 10 be ec 3e 65 88 34 3d
       -0.14701682 0.08988666 0.46238756 0.04407539
000200 52 ca 88 3e 0d fc 0b 3e 38 f4 22 3e c9 0c 18 3e
       0.26716858 0.13670368 0.15913475 0.14848627
000210 b1 e7 b8 3d fb 37 e7 3d 4e 3f d1 3d ec da b3 bc
       0.09028567 0.11289974 0.102171525 -0.021954976
000220 a9 8e c6 3d 23 57 e0 bc ed 43 ce 3d 1e 95 02 3e
       0.09695179 -0.0273853 0.100715496 0.12752196
000230 d3 f0 af be 6e 14 53 bb cb 78 29 bd 9f 00 58 be
       -0.34363422 -0.0032208222 -0.041374963 -0.21093987
000240 67 b9 8b be 1a de f4 bc 85 66 a9 bc 98 ae ee bb
       -0.27289888 -0.029891063 -0.020678768 -0.007283997
000250 e7 c6 4d bd c7 18 ad 3d cb 75 12 3e 94 d4 83 bd
       -0.050238516 0.084519915 0.14302747 -0.064370304
000260 6e cd 59 3e 81 06 e8 3c e3 7b 8d bd 0a 63 4f bd
       0.21269771 0.028323414 -0.06908395 -0.05063156
000270 94 fe d3 3c 54 49 8c 3e c1 ac 37 be d6 90 90 be
       0.025878228 0.27399695 -0.17936994 -0.282355
000280 cb 6d e5 3d 4c 2e 4d bd 56 1f d8 bd c5 2f 2e 3d
       0.11202582 -0.05009298 -0.10552852 0.042526025
000290 76 40 bc bd a4 46 75 3d a8 8b 65 3e 45 4d 34 3e
       -0.091919824 0.05988182 0.22416556 0.17607601
0002a0 bb 3c 9d 3e 34 08 d4 3d eb 20 aa bd c7 74 2a be
       0.30710396 0.10353127 -0.0830706 -0.1664611
0002b0 bf 50 56 3d 9f 02 14 bd ff b9 d2 bc 1f 2f 56 3d
       0.0523231 -0.036135312 -0.025723455 0.052291032
0002c0 6e 84 9e 3e e2 56 8b 3d 1a 59 3a be b7 24 8e 3e
       0.3096041 0.06803681 -0.18198052 0.27762386
0002d0 cf b8 04 be c0 96 29 be fb 4e 33 3e f6 6b df bd
       -0.12961124 -0.16561413 0.17510597 -0.10909264
0002e0 ee a0 68 3e 08 78 fb bd 34 eb 22 3e 26 62 28 be
       0.2271764 -0.122787535 0.15910035 -0.1644369
0002f0 9d 2f 2b bd a7 84 00 bc 44 fa c9 bd 3e 61 15 be
       -0.041793454 -0.007844127 -0.098621875 -0.14587876
000300 79 8e 88 be c6 53 00 bd bb 46 95 bd 51 63 4c be
       -0.26671198 -0.031329893 -0.072888814 -0.19959761
000310 6c 03 fe 3d 86 1d 27 3e b0 8b e7 bd 7c f6 e9 bc
       0.124029964 0.16319856 -0.1130594 -0.028559916
000320 88 36 4d 3e 1f 5a 22 bd c2 07 00 bf af e5 99 bd
       0.20040333 -0.039636727 -0.5001184 -0.07514512
000330 53 72 3b 3e 1e aa 32 be 3e 07 12 3e af d0 01 be
       0.1830533 -0.17447707 0.14260575 -0.12677263
000340 29 b7 f3 3b 51 f5 52 bd b5 2e 5a 3d 32 5f 8a be
       0.007437606 -0.051503483 0.0532672 -0.27025753
000350 3a ab 2e bd ec cb 9c be 5c d1 b6 3e 8e 63 80 be
       -0.042643763 -0.3062433 0.35706604 -0.25075954
000360 eb 38 01 be 9e 11 bb 3d d7 fe 17 3e f3 4c e0 bd
       -0.12619369 0.091342196 0.14843307 -0.10952177
000370 ef a1 75 3c fa 8c 83 3d f6 ab d5 bd 66 2f 13 be
       0.014992221 0.064233735 -0.104331896 -0.1437355
000380 a1 1c b9 bd 98 72 dd 3d 82 1c 2d 3d f2 e5 08 3e
       -0.09038664 0.10812873 0.042263515 0.13368967
000390 c8 22 eb bd 6a 35 bd be 5a 2c d6 3d 45 9d c9 3c
       -0.11481243 -0.36954814 0.10457678 0.024611125
0003a0 4d c6 f8 ba cb ca c2 3d 29 ff 2a be 0f c2 c6 bd
       -0.0018979997 0.09511336 -0.16698898 -0.097049825
0003b0 06 7e c2 be 24 c7 ff 3d 18 3f 73 3d bb 3c 86 3d
       -0.37986773 0.12489155 0.059386343 0.06554552
0003c0 b9 e8 42 3d 3d 54 0f 3e c1 2c 44 bd 56 c0 02 3e
       0.047585223 0.13996978 -0.047894243 0.12768683
0003d0 7a 49 26 3e 9c 51 06 3d 90 22 f4 be 92 1d a4 be
       0.16238967 0.032792673 -0.4768262 -0.3205381
0003e0 11 f7 23 be 08 6e 66 3d 13 54 87 bd 9e 3b a0 3d
       -0.16012217 0.056257278 -0.06607833 0.07823871
0003f0 f7 49 ed 3d 09 cc d3 bd 8a c3 93 be 9d f8 8f 3d
       0.11586373 -0.10341651 -0.28860122 0.07029841

model.readout.weight_and_sum.atom_weighting.0.weight f4 [1, 8]
000000 76 ca e2 3c 21 a9 a2 3e 64 7a 4e be 0b e4 77 3e
       0.027684432 0.3176966 -0.20163876 0.24208085
000010 39 ee 09 3d de fe 7b 3e c1 0c 46 3e d3 d2 2d 3e
       0.033674452 0.24608943 0.19340803 0.16974954

model.predict.predict.1.weight f4 [128, 16]
000000 5a 95 2d be fc 44 a4 3d 32 0e 19 be 4b 63 79 3e
       -0.16951504 0.0802097 -0.14946821 0.24354284
000010 dc 2a c1 ba 31 0f 93 be 02 67 16 3d 48 0e 0b 3e
       -0.0014737505 -0.28722528 0.03671933 0.13579667
000020 10 54 f8 3d fe cb ba be ee ce 84 3e 37 dd 09 bd
       0.12125409 -0.3648376 0.25939125 -0.033658233
000030 f3 e1 19 be 2e 23 1d 3e 90 1d ac 3e 8d a3 08 3e
       -0.15027599 0.15345451 0.33616304 0.1334364
000040 b3 86 1b 3d 73 87 8c 3e f6 2a 91 bd 22 f4 16 bd
       0.037970256 0.2744709 -0.07088272 -0.036853917
000050 5a 10 0a 3e cd 0e 78 3e 4e d1 5e 3d 8b 8b ef bd
       0.134828 0.24224396 0.054398827 -0.116965376
000060 78 d2 fc bd 5a 82 a2 bc 25 bb 5e 3b 59 4d 27 3e
       -0.12344831 -0.019837547 0.0033986059 0.163381
000070 0b 8a 3b be fe d0 47 be b7 ac 0c be b2 69 5a 3e
       -0.18314378 -0.19513318 -0.1373776 0.21329382
000080 18 85 e8 bd 03 61 7a 3d 37 3c f9 bd d6 8e 27 3c
       -0.113535106 0.061127674 -0.12169688 0.010226926
000090 f2 82 ac bd af af 3d 3c 4e a4 28 3e 10 59 63 bc
       -0.08423413 0.011577531 0.16468927 -0.013876215
0000a0 89 34 07 3e e5 2c 1d bc f8 83 f8 bd 36 f6 33 bd
       0.13203634 -0.009593223 -0.12134546 -0.043935977
0000b0 17 4a 0c 3a 4c 9e 07 be 4a f4 6e 3d 2a 54 45 bd
       0.00053516164 -0.13243979 0.05833844 -0.04817597
0000c0 38 6f e4 bd e4 a8 52 3e 23 0c 2a 3e 83 5a fa 3d
       -0.11154026 0.20572239 0.16606192 0.12224295
0000d0 0d 30 8e bd ea ce ad bc 7b 38 0e 3e 0d 74 3a 3e
       -0.06942759 -0.021216828 0.13888733 0.18208332
0000e0 f4 0e 88 be 94 ca 38 3b 36 e3 53 be 06 00 6d bd
       -0.26573908 0.0028196918 -0.20692143 -0.05786135
0000f0 a2 af 37 be 41 ac 3d 3d 19 cf 73 3e b3 02 b0 3d
       -0.17938092 0.046306852 0.2380947 0.08594265
000100 ac 4e 4e bd 69 02 ba bd be 4c 97 3d 06 e4 9e 3d
       -0.050367996 -0.09082491 0.07387684 0.07758336
000110 78 5a 55 3e 7c af 23 bd 4f 98 f7 bd 6f a1 08 3e
       0.20835292 -0.039962277 -0.120895974 0.13342832
000120 26 da 2e 3e fe 84 05 3d 22 8c 86 be 35 da 1d 3f
       0.17075405 0.032597534 -0.26278788 0.6166108
000130 8c 91 a2 3e a9 a4 bc 3d ea bd 9a be 07 7b 77 3e
       0.31751668 0.09211094 -0.30223018 0.24168025
000140 23 e5 31 3e 12 91 e6 bc cb cf f3 3d 9c 93 be bd
       0.17372565 -0.028145347 0.11904868 -0.09305498
000150 44 59 85 bd 1e 27 da bd 40 da 81 3c 3a 4c 55 be
       -0.06511167 -0.10651992 0.01585114 -0.2082986
000160 5c 77 3f be a2 62 86 be f2 2c 08 3e 01 c5 9e be
       -0.18697876 -0.26247126 0.13298395 -0.31009677
000170 e6 16 35 be 72 38 bb 3c b5 bc 76 bd 30 a8 f0 bd
       -0.17684516 0.022854064 -0.06023856 -0.11750829
000180 47 dc 6b 3e 20 e6 76 be d1 11 d2 3d 97 29 4d 3d
       0.23033248 -0.24111223 0.102573045 0.05008849
000190 9a be 64 3c aa 6f b6 3d 69 2d 4a bd 3e 2d b5 bd
       0.013961459 0.08908017 -0.049359713 -0.0884652
0001a0 53 99 52 3d b9 d2 d5 3d 8c 39 d8 3d 62 02 f8 3d
       0.051415753 0.10440583 0.10557851 0.121098295
0001b0 08 12 03 3c a9 19 85 bd 97 70 31 3e ff 4b 52 bd
       0.007999904 -0.06499035 0.17328106 -0.051342007
0001c0 db c3 ab bd dc de 9b bd 25 af 09 3e 83 35 b8 3d
       -0.08386966 -0.076108664 0.13445719 0.089945816
0001d0 7a e1 f6 bc 95 f2 61 3e c3 b4 22 3e 38 e8 bf 3d
       -0.030136812 0.22065194 0.15889268 0.09370464
0001e0 92 2b 72 be e2 c9 75 bd bf 4b 7f be ad 0c 89 bc
       -0.23649433 -0.060006984 -0.24931239 -0.016729677
0001f0 23 a1 67 3e f1 5a 94 3e 2c 88 96 bd 26 75 89 be
       0.22620063 0.28975633 -0.073501915 -0.2684719
000200 3f 65 b3 bc e8 fb 1a be ec 7e bc bd 52 c8 5f be
       -0.021898864 -0.15135157 -0.09203896 -0.2185376
000210 ee cd b5 3d 94 c8 69 3c 7a 10 18 bd 8d 3f 79 bd
       0.088771686 0.014269013 -0.03712509 -0.060851622
000220 96 b5 c4 3e 65 11 8f 3e 33 74 a4 be bd 40 00 3f
       0.3841979 0.27942958 -0.32119903 0.5009878
000230 c7 96 e1 3e f5 29 13 be 74 4a d3 be 20 76 dd bb
       0.44060346 -0.14371474 -0.4126774 -0.0067584664
000240 f1 a9 3c 3e b8 a3 51 3e 10 c4 f7 3d 75 e2 47 3e
       0.18424203 0.2047261 0.12097943 0.1951998
000250 15 8e 6d 3e 97 d5 34 3e b8 b3 e0 3d 4b 83 8b 3e
       0.23198731 0.17659603 0.10971779 0.27248606
000260 26 ce 71 3e 69 2a b4 3d 99 c2 4b be d8 6b 8a 3d
       0.23613796 0.087971516 -0.19898452 0.06758851
000270 d2 83 48 3d b3 6e 54 bd 1f af 12 be 3b 95 f1 3d
       0.04895384 -0.051863384 -0.14324616 0.117960416
000280 7e 21 02 3e a8 a2 85 3d c8 81 4d 3e bb eb 03 be
       0.12708089 0.06525165 0.20069039 -0.12882893
000290 1c 27 7b bd ad 02 23 3e 5e 8f 40 3d a2 63 19 be
       -0.061316594 0.1591899 0.047011726 -0.14979413
0002a0 8a 9b 58 be 65 21 6d 3d 45 8c 5a be e3 f4 ad 3e
       -0.21153083 0.057893176 -0.21342571 0.33975896
0002b0 28 79 0e 3e 3f 14 7c be ce c6 1d be 9d c7 55 be
       0.13913405 -0.24617098 -0.15407869 -0.20876928
0002c0 03 6b b4 bc b0 87 66 bd 93 56 67 be 24 eb 82 bd
       -0.022023683 -0.056281745 -0.22591619 -0.06392506
0002d0 90 2c 19 3e 57 38 84 3e b2 31 27 3e 1c 16 2e be
       0.14958405 0.25824234 0.16327551 -0.17000622
0002e0 e6 e3 c4 3e ff e6 11 3e 77 cc 31 be 40 38 c3 3e
       0.38455123 0.14248274 -0.17363153 0.38128853
0002f0 91 2a 6c 3e 67 b4 30 be aa 1f 38 3e 9a bb a0 3d
       0.23063113 -0.17256318 0.17980829 0.07848282
000300 4a f0 da bd 77 0a d1 bd 2e 9a ae bd d2 22 e0 bd
       -0.10690363 -0.10207074 -0.08525501 -0.109441414
000310 60 e2 fb 3d ab 8c 71 3d 03 86 95 bc 13 b4 c8 bd
       0.12299037 0.058972042 -0.018252378 -0.097999714
000320 4b 33 55 3e 23 ff e4 3e bf 89 24 be 65 72 43 3f
       0.20820348 0.44725904 -0.16068171 0.7634643
000330 2e 86 7f 3e 19 a9 9b be 9b 69 36 3d 64 b3 be 3d
       0.24953529 -0.3040245 0.044534307 0.0931156
000340 d1 95 fa bd e1 d6 53 3e ed 39 1b 3e 5c ae be 3d
       -0.122356065 0.20687439 0.15158816 0.093106
000350 23 cb 07 be 99 64 1b bd 7b c6 82 be ff 25 83 be
       -0.13261084 -0.037937734 -0.25542054 -0.25614926
000360 b1 f0 4c 3e f7 77 8c 3c 28 3a b9 bd 5e 67 90 bd
       0.20013691 0.017147047 -0.090442955 -0.07050966
000370 6a 71 16 3c 94 73 03 3d 23 04 85 bd 24 b4 99 3d
       0.009182313 0.032092646 -0.0649493 0.07505062
000380 6d b2 6b be f8 85 0e 3e c3 a6 50 bc b6 85 ae bd
       -0.23017283 0.13918293 -0.012735072 -0.08521597
000390 e7 a6 d6 bd f3 ff 25 3d 8a b0 c1 bd a2 89 49 be
       -0.10481053 0.040527295 -0.094575 -0.19681409
0003a0 34 a8 07 be b5 26 43 3d 7f 3f 60 be 2a 3f 92 3c
       -0.13247758 0.047644336 -0.21899222 0.017852385
0003b0 82 9a 44 bd 69 2a 7c 3e f3 49 a1 bd b3 ce 95 bd
       -0.047998913 0.24625553 -0.07875433 -0.07314815
0003c0 a8 4f ca bc ad 18 19 3e 3d df 49 be 08 7d 16 be
       -0.024696186 0.1495082 -0.19714065 -0.14696133
0003d0 f6 ed a4 bb 3b 83 29 3e 08 dd 26 3c 1a 53 22 be
       -0.00503325 0.16553967 0.010184534 -0.15852013
0003e0 e3 1b 43 3e a9 d9 70 bd c8 30 17 be c0 6e 10 3d
       0.19053607 -0.058801327 -0.14764702 0.03526187
0003f0 5f 2a 85 bc 8b a9 a2 3d 75 b6 0e be d2 5d 43 3e
       -0.016255556 0.07942494 -0.1393679 0.19078758

model.predict.predict.1.bias f4 [128]
000000 68 c1 b0 3e cd ea 09 be e9 87 9a bd 5c 55 fa 3d
       0.34522557 -0.13468476 -0.07545454 0.12223312
000010 4a 2e 80 3d b3 4c f1 bb 1f 0d 9d 3d a4 20 38 be
       0.06258829 -0.0073638796 0.07668518 -0.17981201
000020 81 25 87 bd 29 27 bb 3b a8 d2 0c bc f5 60 f4 3d
       -0.0659895 0.0057114554 -0.008595146 0.119325556
000030 d3 f5 21 3e 16 92 3e be a2 6c 13 3d c9 81 49 bd
       0.15816431 -0.18610415 0.035992272 -0.04919604
000040 83 0c 54 3e ef 97 6d be 06 80 77 bd c3 88 e8 3d
       0.20707898 -0.2320249 -0.060424827 0.1135421
000050 d3 00 fb bc b4 64 5e be 50 87 2b bd 6b fd 17 be
       -0.030640041 -0.21718103 -0.04187709 -0.14842765
000060 c6 d7 e3 3d c7 51 8d 3e 12 c8 97 bd 6c 1d b5 bd
       0.1112514 0.27601454 -0.07411207 -0.088435024
000070 59 c6 fc 3d 55 67 4b 3e 36 55 a1 3b ed 4e 81 be
       0.12342519 0.19863637 0.004923488 -0.25255528
000080 f5 73 1c 3e b6 e1 91 bd 54 1f 77 be e7 7d 9e 3e
       0.15278609 -0.07123129 -0.24133044 0.3095543
000090 50 9c 2b bd 25 a8 f3 3d e5 9c 77 3d 24 74 11 3d
       -0.041897118 0.118973054 0.06045236 0.03551115
0000a0 de 23 c8 3d 9a b4 8c bd 09 86 f1 bd c4 47 42 be
       0.09772466 -0.068703845 -0.11793143 -0.18972689
0000b0 bc af 2f be 84 f2 89 bd 37 e9 13 3e 46 f9 10 be
       -0.17156881 -0.06735709 0.14444433 -0.1415759
0000c0 4d af 9f 3d 52 62 97 bd 8b 60 63 3e 75 19 01 bd
       0.07797108 -0.073918 0.22204797 -0.03151842
0000d0 4e 3b d0 3c 3e 79 97 3d ff a1 2c 3c 19 5f 86 3e
       0.025418904 0.07396172 0.01053667 0.2624443
0000e0 9d 05 7f 3d 02 88 36 be 86 d2 44 3d e0 c7 81 bd
       0.062261213 -0.1782532 0.048052333 -0.06336951
0000f0 bb 5f 56 3e 9d cf 4d be 09 da 38 3e da da 8c be
       0.20934956 -0.2009873 0.18051924 -0.2751072
000100 04 e3 47 3e f5 11 28 bd 33 52 fc bb 70 93 82 3e
       0.19520193 -0.04103275 -0.0077002286 0.2550311
000110 68 f5 43 3e e0 a5 2e be 98 df 4d 3e c2 f8 93 be
       0.19136584 -0.17055464 0.20104825 -0.28900725
000120 f7 31 8e be e2 92 c4 bc b9 0a 29 be f8 84 18 be
       -0.27772495 -0.02399582 -0.16507997 -0.14894474
000130 03 2e 32 bd 22 78 74 be 63 7e 5e 3e 01 a2 22 be
       -0.04350091 -0.23873952 0.217279 -0.15882112
000140 39 cb 80 3d 76 45 13 be f9 bd 7d be 9b 03 3d be
       0.06288762 -0.14381966 -0.247795 -0.18458407
000150 00 ab 07 be 89 e4 af 3e 8e 38 25 be 4d e7 89 be
       -0.13248825 0.34354046 -0.16134855 -0.2693428
000160 98 c0 82 be 6f 70 93 bd c9 df 04 3e e8 62 e5 bc
       -0.25537562 -0.071991794 0.12975992 -0.028001264
000170 48 05 db bd eb 77 8c bd d5 56 63 3e d6 de 94 3d
       -0.10694367 -0.0685881 0.22201093 0.07269065
000180 6a 40 82 3e a2 70 5f be b8 a3 31 be a5 98 a7 3d
       0.2543977 -0.2182031 -0.1734761 0.081834115
000190 84 d9 63 be 5c 76 24 3d 28 bf 0e be 8d 76 a8 3d
       -0.22250944 0.04015194 -0.13940108 0.08225737
0001a0 e4 e1 2d 3d fe 48 4f be 2f 76 ec bd 99 36 87 3e
       0.042451754 -0.20242688 -0.11545979 0.26408842
0001b0 8e 9b b0 3c 63 68 de bd c0 2f eb 3b 29 b6 62 3e
       0.02155855 -0.10859754 0.007177323 0.22139801
0001c0 c6 4c 52 3d 2d 26 45 be bb d6 44 be f6 f5 19 bc
       0.051342748 -0.19252844 -0.19222538 -0.009397021
0001d0 b3 26 9e 3e 73 ec 59 bd db 1e bc 3c ff 9d 33 3d
       0.308889 -0.05320401 0.022963932 0.04385185
0001e0 1b 98 be bc 57 e9 7f bd 6e 0b e8 3d 03 38 7b 3d
       -0.023265889 -0.06247839 0.11330305 0.061332714
0001f0 fa c0 f2 bb 9a 94 55 bd 90 6c 1c bc 51 84 a9 3e
       -0.0074082585 -0.05214367 -0.009547368 0.33108762

model.predict.predict.3.weight f4 [128]
000000 af b2 75 3f 9f 28 80 3f 23 5e 7d 3f 6e e6 79 3f
       0.95975775 1.0012397 0.98971766 0.9761723
000010 f8 48 7c 3f d1 bc 77 3f 8e 2d 5e 3f 04 88 7a 3f
       0.9854884 0.96772486 0.8678826 0.97863793
000020 53 c6 83 3f 27 03 81 3f 8b 60 83 3f 38 4a 80 3f
       1.0294899 1.0079087 1.0263838 1.002265
000030 35 a2 80 3f 60 5a 71 3f ad 81 76 3f d7 2d 7a 3f
       1.0049502 0.94278526 0.9629162 0.97726196
000040 57 23 71 3f e6 5b 69 3f b5 71 71 3f 77 f7 7a 3f
       0.9419455 0.9115585 0.9431413 0.9803385
000050 0b 43 73 3f 63 d4 41 3f fe c7 74 3f 64 8b 5c 3f
       0.95024174 0.757147 0.95617664 0.86150193
000060 ce c2 7a 3f 4f ee 61 3f 8d 95 7c 3f 24 48 7f 3f
       0.979535 0.88254255 0.98665696 0.9971945
000070 0e c4 72 3f 06 f4 71 3f c8 a5 7a 3f 81 48 80 3f
       0.94830406 0.94512975 0.9790921 1.0022126
000080 fd 41 5f 3f 0f 06 74 3f 17 c9 64 3f 02 1d 73 3f
       0.87210065 0.95321745 0.8936934 0.9496614
000090 5c 7c 7d 3f 7c 20 7c 3f df d7 6e 3f 50 61 82 3f
       0.9901788 0.9848707 0.93298143 1.0185947
0000a0 f0 af 73 3f b3 c6 70 3f 99 07 6e 3f 0f 21 6f 3f
       0.95190334 0.9405319 0.92980343 0.9340982
0000b0 11 00 72 3f b9 d5 7d 3f 67 f7 7a 3f 00 00 80 3f
       0.9453135 0.9915424 0.98033756 1.0
0000c0 30 17 42 3f df 42 79 3f 2e 16 83 3f 8a b8 60 3f
       0.7581663 0.9736766 1.0241144 0.87781584
0000d0 81 56 7a 3f f2 55 57 3f fc 29 71 3f 1b 34 81 3f
       0.97788244 0.8411552 0.9420469 1.0094026
0000e0 ed 9d 80 3f 74 27 72 3f 4b 87 63 3f 17 28 7b 3f
       1.0048195 0.9459145 0.88878316 0.9810805
0000f0 bd b8 7d 3f 9a 78 76 3f 2a ba 74 3f 34 06 78 3f
       0.99110013 0.96277773 0.95596564 0.96884465
000100 2b 9a 60 3f b8 7f 78 3f 47 48 7e 3f a0 a0 73 3f
       0.8773524 0.97069883 0.99329036 0.9516697
000110 02 3c 79 3f 05 83 77 3f 65 f1 74 3f 0d c3 79 3f
       0.9735719 0.96684295 0.9568084 0.9756325
000120 ef 15 81 3f c8 39 50 3f fc 19 6d 3f 00 00 80 3f
       1.0084819 0.8133817 0.92617774 1.0
000130 7d fd 7d 3f f1 e6 7d 3f 04 4e 53 3f 02 6a 75 3f
       0.9921492 0.99180514 0.8254092 0.9586488
000140 ed aa 80 3f 07 b6 63 3f 28 e6 83 3f 90 3c 7c 3f
       1.0052162 0.88949627 1.0304613 0.9852991
000150 d9 f5 73 3f 5d ec 71 3f 25 44 71 3f 54 73 75 3f
       0.9529701 0.94501287 0.94244605 0.958791
000160 12 6d 7a 3f b8 21 79 3f 14 de 6c 3f 5d ad 7c 3f
       0.9782268 0.97317076 0.92526364 0.9870203
000170 c9 ec 79 3f 79 8e 77 3f 7c 8c 57 3f 42 67 41 3f
       0.9762693 0.9670177 0.8419874 0.75548184
000180 1e 1b 78 3f e6 10 51 3f 9c 74 72 3f 79 2d 6e 3f
       0.9691638 0.8166641 0.9470918 0.93038136
000190 9a 57 7d 3f 43 9a 80 3f 4e 1d 79 3f 9f 21 79 3f
       0.98961794 1.0047077 0.9731034 0.97316927
0001a0 43 fa 57 3f 7f 1b 54 3f 19 60 80 3f 59 9b 74 3f
       0.84366244 0.82854456 1.0029327 0.9554954
0001b0 df 2d 74 3f 03 70 80 3f 00 00 80 3f 7b 62 82 3f
       0.95382494 1.0034183 1.0 1.0186304
0001c0 5b a9 79 3f 28 3c 75 3f de ed 5a 3f 35 c8 76 3f
       0.9752404 0.95794916 0.85519207 0.9639924
0001d0 86 2e 79 3f a6 b8 7c 3f f3 49 79 3f 6a 1d 5d 3f
       0.97336614 0.9871925 0.9737846 0.8637301
0001e0 6b f4 6b 3f 40 09 6f 3f 50 e4 78 3f a7 c2 75 3f
       0.9216983 0.9337349 0.9722338 0.9600014
0001f0 1d 3e 75 3f 28 c7 5f 3f 01 20 7a 3f c0 c4 3f 3f
       0.957979 0.87413263 0.97705084 0.7490959

model.predict.predict.3.bias f4 [128]
000000 bc ec 59 3d d2 7d 5e bd 70 1a 52 bd 54 10 25 bc
       0.053204283 -0.05431921 -0.051294744 -0.010074694
000010 44 21 74 bd 88 8c 3f 3d 39 93 7e bd 29 e7 22 bd
       -0.059602037 0.04676488 -0.06215212 -0.039771233
000020 62 a4 71 bd 2d 53 84 bd b4 ae b3 bc 64 c5 79 bd
       -0.05899466 -0.06461177 -0.02193389 -0.060979262
000030 99 65 77 bd e6 b1 3a 3d d8 47 ea 3c eb 46 6c bd
       -0.060399625 0.045579813 0.02859871 -0.05768482
000040 e1 11 64 3d 5b b3 df bc 75 3d 3e bd 98 14 67 bd
       0.055681113 -0.027307203 -0.04644533 -0.056416124
000050 3e cc 6d bd b5 02 4c bd ab 59 43 3d e1 49 6e bb
       -0.05805611 -0.04980727 0.047692936 -0.0036359953
000060 9d 79 4b 3d fb 9a d4 3c ae a3 4c bd bb 62 60 3d
       0.049676526 0.025952807 -0.049960785 0.054781657
000070 5c 04 25 bc 4f 5f 9d bb df 3e ec bc a9 73 9a bc
       -0.01007184 -0.0048026214 -0.028838573 -0.01885398
000080 2f 58 fd bc 0b 35 48 3d 82 e7 04 3d bf 73 47 3d
       -0.030925838 0.04887871 0.032447346 0.04869437
000090 4c 3a 7c bd 5f 66 7a 3d 2d 8e 23 3d dd 4a c1 3c
       -0.061579034 0.061132785 0.03993051 0.023595268
0000a0 85 a1 49 3d c7 28 a4 3c 0b a6 f1 3c f1 3f 48 3d
       0.049226303 0.020038975 0.02949812 0.048889104
0000b0 91 49 22 3d 55 9c 6f bd 1f b3 26 bd d1 7a d8 3c
       0.03962094 -0.0584987 -0.040698167 0.02642575
0000c0 66 cb 92 bd 62 cb 87 bd ca c0 70 3d e2 38 99 bd
       -0.071677014 -0.06630589 0.058777608 -0.07481553
0000d0 17 4d 1c 3d 7b c2 39 3c 0c ca 2c 3d 6b e5 7b bd
       0.038159456 0.011337872 0.042184874 -0.061498087
0000e0 b8 c0 88 3b a9 b5 61 bd a4 96 c6 bc ef db 56 bd
       0.0041733645 -0.055104885 -0.024241753 -0.05245584
0000f0 49 2f 7c bd 05 e2 0e bb ee 3e 4c bd ac 5b da 3c
       -0.061568532 -0.0021802199 -0.049864702 0.02665504
000100 46 ab 60 bd a4 5f 63 bd 35 1b 50 3d ee 51 42 3d
       -0.05485084 -0.055511132 0.050807197 0.047441415
000110 00 20 52 3d 38 b2 4e 3d 0c 15 5d 3d 98 3f 67 bd
       0.05130005 0.05046293 0.05397515 -0.056457132
000120 f7 ee 85 bd a2 8d e9 bc 67 24 09 3d fc ad e2 bc
       -0.065397196 -0.028509919 0.03348198 -0.027670853
000130 0d 5c c8 bb 3e 7f 6c bd 35 39 44 bc c5 65 f9 3c
       -0.006114489 -0.057738535 -0.01197653 0.030444035
000140 e2 bf 62 3d 52 2e 61 bd 80 a4 77 bd 63 4d 0d bd
       0.055358775 -0.054975815 -0.060459614 -0.03449763
000150 b6 99 46 3d 74 78 99 bd 70 10 7c 3c 66 ec 72 bd
       0.048486434 -0.07493678 0.015384778 -0.05930748
000160 b9 9c c1 36 f9 1c 39 bd 2f ab 01 3d b7 f1 50 3d
       5.770093e-06 -0.045193646 0.031657394 0.051011767
000170 f7 09 d2 bc fb 19 9b bd f2 73 21 3c 5c 9d 85 bd
       -0.025639517 -0.07573315 0.009854304 -0.065241545
000180 57 01 55 3d 4d bc ea 3b 52 c0 75 bd 7e d2 27 3d
       0.05200323 0.0071635605 -0.059997864 0.040972225
000190 c4 bc 88 bd 21 7a 70 bd 08 a4 52 3d 02 90 4b bd
       -0.06676629 -0.05871022 0.051425964 -0.049697883
0001a0 d2 d7 af bd 63 3f 89 bd be ed 58 3d 43 0d 4b 3d
       -0.08586086 -0.06701543 0.052961104 0.049573194
0001b0 27 6d 55 3d 9a b5 6f bd 70 53 a2 3c 76 70 86 bd
       0.05210605 -0.058522798 0.019815177 -0.06564419
0001c0 c2 a7 87 3c 45 8b 2f 3d 7b 11 03 bd 10 34 6c 3d
       0.016559485 0.042857427 -0.031999093 0.05766684
0001d0 a2 04 67 bd 59 05 55 3d 2d 6a 58 bd dd e5 ec bb
       -0.056400903 0.052007053 -0.052835632 -0.0072295503
0001e0 2c fd 78 bd 65 f6 24 3d e3 f5 75 3d 8e be b7 bc
       -0.06078832 0.040274043 0.06004895 -0.02242973
0001f0 02 75 33 bd 4e 64 0b 3d 62 d4 42 3d f2 ea ef bc
       -0.04381276 0.034031205 0.047565825 -0.029286835
