checkpoints/GAT/best_roc_auc_score/checkpoint1.pt (torch, 156441 bytes, 50 tensors)

model.gnn.gnn_layers.0.gat_conv.attn_l f4 [1, 8, 8]
0	0xbe9aeaf3	-0.30257377
1	0x3f55cc76	0.8351511
2	0x3ebd1498	0.36929774
3	0x3ce6509c	0.02811461
4	0x3e60eb1e	0.2196469
5	0xbe9f81f9	-0.3115385
6	0xbd447ab7	-0.047968592
7	0x3dc49434	0.0959858
8	0xbed8491f	-0.42243287
9	0x3da645d2	0.08118786
10	0x3e36149b	0.17781298
11	0xbe20837e	-0.1567516
12	0xbef912dd	-0.48647204
13	0x3e5f29b3	0.2179325
14	0x3f3fe32b	0.74956006
15	0x3f44535a	0.76689684
16	0xbf0cfe97	-0.55075973
17	0xbece87ec	-0.40338075
18	0x3e99868c	0.29985464
19	0xbeb87e8b	-0.36034045
20	0x3f35f32d	0.7107418
21	0xbe994bfe	-0.2994079
22	0x3dcb70c1	0.099336155
23	0x3e10e8e2	0.14151338
24	0xbe329124	-0.17438179
25	0xbdfaeb63	-0.12251928
26	0xbf21de4d	-0.6322983
27	0x3eb0f209	0.34559658
28	0x3e1221cc	0.14270705
29	0xbf206390	-0.6265192
30	0xbef7bea4	-0.48387635
31	0x3e0520ec	0.1300084
32	0x3eece6fe	0.46269983
33	0xbd501427	-0.05080047
34	0xbd4a3434	-0.04936619
35	0x3ef33901	0.47504428
36	0x3e45de20	0.19323015
37	0x3ea4895c	0.32136047
38	0x3cee8b7c	0.029119246
39	0x3ec3d230	0.38246298
40	0x3e45e2b7	0.19324766
41	0xbe14e5eb	-0.14540832
42	0xbf050b75	-0.5197061
43	0x3edeaeab	0.43492636
44	0xbf0d1cd5	-0.5512212
45	0x3f25afcb	0.64721364
46	0xbe98d1e3	-0.2984763
47	0xbed82458	-0.42215228
48	0xbe51ceb5	-0.20489009
49	0x3ed7a5f4	0.421188
50	0xbe0604c2	-0.13087752
51	0x3e9b44b4	0.30325854
52	0xbd36cc35	-0.04462834
53	0xbe4d9169	-0.20075001
54	0xbb37eb2a	-0.0028063753
55	0x3e8b13c9	0.27163532
56	0xbf2b704e	-0.6696824
57	0x3dcc7e8c	0.099850744
58	0x3eae0e6c	0.33995378
59	0xbdf93761	-0.12168766
60	0x3e333129	0.17499222
61	0x3e8326da	0.2561558
62	0x3efae2da	0.490012
63	0xbdabf3d5	-0.08396117

model.gnn.gnn_layers.0.gat_conv.attn_r f4 [1, 8, 8]
0	0x3e9585b2	0.29203564
1	0xbd4056dd	-0.04695784
2	0xbca0caa6	-0.01962788
3	0xbec2d402	-0.38052374
4	0xbd073b01	-0.033015255
5	0x3e8326c2	0.25615507
6	0x3e7b418f	0.24536727
7	0xbe30382f	-0.17208932
8	0x3f106e1a	0.56418
9	0xbdea8362	-0.114508405
10	0x3e06b4c5	0.13154896
11	0xbe8c2fde	-0.2738027
12	0x3f0bb999	0.54580075
13	0xbe529ecc	-0.20568389
14	0xbf52937e	-0.82256305
15	0xbe0cc3d2	-0.13746575
16	0x3cab7694	0.020930566
17	0x3d481839	0.048851226
18	0xbebe559b	-0.37174687
19	0xbe11e8bf	-0.14248942
20	0xbd57259c	-0.0525261
21	0x3ef61efe	0.4807052
22	0x3dfa30e9	0.1221636
23	0xbee0c52f	-0.4390044
24	0xbddda07e	-0.10821627
25	0xbea16d29	-0.31528595
26	0x3f2604c8	0.64851046
27	0x3f01588a	0.50525725
28	0x3f15908e	0.584237
29	0xbeb6493a	-0.35602742
30	0xbef7686a	-0.4832185
31	0x3ca4fb57	0.02013938
32	0x3e1ee8a0	0.15518427
33	0x3da68610	0.08131039
34	0x3f0f40c5	0.55958205
35	0xbe988067	-0.29785463
36	0x3dd66308	0.104681075
37	0x3b99a63d	0.0046890066
38	0xbe94cb09	-0.29061154
39	0x3dc5156d	0.09623227
40	0xbf0fce8b	-0.56174535
41	0x3f2fd9b6	0.68691576
42	0xbeacc04e	-0.33740467
43	0xbdf3cee0	-0.11904693
44	0x3e62cadf	0.22147702
45	0xbe904ed1	-0.28185132
46	0xbef409d0	-0.47663736
47	0x3eaf8891	0.3428388
48	0xbebb221e	-0.36549467
49	0xbeea9587	-0.45817205
50	0x3f1d2529	0.61384827
51	0x3f1ce07b	0.6128003
52	0xbe8fb382	-0.2806664
53	0xbd7a3dc9	-0.06109408
54	0xbf0270c2	-0.50953305
55	0x3ed5f4fb	0.41788468
56	0xbee04af4	-0.43807185
57	0xbbdeb13d	-0.006796031
58	0x3f17ce49	0.5929914
59	0xbea0179d	-0.31268016
60	0xbdda3e7b	-0.106564485
61	0x3e4d0d1f	0.20024537
62	0x3f405620	0.75131416
63	0xbd47080a	-0.04859165

model.gnn.gnn_layers.0.gat_conv.fc.weight f4 [64, 30]
0	0x3ebd2929	0.36945465
1	0x3e90b10b	0.28260073
2	0xbeac7647	-0.33683988
3	0x3de8d8e3	0.11369493
4	0xbdf1b3fb	-0.11801907
5	0x3e2ea8b6	0.17056546
6	0xbd6680e8	-0.05627528
7	0xbb89f318	-0.0042098872
8	0xbd328a71	-0.04358906
9	0x3c747800	0.014921188
10	0xbd42a3b5	-0.047519404
11	0x3dc356f9	0.09538073
12	0x3d66f4c8	0.056385785
13	0x3e791701	0.24325182
14	0xbe1fb7f8	-0.15597522
15	0xbf5406f4	-0.8282311
16	0x3e393490	0.18086457
17	0xbd4291a3	-0.04750217
18	0xbebcbc21	-0.3686228
19	0x3ee2332d	0.4417967
20	0x3e96fcd5	0.2948977
21	0x3f230837	0.6368441
22	0x3d8cdf12	0.06878485
23	0x3eab6fc2	0.33483702
24	0x3d800f17	0.06252878
25	0xbe1cf31f	-0.15327118
26	0x3ecaeb17	0.39632484
27	0xbe01ecbe	-0.12687966
28	0xbeee56a6	-0.46550483
29	0x3e2870a3	0.16449217
30	0xbe1ed7e8	-0.15512049
31	0xbe0e58e5	-0.13901098
32	0xbc9c84fd	-0.019106383
33	0xbe7a40ab	-0.24438731
34	0xbeb52463	-0.35379323
35	0xbe52525c	-0.2053923
36	0x3d87b121	0.066255815
37	0x3ec0db77	0.37667438
38	0xbe8298ff	-0.25507352
39	0xbee99c5d	-0.45627108
40	0x3f3e15c0	0.7425194
41	0xbed37a23	-0.4130412
42	0x3d712d0e	0.058880858
43	0xbe378ed3	-0.17925577
44	0x3cf66a40	0.03007996
45	0x3e5dc11e	0.216557
46	0xbe2264f4	-0.15858823
47	0xbe97b433	-0.2962967
48	0x3eea7bd3	0.45797595
49	0xbf0dcedb	-0.5539376
50	0xbe8bb789	-0.27288464
51	0x3d2d15b6	0.042257033
52	0xbe92e5da	-0.28690988
53	0x3dd4f62c	0.10398516
54	0x3e5b05ff	0.21389006
55	0x3e4b1e0a	0.19835678
56	0xbd1ece3c	-0.0387709
57	0xbea10476	-0.31448716
58	0xbf1dcc94	-0.61640286
59	0x3da03bff	0.07823943
60	0xbd6435af	-0.05571526
61	0x3e8625cb	0.2620071
62	0xbd989e5d	-0.074520804
63	0xbd8abb3c	-0.067739934
64	0xbe82b4a6	-0.2552845
65	0xbe48657c	-0.19569963
66	0x3d8fd04d	0.07022152
67	0xbe94a344	-0.29030812
68	0xbe87907f	-0.2647743
69	0xbc02f564	-0.007993076
70	0xbe03735f	-0.1283698
71	0x3d31a53d	0.043370474
72	0xbea626b3	-0.324514
73	0x3d13985c	0.036033973
74	0xbd19b253	-0.03752358
75	0x3ea16941	0.31525615
76	0xbe162c2a	-0.14665285
77	0x3e0def21	0.13860752
78	0x3ec07059	0.37585714
79	0x3d2bfe45	0.041990537
80	0x3b55d165	0.003262603
81	0xbdf74a81	-0.12074757
82	0x3e6c954c	0.23103827
83	0x3e4c75e1	0.19966842
84	0x3e8e85cd	0.27836457
85	0xbe137fdd	-0.14404245
86	0x3da88ad1	0.08229602
87	0x3e9c23c0	0.30496025
88	0x3e55108c	0.20807093
89	0xbc03373e	-0.008008776
90	0x3c845b92	0.016156945
91	0x3da4939c	0.08035967
92	0x3cfab4f6	0.030603867
93	0x3ec530c0	0.38513756
94	0xbdf7ee3e	-0.12105988
95	0xbe3e7fbd	-0.18603416
96	0xbe3e9ec1	-0.18615247
97	0x3e4f04c0	0.20216656
98	0x3dfb6ab7	0.122762136
99	0xbeea37b1	-0.45745614
100	0x3c37503b	0.011188562
101	0x3d3b1f62	0.045684226
102	0xbd6072ad	-0.054796863
103	0x3d4ce3ef	0.050022062
104	0x3ea4b9b0	0.32172918
105	0x3d9656fd	0.073408104
106	0x3d924154	0.071413666
107	0xbe7b9aab	-0.2457072
108	0x3e95101a	0.29113847
109	0x3bfa0aa9	0.0076306653
110	0xbe5631fc	-0.20917505
111	0x3d47b11c	0.04875289
112	0x3e857d60	0.26072216
113	0xbee54ee1	-0.44786742
114	0x3e47df06	0.1951867
115	0x3e0a4357	0.1350225
116	0xbe03812d	-0.12842245
117	0xbf027aa3	-0.5096838
118	0x3d51d656	0.051229797
119	0xbd9d0c9a	-0.07668419
120	0xbe1bec91	-0.15226962
121	0x3d6b8901	0.057503704
122	0x3dd41e55	0.10357348
123	0x3df0e0f2	0.11761655
124	0xbd7ca7a3	-0.06168331
125	0xbecc5acf	-0.3991303
126	0xbe159669	-0.14608158
127	0x3e56fa5d	0.20993944
128	0xbd350f5c	-0.0442041
129	0x3e308f28	0.1724211
130	0x3e4d290b	0.20035188
131	0xbe751d4d	-0.23936959
132	0x3f10f92c	0.56630206
133	0x3e616852	0.22012451
134	0xbe9deca3	-0.30844602
135	0xbe1e740d	-0.15473957
136	0x3e3daaac	0.18522137
137	0x3e022c22	0.12712148
138	0xbe1a8f4b	-0.15093724
139	0xbc247af1	-0.010039077
140	0x3e579c13	0.21055631
141	0x3e82e0cf	0.2556214
142	0xbe3201c0	-0.1738348
143	0xbd8d5cf5	-0.06902496
144	0xbee2616a	-0.44214946
145	0x3ef14add	0.4712743
146	0x3e8c8a44	0.27449238
147	0xbe3d39c6	-0.1847907
148	0xbd63b464	-0.055591956
149	0x3eeac679	0.45854548
150	0x3e473655	0.1945432
151	0xbe7926cf	-0.2433121
152	0x3d11c499	0.03558788
153	0xbef07655	-0.4696528
154	0x3e6732bc	0.22577947
155	0x3e869867	0.2628815
156	0x3c67d798	0.014150523
157	0xbe93e697	-0.28886864
158	0xbde2f038	-0.11080974
159	0xbda0fea4	-0.07861069
160	0x3d0519dc	0.032495365
161	0x3de8956a	0.113566235
162	0x3e4be2b9	0.19910707
163	0x3dc57edb	0.096433364
164	0x3e703481	0.23457529
165	0x3dd1ed25	0.1025031
166	0x3e39b1f3	0.18134288
167	0x3dd1cc43	0.10244038
168	0x3dca9a29	0.09892685
169	0xbe92c105	-0.28662887
170	0x3d1d9faf	0.038482364
171	0x3d053cd0	0.0325287
172	0x3e2d71a8	0.16937888
173	0x3d32b521	0.04362977
174	0xbd3bcac7	-0.04584768
175	0xbd855181	-0.06509686
176	0xbeefb597	-0.4681823
177	0xbda97444	-0.08274129
178	0xbdab2e2b	-0.08358415
179	0xbd988db9	-0.074489065
180	0xbe1f73f6	-0.1557158
181	0xbea1c829	-0.31598023
182	0xbd24fb3e	-0.040278666
183	0xb96a5bf2	-0.00022350231
184	0xbf137dc1	-0.5761376
185	0x3d3ac1d1	0.045594994
186	0xbe6024db	-0.21889059
187	0xbdbb94fd	-0.09159277
188	0xbebd0db1	-0.36924508
189	0x3da09435	0.07840768
190	0xbdb418a8	-0.08793765
191	0xbe6948f6	-0.22781739
192	0x3e835cde	0.2565679
193	0x3c44ee36	0.012019685
194	0x3eac82ca	0.33693534
195	0xbea7ad73	-0.3274952
196	0x3e118087	0.14209186
197	0xbe24a091	-0.16076876
198	0x3dfe6d9c	0.1242325
199	0xbea8fce5	-0.33005443
200	0x3d236b7e	0.039897434
201	0x3e0124d8	0.12611711
202	0x3e95a323	0.29226026
203	0x3c7a5cd5	0.015280922
204	0x3d05626c	0.032564566
205	0xbef69865	-0.48163143
206	0x3d974ab3	0.073872946
207	0xbcc86e7d	-0.024466747
208	0x3eb83273	0.3597599
209	0x3d310a43	0.043222677
210	0xbeb50585	-0.35355774
211	0x3d4dd21c	0.050249204
212	0x3d3e6543	0.04648329
213	0xbe8d8423	-0.27639875
214	0x3d626cff	0.055279728
215	0xbe401f69	-0.18761982
216	0x3e19effe	0.15032956
217	0x3e3e52d8	0.1858629
218	0x3ed25890	0.41083193
219	0xbcd1b8b0	-0.025600761
220	0x3ec2360e	0.37931865
221	0x3e4f1773	0.20223789
222	0xbe584c79	-0.21122922
223	0x3d92db25	0.07170705
224	0xbf0ea6e4	-0.55723405
225	0xbe4d615d	-0.20056672
226	0xbe52161a	-0.20516244
227	0xbe2e417d	-0.1701717
228	0xbe8881bd	-0.26661482
229	0xbde57ab8	-0.11205047
230	0xbd31fe6d	-0.04345553
231	0xbd08d5a2	-0.03340686
232	0xbd474bbc	-0.04865621
233	0x3e68f12f	0.22748254
234	0xbb8a4643	-0.0042198016
235	0xbe59ad5e	-0.2125754
236	0xbe053e74	-0.13012105
237	0x3edbea3e	0.4295215
238	0xbc5770fa	-0.013149494
239	0x3d77491e	0.060372464
240	0x3ec0f0a1	0.37683585
241	0x3e3ec424	0.18629509
242	0x3e96233d	0.2932376
243	0x3f34e977	0.7066874
244	0xbead3cb5	-0.33835378
245	0x3e53bf5d	0.20678468
246	0xbe4c2db2	-0.19939306
247	0xbe1fc2c3	-0.1560164
248	0x3d699c72	0.057033964
249	0xbdb967cd	-0.090530016
250	0x3efc76bd	0.4930934
251	0x3f30102d	0.6877468
252	0x3eb035be	0.34416002
253	0x3ce0510e	0.0273824
254	0xbe3b3721	-0.18282749
255	0x3e4d4772	0.20046785

model.gnn.gnn_layers.0.gat_conv.res_fc.weight f4 [64, 30]
0	0x3e61a529	0.2203566
1	0xbe7044ba	-0.23463717
2	0x3eefd965	0.46845546
3	0x3d9cb56d	0.07651792
4	0x3ed00506	0.40628833
5	0xbe6b8b15	-0.23002274
6	0xbe804180	-0.25049973
7	0xbd82af65	-0.0638111
8	0x3eda3fea	0.42626888
9	0xbf0e04ef	-0.5547628
10	0x3b905ed7	0.004405837
11	0x3e386c9b	0.1801018
12	0x3df3955e	0.11893724
13	0xbc85e590	-0.016344815
14	0x3dda1c5e	0.10649942
15	0x3ee36444	0.44412434
16	0x3e17e7c2	0.14834502
17	0x3e5f553a	0.21809855
18	0x3e010446	0.12599286
19	0x3d50f152	0.05101139
20	0x3c88dde6	0.016707372
21	0xbe6af26e	-0.22944042
22	0xbe121cfa	-0.14268866
23	0x3cfebf9b	0.031097224
24	0xbd3dadf5	-0.046308476
25	0x3eaf03bf	0.34182546
26	0xbc555940	-0.013021767
27	0xbe829d52	-0.2551065
28	0xbe8d7261	-0.27626327
29	0xbdfa56d5	-0.12223593
30	0xbe9e7acb	-0.3095306
31	0xbe15ea14	-0.14640075
32	0x3e4d5bf7	0.20054613
33	0x3ddf10ab	0.10891851
34	0xbf0036e9	-0.50083786
35	0x3e69d9cf	0.22836994
36	0x3e020c51	0.12700011
37	0x3e6f12aa	0.23346964
38	0x3f0f36bf	0.5594291
39	0xbd047d35	-0.03234597
40	0xbe5e288a	-0.21695152
41	0x3bd749db	0.0065700836
42	0x3e7c7055	0.24652226
43	0x3d4fbe07	0.050718334
44	0x3e876224	0.26442063
45	0x3e967814	0.29388487
46	0xbe410f87	-0.1885358
47	0x3e905f77	0.28197834
48	0xbeb46633	-0.35234222
49	0x3db9821c	0.090580195
50	0xbe351b8c	-0.1768629
51	0x3c0f6ee2	0.008754464
52	0x3d474e3f	0.048658606
53	0x3dcf7888	0.101304114
54	0x3ed218a7	0.41034433
55	0xbdf8eed3	-0.12154927
56	0x3d82bc89	0.063836165
57	0xbec8d667	-0.39226076
58	0x3e09498f	0.13406967
59	0xbe7a25eb	-0.24428527
60	0xbe0b496e	-0.1360223
61	0x3f25d419	0.6477676
62	0xbde62d05	-0.112390555
63	0xbd5b2222	-0.05349935
64	0xbe954a7f	-0.29158399
65	0x3ca77166	0.020439815
66	0x3e0280c4	0.12744433
67	0xbe90bebf	-0.28270528
68	0xbcf34285	-0.029694805
69	0x3e773381	0.24140741
70	0x3e017f68	0.12646258
71	0x3eb17830	0.34662008
72	0x3d0389bd	0.03211378
73	0x3b8a448d	0.0042195977
74	0x3ee317a2	0.44353968
75	0x3e617384	0.22016722
76	0xbe500c26	-0.20317134
77	0xbd6afdf3	-0.05737109
78	0x3e09693e	0.13419053
79	0xbd9a6edc	-0.07540676
80	0x3d481c42	0.048855074
81	0xbe873309	-0.26406124
82	0x3e8c9305	0.27455917
83	0x3e8026bf	0.2502956
84	0x3de68417	0.11255663
85	0xbe4ae255	-0.19812901
86	0xbe14b532	-0.14522246
87	0xbd930ad8	-0.07179803
88	0xbe0aca09	-0.13553633
89	0xbded9f0b	-0.11602601
90	0x3d2cbc7e	0.042171948
91	0x3d1dba45	0.03850772
92	0xbe3fbb55	-0.18723805
93	0xbe91c83f	-0.28473088
94	0xbb8774ee	-0.004133812
95	0xbd8c84e9	-0.06861288
96	0xbeaed108	-0.34143853
97	0x3de92f00	0.11385918
98	0x3cbe76f0	0.023250073
99	0x3da90c27	0.08254271
100	0x3d077081	0.033066276
101	0xbe30de05	-0.17272194
102	0xbe30257f	-0.17201804
103	0x3d4ccd6a	0.050000586
104	0xbec55cef	-0.38547465
105	0x3d8317e2	0.0640104
106	0x3e97da42	0.29658705
107	0xbeddfa6b	-0.43355116
108	0x3cc7604c	0.02433791
109	0x3ca71b38	0.020398721
110	0xbdab78e0	-0.083726645
111	0x3d7d58e9	0.06185237
112	0xbe292fbc	-0.16522115
113	0x3ed6baab	0.4193929
114	0x3ef32903	0.47492227
115	0xbefaacef	-0.48960063
116	0x3e0c78e3	0.1371799
117	0xbe04733b	-0.12934582
118	0x3d491d29	0.049100075
119	0xbdedd989	-0.11613757
120	0xbdc1b6f2	-0.09458722
121	0xbe062429	-0.13099732
122	0xbe42495c	-0.18973297
123	0xbdde3cf0	-0.10851467
124	0x3e60a261	0.21936943
125	0xbebe94e3	-0.37222967
126	0xbe15162e	-0.14559242
127	0x3da4da85	0.08049492
128	0x3e8c700a	0.2742923
129	0x3d1e8263	0.038698565
130	0x3df818cb	0.12114104
131	0xbec8c0cf	-0.392096
132	0x3e800b93	0.2500883
133	0xbe369ec1	-0.17833997
134	0xbb529ca6	-0.0032136827
135	0x3d22fefa	0.039793946
136	0xbcef22cd	-0.029191399
137	0x3da11ade	0.07866453
138	0xbdc7f81d	-0.09764121
139	0x3df14883	0.11781409
140	0xbd80b137	-0.06283801
141	0x3e4b5cad	0.19859572
142	0xbe3d6562	-0.18495706
143	0x3e017660	0.12642813
144	0xbc49f75a	-0.01232704
145	0xbca074c5	-0.01958693
146	0xbdf850da	-0.12124796
147	0xbddc6a33	-0.107624434
148	0x3ea55dcc	0.32298124
149	0x3d8c99f7	0.06865304
150	0xbcbaef61	-0.022819223
151	0x3caa91a4	0.0208214
152	0xbdcf88af	-0.10133492
153	0x3d9a00ff	0.07519721
154	0xbe4adbeb	-0.19810455
155	0x3dedf619	0.11619205
156	0xbdf8634e	-0.12128316
157	0xbe28815c	-0.16455597
158	0x3d8495f8	0.06473917
159	0x3ea7c245	0.32765403
160	0x3e281535	0.1641434
161	0xbe90d60b	-0.28288302
162	0xbdb4aa5e	-0.088215575
163	0xbe61a6d3	-0.22036295
164	0x3e1d72d3	0.15375833
165	0x3e15ee13	0.146416
166	0x3da58599	0.08082122
167	0x3ea102cc	0.31447446
168	0xbe05e3fe	-0.13075253
169	0xbe9d1986	-0.30683535
170	0xbe5ee795	-0.21768029
171	0xbdd0b2ba	-0.101903394
172	0x3d7c0091	0.061523978
173	0xbe0d27db	-0.13784735
174	0x3e38078f	0.17971633
175	0xbf447de3	-0.7675459
176	0xbd4c54ff	-0.049885746
177	0x3e4eb58d	0.20186444
178	0xbe15e917	-0.14639698
179	0xbd50251d	-0.050816644
180	0x3d105eac	0.035246536
181	0xbe34dac4	-0.17661577
182	0xbec9ca4a	-0.39412147
183	0x3ed0bb58	0.40767932
184	0xbe9c5625	-0.30534473
185	0x3cd083e7	0.025453521
186	0xbc2b16fe	-0.0104424935
187	0xbe25955e	-0.1617026
188	0xbe125a3b	-0.14292233
189	0xba6c4c1b	-0.0009014026
190	0x3e90dcdf	0.2829351
191	0x3ec225cb	0.3791946
192	0xbe59fad7	-0.21287094
193	0xbe2d4d64	-0.16924053
194	0xbdcd227b	-0.10016342
195	0x3ec2fac1	0.38081935
196	0xbd897835	-0.06712381
197	0xbf0ac787	-0.54210705
198	0x3e5427ad	0.2071826
199	0x3e29c228	0.16577971
200	0xbe87a5a5	-0.26493564
201	0x3ddb35f7	0.10703652
202	0x3dc64e12	0.096828595
203	0xbea3d190	-0.3199582
204	0x3d2fd3ed	0.042926718
205	0xbcb6be1e	-0.022307452
206	0xbecc8e46	-0.39952296
207	0x3e44bab6	0.1921185
208	0xbe891761	-0.2677565
209	0x3cce4de7	0.025183631
210	0x3d00deab	0.031462353
211	0xbf190bfb	-0.59783906
212	0x3d88f5bc	0.06687495
213	0x3e1cdf10	0.15319467
214	0x3ec4837a	0.3838156
215	0x3dd3969b	0.1033146
216	0xbe09f500	-0.13472366
217	0xbdc92336	-0.09821169
218	0xbd326aee	-0.043559007
219	0x3f0a451c	0.540117
220	0xbd9d3082	-0.07675268
221	0x3e7116fa	0.23543921
222	0xbd707e96	-0.05871447
223	0x3eb5992f	0.35468432
224	0x3e47ef59	0.19524898
225	0x3e220aba	0.15824404
226	0x3e379519	0.1792797
227	0x3edb3b9a	0.4281891
228	0x3d370052	0.04467804
229	0x3edcdefe	0.4313888
230	0x3e04df34	0.1297577
231	0x3e736f0e	0.23772833
232	0x3d087a06	0.033319496
233	0x3dabd351	0.08389915
234	0x3ed8781f	0.42279145
235	0xbe243a65	-0.16037901
236	0x3d77a3a5	0.060458798
237	0x3e7fe892	0.24991062
238	0x3e371edf	0.1788287
239	0x3d904d79	0.07046027
240	0xbd92d42f	-0.07169377
241	0xbd276a8a	-0.040873088
242	0x3f0244be	0.5088614
243	0x3e0a04fc	0.13478464
244	0x3e1e363f	0.1545038
245	0xbe3b4957	-0.18289696
246	0xbe5a766f	-0.21334241
247	0xbd0dd922	-0.034630902
248	0xbe8cd05c	-0.27502716
249	0xbd81eeb1	-0.06344355
250	0xbda59339	-0.08084721
251	0x3d822bdd	0.063560225
252	0xbeb8a6aa	-0.36064655
253	0x3e372fcf	0.17889331
254	0xbec015f7	-0.37516758
255	0x3d7a3eed	0.061095167

model.gnn.gnn_layers.0.gat_conv.res_fc.bias f4 [64]
0	0x3d5f695d	0.05454384
1	0x3d1ce54f	0.038304623
2	0x3d16667e	0.036718838
3	0xbd4017d1	-0.046897713
4	0x3d52cd7a	0.05146549
5	0xbd4a4548	-0.049382478
6	0x3da1b431	0.07895697
7	0xbacd141f	-0.0015646255
8	0x3c112017	0.0088577485
9	0x3d148a7e	0.03626489
10	0x3c0b4699	0.0085007185
11	0x3ac65d7a	0.0015134059
12	0x3d4945e8	0.049138933
13	0xbc91d2df	-0.017800746
14	0xbbf10512	-0.0073553408
15	0x3bb5b78a	0.005545561
16	0x3bb6f3a2	0.0055832425
17	0x3b95bea1	0.004569844
18	0xbaab90ff	-0.0013089477
19	0xbd1666fc	-0.036719307
20	0x3c01cf3b	0.007922943
21	0xbce78f39	-0.028266536
22	0x3c8b0feb	0.016975364
23	0x3c67a69d	0.014138845
24	0xbcede600	-0.029040337
25	0xbbca47e9	-0.006173123
26	0xbd49b38d	-0.0492435
27	0xbd6ec1f5	-0.05829044
28	0xbc290b75	-0.010317673
29	0xbdbca3f0	-0.09210956
30	0xbbdf9b32	-0.0068239206
31	0x3c83d4a8	0.016092613
32	0xbbea0a0f	-0.0071423124
33	0x3c6ef19f	0.014583974
34	0x3c214f57	0.009845576
35	0x3cdc98c6	0.026928317
36	0x3d367c71	0.04455227
37	0x399ba666	0.0002968788
38	0x3d721496	0.059101664
39	0x3d424c9d	0.047436345
40	0xbce2fbd1	-0.027707966
41	0xbc43cd07	-0.011950738
42	0x3d6ff7c6	0.058585905
43	0xbd06148b	-0.032734435
44	0x3cbc7e3d	0.023009414
45	0x3cc16e89	0.023612278
46	0x3daa949f	0.083291285
47	0xbc016e82	-0.007899882
48	0x3cf66a1d	0.030079896
49	0x3d53c8a1	0.051705007
50	0x3d31c20c	0.04339795
51	0xbd470554	-0.048589066
52	0x3c935b59	0.017987894
53	0xbdaaad91	-0.083338864
54	0x3d51f03b	0.051254492
55	0x3d97b2a9	0.074071236
56	0xbcc5cca3	-0.02414543
57	0x3c864028	0.016388014
58	0xbd8ad4fc	-0.06778905
59	0xbd0391bb	-0.0321214
60	0x3d590e24	0.052992
61	0x3dc1a989	0.094561644
62	0xbcd4f059	-0.025993513
63	0x3cf9dc78	0.030500636

model.gnn.gnn_layers.1.gat_conv.attn_l f4 [1, 8, 8]
0	0xbeb953fd	-0.3619689
1	0xbea6e7d8	-0.32598758
2	0x3d2a0217	0.0415059
3	0xbdfb0755	-0.12257258
4	0xbe5d6cd2	-0.21623543
5	0xbd94ff44	-0.072752506
6	0x3e4d2391	0.20033099
7	0xbf760746	-0.9610485
8	0xbf2df54d	-0.67952424
9	0xbf320cb6	-0.69550645
10	0x3e0d240a	0.13783279
11	0xbc18163b	-0.009282644
12	0x3f0479d8	0.5174842
13	0x3f289f06	0.6586765
14	0x3e7b7657	0.24556862
15	0xbd9c02ce	-0.076177225
16	0x3eda5d5c	0.42649353
17	0xbf3ac4fe	-0.72956836
18	0xbe26a050	-0.16272092
19	0xbed65615	-0.4186255
20	0x3e516eea	0.20452467
21	0x3d0c31f8	0.03422734
22	0x3f096be1	0.53680235
23	0xbf1056a8	-0.56382227
24	0xbea76d52	-0.32700592
25	0x3ede5628	0.43425107
26	0xbeec1b57	-0.4611461
27	0x3c7cee1e	0.015437631
28	0x3f1fb16c	0.623801
29	0xbf03d6d4	-0.51499677
30	0x3f6b5e13	0.9194042
31	0xbcbedfd5	-0.02330009
32	0xbe85e0e3	-0.26148137
33	0x3e82afab	0.2552465
34	0xbefe35eb	-0.4965051
35	0x3ec00f23	0.37511548
36	0x3e0c0fa3	0.1367784
37	0xbf466afb	-0.7750699
38	0x3e57771e	0.21041533
39	0xbd5843c7	-0.052799013
40	0x3ec9edae	0.39439148
41	0x3f0afbd7	0.5429053
42	0xbeee8a33	-0.46589813
43	0xbefb9fa5	-0.49145237
44	0x3df5f90b	0.12010392
45	0x3e584d5d	0.21123262
46	0xbec726ed	-0.38896886
47	0xbe9c8e55	-0.3057734
48	0x3e532742	0.20620444
49	0x3ef4526d	0.47719136
50	0xbe8eff94	-0.27929366
51	0xbd207d2c	-0.039181873
52	0xbee49d22	-0.44651133
53	0x3ed7bc5f	0.42135903
54	0xbabe21cf	-0.0014505925
55	0xbcd7848d	-0.026308322
56	0x3d33b464	0.043873206
57	0xbe92eecf	-0.28697821
58	0x3eb9413b	0.3618258
59	0x3e812610	0.25224352
60	0x3d6ea537	0.05826303
61	0x3e330de9	0.17485775
62	0x3e92f69e	0.2870378
63	0x3f9fedb9	1.2494422

model.gnn.gnn_layers.1.gat_conv.attn_r f4 [1, 8, 8]
0	0x3ed3b3fb	0.41348252
1	0xbd7430bf	-0.0596168
2	0xbeb907fc	-0.36138904
3	0x3e1b43ad	0.15162535
4	0xbed2b965	-0.4115707
5	0x3ed6c4e0	0.4194708
6	0x3e98cf37	0.29845592
7	0xbe5fd0f0	-0.21857047
8	0xbec71a02	-0.3888703
9	0x3f442373	0.7661659
10	0xbdbe70c9	-0.09298856
11	0xbd966c2c	-0.07344851
12	0xbf0cee49	-0.55051094
13	0xbdfe5c7b	-0.12419983
14	0x3da18bc7	0.078879885
15	0xbdfb3de7	-0.12267666
16	0xbebc0054	-0.36719
17	0x3d49cfca	0.04927043
18	0xbea92720	-0.33037663
19	0x3ef63eea	0.48094875
20	0x3e611831	0.21981885
21	0xbee7b829	-0.4525769
22	0x3e4e6cb6	0.20158657
23	0x3eb948a3	0.3618823
24	0xbec53bf8	-0.38522315
25	0xbe23f34e	-0.16010782
26	0x3daaaf87	0.083342604
27	0x3ca31c79	0.019911038
28	0xbd2ec526	-0.042668484
29	0x3e28f987	0.16501437
30	0x3e8ffa7b	0.2812079
31	0xbc899c6d	-0.016798222
32	0xbedb7d00	-0.42868805
33	0xbf0c4b93	-0.5480282
34	0x3a7f22b1	0.00097326474
35	0x3f16a7ec	0.5884998
36	0xbe18cca9	-0.14921822
37	0xbebd8595	-0.37015978
38	0xbea5ed59	-0.32407644
39	0x3c0cf9d5	0.0086044865
40	0xbb233381	-0.0024902525
41	0x3dae8f28	0.08523399
42	0xbe6be43d	-0.23036285
43	0x3f1414a5	0.57844
44	0x3e20c114	0.15698653
45	0xbe6b424e	-0.22974512
46	0x3e4a6818	0.19766271
47	0x3d3430b4	0.04399176
48	0x3de7271a	0.11286755
49	0xbf1575b9	-0.58382756
50	0x3e7340e1	0.23755218
51	0xbddd2bc3	-0.107993625
52	0x3cdd676a	0.02702685
53	0xbdf52cce	-0.119714364
54	0xbf19bb5c	-0.6005151
55	0x3c7aced1	0.015308098
56	0x3e1a51dd	0.15070291
57	0x3e32fd5f	0.17479466
58	0xbd0a4a7f	-0.03376245
59	0xbe1d4eee	-0.1536214
60	0x3f0a7c3a	0.54095805
61	0xbe8a6052	-0.27026612
62	0x3e0399bf	0.12851618
63	0xbeca5753	-0.39519748

model.gnn.gnn_layers.1.gat_conv.bias f4 [64]
0	0x3d432a15	0.047647554
1	0x3d1dc489	0.03851751
2	0x3cbc4ae9	0.022984939
3	0xbcec36d7	-0.028834743
4	0x3dfcaa53	0.12337174
5	0xbd74b69d	-0.059744466
6	0xbd11eea1	-0.035627965
7	0x3bc7e789	0.006100599
8	0x3d432a15	0.047647554
9	0x3d1dc489	0.03851751
10	0x3cbc4ae9	0.022984939
11	0xbcec36d7	-0.028834743
12	0x3dfcaa53	0.12337174
13	0xbd74b69d	-0.059744466
14	0xbd11eea1	-0.035627965
15	0x3bc7e789	0.006100599
16	0x3d432a15	0.047647554
17	0x3d1dc489	0.03851751
18	0x3cbc4ae9	0.022984939
19	0xbcec36d7	-0.028834743
20	0x3dfcaa53	0.12337174
21	0xbd74b69d	-0.059744466
22	0xbd11eea1	-0.035627965
23	0x3bc7e789	0.006100599
24	0x3d432a15	0.047647554
25	0x3d1dc489	0.03851751
26	0x3cbc4ae9	0.022984939
27	0xbcec36d7	-0.028834743
28	0x3dfcaa53	0.12337174
29	0xbd74b69d	-0.059744466
30	0xbd11eea1	-0.035627965
31	0x3bc7e789	0.006100599
32	0x3d432a15	0.047647554
33	0x3d1dc489	0.03851751
34	0x3cbc4ae9	0.022984939
35	0xbcec36d7	-0.028834743
36	0x3dfcaa53	0.12337174
37	0xbd74b69d	-0.059744466
38	0xbd11eea1	-0.035627965
39	0x3bc7e789	0.006100599
40	0x3d432a15	0.047647554
41	0x3d1dc489	0.03851751
42	0x3cbc4ae9	0.022984939
43	0xbcec36d7	-0.028834743
44	0x3dfcaa53	0.12337174
45	0xbd74b69d	-0.059744466
46	0xbd11eea1	-0.035627965
47	0x3bc7e789	0.006100599
48	0x3d432a15	0.047647554
49	0x3d1dc489	0.03851751
50	0x3cbc4ae9	0.022984939
51	0xbcec36d7	-0.028834743
52	0x3dfcaa53	0.12337174
53	0xbd74b69d	-0.059744466
54	0xbd11eea1	-0.035627965
55	0x3bc7e789	0.006100599
56	0x3d432a15	0.047647554
57	0x3d1dc489	0.03851751
58	0x3cbc4ae9	0.022984939
59	0xbcec36d7	-0.028834743
60	0x3dfcaa53	0.12337174
61	0xbd74b69d	-0.059744466
62	0xbd11eea1	-0.035627965
63	0x3bc7e789	0.006100599

model.gnn.gnn_layers.1.gat_conv.fc.weight f4 [64, 64]
0	0xbe9fdb5d	-0.31222048
1	0x3dffe89c	0.124955386
2	0xbe3a5068	-0.18194735
3	0xbe1202aa	-0.14258829
4	0x3cb1dc1d	0.021711404
5	0x3c351a7b	0.011053677
6	0x3e879e15	0.26487795
7	0xbdf7458b	-0.12073811
8	0xbdbf6197	-0.09344786
9	0xbd7b6eae	-0.06138485
10	0x3d13252f	0.035924133
11	0xbe8a7b33	-0.2704712
12	0xbd887ead	-0.066647865
13	0x3d700f6d	0.05860846
14	0xbbf7cb64	-0.007562088
15	0xbcead123	-0.028664177
16	0x3dc160ca	0.09442289
17	0x3e5d2dd2	0.2159951
18	0x3d516f06	0.05113127
19	0x3eabf929	0.33588532
20	0xbe4d2ca8	-0.20036566
21	0xbdde3c2e	-0.10851322
22	0xbec53b2f	-0.38521716
23	0xbdfa8b17	-0.122335605
24	0xbd851558	-0.064982116
25	0x3db0b3a1	0.086280115
26	0xbe853d0e	-0.26023144
27	0x3cd99539	0.026560413
28	0xbe95b26e	-0.29237694
29	0xbee449b0	-0.4458747
30	0x3e2bdd56	0.16783652
31	0xbe52fe74	-0.20604879
32	0x3e6e9709	0.23299803
33	0x3c803fe5	0.015655467
34	0x3d554eea	0.05207721
35	0xbd5bb36b	-0.053637903
36	0x3d0d0441	0.034427885
37	0xbe087bab	-0.13328426
38	0xbe512ae4	-0.20426518
39	0xbe0e90f2	-0.1392248
40	0x3e3d7d4d	0.1850483
41	0x3dcc7f16	0.09985177
42	0x3dc374e1	0.09543777
43	0xbcdf19b8	-0.027233943
44	0xbaaa2caa	-0.0012983282
45	0xbeb55445	-0.35415855
46	0xba88e9e6	-0.0010445684
47	0x3e88f427	0.26748773
48	0x3df26335	0.118353285
49	0xbde6b65e	-0.112652525
50	0x3e461b07	0.19346248
51	0x3d709238	0.058733195
52	0xbe3dbfff	-0.18530272
53	0xbc34997e	-0.0110229235
54	0xbe8679e5	-0.26264873
55	0xbdb1dbd5	-0.08684508
56	0xbdbbda19	-0.09172458
57	0x3e227e84	0.15868574
58	0x3e41d4d2	0.18928841
59	0x3d0716cc	0.032980725
60	0xbd1f3892	-0.03887231
61	0x3d47e460	0.04880178
62	0x3cf2a14e	0.029617932
63	0xbdea322f	-0.11435353
64	0xbde14659	-0.10999746
65	0xbd93dff5	-0.07220451
66	0xbddd587d	-0.108078934
67	0x395bc6b5	0.00020959492
68	0xbde484b2	-0.11158122
69	0xbd90ebe9	-0.07076246
70	0x3e0df60d	0.13863392
71	0x3d0ec972	0.034860082
72	0xbe0c2fcf	-0.13690113
73	0xbd909cf3	-0.07061186
74	0x3eb75a39	0.35811022
75	0x3ded3421	0.115822084
76	0x3ca267ec	0.019824944
77	0x3ec07d2f	0.37595508
78	0xbc07ef05	-0.008296733
79	0x3e71dad0	0.23618627
80	0xbd3d0ad7	-0.046152916
81	0xbd094384	-0.033511654
82	0x3da2cfb2	0.07949771
83	0x3e153039	0.14569177
84	0x3de26cac	0.11055884
85	0x3da6797a	0.081286386
86	0x3d9f066c	0.07764897
87	0xbd995242	-0.074863926
88	0x3cbcbad5	0.023038307
89	0x3e0ca644	0.137353
90	0x3d1af78d	0.03783374
91	0xbe50b8c9	-0.2038299
92	0xbd210e93	-0.03932054
93	0x3e1a3eec	0.15063065
94	0x3dc4d7d5	0.09611479
95	0xbd5a9c9b	-0.053372007
96	0xbe21aec5	-0.15789326
97	0xbda8e6eb	-0.08247169
98	0x3ed0d0c1	0.40784267
99	0x3e9cb94e	0.30610126
100	0xbe834d87	-0.25645086
101	0xbef6ec06	-0.48226947
102	0x3e17ae28	0.14812529
103	0x3c96752d	0.01836642
104	0xbed80a88	-0.42195535
105	0xbdfd029e	-0.12354015
106	0xbe5d9de0	-0.21642256
107	0xbd200719	-0.03906927
108	0x3e1007de	0.14065501
109	0x3e03e29a	0.1287941
110	0x3dcf30de	0.101167426
111	0x3dead885	0.11467079
112	0x3d4e425f	0.050356265
113	0xbe4b9786	-0.1988202
114	0x3ec7173c	0.38884914
115	0xbee27a34	-0.4423386
116	0xbe847064	-0.25866997
117	0xbaa15605	-0.0012308961
118	0x3e536b28	0.20646346
119	0xbd8be837	-0.06831401
120	0xbea71852	-0.32635742
121	0x3e6587e7	0.22415124
122	0x3de54d44	0.11196378
123	0x3e497317	0.1967281
124	0x3c99ff49	0.018798487
125	0x3e648780	0.22317314
126	0x3da50a96	0.0805866
127	0x3e30a7e1	0.1725154
128	0xbcd755bb	-0.026285997
129	0x3e4c5e4b	0.19957845
130	0xbe3f9275	-0.18708213
131	0xbe3c649d	-0.18397756
132	0x3d243c3d	0.04009651
133	0xbc9b2249	-0.018937247
134	0xbe0e7b91	-0.13914324
135	0x3a2a795a	0.0006503068
136	0x3d906b39	0.07051701
137	0xbe446d6b	-0.19182365
138	0x3e0c5509	0.13704313
139	0xbe03bb56	-0.12864432
140	0x3d88d41d	0.066810824
141	0xbe58c252	-0.21167877
142	0x3d79da0a	0.060998954
143	0xbd83746a	-0.064186886
144	0xbd492ce2	-0.04911507
145	0x3e2f24e2	0.17103913
146	0xbed3850b	-0.4131244
147	0x3e974450	0.29544306
148	0x3e4a97e9	0.19784512
149	0xbca68a61	-0.020329656
150	0xbd977ec3	-0.07397225
151	0xbd297c9e	-0.04137861
152	0xbc310a33	-0.010805654
153	0x3e8ae322	0.27126414
154	0xbe10f4ea	-0.14155927
155	0xbe17b20c	-0.14814013
156	0xbb95186f	-0.004550032
157	0xbe05f849	-0.13082995
158	0xbcdd1ebc	-0.026992194
159	0xbe88c2a6	-0.26711005
160	0xbb77ed7d	-0.0037830763
161	0xbda969c9	-0.0827213
162	0x3c5aa39b	0.013344671
163	0xbe2cacc1	-0.16862775
164	0xbdc30000	-0.095214844
165	0x3dde6074	0.10858241
166	0x3e29be06	0.16576394
167	0x3d904366	0.07044105
168	0xbde338fe	-0.11094855
169	0x3da1f9d8	0.07908982
170	0x3c825395	0.015908996
171	0xbe1032c8	-0.14081872
172	0x3e2e58f8	0.17026126
173	0x3c613f5d	0.013748017
174	0x3c0b4f30	0.0085027665
175	0x3e53a9a6	0.20670184
176	0x3e1f87d7	0.15579163
177	0xbc0c20b6	-0.008552721
178	0x3bdfea87	0.0068333778
179	0x3d92aed1	0.0716225
180	0x3dba9b64	0.0911167
181	0x3f0fa97c	0.5611799
182	0x3d6e7b36	0.05822297
183	0xbe7b32bf	-0.24531077
184	0x3ea34cc5	0.31894508
185	0xbe50e721	-0.20400669
186	0xbdcabac0	-0.09898901
187	0x3dd572e3	0.104223035
188	0x3e80f3b5	0.25185934
189	0x3e3189a5	0.17337663
190	0xbea1211d	-0.31470576
191	0x3e45055c	0.19240326
192	0x3e6c704c	0.23089713
193	0x3de5ab10	0.11214268
194	0xbe8ed47c	-0.27896488
195	0xbdad194d	-0.08452091
196	0x3dcbfcdf	0.09960341
197	0xbc52b24c	-0.012859892
198	0xbcbbbc1d	-0.022916848
199	0x3d9e3088	0.077241
200	0xbd9aeb73	-0.075644396
201	0xbe0a566a	-0.13509527
202	0x3e0a4600	0.13503265
203	0xbdeb0e16	-0.11477296
204	0x3981955f	0.00024716088
205	0xbea22d15	-0.3167502
206	0x3d90a38e	0.070624456
207	0xbeafbd2f	-0.34324023
208	0xbd985010	-0.07437146
209	0x3dbdf8b9	0.09275956
210	0xbe182e74	-0.1486147
211	0xbe2bb3f2	-0.16767862
212	0x3e409c2d	0.18809576
213	0x3e6bb026	0.23016414
214	0x3e4e5592	0.2014983
215	0xbef606dc	-0.48052108
216	0xbd1dae2a	-0.038496174
217	0x3d01e954	0.03171666
218	0xbd1c295d	-0.038125385
219	0x3cc29383	0.02375198
220	0xbdb2ab36	-0.08724062
221	0xbe971826	-0.2951061
222	0x3c16648d	0.009179247
223	0xbdb6b5ef	-0.0892142
224	0x3c2cde7c	0.010551091
225	0xbeb37e8c	-0.35057485
226	0x3d04eb27	0.03245082
227	0xbe1666ae	-0.14687607
228	0xbe9789db	-0.29597363
229	0xbd5e7e19	-0.054319475
230	0xbdff04fa	-0.12452121
231	0x3e1a66e5	0.15078314
232	0xbc059413	-0.008152979
233	0xbdb2f739	-0.0873856
234	0xbc806eeb	-0.01567789
235	0xbd86f4c5	-0.06589655
236	0xbe2dfbbc	-0.1699056
237	0xbe4487d1	-0.19192435
238	0x3e08ca61	0.13358451
239	0xbc11e72c	-0.008905213
240	0x3e18c138	0.14917457
241	0x3e01ceb0	0.12676501
242	0x3e8ce557	0.27518722
243	0x3ea4e7dc	0.32208145
244	0x3e01df8c	0.12682933
245	0x3ecca927	0.39972803
246	0x3ce8508d	0.028358722
247	0x3d36f10c	0.044663474
248	0xbe388010	-0.18017602
249	0x3e7ea327	0.24866925
250	0x3dc650bd	0.09683368
251	0x3e2aa237	0.16663443
252	0x3daf0ce1	0.08547378
253	0x3dc0bcde	0.094110236
254	0x3ea502c5	0.32228675
255	0xbe4f98a5	-0.20273073

model.readout.weight_and_sum.atom_weighting.0.weight f4 [1, 8]
0	0xbdf4d7c8	-0.119552195
1	0xbec6fa67	-0.38862917
2	0xbf045c6a	-0.5170351
3	0xbe52f54c	-0.20601386
4	0xbea5b46a	-0.32364208
5	0x3eaa40b9	0.33252504
6	0x3e501dc2	0.20323852
7	0xbe694fb8	-0.22784317

model.predict.predict.1.weight f4 [128, 16]
0	0xbe4ddc9d	-0.20103689
1	0xbd970b22	-0.0737517
2	0x3dc2782b	0.094955765
3	0x3e3a0ed6	0.18169722
4	0xbe88b046	-0.26696986
5	0xbe4e8517	-0.20167957
6	0xbdcfeb55	-0.10152308
7	0xbdf6a567	-0.12043267
8	0x3e2d9921	0.16952945
9	0x3e2224db	0.15834372
10	0xbdbf2553	-0.09333291
11	0xbe20ee0c	-0.15715808
12	0xbe59792c	-0.2123763
13	0x3e836b66	0.25667876
14	0xbda406f6	-0.0800914
15	0x3e380509	0.17970671
16	0x3e063109	0.13104643
17	0x3e05cee0	0.13067198
18	0x3e5965c1	0.21230222
19	0x3e32231d	0.17396207
20	0xbde0641d	-0.10956595
21	0x3e17dd09	0.14830412
22	0x3e994e46	0.2994253
23	0x3c145b4a	0.009054968
24	0xbd289052	-0.04115326
25	0x3e0aa146	0.13538083
26	0xbdd359c5	-0.103198566
27	0x3cd55794	0.026042737
28	0x3d4d14dd	0.050068725
29	0x3d6a6cda	0.057232715
30	0x3ddf3c12	0.109001294
31	0xbe8cc373	-0.27492866
32	0x3e7e44be	0.2483091
33	0xbd4e5c9d	-0.05038129
34	0xbde44175	-0.111452974
35	0xbd4c7936	-0.049920283
36	0xbe47545f	-0.19465779
37	0x3d4e4e8b	0.050367873
38	0x3cd45996	0.025921624
39	0x3cf35a24	0.029706068
40	0x3e727a80	0.23679543
41	0x3e31fcda	0.17381611
42	0xbdb269bf	-0.08711576
43	0xbe2de0fa	-0.16980353
44	0x3e669133	0.22516327
45	0x3d8c7a44	0.06859258
46	0xbe8c16aa	-0.2736104
47	0x3dfd5889	0.12370402
48	0x3e0a377b	0.13497727
49	0xbe799004	-0.24371344
50	0xbe4b1800	-0.19833374
51	0x3da684ba	0.08130784
52	0xbe6cc843	-0.23123269
53	0xbe530fbc	-0.20611471
54	0x3d28a2fe	0.041171066
55	0xbe6992df	-0.22809933
56	0xbd92450c	-0.07142076
57	0xbce8a446	-0.028398644
58	0x3e0e0060	0.1386733
59	0xbe43e9c2	-0.1913214
60	0x3e2f8fcf	0.17144702
61	0xbd6b0f68	-0.05738774
62	0xbb771f22	-0.0037707766
63	0xbe012c85	-0.12614639
64	0xbd01ba1c	-0.03167163
65	0xbe274947	-0.16336547
66	0xbc96663d	-0.018359298
67	0xbc0ea43c	-0.008706149
68	0x3e966a55	0.29378
69	0xbe6d4d9b	-0.23174135
70	0x3e5c31d6	0.21503386
71	0xbe06704f	-0.1312878
72	0xbdeb74a8	-0.1149686
73	0x3e849420	0.2589426
74	0xbe53b5e9	-0.20674862
75	0xbd84a36f	-0.06476485
76	0x3d5aec7f	0.053448197
77	0x3d8d2eca	0.0689369
78	0x3e2e064d	0.16994591
79	0xbd9150e9	-0.070955105
80	0x3b8e7e16	0.0043485267
81	0x3d8df692	0.06931795
82	0x3e34b51b	0.17647211
83	0xbe4844ff	-0.1955757
84	0xbe4dfbc1	-0.20115568
85	0x3e47285d	0.19448991
86	0xbc30fe67	-0.010802842
87	0x3e2df217	0.16986881
88	0xbdd42f69	-0.10360605
89	0x3e0e11b1	0.13873936
90	0xbe37a0da	-0.17932454
91	0xbd317508	-0.0433245
92	0x3cbd0950	0.02307573
93	0x3e8254af	0.25455233
94	0x3daa7350	0.08322775
95	0x3e9e7949	0.30951908
96	0x3e71f60c	0.23629016
97	0xbe705a5d	-0.23471971
98	0xbda5dd96	-0.08098905
99	0xbe0dd0eb	-0.13849227
100	0xbddb83fd	-0.10718534
101	0xbde92974	-0.1138486
102	0xbde93948	-0.11387879
103	0xbe292b28	-0.16520369
104	0xbdc763c7	-0.09735828
105	0xbe0f0f2a	-0.13970628
106	0x3c219c9e	0.009864001
107	0xbe686c66	-0.226976
108	0x3d944998	0.072405994
109	0x3e99aa59	0.30012777
110	0x3e954e25	0.29161182
111	0x3daf2d55	0.08553568
112	0x3b995dc0	0.0046803653
113	0x3e80acad	0.2513174
114	0x3e1b2d83	0.1515408
115	0x3e17e21b	0.14832346
116	0x3dcd8c1d	0.1003649
117	0xbd2e363b	-0.042532187
118	0xbe70cd86	-0.23515901
119	0xbba55a6e	-0.0050461804
120	0x3dfd1254	0.123570114
121	0xbd4cb801	-0.049980167
122	0x3e917e4d	0.28416672
123	0x3e10fb34	0.14158326
124	0x3ea53694	0.32268202
125	0xbcdca88d	-0.02693584
126	0xbe87a337	-0.2649171
127	0xbdb1ddb2	-0.08684863
128	0x3eaf7349	0.34267643
129	0xbc76f567	-0.015073157
130	0xbe1088ee	-0.14114735
131	0xbe60bcad	-0.21946974
132	0xba2ac33f	-0.0006514079
133	0x3e463074	0.19354421
134	0xbdc3de43	-0.095638774
135	0xbe1a4b7a	-0.15067855
136	0xbd91fd1c	-0.07128355
137	0x3e447007	0.1918336
138	0x3e5bd1ae	0.21466705
139	0xbe0816be	-0.13289925
140	0x3e2266d8	0.15859544
141	0xbd9ff30c	-0.078100294
142	0x3e59c26d	0.21265574
143	0xbe5dd580	-0.21663475
144	0xbd3be1cf	-0.045869645
145	0x3e55bcb7	0.2087277
146	0xbd000e1b	-0.031263452
147	0x3e6e74af	0.23286699
148	0x3e777821	0.2416692
149	0x3e85d97c	0.2614249
150	0xbe5b9f05	-0.2144738
151	0xbe4cc9a8	-0.19998801
152	0x3e68b042	0.22723487
153	0xbd8b9552	-0.0681559
154	0x3dda855c	0.106699675
155	0x3efd95c3	0.49528322
156	0x3c0e4615	0.008683701
157	0x3ea229b8	0.31672454
158	0x3e18f36c	0.14936608
159	0x3d82a880	0.06379795
160	0xbe4f2ed8	-0.20232713
161	0xbe6bc39f	-0.23023842
162	0xbdbd7afd	-0.09251974
163	0x3d8f9961	0.070116766
164	0xbe9a8137	-0.30176708
165	0xbe1eb018	-0.15496862
166	0xbe19e6ea	-0.15029493
167	0xbe1372b4	-0.14399225
168	0xbdfa4994	-0.12221065
169	0xbe8fdb2e	-0.28096908
170	0xbdfd6636	-0.12373011
171	0xbd8d4cfc	-0.06899449
172	0xbc58d5bb	-0.013234551
173	0xbd982892	-0.07429613
174	0xbe799e0a	-0.24376693
175	0xbd192d7f	-0.037396904
176	0x3e5c995c	0.21542877
177	0x3e602241	0.21888067
178	0xbda62afe	-0.08113669
179	0x3e2b7dc2	0.16747192
180	0xbe37de47	-0.17955886
181	0xbda28049	-0.07934625
182	0x3e5895f8	0.21150959
183	0x3cfd11c0	0.030892253
184	0x3dfbfcc6	0.12304072
185	0xbc86784d	-0.016414786
186	0x3c71c2e9	0.014755943
187	0x3dcbf911	0.09959615
188	0x3e443f8e	0.19164869
189	0xbe0f867e	-0.14016148
190	0x3dd8c3a2	0.10584189
191	0xbd5ea987	-0.054360893
192	0x3d7f0c14	0.062267378
193	0xbecd1dc8	-0.40061784
194	0x3e77eafb	0.24210732
195	0xbd72eb66	-0.059306525
196	0x3b855854	0.0040693674
197	0x3e2fdc72	0.17173937
198	0x3e1bce12	0.15215328
199	0x3d55f7b2	0.052238174
200	0xbdb2e171	-0.08734406
201	0x3b3a4c4f	0.002842683
202	0x3e16ed9e	0.14739081
203	0xbc5e0ece	-0.013553334
204	0xbe7f2608	-0.24916852
205	0x3daf1b1b	0.08550092
206	0xbe1e8154	-0.15479022
207	0xbe351a1e	-0.17685744
208	0xbdb90811	-0.09034742
209	0xbe0e5149	-0.13898195
210	0x3dba5e04	0.09099963
211	0xbe8f6d40	-0.2801304
212	0x3e32dd33	0.17467193
213	0x3e8b28ac	0.27179468
214	0xbdda3be1	-0.10655952
215	0xbccd3484	-0.025049455
216	0x3db1dc95	0.08684651
217	0x3d16dc74	0.036831334
218	0xbd863a07	-0.065540366
219	0xbe02fe19	-0.12792243
220	0x3e104cc1	0.1409178
221	0x3bd92489	0.00662667
222	0xbe90000d	-0.2812504
223	0x3ce2904a	0.027656693
224	0x3dd33029	0.1031192
225	0xbcf2efdc	-0.02965539
226	0xbe0c75e8	-0.13716853
227	0xbe0c1258	-0.13678873
228	0x3e119749	0.14217867
229	0x3c92a084	0.017898805
230	0x3e2b1258	0.16706216
231	0xbe38a4b8	-0.18031585
232	0xbe213c1b	-0.15745585
233	0x3e7f1969	0.24912037
234	0x3d277e97	0.04089221
235	0xbd970617	-0.073742084
236	0xbe329040	-0.1743784
237	0x3d94d4fe	0.072671875
238	0xbdc2a498	-0.0950405
239	0x3d6bbe83	0.057554733
240	0x3e6155fd	0.22005458
241	0x3e0ea95b	0.13931791
242	0x3e253876	0.1613482
243	0xbe833e75	-0.25633588
244	0x3d938f7b	0.07205101
245	0xbd2f8fd0	-0.04286176
246	0x3daf4516	0.08558099
247	0xbdf93df0	-0.12170017
248	0x3d2ce011	0.042205874
249	0x3e2a387e	0.16623113
250	0x3cc79d07	0.024366869
251	0xbe893adb	-0.26802716
252	0x3e43c989	0.19119848
253	0xbe9ec79c	-0.31011665
254	0x3d5a62f5	0.05331703
255	0x3c997b51	0.01873556

model.predict.predict.1.bias f4 [128]
0	0xbd08daf9	-0.033411954
1	0xbc11badb	-0.0088946475
2	0x3e41215e	0.18860385
3	0xbc966342	-0.018357877
4	0xbd84f48c	-0.06491956
5	0x3e32c0a2	0.17456296
6	0xbe224ca8	-0.15849555
7	0x3e28af31	0.1647308
8	0xbe024058	-0.12719858
9	0x3e349e2b	0.17638461
10	0xbe8798a3	-0.2648364
11	0x3dd48521	0.10376955
12	0xbe4140d6	-0.18872389
13	0xbe15ae6a	-0.14617315
14	0x3c2d6354	0.010582764
15	0x3e575d71	0.21031739
16	0xbe912ba3	-0.28353605
17	0xbe81dc73	-0.25363502
18	0xbe1e0476	-0.15431389
19	0x3e1a831e	0.1508908
20	0xbd327edb	-0.04357801
21	0x3e4d4e9b	0.20049517
22	0xbe401d31	-0.18761136
23	0xbd924f3f	-0.07144021
24	0x3e1ff8a4	0.15622193
25	0x3e3ea779	0.18618573
26	0x3bdd3283	0.006750406
27	0xbeb6869c	-0.35649574
28	0xbd919da3	-0.07110145
29	0x3ded46f8	0.11585802
30	0x3c403616	0.011731645
31	0x3debb40c	0.115089506
32	0x3e150b08	0.1455499
33	0x3e1367cd	0.14395066
34	0xbe8ac4af	-0.27103183
35	0xbd2841a2	-0.041078217
36	0x3dd49d1d	0.103815295
37	0xbd41fa7e	-0.04735803
38	0xbd987cb7	-0.074456625
39	0x3d6dea5d	0.058084834
40	0xbe44afb3	-0.19207649
41	0x3dbb55e2	0.0914724
42	0x3e1c472e	0.15261528
43	0xbdd632dc	-0.104589194
44	0xbe02371e	-0.12716338
45	0xbe5ec944	-0.21756464
46	0xba22e1a2	-0.00062134315
47	0xbdbd1d93	-0.092341565
48	0x3e2934ee	0.16524097
49	0xbcc13242	-0.023583535
50	0xbcce1b87	-0.02515961
51	0xbe662c56	-0.2247785
52	0x3e656d46	0.22404966
53	0xbec9e405	-0.39431778
54	0x3de40055	0.11132876
55	0x3d8e77de	0.069564566
56	0xbd8d7ef5	-0.06908981
57	0xbbaf45e6	-0.0053489087
58	0xbde34b02	-0.11098291
59	0x3d68009a	0.0566412
60	0xbe924d6f	-0.28574702
61	0x3d85b19c	0.06528017
62	0x3dd71a49	0.1050306
63	0xba9f3611	-0.001214685
64	0x3e9ad2ef	0.30239055
65	0xbdc6c9f8	-0.09706491
66	0x3c570346	0.013123339
67	0x3ea956e3	0.33074102
68	0xbe5802dd	-0.21094842
69	0xbd1fcd15	-0.03901394
70	0x3e718614	0.23586303
71	0xbdec212b	-0.11529764
72	0x3dde6351	0.10858787
73	0x3de1b027	0.110199265
74	0xbd9a7fb3	-0.07543888
75	0xbd357f78	-0.044311017
76	0x3d3f2ad6	0.04667171
77	0x3dc99bea	0.09844191
78	0xbe0ac014	-0.13549834
79	0x3dea496b	0.114397846
80	0xbe3a9c0f	-0.18223594
81	0xbde2edab	-0.11080488
82	0xbe201782	-0.15633968
83	0x3e321a73	0.17392902
84	0x3dbbfbfe	0.09178923
85	0x3d44992b	0.047997635
86	0x3e110033	0.14160232
87	0xbe8d70f1	-0.2762523
88	0xbe13b70d	-0.14425297
89	0xbc0971da	-0.008388961
90	0xbbeacfc3	-0.0071658804
91	0x3eb0ac56	0.34506482
92	0x3e7082de	0.23487422
93	0x3c9dbcc5	0.019255051
94	0xbd5704cc	-0.05249481
95	0xbd8924fa	-0.06696506
96	0x3e2a54b8	0.1663388
97	0xbe4eaacc	-0.20182341
98	0x3e5b512a	0.2141768
99	0xbdcffdea	-0.10155852
100	0x3e447154	0.19183856
101	0x3e49aaa9	0.19694008
102	0x3e15d3d8	0.14631593
103	0xbe03fd0e	-0.12889501
104	0x3e2d2bf6	0.16911301
105	0x3e01990e	0.12656042
106	0x3dde7ec1	0.1086402
107	0x3db4d1c4	0.08829072
108	0x3e8b8df9	0.27256754
109	0xbd5ca51c	-0.053868398
110	0x3e40ed37	0.1884049
111	0x3e8b5a07	0.27217123
112	0xbd7fb615	-0.062429506
113	0xbec8597e	-0.39130777
114	0x3e696b7a	0.22794905
115	0xbe023856	-0.12716803
116	0xbdd0bde3	-0.10192468
117	0x3d961e64	0.07330015
118	0xbddf490e	-0.10902606
119	0xbe0125ce	-0.12612078
120	0xbdddc23a	-0.108280614
121	0xbe4b1f72	-0.19836214
122	0xbe1a2910	-0.15054727
123	0xbedd6524	-0.43241227
124	0xbe1ae809	-0.15127577
125	0x3e6a05de	0.228538
126	0xbe27ae8f	-0.16375183
127	0x3e57c372	0.2107065

model.predict.predict.3.weight f4 [128]
0	0x3f775826	0.9661888
1	0x3f5b518d	0.8567131
2	0x3f80941c	1.0045199
3	0x3f8619a4	1.0476575
4	0x3f573de6	0.84078825
5	0x3f4b6f01	0.79466254
6	0x3f8648be	1.0490949
7	0x3ec0bb41	0.37642863
8	0x3f7439be	0.9540061
9	0x3f6e3177	0.9304423
10	0x3f7b2969	0.9811006
11	0x3f495125	0.7863944
12	0x3f7f0e15	0.9963086
13	0x3f5dc9ab	0.86635846
14	0x3f64b008	0.893311
15	0x3f5d233f	0.86381906
16	0x3f762930	0.961566
17	0x3f765a6e	0.96231735
18	0x3f82dac5	1.0223013
19	0x3f7ba77c	0.98302436
20	0x3f73bba5	0.952082
21	0x3f166667	0.58750004
22	0x3f6e0c9b	0.92987984
23	0x3f50af02	0.8151704
24	0x3f91183f	1.1335524
25	0x3f885360	1.0650444
26	0x3f6e269e	0.93027675
27	0x3f77c1bf	0.9678001
28	0x3f8d2246	1.1026084
29	0x3e79aca0	0.24382257
30	0x3f85b385	1.044541
31	0x3f612090	0.8794031
32	0x3f69833b	0.91215867
33	0x3ebc9758	0.36834216
34	0x3f77d456	0.96808374
35	0x3f8d115a	1.102092
36	0x3f53e87b	0.8277661
37	0x3f6c0ddb	0.9220864
38	0x3f5d5d51	0.86470515
39	0x3f3a4043	0.72754306
40	0x3f265cac	0.64985156
41	0x3f78e5ce	0.97225654
42	0x3f72eafe	0.9488982
43	0x3f7062bf	0.93900675
44	0x3f723262	0.9460813
45	0x3f6d7f0e	0.92771995
46	0x3edd98c3	0.4328061
47	0x3f72b79e	0.9481143
48	0x3f777980	0.9666977
49	0x3f7c758f	0.9861688
50	0x3f6ae333	0.9175293
51	0x3f7bd947	0.98378414
52	0x3e32e860	0.17471457
53	0x3f800a7e	1.0003202
54	0x3f8149b4	1.0100617
55	0x3f65a9c2	0.89712155
56	0x3f7274cc	0.9470947
57	0x3f85bbfe	1.0447996
58	0x3f7c00f2	0.9843894
59	0x3f84bef5	1.0370775
60	0x3f783696	0.9695829
61	0x3f8449a9	1.0334979
62	0x3f7d4c1f	0.98944277
63	0x3f5b09be	0.8556174
64	0x3f412130	0.75441265
65	0x3f689e02	0.908661
66	0x3ea451c6	0.32093638
67	0x3f67b39d	0.90508443
68	0x3f2587a4	0.64660096
69	0x3f69c966	0.91322935
70	0x3f60dc6a	0.87836325
71	0x3f71149f	0.9417209
72	0x3f526920	0.8219166
73	0x3f883427	1.0640916
74	0x3f7eee45	0.9958232
75	0x3f754623	0.95810145
76	0x3f663131	0.8991881
77	0x3f6abd4d	0.916951
78	0x3f6199ed	0.881255
79	0x3f8d46c2	1.1037219
80	0x3f7b8bd2	0.98260224
81	0x3e96bdf0	0.29441786
82	0x3ec6c96d	0.3882555
83	0x3f6c218b	0.9223868
84	0x3f0ff052	0.56226075
85	0x3f6bde50	0.92136097
86	0x3f68d2d2	0.90946686
87	0x3f6253dc	0.8840921
88	0x3f81b43a	1.0133126
89	0x3f803a2f	1.0017756
90	0x3f4f18ae	0.80897033
91	0x3f86b813	1.0524925
92	0x3f2c4d2c	0.67305255
93	0x3f71fd4e	0.9452714
94	0x3f6458a0	0.8919773
95	0x3f5eb4ca	0.8699461
96	0x3f4ea70d	0.8072365
97	0x3f798117	0.974626
98	0x3f5bef3a	0.85911906
99	0x3f7b4e55	0.981664
100	0x3f7a9901	0.97889715
101	0x3f85c1e5	1.0449797
102	0x3ebb3640	0.36564827
103	0x3f673db9	0.90328556
104	0x3f2005b6	0.62508714
105	0x3f64e92b	0.89418286
106	0x3f66ef06	0.9020847
107	0x3f591efc	0.84812903
108	0x3f451b0b	0.7699439
109	0x3f70bf46	0.9404186
110	0x3f6989bc	0.9122579
111	0x3f321496	0.6956266
112	0x3f83cbd3	1.0296577
113	0x3f2a5c78	0.66547346
114	0x3f8b8a7d	1.0901638
115	0x3f565da9	0.83736664
116	0x3f75a671	0.95957094
117	0x3f892d8f	1.0717028
118	0x3e54ca39	0.20780267
119	0x3ecac189	0.3960078
120	0x3f60b68f	0.8777856
121	0x3f790bec	0.97283816
122	0x3f68d5d8	0.909513
123	0x3f4a0959	0.78920513
124	0x3f736d34	0.95088506
125	0x3f4710c7	0.77759975
126	0x3f7ec30c	0.9951637
127	0x3f563b4f	0.8368425

model.predict.predict.3.bias f4 [128]
0	0xbc60f2ec	-0.013729792
1	0x3ce15725	0.027507374
2	0x3d7316a0	0.05934775
3	0x3d722e40	0.05912614
4	0x3c96edb2	0.018423889
5	0x3d8906ae	0.06690727
6	0x3ce6ee31	0.02818975
7	0xbd99a674	-0.075024515
8	0x3d3111cb	0.04322986
9	0xbdbb2231	-0.09137381
10	0x3b378ab7	0.0028006264
11	0xbd8801ba	-0.06640954
12	0x3d1cebc3	0.038310777
13	0x3d81eaa3	0.063435815
14	0x3d7f22ea	0.062289156
15	0x3d6d9f9e	0.05801355
16	0xbd65d95e	-0.0561155
17	0xbd64fdd4	-0.055906132
18	0x3c92d3ab	0.017923197
19	0xbd915798	-0.07096785
20	0xbbc52acf	-0.006017066
21	0xbd6cf664	-0.057852164
22	0xbca27b95	-0.01983432
23	0x3bb52911	0.005528577
24	0x3c9411d6	0.018074911
25	0x3ce44614	0.027865447
26	0xbda06591	-0.07831872
27	0xbdb23a10	-0.08702481
28	0x3d896ccb	0.06710204
29	0xbdc3f0ce	-0.09567414
30	0x3d11f95e	0.035638206
31	0xbdb14c7e	-0.08657168
32	0x3d36f8c0	0.04467082
33	0xbd524395	-0.051333982
34	0xbdc01db5	-0.09380666
35	0x3d1f2170	0.038850248
36	0x3d896ef4	0.06710616
37	0x3d091e21	0.033476
38	0xbdb8b84e	-0.09019528
39	0xbc30efad	-0.010799331
40	0xbcf75c64	-0.030195422
41	0x3da30c7c	0.079613656
42	0xbdb5e10f	-0.08880817
43	0x3cf8d6d0	0.030375868
44	0x3d9fb212	0.07797636
45	0x3d9f5a67	0.07780915
46	0xbd7e41a8	-0.062074333
47	0x3db6e553	0.08930459
48	0x3d91775f	0.07102846
49	0x3c51a8bf	0.01279658
50	0x3d9345d0	0.0719105
51	0x3b8cefef	0.0043010633
52	0xbcf2ee30	-0.029654592
53	0xbda69fed	-0.08135972
54	0xbdbd85e6	-0.09254055
55	0x3cf30394	0.029664792
56	0x3c6d33df	0.014477699
57	0x3ce93d0d	0.028471494
58	0x3cf60fb9	0.030036794
59	0x3dbaae74	0.091153055
60	0x3d35436d	0.044253755
61	0xbdcee579	-0.10102362
62	0x3d7d6a68	0.061869055
63	0x3c10f6a7	0.008847869
64	0xbdce975b	-0.100874625
65	0xbdb7474d	-0.089491464
66	0xbd27f9a2	-0.041009553
67	0x3d9b34b0	0.07578409
68	0xbbebc06d	-0.00719457
69	0x3d849e22	0.06475474
70	0x3da40975	0.08009616
71	0x3da2c91a	0.07948513
72	0x3d401929	0.046898995
73	0xbdc32982	-0.09529401
74	0xbdb7ccb9	-0.089745946
75	0x3d25f96a	0.040521063
76	0x3da65092	0.08120836
77	0xbdd04601	-0.10169602
78	0x3c51ac0a	0.012797365
79	0x3d66bddd	0.05633341
80	0x3d9a57e3	0.07536294
81	0xbd5c25dd	-0.053747047
82	0xbdb5898b	-0.08864125
83	0xbda1998d	-0.078906156
84	0xbd9189b5	-0.07106344
85	0x3ca6e07a	0.02037071
86	0x3ae49f64	0.0017442522
87	0x3d8cc2df	0.06873106
88	0xbdb4dc0b	-0.08831032
89	0x3d8a7814	0.06761184
90	0xbbf2323b	-0.007391242
91	0x3dc0b2f9	0.09409136
92	0xbdc3495f	-0.09535479
93	0xbdcdb7f9	-0.100448556
94	0x3cd99567	0.026560498
95	0x3d8aadae	0.06771408
96	0x3d0e631d	0.03476249
97	0xbcdb492a	-0.026768286
98	0x3d863e09	0.06554801
99	0x3d30564f	0.04305106
100	0x3d71e007	0.05905154
101	0x3d1591b0	0.03651589
102	0xbda4c22c	-0.08044848
103	0x3d87c0df	0.06628584
104	0xbdcbc9e1	-0.09950615
105	0x3d882bfb	0.066490136
106	0x3d8cd643	0.06876805
107	0xbdacdda5	-0.08440713
108	0x3d80aec2	0.062833324
109	0x3c97a041	0.018509032
110	0x3d86b2b2	0.06577052
111	0x3d83ee82	0.06441976
112	0x3da096f0	0.07841289
113	0xbbda8f7d	-0.006669937
114	0x3d403041	0.04692102
115	0x3c5f237c	0.0136193
116	0x3c2a1bd0	0.010382608
117	0x3c9027bc	0.017597072
118	0xbd0db574	-0.034596875
119	0xbc912ebd	-0.017722482
120	0xbb97fa36	-0.0046379818
121	0xbc886a97	-0.016652388
122	0x3d94568e	0.072430715
123	0xbd166a1a	-0.03672228
124	0xbc82d98e	-0.015972879
125	0x3d5e191b	0.05422316
126	0xbdbfbeaf	-0.09362542
127	0xbd359a21	-0.044336442

model.predict.predict.3.running_mean f4 [128]
0	0x2b9207e9	1.0376119e-12
1	0x3e3a6362	0.18201974
2	0x3ec16282	0.37770468
3	0x2ca6d537	4.7416754e-12
4	0x3fc536e0	1.5407372
5	0x3dfc4b04	0.123189956
6	0x3a7ee2bd	0.00097231177
7	0x40757ea0	3.8358536
8	0x3f41996f	0.75624746
9	0x40515b1c	3.2711859
10	0x27516db8	2.9064055e-15
11	0x3f2fde4d	0.6869858
12	0x3a6da9d5	0.00090661395
13	0x3f531c1a	0.82464755
14	0x3edf7452	0.43643433
15	0x402c73df	2.6945722
16	0x2a396b22	1.646847e-13
17	0x282c576b	9.566874e-15
18	0x39bb5604	0.00035731506
19	0x32246221	9.568368e-09
20	0x39620647	0.00021555378
21	0x3fa229b6	1.2668979
22	0x34163019	1.3987336e-07
23	0x2bbab246	1.3265576e-12
24	0x2c8cf70a	4.006466e-12
25	0x35688e20	8.6633554e-07
26	0x2b925378	1.0397091e-12
27	0x297a44c3	5.5570793e-14
28	0x3e2c9f1c	0.1685757
29	0x3f899319	1.0748016
30	0x37d351a3	2.5191175e-05
31	0x3fa70ff1	1.305174
32	0x3f87fa81	1.0623323
33	0x40685014	3.6298876
34	0x380106d3	3.0762352e-05
35	0x2b54971e	7.5527247e-13
36	0x3c880c4f	0.016607432
37	0x35abd9e5	1.2803908e-06
38	0x3ee6372d	0.4496397
39	0x2aa024ff	2.844738e-13
40	0x3f888c18	1.0667753
41	0x3f0231bc	0.5085714
42	0x3f941e06	1.1571662
43	0x3bbd1994	0.0057708714
44	0x3f0a5dc2	0.54049313
45	0x40469362	3.1027455
46	0x3fc25984	1.5183568
47	0x3f2e9bc6	0.6820644
48	0x3fa0b710	1.2555866
49	0x00000004	6e-45
50	0x3fec0070	1.8437634
51	0x2c107d62	2.0533232e-12
52	0x400db0d4	2.2139177
53	0x00000004	6e-45
54	0x3f37e8e7	0.71839756
55	0x3d4cfdc4	0.050046697
56	0x2a7e5fbb	2.2592945e-13
57	0x2c118563	2.0679784e-12
58	0x3f4b7782	0.7947923
59	0x3eca8714	0.3955618
60	0x39996ac7	0.0002926199
61	0x3fe9f171	1.8276807
62	0x3a7d3729	0.00096594036
63	0x3a76e3f6	0.0009418124
64	0x3fed274b	1.8527616
65	0x3f76f5da	0.9646889
66	0x3ecb5bbc	0.39718425
67	0x401c3a03	2.4410408
68	0x4021e5d7	2.5296533
69	0x3ed9a997	0.425122
70	0x3fdf9751	1.7468053
71	0x3ee39602	0.44450384
72	0x3f54feae	0.8320111
73	0x3f2b5171	0.66921145
74	0x40403f76	3.0038733
75	0x3ea0a69b	0.3137711
76	0x3eaaa067	0.33325502
77	0x400a2db8	2.1590405
78	0x3da840e7	0.08215504
79	0x38eb0429	0.00011206448
80	0x3f9f323f	1.2437209
81	0x3f6560fe	0.89601123
82	0x400460ec	2.0684156
83	0x38bdf4f0	9.0578455e-05
84	0x3fcf99b4	1.6218781
85	0x359ce122	1.1688428e-06
86	0x3d706ec0	0.05869937
87	0x403569d0	2.8345833
88	0x3fb2e63e	1.3976514
89	0x38e83300	0.000110721216
90	0x3a47a6ca	0.0007616101
91	0x402e65d9	2.7249663
92	0x3fc89a36	1.5672061
93	0x4005df03	2.0917366
94	0x397d46ee	0.00024154384
95	0x40094b5e	2.145225
96	0x3b61d477	0.0034458914
97	0x2c233ad7	2.3196356e-12
98	0x4012cbcd	2.293689
99	0x362f2c1f	2.6102714e-06
100	0x3f9e7358	1.237895
101	0x3e94b9c4	0.29047978
102	0x4042671d	3.0375435
103	0x3ed111ba	0.40833837
104	0x404fa455	3.244405
105	0x400a576f	2.1615865
106	0x40157c23	2.3357017
107	0x3ff11082	1.8833163
108	0x4037249c	2.8616095
109	0x3a353f49	0.0006914032
110	0x3ffd5d16	1.9794033
111	0x3fe849bf	1.8147506
112	0x3995756c	0.0002850698
113	0x406b2973	3.6744049
114	0x395fd909	0.00021347789
115	0x3fa41b0f	1.2820758
116	0x296d1afb	5.2647973e-14
117	0x2c675485	3.2873992e-12
118	0x3ff0e386	1.8819435
119	0x3fba908f	1.4575366
120	0x29cedc79	9.1864836e-14
121	0x27be9018	5.289182e-15
122	0x4030b699	2.7611449
123	0x38c5d2c0	9.432947e-05
124	0x38ce3043	9.831835e-05
125	0x3f8da859	1.1067001
126	0x1f5d13af	4.6814852e-20
127	0x3f6fc676	0.936622
