checkpoints/GAT_undersampled/best_f1_score/checkpoint1.pt (torch, 156441 bytes, 50 tensors)

model.gnn.gnn_layers.0.gat_conv.attn_l f4 [1, 8, 8]
0	0xbf097b7f	-0.53704065
1	0xbebefe9d	-0.3730363
2	0xbd3e707e	-0.046494
3	0x3d430ab7	0.04761764
4	0xbee36c8b	-0.4441875
5	0x3ee9da87	0.45674536
6	0xbe8c38c3	-0.27387056
7	0x3d6cd0da	0.057816364
8	0x3f6187bc	0.8809774
9	0x3d71929c	0.05897771
10	0x3eed134c	0.46303785
11	0xbe7c2b35	-0.24625857
12	0x3f050e81	0.51975256
13	0x3d38a012	0.04507453
14	0xbe109076	-0.14117607
15	0xbe3b534e	-0.18293497
16	0xbee84e5a	-0.45372277
17	0xbe89c2ea	-0.2690652
18	0x3e679adb	0.22617666
19	0x3d8eb96e	0.06968962
20	0xbecff74b	-0.40618357
21	0xbec714b1	-0.38882974
22	0xbe52e95f	-0.20596837
23	0x3e1e359b	0.15450136
24	0xbe646068	-0.22302401
25	0x3f19766e	0.59946334
26	0x3da313b1	0.0796274
27	0x3b4d4e88	0.0031327326
28	0xbb979fd8	-0.004627209
29	0xbe04e436	-0.1297768
30	0x3ea96cd0	0.3309083
31	0x3f06afcb	0.5261199
32	0xbc43d171	-0.01195179
33	0xbeaf4dbc	-0.34238994
34	0x3e895a51	0.26826718
35	0x3f3f48ab	0.7472026
36	0xbdafbc33	-0.08580818
37	0xbf038f9c	-0.51391006
38	0xbe932da4	-0.2874576
39	0x3e4f5852	0.20248535
40	0xbdbbf717	-0.09177988
41	0xbeb43b80	-0.35201645
42	0xbdb3f94e	-0.087877855
43	0x3e8372e7	0.256736
44	0xbd2f933e	-0.04286503
45	0x3ef532fa	0.47890455
46	0xbe9b5a6f	-0.30342433
47	0xbdd5c455	-0.10437838
48	0xbef7e96d	-0.48420277
49	0xbd1a495c	-0.037667617
50	0xbec4358b	-0.383221
51	0xbd3e4cbb	-0.046459895
52	0xbcc5a05e	-0.02412432
53	0xbdb39fd4	-0.08770719
54	0x3d134339	0.03595278
55	0xbe4e91bc	-0.20172781
56	0x3f364e23	0.7121298
57	0x3dbe13fb	0.09281155
58	0x3e101339	0.14069833
59	0xbe2c4129	-0.16821732
60	0x3d99487a	0.07484527
61	0x3e082638	0.1329583
62	0x3ed17643	0.4091054
63	0xbf016f20	-0.5056019

model.gnn.gnn_layers.0.gat_conv.attn_r f4 [1, 8, 8]
0	0x3d6738ba	0.056450583
1	0xbe975dda	-0.2956379
2	0x3e5a0191	0.2128966
3	0xbeabe2d8	-0.33571506
4	0x3e29adb2	0.16570166
5	0x3e83aaea	0.25716335
6	0x3ef15cdb	0.47141156
7	0x3c0c7dec	0.008574944
8	0xbe0731c3	-0.13202576
9	0xbdc81fde	-0.09771703
10	0xbeb6d152	-0.35706574
11	0x3ee88a84	0.4541818
12	0xbee4cf20	-0.44689274
13	0xbee3c5e3	-0.44486913
14	0x3ea97e60	0.3310423
15	0x3eb8af79	0.36071375
16	0x3e048957	0.12943016
17	0x3ecb366c	0.39689958
18	0x3f1a6abc	0.60319114
19	0x3dd3b1fb	0.103366815
20	0xbeb95fa5	-0.36205783
21	0xbe849975	-0.25898328
22	0x3e937b01	0.28804782
23	0x3ed653c3	0.4186078
24	0x3c92d917	0.017925782
25	0x3e823c90	0.2543683
26	0xbe4787eb	-0.19485442
27	0x3bbe090c	0.0057994183
28	0x3ee4de8c	0.4470104
29	0x3dbb5cde	0.091485724
30	0x3f55b031	0.8347197
31	0x3f083d3c	0.53218436
32	0xbf10a3ec	-0.56500125
33	0x3d090df9	0.03346059
34	0xbe7e41d1	-0.24829794
35	0x3e38a7ab	0.1803271
36	0xbe97df50	-0.2966256
37	0xbe3dca0b	-0.18534105
38	0x3ce041b8	0.027375087
39	0x3e497092	0.19671848
40	0x3edad6be	0.4274196
41	0xbcfa3702	-0.030543808
42	0x3ee444ee	0.4458384
43	0xbd996d15	-0.07491509
44	0x3e806bb9	0.25082186
45	0x3ea0a6b1	0.31377175
46	0xbdfc9fe6	-0.12335186
47	0xbef8c8d6	-0.48590726
48	0x3e7e88f3	0.2485693
49	0xbea398d0	-0.31952524
50	0xbe1d8d1e	-0.15385863
51	0x3e9389a3	0.28815946
52	0x3d90ab40	0.07063913
53	0xbe2acc8c	-0.16679591
54	0x3e4e7818	0.20163
55	0xbb301957	-0.0026870572
56	0x3e8db855	0.27679697
57	0x3f07a352	0.5298358
58	0x3c824456	0.015901726
59	0xbdc15bef	-0.09441363
60	0x3e2a23a9	0.16615166
61	0xbe5e6bff	-0.21720885
62	0x3e75168f	0.23934387
63	0x3b04aaf5	0.00202435

model.gnn.gnn_layers.0.gat_conv.fc.weight f4 [64, 30]
0	0x3dae1914	0.08500877
1	0xbdc24d7f	-0.094874375
2	0xbeb7218a	-0.35767776
3	0x3e4941f1	0.19654061
4	0xbd8f5eef	-0.07000529
5	0xbd543f9b	-0.05181847
6	0xbd244d62	-0.04011286
7	0x3e44e1c0	0.19226742
8	0xbd872f1d	-0.06600783
9	0xbe7922d4	-0.24329692
10	0xbb272e71	-0.002550986
11	0x3ec79268	0.38978887
12	0xbe0bd9c0	-0.13657284
13	0xbdb5542e	-0.088539466
14	0xbe26badd	-0.1628222
15	0xbe0717ae	-0.13192627
16	0xbe4e535f	-0.20148991
17	0xbd4e8ece	-0.050429158
18	0xbc1a804a	-0.009430001
19	0xbdecd5f7	-0.11564248
20	0xbcf12aa0	-0.02943927
21	0x3d589ee3	0.0528859
22	0xbda4dd9b	-0.080500804
23	0xbd58f5a3	-0.052968632
24	0xbd8f74b3	-0.070046805
25	0xbcccdb83	-0.025007015
26	0x3ea6fb67	0.3261368
27	0xbe16fd81	-0.14745142
28	0xbd86099a	-0.065448
29	0x3e8b419d	0.27198496
30	0xbe0f5003	-0.13995366
31	0x3e15a664	0.14614254
32	0xbd99ebea	-0.075157
33	0x3d57a1fd	0.05264472
34	0xbe3b5d3b	-0.18297283
35	0xbe1f80fe	-0.1557655
36	0x3e01e016	0.12683138
37	0x3e67e78e	0.22646925
38	0xbcc34bd7	-0.023839874
39	0x3e807e13	0.25096187
40	0xbe49805f	-0.19677876
41	0x3e61b13b	0.22040264
42	0xbd155d4b	-0.036465924
43	0xbecf7491	-0.4051862
44	0xbe9c9fdf	-0.30590722
45	0xbd3e9297	-0.046526518
46	0xbe75e32f	-0.24012445
47	0x3ef08d8a	0.46982986
48	0xbd37aca7	-0.04484239
49	0x3d15662a	0.036474384
50	0x3db494d0	0.08817446
51	0x3e24b2b6	0.16083798
52	0xbd8b5b88	-0.068045676
53	0xbd95fa36	-0.073231146
54	0xbea2d88f	-0.31805846
55	0x3be915e1	0.007113204
56	0x3e767316	0.2406734
57	0x3d46e5fc	0.048559174
58	0x3ef0fe96	0.47069234
59	0xbe482084	-0.19543654
60	0x3d9deffc	0.07711789
61	0xbed96a12	-0.42463738
62	0xbe40cbbd	-0.1882772
63	0x3e968b79	0.29403284
64	0x3e51819a	0.20459595
65	0xbe3ec65c	-0.18630356
66	0xbf06c914	-0.5265057
67	0xbe1dd6d2	-0.15413979
68	0x3e76209f	0.24035881
69	0x3e139490	0.14412141
70	0x3d942213	0.07233062
71	0xbe0f97c7	-0.14022742
72	0x3e70a8b1	0.2350185
73	0xbe7f6ae3	-0.24943118
74	0xbe45135d	-0.19245668
75	0xbe349ec9	-0.17638697
76	0x3e431438	0.19050682
77	0x3c8d9578	0.017283186
78	0xbd8033a2	-0.06259848
79	0xbc6f6d26	-0.014613425
80	0xba88f980	-0.0010450333
81	0x3e6e37f4	0.23263532
82	0x3a81ac09	0.0009893189
83	0xbe3501e0	-0.17676497
84	0xbe88bb14	-0.2670523
85	0xbda3bb2e	-0.07994686
86	0xbd8886a3	-0.06666305
87	0x3e7c28f0	0.24624991
88	0x3f2e550f	0.6809854
89	0x3d1bc297	0.038027372
90	0xbcbb30b1	-0.022850366
91	0xbe97e790	-0.29668856
92	0xbe50ad41	-0.20378591
93	0x3ea505d0	0.32230997
94	0x3ccce540	0.025011659
95	0x3d3d5390	0.04622227
96	0x3dedac3d	0.116051175
97	0x3e7902df	0.24317501
98	0x3eb7f72c	0.35930765
99	0x3ea55322	0.32289988
100	0xbc8d7e6a	-0.017272193
101	0xbeb27f4b	-0.34862742
102	0xbe4a69f6	-0.19766983
103	0xbddb8aad	-0.1071981
104	0xbecb535b	-0.39712033
105	0x3f2625bf	0.64901346
106	0x3bae0987	0.0053111943
107	0x3ee87e89	0.4540904
108	0x3e144373	0.14478855
109	0x3c881e7f	0.016616104
110	0xbd81af60	-0.06332278
111	0xbe2da98f	-0.16959213
112	0xbde1b6b7	-0.11021178
113	0x3ea18c92	0.3155256
114	0xbdeb9c29	-0.115043946
115	0xbdea06fc	-0.114271134
116	0xbda9642d	-0.0827106
117	0x3e5b596d	0.21420832
118	0x3ee02c8f	0.43783996
119	0xbe1a6a69	-0.15079655
120	0x3df7037a	0.1206121
121	0xbd6db611	-0.05803496
122	0x3d90a441	0.07062579
123	0x3cb309eb	0.021855315
124	0xbc8f34b0	-0.017481178
125	0xbc8306cb	-0.01599445
126	0xbe882583	-0.2659112
127	0xbec2aa9f	-0.380208
128	0x3e423c6f	0.18968366
129	0xbcbe3b59	-0.023221659
130	0x3e1abc7c	0.15110964
131	0xbe084961	-0.13309242
132	0xbd928424	-0.0715411
133	0xbd4c20f3	-0.04983611
134	0xba7cbc5a	-0.00096411037
135	0x3d52d990	0.051477015
136	0xbe4b8ca6	-0.19877872
137	0x3e138d1a	0.14409295
138	0x3e205f4f	0.15661357
139	0xbe5aa512	-0.21352032
140	0xbefa48fe	-0.48883814
141	0x3eb6d73e	0.35711092
142	0x3d72bf7a	0.059264638
143	0xbe886b46	-0.26644343
144	0xbe79127f	-0.24323462
145	0xbe2124d5	-0.15736707
146	0xbcd34ac9	-0.025792496
147	0xbe33a952	-0.1754506
148	0x3d20865b	0.03919063
149	0x3e0e725c	0.13910812
150	0x3d5c0ca9	0.05372301
151	0xbe9c99fd	-0.30586234
152	0x3e2ef522	0.17085698
153	0xbf338590	-0.70125675
154	0xbec6e003	-0.38842782
155	0x3e0f9853	0.14022951
156	0x3e9aa5e6	0.30204695
157	0xbb2a70e6	-0.0026007234
158	0xbcd9d819	-0.026592301
159	0xbe910b56	-0.2832896
160	0x3d31ba2a	0.04339043
161	0xbeaa4db8	-0.3326242
162	0x3d688a8b	0.05677275
163	0x3d53f0a9	0.051743183
164	0x3ec43ca9	0.3832753
165	0x3de82ae9	0.113363095
166	0x3ea24893	0.31695995
167	0x3d3dcf1f	0.046340104
168	0x3df2d8b4	0.11857739
169	0x3d42afd1	0.047530953
170	0x3ef7e495	0.48416582
171	0xbe31c801	-0.17361452
172	0x3e695fb4	0.22790414
173	0xbe550c7d	-0.20805545
174	0xbb101097	-0.0021982545
175	0xbdc0e67f	-0.09418964
176	0x3e2f6a6b	0.17130439
177	0xbd938bd6	-0.07204406
178	0x3c96b39f	0.018396197
179	0xbe9c390d	-0.30512276
180	0xbe8e0782	-0.27740103
181	0x3e8a7630	0.27043295
182	0x3dcaa270	0.09894264
183	0x3e3fd1e0	0.18732405
184	0x3e54de09	0.20787825
185	0xbe271efe	-0.16320416
186	0x3e331f21	0.17492343
187	0xbd9d48dc	-0.076799124
188	0x3d56a344	0.052401796
189	0xba03da7b	-0.00050298095
190	0xbe23cba1	-0.15995647
191	0xbe4bc413	-0.19899015
192	0xbdb8844e	-0.0900961
193	0xbcaabdc4	-0.02084244
194	0xbdadd20b	-0.08487328
195	0xbb9de6b0	-0.00481876
196	0x3e801b99	0.25021055
197	0xbea86f81	-0.3289757
198	0xbd9e1dd7	-0.07720535
199	0x3f00e2a5	0.5034583
200	0xbdea712d	-0.11447368
201	0x3e3487a9	0.17629875
202	0xbc64b65c	-0.0139594935
203	0x3d44c507	0.048039462
204	0x3dbeac2d	0.09310184
205	0x3db3a264	0.08771208
206	0x3e53cdc8	0.20683968
207	0xbe7b530e	-0.24543402
208	0xbe1f7b8a	-0.1557447
209	0x3dbd6369	0.092474766
210	0x3d8db746	0.06919722
211	0xbe3e1f69	-0.1856667
212	0x3ed37826	0.41302603
213	0xbd74f5e6	-0.05980482
214	0x3e4ebcca	0.20189205
215	0x3ee08a12	0.4385534
216	0x3e56b064	0.20965725
217	0x3e752f8c	0.23943919
218	0x3dc76ceb	0.09737571
219	0xbe503d0f	-0.20335792
220	0xbea85daa	-0.3288396
221	0xbe9c4f96	-0.3052947
222	0xbdb2bb06	-0.08727078
223	0xbd85d153	-0.06534066
224	0xbed873c2	-0.42275816
225	0xbdfe7b19	-0.12425823
226	0xbd3fd2f5	-0.046832044
227	0x3e96a9a1	0.29426292
228	0xbd9cdf95	-0.076598324
229	0x3f1eccfc	0.6203153
230	0xbcc91217	-0.024544759
231	0x3e8a3d42	0.2699986
232	0xbd3799e7	-0.044824507
233	0xbe8da156	-0.27662152
234	0xbe38eaf6	-0.1805838
235	0xbe436f2e	-0.1908538
236	0x3de68717	0.11256235
237	0xbe884ea0	-0.26622486
238	0x3defe84f	0.11714231
239	0x3da987ae	0.08277832
240	0xbea39abf	-0.31954
241	0x3e5fe920	0.21866274
242	0xbe469e26	-0.19396266
243	0xbe903b1f	-0.28170106
244	0x3e6f11cd	0.23346634
245	0xbe31821f	-0.17334794
246	0xbe857bc8	-0.26071
247	0xbe1c240b	-0.15248124
248	0x3e36a5b8	0.17836654
249	0xbe476961	-0.19473793
250	0x3e1b469b	0.15163653
251	0xba048b6c	-0.0005056176
252	0x3e9ad2d8	0.30238986
253	0xbe8b469a	-0.27202302
254	0xbe443537	-0.19160925
255	0xbc880626	-0.016604494

model.gnn.gnn_layers.0.gat_conv.res_fc.weight f4 [64, 30]
0	0x3da7a834	0.08186379
1	0x3e173ad6	0.14768538
2	0xbd8dd079	-0.06924529
3	0xbe808899	-0.25104216
4	0x3dde4ef4	0.10854903
5	0xbe766a51	-0.24063994
6	0xbcf2cf15	-0.02963976
7	0xbe980f48	-0.2969916
8	0x3e979c55	0.2961146
9	0xbe0547f5	-0.1301573
10	0xbe8508a9	-0.2598317
11	0xbd0108e5	-0.031502623
12	0x3ef19d6c	0.47190416
13	0xbd6ae437	-0.05734655
14	0x3a76e264	0.000941789
15	0x3e3e7b31	0.18601681
16	0xbee87744	-0.45403492
17	0x3e0a49d9	0.13504733
18	0xbe87ca0c	-0.26521337
19	0xbe324290	-0.17408204
20	0x3e02e1db	0.1278147
21	0xbdb07299	-0.08615608
22	0x3de6c81d	0.11268637
23	0x3da1f84b	0.07908686
24	0xbeb6b36d	-0.35683766
25	0xbd0545e5	-0.03253736
26	0x3ca708fc	0.020390026
27	0x3d48def4	0.04904075
28	0xbda6e646	-0.0814939
29	0x3eea48bc	0.45758617
30	0xbd9c480d	-0.0763093
31	0x3ec4478a	0.3833583
32	0x3dacb642	0.084332004
33	0xbe213af1	-0.1574514
34	0xbd0c09c4	-0.034189
35	0x3e37e0f5	0.17956908
36	0xbdc1331b	-0.09433576
37	0xbcd45bfa	-0.025922764
38	0x3dfbcda3	0.122950815
39	0x3df8b9fd	0.121448494
40	0x3e332980	0.174963
41	0x3ecd03b5	0.4004189
42	0x3dba8aad	0.091084816
43	0xbe4ee86f	-0.20205854
44	0xbaa7a8a9	-0.0012791354
45	0xbe8cfbe5	-0.2753593
46	0x3d633264	0.055467978
47	0xbd9fe940	-0.07808161
48	0xbe5510f2	-0.20807245
49	0xbe7769c7	-0.24161445
50	0xbe2ac8fc	-0.16678232
51	0x3d21dea9	0.039518986
52	0xbe27e33f	-0.16395281
53	0x3e8d006d	0.27539387
54	0xbd9eddab	-0.077571236
55	0x3c6e9299	0.014561319
56	0xbeb08d23	-0.3448268
57	0x3b0cde7d	0.0021494918
58	0x3de06aab	0.10957845
59	0x3d863328	0.06552726
60	0x3e0f386a	0.13986364
61	0x3e46189a	0.19345322
62	0xbdb89c8c	-0.09014234
63	0x3de8bc13	0.11363997
64	0x3dec8b9f	0.11550068
65	0xbe778fc8	-0.24175942
66	0x3e0da761	0.13833381
67	0xbcefd487	-0.029276146
68	0x3e0cd793	0.1375411
69	0x3dcb69b2	0.09932269
70	0x3e4f8748	0.2026645
71	0xbc890b23	-0.016728943
72	0xbe2ad5ca	-0.16683117
73	0x3e8ee8db	0.2791203
74	0xbe77e280	-0.24207497
75	0x3e0e99fa	0.13925925
76	0xbb9b2cf2	-0.0047355825
77	0xbe6bcd1c	-0.23027462
78	0x3e51cfa9	0.20489372
79	0xbde2c8b3	-0.110734366
80	0x3e5a2a68	0.21305239
81	0xbc7602c1	-0.015015305
82	0xbf2eea4d	-0.68326265
83	0x3edf7f72	0.4365192
84	0x3d81b7d4	0.063338906
85	0x3d418305	0.04724409
86	0x3bab56f9	0.005228874
87	0x3e1c8aa3	0.1528726
88	0x3e87b40e	0.26504558
89	0xbdce5f20	-0.100767374
90	0x3d13dc01	0.036098484
91	0xbe4c53a3	-0.1995378
92	0xbdf02fd0	-0.117278695
93	0xbdfa8c5b	-0.12233802
94	0x3c3097a8	0.010778345
95	0x3daea6e4	0.085279256
96	0xbea291e9	-0.31751946
97	0x3da21994	0.07915035
98	0xbde686ed	-0.11256204
99	0xbe0f529a	-0.13996354
100	0x3e13b5b9	0.1442479
101	0xbe001984	-0.12509733
102	0xbed71413	-0.42007503
103	0xbe13354e	-0.14375803
104	0xbe704aef	-0.23466085
105	0x3e7e19ad	0.24814482
106	0x3e86d5a7	0.2633488
107	0xbe377f11	-0.17919566
108	0xbe536a18	-0.2064594
109	0xbea8a064	-0.32934868
110	0xbdd82b54	-0.10555139
111	0x3e84de97	0.25951073
112	0x3e2e03a7	0.16993581
113	0xbd043b8b	-0.032283347
114	0x3d0fda22	0.035120137
115	0xbdc5da42	-0.0966077
116	0xbe0bbc38	-0.13646019
117	0xbe762c19	-0.2404026
118	0xbd47645d	-0.0486797
119	0x3eb33297	0.34999534
120	0x3eef2e24	0.4671489
121	0xbdc7db76	-0.09758656
122	0x3e801b7d	0.25020972
123	0xbe286b5f	-0.16447209
124	0xbe00549b	-0.12532274
125	0xbdd1598b	-0.10222157
126	0xbe870e18	-0.2637794
127	0x3c770939	0.015077882
128	0xbe26d44f	-0.16291927
129	0x3de38f74	0.11111346
130	0x3e7b77bf	0.24557398
131	0xbe9e1623	-0.30876264
132	0x3e63ea5a	0.22257367
133	0xbde8e9b0	-0.11372697
134	0x3e5a53e6	0.21321067
135	0x3ebc5ee5	0.3679115
136	0x3ecf7a35	0.40522924
137	0xbe777a1a	-0.24167672
138	0x3ee5f6dc	0.449149
139	0xbde78d60	-0.11306262
140	0x3e52c3c2	0.20582488
141	0xbe5f81d9	-0.21826877
142	0x3eb7d062	0.3590117
143	0x3df8a6fc	0.12141225
144	0x3ea80081	0.32812884
145	0xbeb33eed	-0.35008946
146	0xbde29e12	-0.11065306
147	0xbf42027e	-0.7578505
148	0xbec28491	-0.37991765
149	0x3f07c89a	0.5304047
150	0xbe265232	-0.16242293
151	0x3e740bbb	0.238326
152	0x3e648b89	0.22318853
153	0x3d9f32d0	0.077733636
154	0xbda78126	-0.0817893
155	0x3cc39919	0.023876714
156	0x3e8f47c4	0.2798444
157	0xbc3c6dfd	-0.011500833
158	0xbe4caab7	-0.19986998
159	0x3e97592e	0.29560226
160	0x3e4c92e4	0.1997791
161	0x3cf60c92	0.03003529
162	0x3ee21ad3	0.4416109
163	0x3e8eb9c5	0.27876106
164	0x3ea114ac	0.31461084
165	0x3c672354	0.014107544
166	0x3c6e7d47	0.014556236
167	0x3e94a262	0.29030138
168	0xbd21180d	-0.039329577
169	0xbe01a034	-0.12658769
170	0xbe09759e	-0.13423774
171	0x3d29b149	0.041428838
172	0x3e904437	0.28177044
173	0x3e6abcf3	0.22923641
174	0xbe8a04f8	-0.26956916
175	0xbde9b21e	-0.11410926
176	0xbee9665b	-0.45585904
177	0xbe8feb9e	-0.2810945
178	0xbd81eee7	-0.06344395
179	0xbcf695ba	-0.030100692
180	0xbce5fe96	-0.028075498
181	0xbea98fe8	-0.33117604
182	0xbd2f9a0b	-0.042871516
183	0x3e85556d	0.26041737
184	0xbaf372b0	-0.0018573608
185	0x3dd40d18	0.1035406
186	0x3cf16981	0.029469253
187	0x3eb2f09d	0.34949198
188	0xbda952da	-0.08267756
189	0x3c4e72fc	0.012600657
190	0x3e98c282	0.29835898
191	0x3e5dcc7a	0.21660033
192	0xbda1f18f	-0.07907402
193	0x3c93ebe5	0.01805682
194	0x3dc28df6	0.09499733
195	0xbc0ed2ba	-0.008717233
196	0xbe199706	-0.14999017
197	0xbe1c8371	-0.15284516
198	0x3d025c29	0.031826172
199	0x3e6f09c0	0.23343563
200	0xbe63debf	-0.2225294
201	0x3cf87d13	0.030333078
202	0xbcfcc0b9	-0.030853616
203	0x3e4ab094	0.19793922
204	0x3e7906f8	0.24319065
205	0xbe09d501	-0.13460161
206	0xbdbf2621	-0.093334444
207	0x3df3e192	0.119082585
208	0xbe0697da	-0.13143864
209	0x3c9df02b	0.01927956
210	0x3eb410f4	0.35169184
211	0xbeeea018	-0.46606517
212	0xbb8312eb	-0.004000058
213	0xbdecdc32	-0.115654364
214	0xbe2c03a3	-0.16798262
215	0x3e33754c	0.17525214
216	0x3adcb507	0.0016838618
217	0x3e5b7126	0.21429881
218	0xbebb5688	-0.36589456
219	0xbf18870d	-0.5958107
220	0xbe280047	-0.16406356
221	0x3d396326	0.04526057
222	0xbe81e9aa	-0.25373584
223	0xbec95ec0	-0.393301
224	0x3d6c0404	0.057621017
225	0xbd0d3a1b	-0.03447924
226	0x3e92cbcc	0.2867111
227	0x3e71613b	0.23572247
228	0xbe17368f	-0.14766906
229	0x3da4f466	0.08054428
230	0x3d94e417	0.07270067
231	0xbe8d5658	-0.27604938
232	0x3e8cd64d	0.2750725
233	0xbeaf13a3	-0.3419467
234	0x3d954b17	0.07289713
235	0x3e31a76a	0.1734902
236	0x3ebb17f4	0.36541712
237	0xbdb0c3ac	-0.086310714
238	0x3e6db839	0.23214807
239	0xbe399551	-0.18123366
240	0xbcdf8854	-0.027286686
241	0xbdb2a634	-0.08723107
242	0xbe9c5cb8	-0.3053949
243	0xbeadc12c	-0.3393644
244	0xbd7a9d62	-0.06118525
245	0x3b7597dc	0.0037474548
246	0x3e4f4294	0.20240241
247	0x3c10a751	0.008828954
248	0x3e47e6c3	0.19521622
249	0x3e63152f	0.2217605
250	0x3e2f5a64	0.17124325
251	0x3d9bbcd0	0.076043725
252	0x3ddb0a69	0.10695345
253	0xbdc0a718	-0.094068706
254	0x3dda8024	0.10668972
255	0x3e9e3634	0.3090073

model.gnn.gnn_layers.0.gat_conv.res_fc.bias f4 [64]
0	0x3c4c7693	0.012479442
1	0xbb95c546	-0.004570636
2	0xbbf07ade	-0.0073388657
3	0x3c8b6262	0.017014686
4	0x3a79751e	0.0009516048
5	0xbb45386c	-0.0030093445
6	0x3cec25f5	0.028826693
7	0x3afac1f5	0.001913129
8	0x3c7a8a43	0.015291753
9	0xbc823bcc	-0.015897654
10	0x3c868647	0.01642145
11	0xbc71ba05	-0.014753823
12	0xbcdf668d	-0.02727058
13	0xbc2a605b	-0.0103989495
14	0x39c68beb	0.0003786975
15	0xbb8da68f	-0.004322834
16	0xbce9e7c7	-0.028552903
17	0xbc80ae52	-0.015708122
18	0x399bb41c	0.00029698096
19	0xbc69d5cb	-0.014272164
20	0x3c8ac3d9	0.01693909
21	0xbba3a017	-0.0049934494
22	0x3c63e4c0	0.013909519
23	0x3c1376ff	0.009000539
24	0x3c9b1a06	0.018933307
25	0x3b9520bf	0.004551023
26	0xbac2d762	-0.0014865214
27	0x3cfa6c14	0.030569114
28	0xbbc8e5ed	-0.006130925
29	0x3c18f88c	0.009336602
30	0xbc81eb28	-0.015859202
31	0x3c0eeb01	0.0087230215
32	0x3c61b87e	0.0137768965
33	0xbb8ad428	-0.004236717
34	0x3be89fd9	0.0070991335
35	0x3c614abc	0.013750728
36	0xbc12f1a4	-0.008968744
37	0x3c47467a	0.012162799
38	0x3a69c8cb	0.0008918165
39	0xbb91a92c	-0.0044452157
40	0x3c702ce1	0.014659137
41	0xbba222be	-0.0049479892
42	0x3c613eb0	0.013747856
43	0x3c419c66	0.011817073
44	0x3ba21516	0.0049463613
45	0x3c31748f	0.010831012
46	0x3b982a84	0.00464374
47	0x3d0075fd	0.031362522
48	0x39fb4191	0.00047923301
49	0xbd25e4d2	-0.040501423
50	0x3cb41b1e	0.021985587
51	0x3c225c3c	0.009909686
52	0x3c230bc2	0.009951534
53	0xbbcfe332	-0.0063442225
54	0x3b94e375	0.0045437166
55	0x3c5f52a4	0.013630543
56	0xbc9f2ace	-0.01942959
57	0xbcc2273d	-0.02370035
58	0xbc4af09e	-0.012386469
59	0x3c2a30ec	0.01038764
60	0xbd10140c	-0.03517537
61	0x3bdae9ce	0.0066807037
62	0xbc84c84b	-0.016208788
63	0xbc9e3a03	-0.019314772

model.gnn.gnn_layers.1.gat_conv.attn_l f4 [1, 8, 8]
0	0x3ed5c701	0.4175339
1	0xbea68475	-0.32522932
2	0x3f3bed1e	0.7340869
3	0x3e4e1e70	0.20128798
4	0xbddab87d	-0.106797196
5	0x3e2fd655	0.17171605
6	0xbd04153f	-0.032246824
7	0x3eaee4b1	0.34158853
8	0xbe0970c0	-0.13421917
9	0xbe5de262	-0.2166839
10	0xbf1ce68d	-0.6128929
11	0x3eb12360	0.345973
12	0xbe3cc9a1	-0.1843629
13	0xbec41988	-0.3830073
14	0xb98124e2	-0.00024632277
15	0x3e85cbaf	0.2613196
16	0x3eac0131	0.3359466
17	0x3ecc4022	0.3989268
18	0x3d866f12	0.06564154
19	0xbe61a10a	-0.22034088
20	0xbf065969	-0.5248018
21	0x3ddf8fe9	0.109161206
22	0xbe819bf9	-0.2531431
23	0xbe8492f5	-0.2589337
24	0x3d58ef37	0.052962508
25	0x3e80afe3	0.2513419
26	0xbdc24307	-0.09485441
27	0x3ed6663c	0.41874874
28	0x3e5c2238	0.21497428
29	0xbef115b7	-0.4708688
30	0x3e89481f	0.26812837
31	0x3c35f27e	0.011105178
32	0x3e92d82e	0.28680557
33	0x3ead0344	0.33791554
34	0x3b70cf8e	0.0036744806
35	0x3e7501bb	0.23926441
36	0x3e4164dd	0.18886133
37	0x3cf97fb4	0.030456401
38	0xbd8e515b	-0.06949111
39	0x3d864677	0.06556409
40	0x3db68876	0.089127466
41	0xbeb9efb4	-0.3631569
42	0x3d5ad917	0.05342969
43	0x3ea8a516	0.3293845
44	0x3ebe78c2	0.37201506
45	0xbe63fca3	-0.22264342
46	0x3f138930	0.57631207
47	0x3f065222	0.52469075
48	0x3eb739c4	0.3578626
49	0xbe2e6c34	-0.17033464
50	0x3e0c35af	0.13692354
51	0x3eeeba0c	0.46626318
52	0x3ec5b5ba	0.3861521
53	0x3c21b7ec	0.009870511
54	0x3de79b99	0.11308975
55	0xbeb250b0	-0.34827185
56	0x3f0a5ffc	0.5405271
57	0x3e88e202	0.2673493
58	0xbe82d097	-0.25549766
59	0x3e297e58	0.16552103
60	0x3d7f76c5	0.062369127
61	0x3de5adf7	0.11214822
62	0xbe25fbab	-0.16209285
63	0xbe8dccd9	-0.2769535

model.gnn.gnn_layers.1.gat_conv.attn_r f4 [1, 8, 8]
0	0xbefb8e3d	-0.49131957
1	0xbcb0c4d5	-0.021578232
2	0x39d459b1	0.00040502616
3	0x3e69e2f0	0.22840476
4	0xbd8b818e	-0.0681182
5	0x3dd5a844	0.10432485
6	0x3e4d3c1f	0.20042466
7	0xbdeea2c2	-0.11652137
8	0x3eb5e688	0.35527444
9	0xbe185f0e	-0.1488001
10	0xbe085427	-0.13313352
11	0xbe9a81b8	-0.30177093
12	0x3beef3b4	0.0072922353
13	0xbec10545	-0.37699333
14	0x3c47e5f9	0.012200826
15	0x3ee34cae	0.4439444
16	0x3dc28043	0.0949712
17	0xbf010f5e	-0.50414073
18	0x3e02b1b7	0.12763105
19	0x3e267216	0.16254458
20	0xbd94d182	-0.07266523
21	0x3df0ce2e	0.11758076
22	0xbef0e295	-0.47047868
23	0x3d3a2cba	0.04545281
24	0xbe89a161	-0.26880935
25	0xbe8b9d1b	-0.272683
26	0xbe817875	-0.25287214
27	0xbd0ce667	-0.034399416
28	0x3e967da5	0.29392734
29	0x3e0ee1c1	0.13953306
30	0xbdc0a8b1	-0.09407175
31	0x3ee4518a	0.4459346
32	0x3dcfd696	0.10148351
33	0x3e45c245	0.19312389
34	0xbeed141c	-0.46304405
35	0xbdecdd87	-0.115656905
36	0x3cf74a7c	0.030186884
37	0x3d9ebdc6	0.0775104
38	0x3d765c55	0.06014665
39	0xbec4fdab	-0.38474783
40	0xbae80749	-0.0017702366
41	0x3f094d38	0.5363345
42	0x3ec490cf	0.3839173
43	0xbe250a92	-0.16117314
44	0x3e760077	0.24023615
45	0x3e448f64	0.19195324
46	0xbdc90abf	-0.09816503
47	0x3b44308d	0.0029936165
48	0x3eb7e370	0.3591571
49	0x3e0686ba	0.13137332
50	0xbdc0624b	-0.09393748
51	0x3e3fcb77	0.1872996
52	0x3d630910	0.055428565
53	0x3f25f9d8	0.64834356
54	0xbdcd30e1	-0.100190885
55	0xbe3b1ea6	-0.1827341
56	0xbe687f99	-0.22704925
57	0x3d776760	0.06040132
58	0xbedc0874	-0.429752
59	0x3e885bd1	0.2663255
60	0x3da01cc8	0.078179896
61	0x3e780eef	0.24224447
62	0xbe62a521	-0.22133304
63	0xbe2f565a	-0.17122784

model.gnn.gnn_layers.1.gat_conv.bias f4 [64]
0	0xbc954db7	-0.018225534
1	0xbc2c87a8	-0.01053039
2	0x3c5bf354	0.013424713
3	0x3b6e9f1c	0.0036410755
4	0xbbb6a58a	-0.005573933
5	0xb917207a	-0.0001441258
6	0x3c29ae54	0.0103565045
7	0x3c53593a	0.012899691
8	0xbc954db7	-0.018225534
9	0xbc2c87a8	-0.01053039
10	0x3c5bf354	0.013424713
11	0x3b6e9f1c	0.0036410755
12	0xbbb6a58a	-0.005573933
13	0xb917207a	-0.0001441258
14	0x3c29ae54	0.0103565045
15	0x3c53593a	0.012899691
16	0xbc954db7	-0.018225534
17	0xbc2c87a8	-0.01053039
18	0x3c5bf354	0.013424713
19	0x3b6e9f1c	0.0036410755
20	0xbbb6a58a	-0.005573933
21	0xb917207a	-0.0001441258
22	0x3c29ae54	0.0103565045
23	0x3c53593a	0.012899691
24	0xbc954db7	-0.018225534
25	0xbc2c87a8	-0.01053039
26	0x3c5bf354	0.013424713
27	0x3b6e9f1c	0.0036410755
28	0xbbb6a58a	-0.005573933
29	0xb917207a	-0.0001441258
30	0x3c29ae54	0.0103565045
31	0x3c53593a	0.012899691
32	0xbc954db7	-0.018225534
33	0xbc2c87a8	-0.01053039
34	0x3c5bf354	0.013424713
35	0x3b6e9f1c	0.0036410755
36	0xbbb6a58a	-0.005573933
37	0xb917207a	-0.0001441258
38	0x3c29ae54	0.0103565045
39	0x3c53593a	0.012899691
40	0xbc954db7	-0.018225534
41	0xbc2c87a8	-0.01053039
42	0x3c5bf354	0.013424713
43	0x3b6e9f1c	0.0036410755
44	0xbbb6a58a	-0.005573933
45	0xb917207a	-0.0001441258
46	0x3c29ae54	0.0103565045
47	0x3c53593a	0.012899691
48	0xbc954db7	-0.018225534
49	0xbc2c87a8	-0.01053039
50	0x3c5bf354	0.013424713
51	0x3b6e9f1c	0.0036410755
52	0xbbb6a58a	-0.005573933
53	0xb917207a	-0.0001441258
54	0x3c29ae54	0.0103565045
55	0x3c53593a	0.012899691
56	0xbc954db7	-0.018225534
57	0xbc2c87a8	-0.01053039
58	0x3c5bf354	0.013424713
59	0x3b6e9f1c	0.0036410755
60	0xbbb6a58a	-0.005573933
61	0xb917207a	-0.0001441258
62	0x3c29ae54	0.0103565045
63	0x3c53593a	0.012899691

model.gnn.gnn_layers.1.gat_conv.fc.weight f4 [64, 64]
0	0x3d5a1a1b	0.053247552
1	0x3dc36912	0.09541525
2	0xbdc5d7f2	-0.09660329
3	0xbdf0a03c	-0.11749312
4	0xbe5e4d55	-0.21709187
5	0xbc383577	-0.011243216
6	0x3dec28ee	0.11531244
7	0xbdafac1a	-0.08577748
8	0x3e26bcb6	0.16282925
9	0x3e0497bb	0.12948506
10	0x3e2473cc	0.16059798
11	0x3cc99c35	0.024610618
12	0x3d5922e2	0.053011782
13	0x3e0e2e79	0.13884915
14	0xbd45cba6	-0.048289917
15	0xbe704cf2	-0.23466852
16	0xbe107822	-0.14108327
17	0xbe30432a	-0.17213121
18	0xbea01066	-0.3126251
19	0x3d32a37b	0.04361294
20	0xbdb65d76	-0.08904545
21	0x3dbf2799	0.093337245
22	0x3e7ba46a	0.24574438
23	0xbec37b65	-0.3818008
24	0x3e0cce28	0.13750517
25	0x3d809327	0.06278067
26	0x3e068f69	0.13140644
27	0xbd22474b	-0.03961877
28	0x3cc5d147	0.024147643
29	0x3dd67c74	0.10472956
30	0x3c4699db	0.012121643
31	0xbe691c62	-0.22764733
32	0xbebe4e14	-0.37168944
33	0xbf198071	-0.5996161
34	0x3e58ae18	0.21160161
35	0x3dc60cd4	0.096704155
36	0xbbf4c47e	-0.0074697128
37	0xbe05e869	-0.13076939
38	0x3da7d0da	0.08194132
39	0x3e302e21	0.17205097
40	0x3b8e255b	0.004337949
41	0xbebe21a7	-0.3713505
42	0xbea415d0	-0.32047892
43	0xbe30e475	-0.1727465
44	0xbe5954ea	-0.21223798
45	0x3d8473d1	0.06467403
46	0x3e277772	0.16354159
47	0xbd7741ad	-0.060365368
48	0xbe91138e	-0.28335232
49	0x3c74dd1b	0.014945294
50	0x3ef3e7dd	0.47637835
51	0xbe66cbc8	-0.22538674
52	0xbd9223d9	-0.07135744
53	0x3e1c97a1	0.15292217
54	0xbd614a7c	-0.055002674
55	0x3e6e4f01	0.23272325
56	0x3c097202	0.008388998
57	0x3e74b4ae	0.23897049
58	0x3da9a191	0.082827695
59	0xbdf3797c	-0.11888406
60	0x3ea419c8	0.3205092
61	0xbe057982	-0.13034633
62	0x3ebf3178	0.3734243
63	0x3e167363	0.14692454
64	0xbdc2d087	-0.0951243
65	0xbe2bf541	-0.16792776
66	0xbe58d709	-0.2117578
67	0xbde95619	-0.11393375
68	0xbd7674a3	-0.060169827
69	0xbe843c1a	-0.25827104
70	0x3e2d62b6	0.16932186
71	0x3e8045a4	0.25053132
72	0x3d6c7ace	0.057734303
73	0xbdb38295	-0.08765141
74	0xbda8d294	-0.082432896
75	0x3e9de8c7	0.30841658
76	0x3e1958a8	0.14975226
77	0xbd0171a1	-0.031602506
78	0x3cf95967	0.030438138
79	0xbe53816b	-0.20654838
80	0x3e076d97	0.13225399
81	0x3e9bead7	0.30452606
82	0xbe9c7d4b	-0.3056434
83	0x3dcd3e47	0.10021644
84	0x3d1849a3	0.0371796
85	0xbe6970b6	-0.22796902
86	0xbb1b2b0a	-0.0023676776
87	0x3ce78cf6	0.028265458
88	0xbd2da9ef	-0.04239839
89	0x39e96de6	0.00044523104
90	0x3eb162c3	0.34645662
91	0x3e6ab456	0.22920355
92	0x3e87e5d4	0.26542532
93	0x3dd0b62f	0.10190999
94	0x3e1f166a	0.15535894
95	0x3e89d109	0.26917294
96	0x3e8afaac	0.27144372
97	0xbe256d7d	-0.16155048
98	0xbdcb52da	-0.09927912
99	0xbd739438	-0.059467524
100	0xbde0d547	-0.109781794
101	0x3d811b96	0.0630409
102	0xbc1dfa37	-0.009642175
103	0x3d95f01d	0.073211886
104	0xbdea84fb	-0.11451145
105	0x3dd03d1a	0.10167904
106	0xbe861b44	-0.26192677
107	0x3e6311ab	0.22174709
108	0x3eae5c74	0.3405491
109	0xbd43e665	-0.047827143
110	0xbe69d515	-0.2283519
111	0x3d980912	0.07423605
112	0x3d392941	0.04520536
113	0xbda2f8d6	-0.07957618
114	0xbe852048	-0.2600119
115	0x3e0d436c	0.1379525
116	0x3e1a238e	0.15052626
117	0xbe5bb5e4	-0.21456105
118	0xbd8fa86b	-0.07014545
119	0xbdba7de1	-0.09106041
120	0xbe4c108e	-0.1992819
121	0xbd85ccc9	-0.065332
122	0x3e8da041	0.27661327
123	0x3ceb2850	0.028705746
124	0x3dce4f4f	0.10073721
125	0xbe39680d	-0.18106098
126	0x3e82b584	0.2552911
127	0xbe8e806a	-0.27832347
128	0x3f0c4513	0.547929
129	0xbe229dc6	-0.15880498
130	0x3dde4172	0.108523265
131	0xbde300da	-0.11084147
132	0xbdc91ecc	-0.09820327
133	0xbdfd62b7	-0.12372344
134	0xbe917f3f	-0.28417394
135	0x3df24403	0.118293785
136	0x3e916276	0.28395432
137	0x3e9e2b76	0.30892533
138	0x3df97bd5	0.12181822
139	0x3e4a13b2	0.19734076
140	0xbdac4d5a	-0.08413191
141	0xbd3f73ca	-0.046741284
142	0xbcd68d66	-0.02619047
143	0x3e1d3e49	0.15355791
144	0xbe19ddcb	-0.15026014
145	0x3e573a24	0.21018273
146	0x3e41233d	0.18861099
147	0xbdfe1133	-0.12405624
148	0x3dd88a48	0.1057325
149	0xbe3608cd	-0.17776795
150	0x3c340a6d	0.010988814
151	0xbd821f28	-0.06353599
152	0xbd0bdbde	-0.03414523
153	0x3df49f22	0.11944415
154	0x3bdc753b	0.006727842
155	0xbd22f010	-0.039779723
156	0x3c3fc62a	0.011704961
157	0xbd3e7520	-0.046498418
158	0xbc80a57c	-0.01570391
159	0x3dad18c8	0.08451992
160	0xbdfb6a90	-0.122761846
161	0x3d0a5b55	0.033778507
162	0x3e30246e	0.17201397
163	0x3e7c18e8	0.24618876
164	0xbd84a199	-0.06476135
165	0xbe396d4d	-0.18108101
166	0x3e09f477	0.13472162
167	0x3e311918	0.17294729
168	0x3c527e22	0.012847455
169	0x3ecbc187	0.39796087
170	0xbe27c723	-0.16384558
171	0xbd7b4ada	-0.06135068
172	0x3e92bfe2	0.2866202
173	0xbcc89770	-0.024486274
174	0x3d25e00a	0.040496863
175	0x3e7ac5c1	0.244895
176	0x3de13108	0.1099568
177	0xbe3e94a0	-0.18611383
178	0x3da3c395	0.07996289
179	0xbd9a0601	-0.075206764
180	0xbe1cd77c	-0.15316576
181	0xbe3a2095	-0.18176492
182	0x3e74bd69	0.23900379
183	0x3e3bc644	0.18337351
184	0xbdd2a84d	-0.10286007
185	0xbdf19acc	-0.11797103
186	0xbd804095	-0.06262318
187	0xbd979c0e	-0.07402812
188	0xbdeb3d8b	-0.11486348
189	0xbe11a0b2	-0.14221457
190	0xbe20dae2	-0.15708497
191	0xbe279573	-0.16365604
192	0xbe2a91fd	-0.16657253
193	0xbf021716	-0.50816476
194	0x3e2776ab	0.16353862
195	0xbe0819fe	-0.13291165
196	0x3e086a54	0.13321811
197	0xbdb64fea	-0.08901961
198	0x3d479bed	0.048732687
199	0x3bb96223	0.0056574508
200	0xbdbac56e	-0.09119688
201	0x3cf493b0	0.02985558
202	0xbe5b7bf0	-0.21433997
203	0xbecf7a10	-0.40522814
204	0xbe4e73e1	-0.20161392
205	0x3e2a2486	0.16615495
206	0xbd96f18d	-0.07370291
207	0xbe331b24	-0.17490822
208	0xbe374bf5	-0.17900069
209	0x3d5fb635	0.054617126
210	0xbe0f474c	-0.13992041
211	0x3ea8bdc1	0.3295727
212	0xbd59d214	-0.05317886
213	0xbe98bd9e	-0.29832166
214	0xbdc65858	-0.09684819
215	0x3de0f744	0.10984662
216	0x3cb37189	0.021904724
217	0xbe8d2a4e	-0.27571338
218	0xbc446bcc	-0.011988591
219	0xbba81872	-0.0051298672
220	0x3e4059f6	0.18784317
221	0x3ed46054	0.41479743
222	0x3dd3f46d	0.10349355
223	0xbe29cbf3	-0.16581707
224	0x3c94beb5	0.018157342
225	0xbccbcfa1	-0.024879279
226	0xbe20df65	-0.15710218
227	0xbd9c272e	-0.076246604
228	0x3e2fcbe6	0.17167625
229	0x3ddd513c	0.1080651
230	0xbd49d704	-0.04927732
231	0xbe2fbcf6	-0.17161927
232	0x3dbc19af	0.09184586
233	0x3dc69975	0.09697238
234	0x3d36e455	0.04465135
235	0x3d6e1962	0.058129676
236	0xbc98f677	-0.018672211
237	0xbd109f5e	-0.035308234
238	0x3d2159c5	0.03939225
239	0x3c3cbb97	0.011519334
240	0xbc3f53a8	-0.01167766
241	0xbeb9c3e6	-0.3628227
242	0xbd663daf	-0.05621117
243	0xbe6b760d	-0.22994252
244	0x3e9ff34b	0.31240305
245	0xbe380b82	-0.1797314
246	0x3b3fba1d	0.002925522
247	0xbc8cc6a8	-0.01718457
248	0xbe7f645c	-0.24940628
249	0xbdeb6ec4	-0.11495736
250	0xbd2843c3	-0.041080248
251	0xbd716df4	-0.05894275
252	0xbde19f4c	-0.110167116
253	0x3c8d9f0f	0.01728776
254	0xbd41854e	-0.04724627
255	0x3e3eb288	0.18622792

model.readout.weight_and_sum.atom_weighting.0.weight f4 [1, 8]
0	0x3e392b9c	0.18083042
1	0xbe947e6f	-0.2900271
2	0x3d178833	0.036995124
3	0x3bc83a57	0.0061104703
4	0xbe54c5b8	-0.20778549
5	0xbecfaaa4	-0.40559876
6	0xbe6eb045	-0.23309429
7	0xbe992d1f	-0.29917237

model.predict.predict.1.weight f4 [128, 16]
0	0xbc053d46	-0.0081322845
1	0xbd731ad6	-0.059351765
2	0x3cf754d9	0.030191826
3	0xbe1c901d	-0.1528935
4	0xbddd0295	-0.10791508
5	0x3dc8fc50	0.0981375
6	0xbd33bf14	-0.0438834
7	0xbe5d738d	-0.2162611
8	0x3e3b7c33	0.18309097
9	0x3dd90324	0.10596302
10	0x3f2ef299	0.68338925
11	0x3e9d89bf	0.30769154
12	0x3e445a40	0.19175053
13	0x3ef06f58	0.4695995
14	0xbe8ab22b	-0.27089056
15	0x3cac0529	0.020998554
16	0x3e917699	0.28410795
17	0xbe828011	-0.25488332
18	0xbdc468b5	-0.09590284
19	0x3da41644	0.08012059
20	0x3e52db37	0.20591436
21	0x3dadeed3	0.08492818
22	0x3d6704f5	0.05640121
23	0x3e03e55e	0.12880465
24	0x3ea98ec4	0.33116734
25	0xbe8603d0	-0.26174784
26	0x39b12176	0.00033785
27	0xbe806698	-0.25078273
28	0xbe419c5b	-0.18907301
29	0x3da74b66	0.08168678
30	0xbe820d36	-0.25400704
31	0x3e044be2	0.12919572
32	0xbe5f7635	-0.21822436
33	0xbe2fcf60	-0.17168951
34	0x3c46a162	0.012123438
35	0xbd23ab74	-0.039958432
36	0x3e534895	0.20633157
37	0xbe303662	-0.17208245
38	0xbe837870	-0.25677824
39	0xbe680503	-0.22658162
40	0xbde31981	-0.11088849
41	0x3dda3764	0.10655096
42	0xbe4143e3	-0.18873553
43	0x3da5f7cb	0.081039034
44	0xbd8f9a6c	-0.070118755
45	0x3e64a929	0.22330154
46	0xbe1f1311	-0.15534617
47	0xbe3bc7a5	-0.18337877
48	0xbcd4e479	-0.02598785
49	0x3e19dc9b	0.1502556
50	0x3cbb7362	0.022882167
51	0x3d8fb837	0.07017558
52	0x3e464f98	0.193663
53	0xbde197bd	-0.1101527
54	0x3daf6efd	0.08566091
55	0xbb13a719	-0.0022530018
56	0xbe41d372	-0.18928316
57	0x3dd6b054	0.10482851
58	0x3e94a7f6	0.29034394
59	0x3e8faa36	0.28059548
60	0x3dd6681c	0.10469076
61	0x3ed730c7	0.42029402
62	0xbdd7abef	-0.105308406
63	0xbca3d8de	-0.020000871
64	0xbe510747	-0.20412932
65	0x3e02d5af	0.12776826
66	0x3e021178	0.12701976
67	0x3dd12ee1	0.102140196
68	0x3e96e0ad	0.2946829
69	0xbe8a4de9	-0.27012566
70	0x3dc32d72	0.095301524
71	0xbe38cc35	-0.18046649
72	0x3d096412	0.0335427
73	0x3e3ce99c	0.1844849
74	0x3eb1c193	0.34717998
75	0x3ecec110	0.4038167
76	0xbe084646	-0.13308057
77	0x3edcad31	0.43100885
78	0x3e0bae70	0.13640761
79	0x3de3af7c	0.11117455
80	0xbc5becd9	-0.013423168
81	0xbd287bcb	-0.041133683
82	0xbccdbd23	-0.025114601
83	0xbdb0db1c	-0.08635542
84	0xbd3dab27	-0.0463058
85	0xbdabcbe3	-0.08388498
86	0xbe5b5411	-0.21418788
87	0x3e63040d	0.22169514
88	0xbe25fc0e	-0.16209432
89	0x3cf4a800	0.029865265
90	0xbd650e7a	-0.05592201
91	0xbe8bd6d2	-0.27312332
92	0x3e421b75	0.18955787
93	0xbe24f427	-0.16108762
94	0xbb9526bd	-0.004551737
95	0xbdabb410	-0.083839536
96	0xbe64e55c	-0.22353119
97	0xbe4bd18b	-0.19904153
98	0x3e2d670f	0.16933845
99	0x3dcb18e2	0.099168554
100	0x3dade5b6	0.084910795
101	0xbe4aff78	-0.19824016
102	0x3e191dc6	0.14952764
103	0xbe2ee18b	-0.17078225
104	0x3df7b6cf	0.12095415
105	0x3e25fb25	0.16209085
106	0x3ef2f103	0.47449502
107	0x3e16d827	0.14730893
108	0x3df5daa5	0.12004594
109	0x3e9d7c00	0.30758667
110	0x3ce66f8a	0.028129358
111	0xbe935067	-0.2877228
112	0x3d83ca25	0.064350404
113	0x3d8d5a6c	0.06902012
114	0x3e231b5e	0.15928409
115	0x3d9ef552	0.07761635
116	0xbe768aac	-0.24076337
117	0x3e24442c	0.1604163
118	0xbdc2ea86	-0.09517388
119	0x3d9b7d50	0.07592261
120	0xbe68c17d	-0.2273006
121	0x3e51f05e	0.20501849
122	0x3c396e16	0.01131775
123	0xbc9d982e	-0.019237604
124	0xbcadcaaa	-0.021214802
125	0x3d83af1a	0.06429882
126	0xbe3fb54f	-0.18721507
127	0x3db27c68	0.08715135
128	0x3e030fc1	0.12798978
129	0x3e0e4661	0.13894035
130	0xbc0079f5	-0.007841577
131	0x3e184c74	0.14872915
132	0x3d90dbfc	0.07073209
133	0x3e2ff819	0.17184485
134	0xbe4a7232	-0.19770125
135	0xbe7bf7e9	-0.24606289
136	0x3e36b4ac	0.17842358
137	0x3e8a9cee	0.27072853
138	0x3e1add6e	0.15123531
139	0x3e1c1828	0.1524359
140	0xbe2a6bfa	-0.16642752
141	0xbe37f39b	-0.17964022
142	0xbdc2569d	-0.094891764
143	0x3d1914fa	0.03737352
144	0x3d759f4c	0.05996637
145	0x3d6a1118	0.057145208
146	0xbd3d3a0a	-0.04619793
147	0xbd93a7e0	-0.07209754
148	0xbd5203f4	-0.0512733
149	0xbcdde566	-0.027086925
150	0x3e5c971b	0.21542017
151	0x3e2fb490	0.17158723
152	0xbe3bc0de	-0.18335292
153	0x3cd3ea97	0.025868697
154	0xbe5bf3f4	-0.2147978
155	0xbe4b33d6	-0.19843993
156	0xbd1a2ca4	-0.03764023
157	0xbd5f3eb1	-0.054503147
158	0xbd86b14d	-0.06576786
159	0xbe220faa	-0.15826288
160	0xbe7f21b5	-0.24915202
161	0xbb017b97	-0.0019757503
162	0xbe81b2ac	-0.25331628
163	0xbdd0f9ec	-0.10203919
164	0x3dfe5163	0.12417867
165	0xbdd8b995	-0.10582272
166	0x3e1d434d	0.15357704
167	0xbe18c236	-0.14917836
168	0xbe624d36	-0.22099766
169	0xbdb829c5	-0.08992342
170	0xbe8d36f3	-0.27580985
171	0xbe4a978e	-0.19784376
172	0xbc62d92f	-0.013845726
173	0x3e18f12a	0.14935747
174	0x3b57fff4	0.0032958956
175	0xbe51020e	-0.2041094
176	0x3da0d684	0.078534156
177	0xbb717ef3	-0.003684935
178	0xbd9e0768	-0.077162564
179	0x3e49dbc0	0.19712734
180	0xbd2e14bb	-0.04250024
181	0x3e171e4c	0.14757651
182	0x3dac1b77	0.08403676
183	0x3d4e50b5	0.050369937
184	0x3d784a87	0.06061795
185	0x3dcb6af2	0.099325076
186	0x3f019d0e	0.5063027
187	0x3ea1cfef	0.31603953
188	0xbdb894fa	-0.0901279
189	0x3eeb073f	0.45903966
190	0xbc3dbbed	-0.0115804495
191	0xbd41154d	-0.047139455
192	0x3d72bd9d	0.05926286
193	0x3e38bb8f	0.18040298
194	0x3e483b28	0.19553816
195	0xbc396cee	-0.011317475
196	0x3e7af4e5	0.24507482
197	0xbe50153e	-0.20320603
198	0x3b29f714	0.0025934624
199	0x3df7c0d6	0.120973274
200	0x3e31241c	0.17298931
201	0x3e824b14	0.25447905
202	0x3ddc3982	0.10753156
203	0x3da6bcc5	0.08141474
204	0x3eae5e36	0.34056252
205	0x3eceb1e1	0.40370086
206	0x3dc16864	0.09443739
207	0xbe2bb4fd	-0.1676826
208	0xbdfc90ee	-0.12332331
209	0xbe487f73	-0.19579868
210	0x3e34d7c9	0.1766044
211	0x3e5d45c2	0.21608642
212	0x3e3f2792	0.18667439
213	0xbdf4e19f	-0.11957096
214	0x3d1105ed	0.035406042
215	0x3e9110e1	0.2833319
216	0xbe15c79b	-0.14626925
217	0xbe527455	-0.2055219
218	0x3e6b87c4	0.23001009
219	0x3e949d7e	0.29026407
220	0xbe2f6581	-0.17128564
221	0x3da1b53a	0.07895894
222	0x3da9509f	0.082673304
223	0xbe10a65a	-0.14125958
224	0x3c4d53f6	0.012532225
225	0xbdf918b1	-0.12162913
226	0x3c37c14c	0.011215519
227	0x3dbba984	0.09163192
228	0xbe632370	-0.22181487
229	0x3d7c5146	0.061600946
230	0xbcc97a36	-0.024594408
231	0xbd3a92bb	-0.04555009
232	0x3e43f3f6	0.19136032
233	0x3ba9a07c	0.005176602
234	0xbbe33fea	-0.0069351094
235	0xbe1418bc	-0.1446256
236	0xbe473bbf	-0.19456385
237	0xbe465405	-0.19367988
238	0xbddb8c48	-0.10720116
239	0x3decafc4	0.11556962
240	0x3d93c45c	0.07215187
241	0x3e425d40	0.18980885
242	0xbe5612ff	-0.20905684
243	0xbe0261d2	-0.12732628
244	0xbd1974b9	-0.03746483
245	0xbdb71781	-0.0894003
246	0x3e07142c	0.13191289
247	0x3c6511fd	0.0139813395
248	0xbdb7aea7	-0.08968859
249	0x3dc54420	0.096321344
250	0xbe4971a2	-0.19672254
251	0xbd2af441	-0.041736845
252	0xbe5ab52d	-0.21358176
253	0xbd5d4064	-0.054016486
254	0xbd955c2a	-0.072929695
255	0x3d1a0d4d	0.03761034

model.predict.predict.1.bias f4 [128]
0	0x3c8ffc83	0.017576462
1	0x3e19da9a	0.15024796
2	0xbe4b4bf3	-0.19853191
3	0xbe41e101	-0.18933488
4	0x3e4e8400	0.20167542
5	0x3df23ca5	0.11827973
6	0x3d5d6d02	0.054059036
7	0x3e170876	0.14749321
8	0x3d9b9696	0.07597081
9	0x3e7365f5	0.23769362
10	0xbe43e2c5	-0.19129474
11	0x3cd13d51	0.025541933
12	0x3e5eaa16	0.2174457
13	0x3ce6a537	0.028154952
14	0xbe6a06ba	-0.22854128
15	0x3d8a26f7	0.06745713
16	0x3e3692c7	0.17829429
17	0x39980079	0.0002899205
18	0xbdb08c4b	-0.08620509
19	0x3e5029ac	0.20328397
20	0xbddbcc98	-0.107323825
21	0x3e858ab6	0.2608239
22	0x3ddced7e	0.107874855
23	0xbdadbbff	-0.08483123
24	0x3dd43292	0.10361208
25	0x3e71276d	0.23550196
26	0xbe2e8c35	-0.17045672
27	0x3da01fa0	0.07818532
28	0xbe11f190	-0.14252305
29	0xbda3709c	-0.07980463
30	0xbccb6872	-0.024830077
31	0xbcfa19da	-0.030529905
32	0x3bab69ef	0.005231134
33	0xbdd9500e	-0.10610972
34	0xbdcc2a70	-0.09969032
35	0xbe04dc62	-0.12974694
36	0x3e0c2eac	0.13689679
37	0xbd867195	-0.06564633
38	0xbe7d3c7f	-0.24730109
39	0xbd2e8d13	-0.042615008
40	0xbe4c714b	-0.19965093
41	0xbe6b7709	-0.22994627
42	0x3e425ebb	0.1898145
43	0x3dbe483d	0.09291122
44	0x3e84c0d4	0.25928366
45	0xbe1cce78	-0.15313137
46	0xbe47f404	-0.19526678
47	0xbe2d7bc3	-0.16941743
48	0xbdd06220	-0.10174966
49	0xbd268c31	-0.04066104
50	0xbe4d9b6f	-0.20078824
51	0x3d1f0b32	0.038829036
52	0x3c4ce830	0.01250653
53	0xbd44c7b1	-0.048042003
54	0xbe0a8ab4	-0.13529474
55	0xbe4a59b5	-0.19760783
56	0x3e221acd	0.15830536
57	0x3dad480d	0.08461008
58	0x3e3286de	0.1743426
59	0xbe01edbf	-0.12688349
60	0x3e6620fd	0.22473522
61	0x3c97c186	0.018524896
62	0x3d9383a8	0.07202846
63	0x3e21ad2c	0.15788716
64	0xbe00421e	-0.12525222
65	0xbdabc9ce	-0.083881006
66	0x3e2af136	0.16693577
67	0x3e894c6b	0.26816115
68	0xbe3acaab	-0.18241374
69	0xbe06e9ee	-0.13175175
70	0x3e3f0aaf	0.18656419
71	0xbd3e789f	-0.046501752
72	0x3dd988a3	0.106217645
73	0xbe42c375	-0.19019873
74	0xbd7dc965	-0.061959643
75	0x3e7d8015	0.2475589
76	0xbe1fed7d	-0.15617938
77	0x3e259cf2	0.16173151
78	0x3e1c5e31	0.15270306
79	0xbe62514a	-0.22101322
80	0xbe7cb4d3	-0.24678354
81	0xbdaabb54	-0.08336511
82	0x3d0161b4	0.031587318
83	0x3e0fa485	0.14027603
84	0xbe45f973	-0.19333439
85	0xbd22e5f7	-0.039770093
86	0x3e6ad763	0.22933726
87	0xbbb497f6	-0.005511279
88	0xbe0183e8	-0.12647974
89	0xbdde8158	-0.10864514
90	0x3dbc0767	0.091810994
91	0xbd877a63	-0.0661514
92	0x3e78a4d6	0.2428163
93	0x3e2b1cb6	0.16710171
94	0xbd32495a	-0.043526985
95	0x3e87cf84	0.2652551
96	0x3d8cdf85	0.068785705
97	0x3e339998	0.1753906
98	0x3dce8db0	0.100856185
99	0x3dc1632b	0.09442743
100	0x3e1a57a5	0.15072496
101	0xbe29c79f	-0.16580056
102	0x3e1cc8f8	0.15311038
103	0xbd7b76c8	-0.061392576
104	0xbe5e704b	-0.21722524
105	0xbe2bb347	-0.16767608
106	0xbdd84776	-0.10560505
107	0xbd119e54	-0.035551384
108	0xbddd265b	-0.10798331
109	0xbe2b8053	-0.1674817
110	0xbe4779c7	-0.19480048
111	0x3d338942	0.04383207
112	0xbe6b42fb	-0.2297477
113	0xbe874343	-0.26418504
114	0xbe044ab8	-0.12919128
115	0xbe8570c9	-0.2606261
116	0x3e48bcd3	0.1960328
117	0xbd4ad726	-0.049521588
118	0x3dde5880	0.10856724
119	0xbdd847b3	-0.105605505
120	0x3c535d2d	0.012900633
121	0x3e192c04	0.14958197
122	0xbe25e782	-0.16201594
123	0x3e69abff	0.22819518
124	0xbdb192ed	-0.08670602
125	0xbdb6d05b	-0.089264594
126	0xbdb5a888	-0.088700354
127	0xbda421d8	-0.08014268

model.predict.predict.3.weight f4 [128]
0	0x3f8455f9	1.0338737
1	0x3f8ea4bb	1.1144022
2	0x3f89b444	1.0758138
3	0x3f82f220	1.0230141
4	0x3f82232c	1.0166984
5	0x3f746111	0.9546061
6	0x3f7ebe0c	0.9950874
7	0x3f77f7d2	0.9686252
8	0x3f83da84	1.0301061
9	0x3f784af6	0.9698938
10	0x3f82aca0	1.0208931
11	0x3f8321e2	1.0244715
12	0x3f8745f1	1.056822
13	0x3f800cde	1.0003927
14	0x3f7caa5c	0.9869745
15	0x3f865441	1.0494462
16	0x3f7ec977	0.9952616
17	0x3f8d1f4b	1.1025175
18	0x3f7f2cc4	0.9967768
19	0x3f8e434b	1.1114286
20	0x3f843846	1.0329673
21	0x3f80b2c8	1.005456
22	0x3f85b197	1.0444821
23	0x3f731107	0.94947857
24	0x3f7f49d4	0.9972203
25	0x3f842767	1.0324525
26	0x3f87b2db	1.0601457
27	0x3f7af6e5	0.9803298
28	0x3f89018b	1.0703596
29	0x3f7c004a	0.9843794
30	0x3f741d70	0.9535742
31	0x3f8042c8	1.002038
32	0x3f806a7b	1.0032495
33	0x3f7540e3	0.95802134
34	0x3f7d1194	0.9885495
35	0x3f807aa7	1.003743
36	0x3f80a958	1.005168
37	0x3f7cd46f	0.9876165
38	0x3f5e2ef3	0.8679039
39	0x3f8d93be	1.1060712
40	0x3f849eec	1.0360999
41	0x3f7c654a	0.98592055
42	0x3f8193ee	1.012327
43	0x3f886ec5	1.0658804
44	0x3f783af2	0.96964943
45	0x3f81875c	1.0119433
46	0x3f75868e	0.9590844
47	0x3f8328cc	1.0246825
48	0x3f7cbebc	0.9872854
49	0x3f7d846d	0.9903019
50	0x3f792afd	0.9733122
51	0x3f80467b	1.0021509
52	0x3f802ba8	1.0013323
53	0x3f78a75c	0.9713037
54	0x3f867532	1.0504515
55	0x3f81d237	1.0142277
56	0x3f67d038	0.9055209
57	0x3f7cd29e	0.98758876
58	0x3f8054f6	1.0025928
59	0x3f7fac40	0.9987221
60	0x3f5b05a4	0.8555548
61	0x3f7dc0c6	0.99122274
62	0x3f8c3cde	1.0956075
63	0x3f80be96	1.0058162
64	0x3f7dc833	0.99133605
65	0x3f7a1c75	0.9769967
66	0x3f8f0628	1.1173754
67	0x3f85b1bb	1.0444864
68	0x3f81ba6b	1.0135015
69	0x3f75b1bf	0.95974344
70	0x3f851e55	1.0399882
71	0x3f747f68	0.95506907
72	0x3f766fc4	0.9626429
73	0x3f7d138b	0.98857945
74	0x3f862066	1.0478637
75	0x3f8ae5d7	1.0851392
76	0x3f847ad9	1.034999
77	0x3f7b5651	0.98178583
78	0x3f81f42a	1.0152638
79	0x3f80c123	1.0058941
80	0x3f82bfca	1.0214779
81	0x3f82349a	1.0172303
82	0x3f73baac	0.95206714
83	0x3f80a9e0	1.0051842
84	0x3f7d8469	0.99030167
85	0x3f85ed11	1.0462972
86	0x3f5ec0ca	0.8701292
87	0x3f85b474	1.0445695
88	0x3f79004f	0.97266096
89	0x3f8577fc	1.0427241
90	0x3f7ff933	0.9998962
91	0x3f83f3da	1.0308793
92	0x3f884690	1.0646534
93	0x3f6eefdf	0.93334764
94	0x3f7c56f2	0.9857017
95	0x3f85be59	1.0448714
96	0x3f7326db	0.94981164
97	0x3f794800	0.9737549
98	0x3f7b25f6	0.981048
99	0x3f778ef2	0.9670249
100	0x3f80a464	1.0050168
101	0x3f80f32f	1.0074214
102	0x3f6ae216	0.9175123
103	0x3f823a4f	1.0174044
104	0x3f7aaa58	0.97916174
105	0x3f81463e	1.0099561
106	0x3f7d7d85	0.9901965
107	0x3f8882a8	1.0664873
108	0x3f82f134	1.0229859
109	0x3f7d36c6	0.989117
110	0x3f82c4c6	1.02163
111	0x3f93936e	1.1529367
112	0x3f8836d5	1.0641733
113	0x3f82ef78	1.022933
114	0x3f82e9da	1.0227616
115	0x3f7bc5da	0.9834877
116	0x3f82fbc9	1.0233089
117	0x3f8202b4	1.0157075
118	0x3f81385c	1.0095325
119	0x3f8577a9	1.0427142
120	0x3f777b27	0.9667229
121	0x3f7707d2	0.9649631
122	0x3f7f684a	0.9976851
123	0x3f831559	1.024089
124	0x3f79e6c8	0.9761777
125	0x3f7591f0	0.9592581
126	0x3f7dbd35	0.9911683
127	0x3f7e939a	0.9944397

model.predict.predict.3.bias f4 [128]
0	0x3c3b0c4c	0.011416506
1	0x38f51867	0.00011687056
2	0x3ca2ded2	0.01988164
3	0x3c91aa33	0.017781353
4	0x3c8f646d	0.017503941
5	0x3cb8b2b3	0.022546148
6	0x3ca55ed4	0.02018682
7	0xbc950086	-0.018188726
8	0xbc8a7969	-0.016903596
9	0xbc87f4b5	-0.016596178
10	0xbca058a9	-0.019573526
11	0x3caae2a8	0.020860031
12	0x3c9068b4	0.017628051
13	0x3c232a0d	0.009958756
14	0xbca843ef	-0.020540206
15	0xbc9c6d38	-0.019095048
16	0xbc930c4f	-0.017950205
17	0x3b81e9e1	0.003964648
18	0xbc9db708	-0.019252315
19	0xbcb9a31d	-0.022660786
20	0x3c834cfb	0.016027918
21	0x3ca33a94	0.019925393
22	0x3c96f33d	0.018426532
23	0x3c9e2acc	0.019307517
24	0xbca4fc60	-0.020139873
25	0x3c98acba	0.01863705
26	0x3cae6c90	0.021292001
27	0x3bdc9354	0.00673143
28	0x3b10a2d4	0.002206971
29	0xbc91a96e	-0.017780986
30	0x3ce81abb	0.028333059
31	0xbc8d94d1	-0.017282875
32	0x3c9c53ff	0.019083021
33	0x3ca2dd1a	0.01988082
34	0x3c8f597b	0.017498722
35	0xbc900555	-0.017580668
36	0xbc8c3f0a	-0.017119903
37	0x3c7c534a	0.015400717
38	0x3d044f46	0.032302164
39	0xbc97f199	-0.01854782
40	0xbc9eec63	-0.019399827
41	0x3c5b7e89	0.013396868
42	0x3c965fd0	0.018356234
43	0x3c841606	0.016123783
44	0x3cab9a0e	0.020947482
45	0xbc787e5e	-0.015166847
46	0xbc87915d	-0.016548807
47	0xbc9d974f	-0.019237189
48	0x3ca6fe10	0.020384818
49	0x3cac837f	0.021058796
50	0xbbc9ac1d	-0.0061545507
51	0xbc905fbc	-0.017623775
52	0x3cb33ced	0.021879638
53	0xbc8bc7fe	-0.017063137
54	0xbc99abf5	-0.018758753
55	0xbc991990	-0.018688947
56	0x3c3efdda	0.011657203
57	0xbc70d85e	-0.014700023
58	0xbc903e67	-0.01760788
59	0x3cab39ed	0.020901645
60	0x3cc2f0ab	0.0237964
61	0xbc9d6e09	-0.019217508
62	0x3cbb50d1	0.022865685
63	0x3cac309a	0.021019269
64	0xbc857ea6	-0.016295742
65	0xbc907582	-0.017634157
66	0x3c9c6db7	0.019095285
67	0x3c99c907	0.018772615
68	0xbca18e78	-0.019721255
69	0xbc69d49b	-0.0142718805
70	0xbc979738	-0.018504724
71	0x3c84adb6	0.016196113
72	0xbcb93987	-0.022610439
73	0xbca87834	-0.02056513
74	0xbc78c28f	-0.015183105
75	0xbc9b72d4	-0.018975653
76	0x3c8f1711	0.017467054
77	0x3ca99aad	0.020703638
78	0xbc068b3d	-0.008211908
79	0x3ca4c2ea	0.020112474
80	0x3c95f92b	0.01830729
81	0x3cac6c3f	0.02104771
82	0xbc8d7c81	-0.017271282
83	0x3c8fa9ac	0.01753696
84	0x3c362400	0.0111169815
85	0x3ca6c62c	0.020358168
86	0x3bd408c7	0.006470773
87	0xbc950ab8	-0.018193588
88	0xbbf68e7d	-0.00752431
89	0x3c9ac0ee	0.018890824
90	0x3c9f533c	0.019448869
91	0x3a6c9750	0.0009025233
92	0xbc9ea462	-0.019365493
93	0x3c8ed846	0.017437112
94	0x3c9b5880	0.018963099
95	0xbc99a5d4	-0.01875583
96	0xbc82b3d3	-0.015954887
97	0x3c351a07	0.011053569
98	0xbc91b453	-0.01778618
99	0x3cb88e60	0.022528827
100	0xbcf89c84	-0.03034807
101	0x3ca9c8aa	0.020725567
102	0xbc1d8cb3	-0.009616065
103	0x3ca9864c	0.02069392
104	0x3cb09acb	0.021558186
105	0xbc9f4793	-0.019443309
106	0xbc7f05f6	-0.015565386
107	0x3ca40fa0	0.020026982
108	0x3c9f2414	0.019426383
109	0xbc63dfd8	-0.013908349
110	0xbc9b0e04	-0.018927582
111	0xbbeac56d	-0.0071646483
112	0xbc89940b	-0.016794225
113	0xbc969bea	-0.018384892
114	0x3c9051fb	0.017617216
115	0xbc9d3e79	-0.019194828
116	0xbc944736	-0.018100362
117	0x3cb23e14	0.021758117
118	0x3c8be9c9	0.01707925
119	0x3ca44be1	0.020055713
120	0x3cb6a2f4	0.022294499
121	0x3c7ff290	0.015621796
122	0x3ca5d365	0.020242402
123	0x3c8018f1	0.015636893
124	0xbc95f3a6	-0.018304657
125	0x3cb6800c	0.022277854
126	0x3c579b65	0.013159608
127	0xbc95fad4	-0.01830808

model.predict.predict.3.running_mean f4 [128]
0	0x3f91030f	1.1329058
1	0x3de4c91e	0.111711726
2	0x3a9ad2d2	0.0011812097
3	0x3e86e418	0.26345897
4	0x3f5abb57	0.8544211
5	0x37b431f6	2.1480937e-05
6	0x401cc828	2.4497166
7	0x3fb86c5f	1.4408072
8	0x3b0caeea	0.0021466562
9	0x3f4d4f66	0.8019928
10	0x3d2aefd5	0.041732628
11	0x400f1b44	2.2360392
12	0x3ebf96f0	0.37419844
13	0x4021e655	2.5296834
14	0x3eb3ec28	0.3514111
15	0x030bf2d8	4.11272e-37
16	0x3ed14685	0.40874115
17	0x3e83a077	0.25708362
18	0x3e2defc6	0.16985998
19	0x3d60b6ec	0.054861948
20	0x30859ea7	9.722115e-10
21	0x3c0d7f9d	0.008636382
22	0x3f1e56b7	0.61851066
23	0x3f75daa0	0.9603672
24	0x3ea189b0	0.3155036
25	0x3f0375cb	0.5135161
26	0x3f03d091	0.5149012
27	0x0006e11f	6.31771e-40
28	0x38e51ff0	0.0001092552
29	0x3d13af4f	0.03605586
30	0x3faea0e3	1.3642849
31	0x3ce37bf5	0.027769068
32	0x3ef20786	0.47271365
33	0x3d0f9542	0.035054453
34	0x000f0f18	1.382947e-39
35	0x3bc6f218	0.0060713403
36	0x3f7ec87a	0.9952465
37	0x376a5d31	1.3969185e-05
38	0x3fd0e33c	1.6319346
39	0x3e660713	0.22463636
40	0x3918c833	0.0001457043
41	0x3dd37d09	0.10326583
42	0x38f9389e	0.00011883791
43	0x3b893fd5	0.0041885176
44	0x408e9034	4.455103
45	0x3f0ba6fb	0.54551667
46	0x3f9e7e5f	1.2382315
47	0x3d0abef6	0.03387352
48	0x3f9e8b0f	1.2386187
49	0x3fcf3d28	1.6190538
50	0x3755cb3e	1.274311e-05
51	0x3e02638f	0.12733291
52	0x3fe25ada	1.7683976
53	0x3e10831f	0.14112519
54	0x3c0adb0e	0.008475078
55	0x3e5c44e8	0.2151066
56	0x3f93db86	1.1551368
57	0x3fcacd29	1.584386
58	0x4001daee	2.0289874
59	0x4023caf7	2.559263
60	0x4008bd8b	2.1365688
61	0x3534a8da	6.7300937e-07
62	0x3e44c5ce	0.19216082
63	0x403da64e	2.9632754
64	0x00000004	6e-45
65	0x3ee22694	0.44170058
66	0x3e7edf2c	0.24889821
67	0x3f34b917	0.70594925
68	0x22ff82d7	6.925642e-18
69	0x3db1ce1f	0.086818926
70	0x3fb8090a	1.4377759
71	0x3c3035d8	0.010755025
72	0x3f071e19	0.527803
73	0x39911050	0.0002766871
74	0x2d72f428	1.3810321e-11
75	0x3f4d1aea	0.8011919
76	0x3882ff10	6.246392e-05
77	0x40870848	4.219761
78	0x0001464e	1.17056e-40
79	0x4086e997	4.2160144
80	0x3e94808c	0.29004323
81	0x40674de1	3.6141284
82	0x3ac92cc8	0.0015348429
83	0x3df22904	0.11824229
84	0x00000004	6e-45
85	0x3eafd9e5	0.34345928
86	0x3d6f7c75	0.0584683
87	0x3f40ac44	0.75262856
88	0x2b951108	1.0591814e-12
89	0x3f183709	0.59458977
90	0x4011d0e0	2.2783737
91	0x3b107b2f	0.002204608
92	0x3beae798	0.0071687214
93	0x3e2149e1	0.15750839
94	0x3ef0b43e	0.47012514
95	0x3d1d6ec7	0.038435724
96	0x3ee51701	0.44744113
97	0x3f9e9b0a	1.2391064
98	0x1ee0c21f	2.3797209e-20
99	0x4032a538	2.7913342
100	0x3a4697af	0.0007575703
101	0x40273508	2.6126118
102	0x3fdccb7b	1.7249597
103	0x3fe77f17	1.808566
104	0x40544a2f	3.3170278
105	0x3cfe7798	0.031062886
106	0x3e94d2c4	0.2906705
107	0x3f1f66ae	0.6226605
108	0x3fc8f6f4	1.5700364
109	0x3af2b454	0.0018516877
110	0x3f2c6d54	0.6735432
111	0x3e479a35	0.19492419
112	0x3eb34e19	0.3502052
113	0x2a1c95ca	1.3907552e-13
114	0x3fae2f9d	1.360828
115	0x38bf59cf	9.124318e-05
116	0x3efeb8f2	0.49750477
117	0x40189b46	2.3844771
118	0x3e21c9a4	0.15799576
119	0x4001f16f	2.030361
120	0x3ee19619	0.44059828
121	0x3dc51e91	0.09624971
122	0x4079fca5	3.9060452
123	0x392ef04a	0.00016683448
124	0x3fc109c8	1.508111
125	0x3fbe2db4	1.4857697
126	0x3ed46a48	0.41487336
127	0x3f964900	1.1741028
