checkpoints/GCM_undersampled/best_f1_score/checkpoint1.pt (torch, 375109 bytes, 47 tensors)

model.gnn.gnn_layers.0.graph_conv.weight f4 [30, 64]
0	0xbe02f841	-0.12790014
1	0x3e59e710	0.2127955
2	0x3e28c598	0.16481626
3	0x3e6304cb	0.22169797
4	0xbd45db30	-0.048304737
5	0xbe26e369	-0.16297688
6	0x3da005e2	0.07813622
7	0x3e4a80cd	0.19775696
8	0x3da78abe	0.0818076
9	0xbe486faa	-0.19573846
10	0x3d9b3e3d	0.075802304
11	0xbc6027ed	-0.013681394
12	0x3e24c897	0.16092144
13	0x3da6c9c3	0.08143952
14	0xbbd9489a	-0.0066309692
15	0xbea14a9c	-0.31502235
16	0x3dd1e1b1	0.10248125
17	0x3af23416	0.0018478658
18	0xbe613396	-0.21992335
19	0x3d93e398	0.072211444
20	0xbd0c0509	-0.03418449
21	0x3db5c2ed	0.0887507
22	0xbdda43a8	-0.10657436
23	0x3e11b9c8	0.14231026
24	0x3e1ba395	0.1519912
25	0xbe4f0c21	-0.2021947
26	0xbe3baf21	-0.18328525
27	0xbe1f70dc	-0.15570396
28	0x3e23f809	0.16012587
29	0x3e4b37d9	0.19845523
30	0x3d2f1c2a	0.04275147
31	0x3e01b0e1	0.1266513
32	0xbe36be1c	-0.17845958
33	0xbde09676	-0.10966198
34	0x3db8da4f	0.09026014
35	0xbe397ca4	-0.18113953
36	0xbdc2b55b	-0.09507247
37	0x3e37e17e	0.17957112
38	0x3e0f683d	0.14004607
39	0x3dee06ba	0.11622377
40	0x3e6376f7	0.2221335
41	0x3e2a3b26	0.16624126
42	0x3e6620ad	0.22473402
43	0x3e1d4fa8	0.15362418
44	0xbc8ac8e2	-0.016941492
45	0xbd36ca34	-0.04462643
46	0x3e5de0ba	0.21667758
47	0xbdb676df	-0.089093916
48	0xbd8ad8e1	-0.067796476
49	0xbdc172a0	-0.09445691
50	0x3e5abff0	0.21362281
51	0x3e01355d	0.12618013
52	0x3e8647cb	0.2622665
53	0xbbbf9226	-0.0058462797
54	0xbe20095d	-0.15628572
55	0x3e58de13	0.21178465
56	0x3dcd740a	0.10031898
57	0xbcdf131b	-0.02723079
58	0xbdb7001f	-0.0893557
59	0x3e2360c5	0.15954883
60	0x3e3c9cd6	0.18419203
61	0xbcf0403a	-0.0293275
62	0x3dd05dc1	0.10174132
63	0xbe84422a	-0.2583173
64	0x3d6afeb0	0.057371795
65	0x3e08c6b6	0.13357052
66	0xbcb367b7	-0.021900041
67	0xbcb9f5aa	-0.02270015
68	0x3e54fa72	0.20798662
69	0xbca04515	-0.01956419
70	0xbe27ab1f	-0.16373871
71	0x3e84fa29	0.25972107
72	0x3e8a3e56	0.27000684
73	0x3e786a6c	0.24259347
74	0xbe03ea47	-0.12882338
75	0x3d446167	0.047944453
76	0x3e063502	0.13106158
77	0x3e5ad5e9	0.21370663
78	0x3e9426e7	0.2893593
79	0x3e8ae965	0.2713119
80	0xbee9ccde	-0.45664114
81	0xbe1059b0	-0.14096713
82	0x3da0c321	0.07849718
83	0x3db9a964	0.09065512
84	0xbe0a039f	-0.13477944
85	0xbe0ebf8a	-0.13940254
86	0xbde73ceb	-0.11290916
87	0x3d645de1	0.055753592
88	0x3c6f1511	0.014592425
89	0x3da85baa	0.082206085
90	0x3d925350	0.07144797
91	0x3e24eb3c	0.1610536
92	0xbd1383e2	-0.036014445
93	0xbf0d98fa	-0.5531155
94	0xbd914328	-0.07092887
95	0x3ce86819	0.02836995
96	0xbe8fe739	-0.28106096
97	0x3e3b0e95	0.18267281
98	0xbe8594a0	-0.26089954
99	0xbe9b1220	-0.30287266
100	0xbdca4ff4	-0.09878531
101	0x3e0038e0	0.12521696
102	0xbd969e86	-0.07354455
103	0x3caad8d8	0.020855352
104	0xbe639faf	-0.22228883
105	0x3e3d9cf1	0.185169
106	0xbdd94843	-0.10609486
107	0x3de13c1e	0.109977946
108	0xbe2a170a	-0.16610351
109	0x3c2fb917	0.010725281
110	0x3db82931	0.08992232
111	0xbcc267df	-0.02373117
112	0x3e165d54	0.1468404
113	0xbea3bb42	-0.31978804
114	0x3d88a441	0.06671954
115	0xbd53aeae	-0.05168026
116	0xbc8ae56e	-0.016955104
117	0x3e173479	0.1476611
118	0xbca0db29	-0.019635754
119	0x3e27b5be	0.16377923
120	0xbd87a1d5	-0.06622664
121	0xbd30a6fd	-0.043128002
122	0x3e3c2d3e	0.18376634
123	0xbda20f91	-0.07913125
124	0x3e3264f0	0.17421317
125	0x3e696adb	0.22794668
126	0x3c96eea5	0.018424341
127	0x3d4f7d8d	0.050656844
128	0x3e928e73	0.28624305
129	0xbe1a0296	-0.15040049
130	0x3e86e3e8	0.26345754
131	0x3dd27282	0.10275747
132	0x3e3b14d5	0.18269666
133	0x3e4ba0b8	0.19885528
134	0xbd46ea3f	-0.04856324
135	0xbd7c9109	-0.061661754
136	0xbe5d9b03	-0.21641164
137	0x3d47196e	0.048608236
138	0xbe3bd522	-0.18343022
139	0xbe7ea5c2	-0.24867919
140	0x3e806b5b	0.25081906
141	0xbe11c0bd	-0.1423368
142	0xbe23078c	-0.15920848
143	0x3ca34961	0.01993245
144	0xbe6afc99	-0.22947921
145	0xbd6ed749	-0.05831078
146	0xbdbce10a	-0.0922261
147	0x3d4b13f2	0.04957957
148	0x3e30cb7a	0.1726512
149	0xbe5cc17c	-0.21558183
150	0x3dc86d22	0.097864404
151	0xbe968915	-0.2940146
152	0x3da6b231	0.08139456
153	0x3cc0f1fb	0.023552885
154	0x3dc05b83	0.093924545
155	0xbe725443	-0.23664956
156	0x3e05f43d	0.13081451
157	0x3e8d75eb	0.27629027
158	0x3e5a9533	0.21345977
159	0xbda87c94	-0.082268864
160	0x3e3a3a9f	0.18186425
161	0x3d9fd6b3	0.078046225
162	0x3e0e0ee4	0.13872868
163	0x3dc0df43	0.09417584
164	0x3e8166c3	0.25273713
165	0xbe9bc5cf	-0.30424353
166	0xbdd90adb	-0.10597774
167	0xbdbcd4cb	-0.092202745
168	0xbe5dd2b4	-0.21662408
169	0xbc8d12d6	-0.017220896
170	0x3ae06936	0.0017121199
171	0x3e8f80f7	0.2802808
172	0x3cacb39d	0.02108174
173	0xbe46f68a	-0.19429985
174	0x3d91b6b7	0.07114928
175	0xbc92ffaf	-0.017944185
176	0xbe4b1109	-0.19830717
177	0xbcbbe947	-0.022938384
178	0x3e21ed24	0.15813118
179	0xbe10d8de	-0.14145228
180	0x3ceb2868	0.02870579
181	0xbdce50d6	-0.10074012
182	0xbc4db03c	-0.012554225
183	0xbe1fbfbb	-0.15600483
184	0x3dd83d06	0.10558514
185	0x3dad4205	0.08459858
186	0xbe3bc6a3	-0.18337493
187	0x3e78d4d2	0.24299935
188	0xbdc8f7f0	-0.09812915
189	0xbdac36aa	-0.08408864
190	0x3d463d63	0.048398387
191	0x3e01dc5d	0.12681718
192	0x3e75aab0	0.23990893
193	0xbe7c54ec	-0.2464177
194	0xbe879d22	-0.2648707
195	0xbefa7886	-0.48920077
196	0xbe50bf62	-0.20385507
197	0x3e89d905	0.26923385
198	0xbdfbca3d	-0.12294433
199	0xbdf6da92	-0.12053408
200	0x3e38aaa7	0.18033849
201	0xbef7a896	-0.48370808
202	0x3e310444	0.17286783
203	0xbe0db726	-0.13839397
204	0xbe1f84c3	-0.15577988
205	0x3d85fbb8	0.06542152
206	0x3e90c050	0.28271723
207	0xbe57ca51	-0.21073271
208	0xbb4726c5	-0.0030388099
209	0x3e070893	0.13186865
210	0x3e28ac50	0.16471982
211	0x3e5303f0	0.20606971
212	0x3b314931	0.0027051682
213	0x3e319687	0.17342578
214	0xbd5a96ac	-0.05336635
215	0xbdc05526	-0.09391241
216	0x3dfb3697	0.122662716
217	0x3e2ddd1a	0.16978875
218	0xbdf8aaa4	-0.12141922
219	0x3e6f7b29	0.23386826
220	0xbddde069	-0.108338185
221	0xbeec3b16	-0.4613883
222	0x3ce1a2d2	0.02754346
223	0xbe7fa437	-0.24964987
224	0x3d2c7d0b	0.042111438
225	0xbe3ef90b	-0.1864969
226	0xbef75150	-0.48304224
227	0xbdc16810	-0.094436765
228	0x3e38c1e7	0.18042718
229	0x3e879b51	0.26485685
230	0xbdc6f0a2	-0.09713866
231	0x3dae2e79	0.08504958
232	0xbc2f9061	-0.010715575
233	0xbe1a154b	-0.15047185
234	0x3d04eea6	0.032454155
235	0x3e1c1dcc	0.15245742
236	0x3da2ced5	0.07949606
237	0xbe58a666	-0.21157226
238	0x3e1e972e	0.15487358
239	0xbd0e6036	-0.034759723
240	0x3e3b2180	0.18274498
241	0xbda37e74	-0.079831034
242	0xbf06f916	-0.52723825
243	0xbda23171	-0.079195864
244	0x3e3b3d61	0.18285133
245	0x3e535260	0.20636892
246	0x3d10b00a	0.035324134
247	0x3e759bb4	0.23985177
248	0x3e366d37	0.178151
249	0x3ca4444b	0.020052096
250	0x3d321e20	0.04348576
251	0x3dd272f9	0.102758355
252	0xbe56a087	-0.20959674
253	0xbd9e28b2	-0.07722606
254	0xbd69d962	-0.057092078
255	0xbd991854	-0.07475343

model.gnn.gnn_layers.0.graph_conv.bias f4 [64]
0	0x3c911652	0.017710838
1	0xbbcf8132	-0.00633254
2	0xbc95d44c	-0.018289708
3	0xbcc615ea	-0.024180371
4	0x3b86ddbe	0.004115789
5	0x3c92ab20	0.017903864
6	0xbc66472e	-0.0140550565
7	0xbc9f8703	-0.019473558
8	0xbc836c98	-0.016042992
9	0x3afc496b	0.0019247954
10	0x3d3eb3f4	0.046558335
11	0xbbb855d1	-0.0056254645
12	0xbb446139	-0.0029965176
13	0xbc919a6a	-0.017773826
14	0xbd1f4c93	-0.038891386
15	0x3d1a8f06	0.037734054
16	0xbd186740	-0.037207842
17	0xbc9a3131	-0.018822284
18	0x3d230aeb	0.039805334
19	0xbcb0db6e	-0.021589007
20	0xbc79d271	-0.015247927
21	0xbd1277d2	-0.0357588
22	0xbc6c0f8c	-0.014408004
23	0x3b6a619d	0.0035763748
24	0xbbfc7e91	-0.0077055176
25	0x3d826ff2	0.06369008
26	0x3c108862	0.008821579
27	0x3c0d7d89	0.008635887
28	0xbc7da171	-0.015480385
29	0x3d29592e	0.041344814
30	0xbc8f1b8f	-0.017469196
31	0xbc261cac	-0.010138672
32	0x3bbd4dfa	0.005777118
33	0x3cbbfde3	0.022948211
34	0x3c82d489	0.015970485
35	0xbbdbcb2c	-0.0067075696
36	0x3b0310c2	0.0019999002
37	0xbcde05b3	-0.027102327
38	0xbc52d048	-0.012867041
39	0xbbf8b6f7	-0.0075901705
40	0xbd299b7c	-0.041408047
41	0x3b97ffd3	0.004638651
42	0xbc1fa4d7	-0.009743891
43	0x3cdba966	0.026814174
44	0xbc5471bd	-0.01296657
45	0xbc98bec0	-0.018645644
46	0xbd3c7bbf	-0.04601645
47	0x3adb46c3	0.0016729463
48	0x3c18c3b2	0.009324001
49	0xbd11aa54	-0.03556283
50	0x3cdcdb1f	0.026959954
51	0xbd011f06	-0.031523727
52	0x3c118ccb	0.008883665
53	0xbceec891	-0.029148372
54	0xbc32e52e	-0.0109188985
55	0xbd4bd12d	-0.049760032
56	0xbbc65fb1	-0.006053888
57	0xbb222b0f	-0.0024744903
58	0xb904351e	-0.00012608289
59	0xbc75f421	-0.015011818
60	0xbc0fdbf6	-0.00878047
61	0xbbed9e94	-0.00725157
62	0xbcdad08d	-0.026710773
63	0xbcf772db	-0.030206135

model.gnn.gnn_layers.0.res_connection.weight f4 [64, 30]
0	0x3d1058cf	0.035240944
1	0xbd35fbda	-0.044429637
2	0x3db2fb42	0.0873933
3	0x3cee7280	0.029107332
4	0xbe8128aa	-0.25226337
5	0x3b84f3f2	0.004057401
6	0x3dda48b8	0.10658401
7	0x3d09a80d	0.03360753
8	0x3e68d020	0.22735643
9	0xbcbbe3fc	-0.02293586
10	0x3e278452	0.1635907
11	0x3e623176	0.2208918
12	0x3e0d3faa	0.13793817
13	0xbcb69e91	-0.022292407
14	0x3be65f42	0.0070303986
15	0xbdd2b1c4	-0.10287812
16	0xbdd910b5	-0.1059889
17	0x3e18e7c5	0.14932163
18	0x3e075189	0.13214697
19	0x3e40143f	0.18757723
20	0x3cc2f181	0.023796799
21	0x3d6a8333	0.057254028
22	0xbdc479d1	-0.09593547
23	0x3d0ea528	0.034825474
24	0xbc9d91ca	-0.019234557
25	0xbe1e7fe6	-0.15478477
26	0xbe87751c	-0.26456535
27	0x3d2bb60e	0.041921668
28	0x3cb3ab0c	0.021932147
29	0x3d1de509	0.038548503
30	0xbd9ff9f6	-0.07811348
31	0xbdef43f4	-0.11682883
32	0x3dc0435b	0.09387847
33	0xbe3fec70	-0.18742537
34	0xbded2220	-0.115787745
35	0xbd72d91c	-0.059289083
36	0x3da5be6e	0.08092962
37	0xbe47ee7e	-0.19524571
38	0x3e6c9737	0.23104559
39	0x3e01f9e4	0.12692982
40	0x3ddc07e3	0.10743692
41	0xbd72d758	-0.0592874
42	0x3e27ebd0	0.16398549
43	0x3d884ca2	0.066552415
44	0xbc118d41	-0.008883775
45	0x3e8a7353	0.2704111
46	0x3e8de2b6	0.2771203
47	0x3e8abefd	0.27098837
48	0x3d18803a	0.03723166
49	0x3e2b8dff	0.16753386
50	0xbe47264f	-0.19448207
51	0xbd88ed89	-0.06685931
52	0x3d5c922b	0.053850334
53	0x3e5078fe	0.20358655
54	0xbdcefe92	-0.10107149
55	0x3dcd4001	0.100219734
56	0xbd03be24	-0.032163754
57	0x3dda60e9	0.106630154
58	0xbe0d47c3	-0.13796906
59	0x3dea1ceb	0.11431297
60	0x3dffc91d	0.12489531
61	0x3e0f60e2	0.14001802
62	0x3dcdf61d	0.10056708
63	0xbdac8bf5	-0.08425132
64	0x3dc11c10	0.094291806
65	0xbccdc2e5	-0.025117347
66	0xbd6712a9	-0.05641428
67	0xbda1715b	-0.07882949
68	0xbe82dbd6	-0.25558347
69	0xbe16f5f3	-0.1474226
70	0xbdca08b7	-0.098649435
71	0xbe091c0a	-0.13389602
72	0x3ca28ddb	0.019843033
73	0x3d94e15f	0.072695486
74	0x3e05fc01	0.13084413
75	0x3de282b1	0.11060084
76	0xbe5bf27d	-0.2147922
77	0x3cadaf37	0.021201713
78	0x3e0fade4	0.14031178
79	0xbe359405	-0.17732246
80	0xb9444574	-0.0001871789
81	0x3e527c21	0.20555164
82	0xbe44d4f6	-0.19221863
83	0xbdfab873	-0.12242212
84	0xbe1a04c8	-0.15040886
85	0x3dd70d58	0.10500592
86	0x3c6e10ec	0.014530402
87	0xbda798d0	-0.081834435
88	0x3d0014e9	0.03126994
89	0xbde2e6b2	-0.11079158
90	0xbde8c1f6	-0.1136512
91	0xbdca30ae	-0.09872566
92	0x3e088750	0.13332868
93	0x3e8ab77c	0.27093112
94	0x3e3c507d	0.18390079
95	0xbc91c17f	-0.017792461
96	0xbd1e9df3	-0.03872485
97	0x3db0596a	0.086108044
98	0x3e99ea00	0.3006134
99	0x3e094009	0.13403334
100	0x3e005969	0.12534107
101	0xbda45264	-0.08023527
102	0xbd3a0fd0	-0.045425236
103	0x3c452182	0.012031915
104	0xbe6c2abe	-0.2306318
105	0xbe15af0b	-0.14617555
106	0x3da11cf3	0.0786685
107	0xbd6612a9	-0.05617014
108	0xbd5820eb	-0.052765768
109	0xbd926cc7	-0.07149654
110	0x3ccab9b9	0.024746763
111	0xbda472aa	-0.08029683
112	0x3d414fe2	0.047195323
113	0xbe2a2506	-0.16615686
114	0xbe52b63f	-0.20577334
115	0x3d75ad53	0.059979748
116	0x3e16ff3a	0.14745799
117	0x3d7ff909	0.062493358
118	0x3e22fe98	0.15917432
119	0xbe068c9e	-0.13139579
120	0xbe24f514	-0.16109115
121	0x3e273c8f	0.16331695
122	0xbe3c3202	-0.18378451
123	0x3dfb36a3	0.122662805
124	0x3d5a6d42	0.053326853
125	0x3a376285	0.00069955766
126	0x3e78bbf1	0.24290444
127	0x3d386ae4	0.045023814
128	0x3c8d5f9d	0.017257506
129	0x3dbb1b82	0.09136106
130	0xbe3ef726	-0.18648967
131	0xbc53bcd0	-0.012923434
132	0x3e23c5ff	0.15993498
133	0xbd40b931	-0.047051612
134	0x3d67e94a	0.056618966
135	0xbe2a5b46	-0.1663638
136	0x3e01ce13	0.12676267
137	0xbd6204f2	-0.055180497
138	0x3e66b2f3	0.22529201
139	0xbd7854f9	-0.06062791
140	0x3e4546d8	0.19265306
141	0x3daf4b96	0.08559339
142	0x3e34a32a	0.17640367
143	0x3db1e641	0.086864956
144	0xbe0593f8	-0.13044727
145	0x3df069aa	0.11738904
146	0x3d8eca29	0.06972153
147	0x3d9b78d6	0.07591407
148	0xbe3193e0	-0.17341566
149	0x3d405e6b	0.046965044
150	0xbd9e4999	-0.077288814
151	0xbe31d2c3	-0.17365555
152	0x3d45cd8f	0.04829174
153	0x3e0addce	0.13561174
154	0x3e7f81db	0.2495188
155	0x3d9644f3	0.0733737
156	0x3d8369fb	0.064166985
157	0x3e107699	0.14107741
158	0xbc89a7cc	-0.016803645
159	0xbdb63279	-0.08896346
160	0x3e0bc202	0.13648227
161	0xbe355fb4	-0.17712289
162	0x3aafaf0f	0.0013403612
163	0x3e2878ef	0.16452383
164	0xbe2f315c	-0.17108673
165	0xbe2659c7	-0.16245185
166	0x3d4da0bb	0.050202113
167	0xbd5a9e85	-0.053373832
168	0x3d598ee9	0.053114805
169	0x3d567c36	0.05236455
170	0x3d8d95ba	0.06913324
171	0xbea159cd	-0.31513825
172	0xbe08125f	-0.13288258
173	0xbd5f450a	-0.0545092
174	0xbe11df7e	-0.14245412
175	0xbd9e8584	-0.0774031
176	0x3d46e437	0.048557486
177	0xbe16b0b3	-0.14715843
178	0xbe2e3708	-0.1701318
179	0xbe1bd62c	-0.15218419
180	0x3d809b1f	0.06279587
181	0xbcaa1adb	-0.020764759
182	0x3db51745	0.08842329
183	0xbd0b8f9b	-0.0340725
184	0xbe8567c2	-0.26055723
185	0xbda87670	-0.08225715
186	0xbde8e697	-0.113721065
187	0xbe5006bf	-0.20315073
188	0xbdcf1290	-0.101109624
189	0x3dd1e076	0.10247891
190	0xbde115dc	-0.109904975
191	0x3e60725d	0.21918626
192	0xbdc55114	-0.09634605
193	0x3e1ecac3	0.15507035
194	0x3e02122f	0.12702249
195	0x3d263558	0.040578216
196	0xbe1d9f37	-0.15392767
197	0x3d2eabef	0.042644437
198	0x3e225946	0.15854368
199	0xbe99bc26	-0.30026358
200	0xbd2705a5	-0.040776867
201	0x3dd88bab	0.105735146
202	0xbd98edb7	-0.074672155
203	0xbe6c3eaa	-0.2307078
204	0x3e255e65	0.1614929
205	0xbe423e4a	-0.18969074
206	0x3e264444	0.16236979
207	0xbd5a3c59	-0.05328021
208	0xbe2b9b8e	-0.16758558
209	0x3de93b82	0.11388303
210	0xbe0d14a1	-0.137774
211	0x3e0d90d1	0.13824774
212	0x3d1bf494	0.038075045
213	0xbd8b4474	-0.06800166
214	0xbe24635e	-0.1605353
215	0x3e41c7fc	0.18923944
216	0xbb2cdf22	-0.0026378115
217	0x3a99caf6	0.0011733461
218	0xbda7ce7c	-0.08193681
219	0xbd8836cb	-0.06651076
220	0xbce015f6	-0.027354222
221	0x3c14de34	0.0090861805
222	0xbcc0ea04	-0.023549087
223	0x3e3c4e60	0.18389273
224	0x3e8123ea	0.25222713
225	0x3d8976f7	0.06712144
226	0xbe0f4c79	-0.13994016
227	0xbda8b089	-0.082367964
228	0x3e4404a6	0.19142398
229	0x3c615518	0.013753198
230	0x3d8f090d	0.06984148
231	0xbe9b7f13	-0.30370387
232	0xbde9e7ff	-0.11421203
233	0xbe25690c	-0.16153353
234	0x3cabd42a	0.020975191
235	0x3e30c42b	0.17262332
236	0xbc62ac4e	-0.013835026
237	0xbe16f0e8	-0.14740336
238	0x3bb267d8	0.005444508
239	0x3e2fbb80	0.1716137
240	0xbe53429d	-0.2063088
241	0xbdb082af	-0.08618676
242	0x3df792ff	0.12088584
243	0xbdbcaa50	-0.09212172
244	0x3d4523e8	0.048129946
245	0x3c377fee	0.011199934
246	0xbb89247a	-0.0041852565
247	0xbdbf5ee2	-0.09344269
248	0xbc280f9e	-0.01025763
249	0x3e42853e	0.1899614
250	0x3e1975c8	0.14986336
251	0xbcedcb62	-0.029027645
252	0xbdb39066	-0.08767776
253	0x3e0b63fc	0.1361236
254	0xbdfdc5ca	-0.12391241
255	0xbe3694aa	-0.17830148

model.gnn.gnn_layers.0.res_connection.bias f4 [64]
0	0x3d7d7944	0.061883226
1	0xbd434eff	-0.04768276
2	0x3c3b1152	0.011417704
3	0x3db3d55d	0.0878093
4	0xbc88b0c0	-0.016685843
5	0xbd54eef7	-0.051985707
6	0xbe1d30a1	-0.15350582
7	0xbde668fd	-0.11250494
8	0xbe188309	-0.14893736
9	0x3e1e62aa	0.15467325
10	0x3d34d8fa	0.044152237
11	0x3e09f479	0.13472165
12	0x3af5a83c	0.0018742154
13	0x3b768dba	0.0037621097
14	0xbe0de6ec	-0.13857621
15	0x3dbab7cb	0.09117087
16	0x3d9fa47d	0.077950455
17	0x3e1ef03b	0.15521328
18	0xbd952980	-0.07283306
19	0x3de118ec	0.109910816
20	0x3d6eb12b	0.05827443
21	0x3c03e652	0.008050518
22	0x3dca2fc6	0.09872393
23	0xbdb9b07c	-0.09066865
24	0xbd664981	-0.056222443
25	0xbcc89ced	-0.02448889
26	0xbda21040	-0.07913256
27	0x3e09777e	0.13424489
28	0x3c9feb3e	0.019521352
29	0xbddbf52b	-0.107401215
30	0xbe0ea934	-0.13931733
31	0x3d83e9be	0.06441067
32	0xbcb727a6	-0.022357773
33	0xbe1c71a0	-0.1527772
34	0x3dad44ca	0.08460386
35	0xbd687862	-0.05675543
36	0xbc1f3730	-0.009717748
37	0xbba666b7	-0.0050781625
38	0xbe28a997	-0.16470943
39	0x3dc1cd88	0.0946303
40	0x3e0a5597	0.13509212
41	0xbd1dbe34	-0.03851147
42	0xbcdb40f1	-0.026764365
43	0x3d238072	0.039917417
44	0x3e495d83	0.19664578
45	0x3c8a665d	0.016894514
46	0x3d245bf0	0.04012674
47	0x3cbde212	0.023179088
48	0x3e14d23d	0.14533325
49	0xbd83fa0d	-0.06444178
50	0xbd7c5486	-0.061604045
51	0xbd5717a9	-0.0525128
52	0x3c77c3cc	0.015122365
53	0x3e0be018	0.13659704
54	0x3d9788ed	0.073991634
55	0xbdeffa6c	-0.11717686
56	0xbb121b59	-0.0022294133
57	0x3e403c02	0.18772891
58	0x3e275da1	0.1634431
59	0xbd71c211	-0.059022967
60	0xbdde61ac	-0.10858473
61	0x3e2017db	0.156341
62	0xbcc04653	-0.023471033
63	0xbd8ee5ad	-0.06977401

model.gnn.gnn_layers.1.graph_conv.weight f4 [64, 64]
0	0x3e6242d9	0.22095813
1	0xbe75941b	-0.23982279
2	0x3dd4158c	0.10355672
3	0x3d73381c	0.059379682
4	0x3e08961d	0.13338514
5	0x3dd1dbf9	0.102470346
6	0x3e1a01b1	0.15039708
7	0x3e0c3626	0.13692531
8	0xbe192f46	-0.1495944
9	0xbe01f8bb	-0.1269254
10	0x3dc6d502	0.09708597
11	0xbdc70f70	-0.09719741
12	0x3db3a7d2	0.087722436
13	0xbdde4808	-0.108535826
14	0x3d639d81	0.05557013
15	0x3d97dd8c	0.074153036
16	0xbc0f3d58	-0.008742653
17	0x3dd2747e	0.10276125
18	0xbe3ea956	-0.18619284
19	0xbcaafc78	-0.02087234
20	0xbe269451	-0.16267516
21	0x3d3660e0	0.04452598
22	0x3df661f1	0.120303996
23	0x3dd511d2	0.104037896
24	0x3e7a4da9	0.24443687
25	0xbe092721	-0.13393833
26	0xbe2c02a4	-0.16797882
27	0xbe4bf32b	-0.1991698
28	0xbd5e8c08	-0.054332763
29	0x3e719420	0.23591661
30	0xbe2a01ce	-0.16602251
31	0xbe005002	-0.1253052
32	0xbd226300	-0.039645195
33	0x3e8b4d62	0.27207476
34	0x3e0cf1fa	0.13764182
35	0xbe013faf	-0.1262195
36	0x3e6c4241	0.23072149
37	0x3d9c044a	0.076180056
38	0xbd01e549	-0.031712804
39	0xbe28f50f	-0.16499732
40	0xbdb299f8	-0.087207735
41	0xbe090c5a	-0.13383618
42	0xbe020f5f	-0.12701176
43	0x3b0d570c	0.0021566777
44	0xbe58512a	-0.21124712
45	0x3daa02da	0.08301325
46	0x3e434ef4	0.19073087
47	0x3d65834c	0.056033418
48	0x3e841bcf	0.25802466
49	0x3e80ab61	0.25130752
50	0x3b334c90	0.0027358867
51	0x3d69d4ea	0.057087816
52	0x3d221839	0.03957388
53	0xbe31e463	-0.17372279
54	0x3d8523e1	0.06500984
55	0x3e469745	0.19393642
56	0x3e35b8cd	0.17746277
57	0x3de2a921	0.11067415
58	0x3e0605b8	0.13088119
59	0xbd9b8081	-0.075928695
60	0xbe27c157	-0.16382347
61	0x3e7c5da2	0.24645093
62	0x3d3ea4c5	0.046543855
63	0xbe0586b1	-0.13039662
64	0xbe2efcd4	-0.17088634
65	0xbe823cdb	-0.25437054
66	0x3dd25ed8	0.10271996
67	0x3d1140de	0.035462253
68	0xbe1a1e46	-0.15050611
69	0xbd406ca0	-0.046978593
70	0x3e7b8ca7	0.24565373
71	0x3e07fd65	0.13280256
72	0xbd4daae9	-0.05021182
73	0xbd4472aa	-0.047960915
74	0x3d72b7b2	0.059257217
75	0xbdc1379e	-0.09434436
76	0x3dcb6b67	0.09932595
77	0xbd0e2ab7	-0.034708705
78	0x3e380308	0.17969906
79	0xbdb3174a	-0.087446764
80	0xbc6198f8	-0.013769381
81	0xbd9a2fe2	-0.07528664
82	0x3e2f6b3f	0.17130755
83	0xbe277dca	-0.16356578
84	0x3e03f8f4	0.12887937
85	0xbdb1da53	-0.0868422
86	0xbe3ae13a	-0.1824998
87	0x3e3aabfc	0.1822967
88	0xbe65e499	-0.22450484
89	0x3deec7cb	0.11659201
90	0x3db2665b	0.08710929
91	0x3dfac2cf	0.12244188
92	0xbdb39a0d	-0.08769617
93	0xbe1d5da1	-0.15367748
94	0x3daf70ce	0.08566438
95	0x3c916a2d	0.017750824
96	0xbdeba99f	-0.11506962
97	0x3e19b077	0.15008722
98	0xbe44751d	-0.191853
99	0x3c104be1	0.008807153
100	0x3e77bcb8	0.24193084
101	0x3e9237d9	0.28558233
102	0x3c2269f6	0.009912958
103	0xbd92a659	-0.071606345
104	0xbe259e78	-0.16173732
105	0x3a452c98	0.00075215986
106	0x3c5584f7	0.01303219
107	0xbe660dca	-0.22466198
108	0xbe2f6b7b	-0.17130844
109	0xbc950336	-0.018190008
110	0x3e26781f	0.1625676
111	0x3e14f295	0.14545663
112	0x3da25ee3	0.079282545
113	0xbe7413bd	-0.23835655
114	0x3e567366	0.20942459
115	0xbcaedf87	-0.02134682
116	0x3d8881b5	0.06665365
117	0x3e319bdd	0.17344613
118	0xbdbd819c	-0.09253237
119	0x3dfa8539	0.122324415
120	0xbe49fcad	-0.19725294
121	0x3e0113a4	0.12605149
122	0xbd4d1fed	-0.050079275
123	0x3e3b7fed	0.18310519
124	0x3de8ae82	0.1136141
125	0xbdfb57b9	-0.12272591
126	0x3dbe5db0	0.09295213
127	0xbd981434	-0.074257284
128	0xbe197e56	-0.149896
129	0x3e47e297	0.19520031
130	0xbdd96904	-0.10615733
131	0xbd214398	-0.039371103
132	0xbcdf7fa1	-0.027282538
133	0x3e0ff28b	0.14057367
134	0xbdb838ef	-0.08995234
135	0xbe2fa000	-0.17150879
136	0xbe3f3dfe	-0.18675992
137	0xbd8bf483	-0.06833746
138	0x3d13ebe5	0.03611364
139	0xbe2e9bea	-0.17051664
140	0xbc00c581	-0.007859589
141	0xbdf1422b	-0.11780199
142	0x3e1a6a68	0.15079653
143	0xbd4045ba	-0.046941496
144	0xbd43448c	-0.047672793
145	0xbdf7004b	-0.12060603
146	0xbe3731d4	-0.17890102
147	0xbe67432c	-0.22584218
148	0x3c5e6712	0.013574379
149	0x3e28219d	0.16419072
150	0xbe22b186	-0.15888032
151	0x3e3d5ce3	0.18492465
152	0xbd84449c	-0.06458399
153	0xbd10249f	-0.035191175
154	0xbe4a7161	-0.19769813
155	0x3dd02764	0.10163763
156	0xbe55a2b4	-0.20862848
157	0xbdee6b9d	-0.11641619
158	0x3dacea2c	0.08443102
159	0x3aca983d	0.0015456747
160	0x3e084754	0.1330846
161	0xbd78823f	-0.060671087
162	0xbe30652a	-0.17226091
163	0xbdb41697	-0.08793371
164	0x3cf3e2ec	0.02977129
165	0x3e3d82ea	0.18506971
166	0x3e354568	0.17702258
167	0x3d7b925a	0.06141887
168	0xbdaa334b	-0.083105646
169	0x3d24806d	0.04016154
170	0xbe0be1d3	-0.13660364
171	0xbda51b91	-0.080618985
172	0xbe06d0d0	-0.13165593
173	0xbe07ec1d	-0.13273664
174	0x3da7635d	0.08173249
175	0x3e28101b	0.16412394
176	0x3e27f287	0.1640111
177	0x3e1e0b67	0.15434037
178	0x3e080405	0.13282783
179	0xbe8bc392	-0.27297646
180	0xbe4b8974	-0.19876653
181	0xbe251cc7	-0.16124259
182	0xbe6ae8f6	-0.2294043
183	0x3cb0260e	0.02150252
184	0x3df19e8d	0.11797819
185	0xbe1071ee	-0.1410596
186	0x3e3b7493	0.18306188
187	0x3e7e15e1	0.24813034
188	0x3d13ada4	0.03605427
189	0xbe1bbaef	-0.15208028
190	0xbd9fa507	-0.07795148
191	0xbd89a0bd	-0.067201115
192	0xbe088959	-0.13333644
193	0x3e06b453	0.13154726
194	0x3d6d7a35	0.057977874
195	0x3d28772b	0.041129272
196	0x3caa7eb1	0.020812364
197	0xbdf6db47	-0.120535426
198	0xbcea3875	-0.028591374
199	0x3e41f47b	0.18940918
200	0xbe4e6eae	-0.20159408
201	0xbe351986	-0.17685518
202	0xbdd68160	-0.10473895
203	0xbd9811f5	-0.074253
204	0xbc5ab9a2	-0.013349922
205	0x3e08d3ae	0.13362
206	0xbc9a0b40	-0.018804193
207	0xbe6bf287	-0.23041736
208	0xbca97c0a	-0.02068903
209	0x3dd35a27	0.103199296
210	0x3e39c64f	0.18142055
211	0x3add856b	0.0016900724
212	0x3e11fe75	0.14257224
213	0xbdeeded1	-0.116635926
214	0xbe4bedd8	-0.19914949
215	0xbe5dd344	-0.21662623
216	0x3df1cea5	0.118069924
217	0x3e2babeb	0.167648
218	0xbe3231cf	-0.17401813
219	0xbe59b40f	-0.21260093
220	0xbd8e7e77	-0.06957715
221	0xbdba8056	-0.091065094
222	0xbe05214c	-0.13000983
223	0x3d6793d4	0.056537464
224	0xbe3d49b3	-0.18485145
225	0x3c0cadef	0.008586391
226	0xbe1911e4	-0.14948231
227	0xbe10b4b2	-0.1413143
228	0xbd2c39ac	-0.042047188
229	0x3d9f2b84	0.07771972
230	0xbe8aa71d	-0.27080622
231	0xbda65ba6	-0.08122949
232	0xbd8efb82	-0.06981565
233	0xbe6d42e9	-0.23170055
234	0xbe104e6c	-0.14092416
235	0x3d97038a	0.07373722
236	0x3de634a2	0.11240508
237	0x3da445f7	0.08021157
238	0x3d8dfc70	0.06932914
239	0xbe284e0f	-0.16436027
240	0x3e17686e	0.1478593
241	0xbca9b5fb	-0.020716658
242	0x3e335d80	0.17516136
243	0xbdec07e6	-0.11524944
244	0x3d7df914	0.062005118
245	0xbe3b2f7a	-0.1827983
246	0xbdd9638b	-0.106146894
247	0xbc4c9250	-0.0124860555
248	0xbd848cf0	-0.06472194
249	0xbe27658e	-0.16347334
250	0x3e2d5666	0.1692749
251	0xbe469d77	-0.19396006
252	0xbe390a18	-0.18070257
253	0xbe0527e5	-0.130035
254	0xbe3b9201	-0.18317415
255	0x3e4ea351	0.20179488

model.gnn.gnn_layers.1.graph_conv.bias f4 [64]
0	0x3cdbbfdb	0.026824882
1	0xbd0a3c58	-0.033748955
2	0xbc3f920b	-0.011692534
3	0x3d155e4b	0.036466878
4	0x3b4aa6e5	0.003092223
5	0xbca8b7ff	-0.020595549
6	0x3c2d87f8	0.0105914995
7	0x3be3db45	0.006953629
8	0x3cc5f6e0	0.02416557
9	0x3bfc0a32	0.007691645
10	0x3c8e080e	0.017337825
11	0x3d314420	0.04327786
12	0xbba705ae	-0.0050971126
13	0xbb5e9d03	-0.0033968098
14	0x3d36fc20	0.04467404
15	0xbb99fd88	-0.0046994127
16	0xbb9b9282	-0.0047476897
17	0xbb155358	-0.0022785272
18	0x3bc71ec2	0.0060766647
19	0x3c6f0985	0.014589672
20	0x3d3f9aac	0.046778366
21	0x3d1c4d88	0.038159877
22	0x00000000	0.0
23	0x3be46ea7	0.0069711986
24	0xbc5c321b	-0.01343968
25	0xbccfe2a7	-0.025376631
26	0xbaa47b17	-0.0012548891
27	0xbc2239bc	-0.00990146
28	0xbbcb57a2	-0.006205515
29	0xbc08324d	-0.008312774
30	0x3d17c045	0.037048597
31	0xbb8d8d6b	-0.004319837
32	0xbca11ac0	-0.019666076
33	0x3d689d7a	0.056790806
34	0x3a1b5393	0.0005925234
35	0x00000000	0.0
36	0x3d15b2ec	0.036547586
37	0x3cc80014	0.0244141
38	0xbd1206b2	-0.035650916
39	0xbc92e31b	-0.017930558
40	0x3b4781c0	0.0030442327
41	0x3b50d76a	0.0031866678
42	0xbc23f2d4	-0.010006625
43	0x3bc42a8f	0.0059865187
44	0x3d612f60	0.05497682
45	0x3d04c5df	0.032415267
46	0xbc388988	-0.011263259
47	0x3cb34a2c	0.021885954
48	0x3cb22b0d	0.021749044
49	0x3cc0aaf2	0.023519013
50	0xbd16b5c7	-0.03679445
51	0xbceefa59	-0.02917211
52	0x3c4aa9a9	0.012369552
53	0xbbc9fb62	-0.0061640004
54	0xbbca2eae	-0.0061701154
55	0xbc6e5de0	-0.014548749
56	0xbcd1f2fb	-0.025628557
57	0x3d099f81	0.03359938
58	0x3a0bfc8a	0.00053400605
59	0x3c2f4ac0	0.010698974
60	0xbcd14156	-0.02554385
61	0x3c93ba94	0.018033303
62	0xbccb3ec7	-0.024810208
63	0x3d19c9d6	0.037546

model.gnn.gnn_layers.1.res_connection.weight f4 [64, 64]
0	0x3c71bd23	0.014754566
1	0x3db831eb	0.08993896
2	0xbd69aa33	-0.05704708
3	0x3cbb35a4	0.022852726
4	0x3da7c98c	0.08192739
5	0x3dae542b	0.085121475
6	0xbc7f756a	-0.015591959
7	0x3db1d1c1	0.086825855
8	0xbc589667	-0.013219452
9	0xbe2e221b	-0.17005198
10	0x3c63cec1	0.013904274
11	0x3c8b89a6	0.01703341
12	0xbdcc5a00	-0.09978104
13	0x3c4d8fb5	0.012546469
14	0x3d4cd776	0.050010167
15	0xbdd34dfb	-0.10317608
16	0x3dd5bdbc	0.104365796
17	0xbaf1f665	-0.0018460272
18	0x3d4cb3a0	0.04997599
19	0x3da4be7b	0.08044144
20	0xbccdfc61	-0.025144758
21	0xbd294c45	-0.041332502
22	0x3ddaa010	0.10675061
23	0x3da9fb76	0.082999155
24	0xbc295ee2	-0.010337563
25	0x3db70b00	0.08937645
26	0xbcf641d8	-0.030060694
27	0x3cc6f3ac	0.024286114
28	0x3dc13944	0.09434751
29	0x3dbf3884	0.093369514
30	0x3d61fdd4	0.05517371
31	0x3c6ee4da	0.01458093
32	0xbe5a2e6d	-0.21306773
33	0x3da98975	0.08278171
34	0xbd613e0f	-0.054990824
35	0xbda940e4	-0.0826433
36	0xbd9640f1	-0.07336605
37	0x3cb24d03	0.021765238
38	0xbd1b14da	-0.037861682
39	0xbd53cafc	-0.051707253
40	0x3bfe883b	0.007767705
41	0xbd700da2	-0.05860675
42	0x3dcd9430	0.1003803
43	0xbd2b9955	-0.041894276
44	0xbca3bdd9	-0.019987987
45	0x3e00daae	0.1258342
46	0xbd826980	-0.06367779
47	0xbda334fe	-0.07969092
48	0x3dd721ed	0.10504518
49	0xbd1584f5	-0.03650375
50	0x3e21ad32	0.15788725
51	0xbddf5999	-0.10905761
52	0xbd38dc60	-0.04513204
53	0x3ca9bb99	0.020719336
54	0xbdf3276d	-0.11872754
55	0x3d1248ea	0.035714068
56	0x3ce8fb7c	0.02844023
57	0xbdc39895	-0.09550587
58	0x3c28a8c9	0.010294148
59	0xbd7e7519	-0.06212339
60	0xbd3535d5	-0.04424079
61	0xbd3dc696	-0.046331964
62	0xbd8f91a4	-0.070102006
63	0xbb71cd86	-0.0036896183
64	0x3bca09c2	0.006165714
65	0x3cc3c079	0.023895489
66	0x3d86c32a	0.06580193
67	0x3dcd43ae	0.100226745
68	0x3d4e2f15	0.05033787
69	0xbe0cc426	-0.137467
70	0x3d0b1be2	0.033962138
71	0x3e044a67	0.12919007
72	0x3dafabbd	0.08577678
73	0x3ddf38df	0.10899519
74	0xbd61bd1d	-0.055111993
75	0xbd07cbc0	-0.033153296
76	0xbdacdbbc	-0.084403485
77	0xbc9933ff	-0.018701551
78	0x3bee9433	0.0072808503
79	0x3c2c2f9a	0.010509396
80	0x3dc2371a	0.09483166
81	0xbccbd316	-0.024880927
82	0xbddc4463	-0.10755231
83	0xbaae13cc	-0.0013281046
84	0xbd141533	-0.03615303
85	0xbd297207	-0.04136851
86	0xbdb23b71	-0.08702744
87	0x3e4abf72	0.19799593
88	0x3bd7d0d8	0.0065861754
89	0xbdb52e50	-0.08846724
90	0x3b79e673	0.0038131743
91	0x3e0c0e67	0.13677369
92	0x3d6f75fd	0.05846213
93	0x3c1f6ab9	0.0097300345
94	0x3da60b77	0.081076555
95	0x3c5c8f33	0.013461876
96	0x3d1a4244	0.037660852
97	0xbb2ccbf0	-0.0026366673
98	0xbe0bbf63	-0.13647227
99	0x3cb17bfb	0.021665564
100	0x3d3bb5cd	0.045827676
101	0xbdcec341	-0.100958355
102	0x3d125621	0.03572667
103	0x3d0b068c	0.03394179
104	0x3e0eed8a	0.13957801
105	0x3d4f5cfd	0.05062579
106	0x3dee7762	0.11643864
107	0x3d79d8b2	0.060997672
108	0xbe033aca	-0.12815395
109	0xbd247abe	-0.04015612
110	0xbd2c7e6a	-0.042112745
111	0xbde682c9	-0.11255414
112	0x3d771b0e	0.060328536
113	0x3da0cdef	0.07851779
114	0xbbef1f55	-0.0072974362
115	0x3ddd1eaa	0.10796864
116	0xbd2f75d6	-0.042836986
117	0xbd146fa3	-0.036239278
118	0x3c57964a	0.01315839
119	0x3dad4718	0.08460826
120	0x3d3364e2	0.04379738
121	0xbdf03740	-0.11729288
122	0x3e5b5d76	0.21422371
123	0x3d8c740a	0.0685807
124	0x3e28288a	0.16421714
125	0xbd0a8309	-0.03381637
126	0xbd7c56ab	-0.06160609
127	0xbd3dc1c6	-0.046327375
128	0xbd906bdb	-0.07051822
129	0x3cf3a42c	0.02974137
130	0xbd4e95c8	-0.05043581
131	0xba5c7a13	-0.00084105245
132	0x3d5ebe34	0.05438061
133	0xbc0c074c	-0.008546662
134	0x3dc1bb3a	0.09459539
135	0x3d06a9a3	0.032876622
136	0x3e2c7ef5	0.16845305
137	0xbd8d6532	-0.06904067
138	0xbdebd621	-0.11515451
139	0xbd840adb	-0.06447383
140	0x3dc60f19	0.096708484
141	0x3b729878	0.0037017148
142	0x3e294a99	0.16532363
143	0xbe02eabc	-0.12784857
144	0xbce9597e	-0.028485056
145	0x3d114654	0.03546746
146	0x3cadfad6	0.021237772
147	0xbdfa75ef	-0.12229525
148	0x3ddc4047	0.107544474
149	0xbc1471fd	-0.00906038
150	0xbde72a2c	-0.112873405
151	0x3b1bd7fb	0.0023779857
152	0x3da74ee6	0.081693456
153	0x3db85ced	0.09002099
154	0x3d5a7055	0.053329784
155	0xbda0685a	-0.078324035
156	0x3cc1af10	0.023643047
157	0x3d2ca2f3	0.042147588
158	0xbb362a3f	-0.0027796177
159	0xbd3ce2ed	-0.04611485
160	0xbe39d3ab	-0.18147151
161	0xbe2f6413	-0.17128019
162	0x3e15e463	0.14637904
163	0xbd9b7d5c	-0.0759227
164	0xbdb1662e	-0.08662067
165	0x3ca18ae5	0.01971955
166	0x3db698a4	0.08915833
167	0xbe29ee1d	-0.1659474
168	0xbd8237f8	-0.063583314
169	0xbc820f12	-0.015876327
170	0xbd7d1e73	-0.061796617
171	0xbdeb85aa	-0.11500104
172	0x3cafca66	0.021458816
173	0xbdf7890e	-0.12086688
174	0xbcf4af16	-0.029868644
175	0x3cc106cb	0.02356281
176	0xbd344c74	-0.044018224
177	0x3cd0b65c	0.02547758
178	0xbd709c2b	-0.058742683
179	0x3debf2f5	0.1152095
180	0x3da7aeda	0.08187647
181	0x3e047514	0.12935287
182	0x3ba9262a	0.00516202
183	0xbd48caba	-0.04902146
184	0x3d839914	0.06425682
185	0xbd92717d	-0.071505524
186	0xbe229906	-0.15878686
187	0x3d9f3c0e	0.077751264
188	0xbd2e4b93	-0.042552542
189	0xb8e12575	-0.00010735813
190	0x3dc8ffbf	0.09814405
191	0x3d36e04f	0.04464751
192	0xbd1697c4	-0.03676583
193	0x3e124bb6	0.14286694
194	0xbe63315b	-0.22186796
195	0x3da584cd	0.0808197
196	0xbdd63e1f	-0.104610674
197	0x3e463e38	0.19359672
198	0x3b8d3469	0.0043092263
199	0x3b22044b	0.0024721797
200	0x3e1e8f3d	0.15484329
201	0xbddbf2ae	-0.10739647
202	0x3e2f5107	0.17120753
203	0x3dc03d51	0.09386695
204	0xbd89b385	-0.06723694
205	0xbb966803	-0.004590036
206	0x3debb422	0.11508967
207	0xbd9342f6	-0.07190506
208	0xbdd50de5	-0.10403041
209	0x3e07bbd4	0.13255244
210	0xbe3c35e3	-0.18379931
211	0xbbc8e2a9	-0.0061305356
212	0x3e532592	0.206198
213	0xbcb0362d	-0.021510208
214	0x3d96d1c3	0.073642276
215	0xbcb5cc00	-0.022192001
216	0xbdfa300d	-0.12216196
217	0xbce2cf41	-0.027686717
218	0xbd47829f	-0.048708554
219	0xbd16951a	-0.036763288
220	0xbe10a993	-0.14127187
221	0xbe2c78e4	-0.16842991
222	0x3db04d97	0.08608549
223	0xbd5a4220	-0.053285718
224	0xbd57dde5	-0.05270185
225	0xbc81b385	-0.015832672
226	0x3da46a13	0.080280446
227	0x3d8d0844	0.06886342
228	0x3e4cdbf9	0.20005788
229	0x3d200253	0.039064717
230	0x3d4c7d7a	0.04992435
231	0x3db11c47	0.086479716
232	0x3d8c108c	0.068390936
233	0xbd27fff7	-0.04101559
234	0xbdbd875f	-0.092543356
235	0xbdbcc19f	-0.09216618
236	0xbc79aaf7	-0.015238515
237	0x3d49b6ea	0.049246706
238	0x3daf885e	0.08570932
239	0x3d4fe7d1	0.050758187
240	0x3dc6e99f	0.097125284
241	0x3cb693fe	0.022287365
242	0xbdf18040	-0.1179204
243	0x3df14517	0.11780756
244	0x3d679b7e	0.056544773
245	0x3dbf536b	0.093420826
246	0xbc1dfe2a	-0.009643117
247	0xbdf61412	-0.12015547
248	0xbdcf2507	-0.10114484
249	0xbd9ad9eb	-0.07561096
250	0x3bb491d7	0.0055105495
251	0x3d46508a	0.04841665
252	0xbe097154	-0.13422137
253	0x3d01ddcc	0.031705663
254	0x3d8f4034	0.06994668
255	0x3e75662c	0.23964757

model.gnn.gnn_layers.1.res_connection.bias f4 [64]
0	0x3dcaec9b	0.0990841
1	0xbd9abb1b	-0.07555219
2	0xbdbf3606	-0.09336476
3	0x3dd6f8d4	0.10496679
4	0xbda108f2	-0.07863034
5	0x3d397147	0.045274045
6	0x3dcf285b	0.10115119
7	0xbd9266d8	-0.07148522
8	0xbdefa3a2	-0.11701132
9	0xbd6e604b	-0.0581973
10	0x3ab91d80	0.0014123172
11	0xbd90e4d8	-0.070748985
12	0xbd8cf5f0	-0.06882846
13	0x3dc27517	0.09494989
14	0x3d36008d	0.04443412
15	0x3dafafaa	0.08578427
16	0xbe00f70e	-0.12594244
17	0x3d823025	0.06356839
18	0xbd9c1b79	-0.076224275
19	0x3e071d24	0.1319471
20	0x3d8d8ce1	0.06911636
21	0x3cbdacad	0.023153627
22	0x3d82652b	0.063669525
23	0x3d5326ae	0.05155056
24	0x3dcf1703	0.10111811
25	0x3d707c96	0.058712564
26	0xbd2919d8	-0.041284412
27	0xbdd3894d	-0.103289224
28	0x3da60511	0.08106435
29	0xbd5e3bef	-0.054256376
30	0x3daf50ec	0.085603565
31	0xbd65d24a	-0.05610875
32	0xbdfff2ff	-0.1249752
33	0xbc8fd9a0	-0.017559826
34	0x3cc0b5e2	0.023524228
35	0x3d355444	0.044269815
36	0xb7948c2b	-1.7708246e-05
37	0x3db49c7f	0.08818912
38	0xbe0285cd	-0.12746353
39	0xbdc484cf	-0.09595644
40	0x3cc8bd6e	0.02450439
41	0x3ca179bd	0.01971137
42	0xbdf11e03	-0.117733024
43	0x3da74921	0.08168245
44	0xbd2fb410	-0.04289633
45	0xbccf023f	-0.025269626
46	0x3dfca637	0.123363905
47	0x3c29d329	0.010365286
48	0x3df92bbb	0.12166544
49	0x3d3b075e	0.045661323
50	0xbce3ffcd	-0.027831936
51	0x3dd6286a	0.10456927
52	0x3d03d029	0.03218094
53	0x3ce100d9	0.027466225
54	0x3d7a200a	0.06106571
55	0xbe04b2ad	-0.12958784
56	0x3cb2776c	0.02178546
57	0xbc9c7a73	-0.019101357
58	0x3d306bd7	0.043071594
59	0xbdeefdac	-0.11669478
60	0xbd663bd3	-0.056209397
61	0xbd4233a4	-0.04741253
62	0xbd8e40df	-0.06945967
63	0xbd9856ef	-0.07438456

model.readout.weight_and_sum.atom_weighting.0.weight f4 [1, 64]
0	0xbdd939b8	-0.10606712
1	0x3cd45fd3	0.025924599
2	0xbd9f8169	-0.07788355
3	0x3d8c1954	0.068407685
4	0xbdba8227	-0.09106856
5	0xbc849c65	-0.016187856
6	0x3c96cdbe	0.018408652
7	0x3dad45e7	0.084605984
8	0x3d88bf6e	0.06677137
9	0xbe02cda3	-0.12773757
10	0xbe152789	-0.14565863
11	0xbcd29e07	-0.025710119
12	0x3ccccd83	0.02500034
13	0xbc896d86	-0.016775858
14	0xbce590d6	-0.028023165
15	0x3d9bee8c	0.076138586
16	0xbdbf89d3	-0.0935246
17	0xbde1a661	-0.110180624
18	0xbd95bf9a	-0.07311936
19	0xbe05843d	-0.13038726
20	0xbde67224	-0.11252239
21	0xbd304450	-0.043033898
22	0xbdd17666	-0.10227661
23	0xbe18bebc	-0.1491651
24	0x3d6dca75	0.058054406
25	0x3dc71c3a	0.09722181
26	0xbd79923b	-0.060930472
27	0xbd074461	-0.033024196
28	0xbd7bf18c	-0.061509654
29	0x3a67293a	0.0008818094
30	0x3da77dd2	0.08178295
31	0xbdc674f8	-0.09690279
32	0xbd369fc5	-0.04458596
33	0xbd844924	-0.06459263
34	0xbba7dbe4	-0.0051226486
35	0x3d9e8856	0.07740848
36	0xbe0dd0e9	-0.13849224
37	0xbe36e894	-0.17862159
38	0xbd31790e	-0.043328337
39	0xbd688ebe	-0.056776755
40	0xbe0342ab	-0.128184
41	0xbe6bfe95	-0.23046334
42	0x3c45a72b	0.012063782
43	0xbe137cec	-0.14403123
44	0xbe356805	-0.17715462
45	0xbd379105	-0.044816036
46	0xbbd3a870	-0.0064592883
47	0xbdcdad81	-0.10042859
48	0xbe2f1771	-0.17098786
49	0xbc8f46c7	-0.017489804
50	0xbc419ed2	-0.011817651
51	0x3dbab8af	0.09117257
52	0xbc75603f	-0.01497656
53	0x3d9e8ed6	0.077420875
54	0xbcbd9c48	-0.02314581
55	0x3e15dedd	0.14635797
56	0x3dd983c2	0.10620834
57	0xbda6b618	-0.081402004
58	0xbcec266f	-0.02882692
59	0xbd613c05	-0.05498888
60	0x3ce56728	0.02800329
61	0xbe05cc5e	-0.13066241
62	0x3d98c868	0.074600995
63	0xbe2adfd1	-0.16686942

model.predict.predict.1.weight f4 [128, 128]
0	0xbd2049ee	-0.039133005
1	0x3cde8d5f	0.02716702
2	0xbda978a9	-0.08274967
3	0xbdca9e5d	-0.09893487
4	0xbd8b911d	-0.068147875
5	0xbdd4a105	-0.103822745
6	0xbe0536a1	-0.1300912
7	0x3b7269b4	0.0036989274
8	0xbcca5be1	-0.024702014
9	0xbe23e2a4	-0.16004425
10	0x3d8205b1	0.06348742
11	0xbd4c70ac	-0.04991214
12	0xbc6cae82	-0.014445903
13	0xbdcd6a2e	-0.10030018
14	0x3c0163ea	0.0078973565
15	0xbb818f4d	-0.0039538504
16	0xbd2461d0	-0.040132344
17	0xbdc356f9	-0.09538073
18	0xbd863682	-0.06553365
19	0xbd41b74b	-0.047293942
20	0xbc847fe4	-0.016174264
21	0xbd297df4	-0.041379884
22	0xbd831cf0	-0.06402004
23	0x3d7fa565	0.062413592
24	0x3d7ace87	0.061232116
25	0x3d9d6403	0.07685091
26	0x3c26ed80	0.01018846
27	0xbccf6b86	-0.025319826
28	0xbd8911fc	-0.06692883
29	0x3ada06f1	0.0016634149
30	0xbba9760a	-0.005171542
31	0x3d293b7a	0.041316487
32	0xbdaf5ca0	-0.08562589
33	0x3d8871fa	0.06662364
34	0xbc15a6b2	-0.009133982
35	0xbda24652	-0.07923569
36	0x37aef60c	2.085699e-05
37	0x3ca29d99	0.019850539
38	0x3d965b55	0.07341639
39	0xbcf2f07e	-0.029655691
40	0xbd5cd0ae	-0.05390995
41	0xbc06682d	-0.008203548
42	0x3e0c6773	0.13711338
43	0x3b960fc3	0.0045795157
44	0xbc593a48	-0.013258524
45	0xbd08fd45	-0.03344466
46	0xbdb85dfa	-0.090022996
47	0x3d25afdc	0.040450916
48	0xbde8e676	-0.11372082
49	0x3c10c3ce	0.008835746
50	0xbd8d122a	-0.0688823
51	0xbd2d5d3e	-0.04232525
52	0x3d1ca70b	0.038245242
53	0x3c0ecfd6	0.008716544
54	0x3c9087d0	0.017642885
55	0xbd798fff	-0.06092834
56	0x3d929c32	0.07158698
57	0x3c5c7d1e	0.013457565
58	0x3d4bed5f	0.04978692
59	0x398700c0	0.00025749765
60	0xbcd1cf64	-0.025611587
61	0x3d20ddaf	0.039273914
62	0x3cb53d01	0.022123815
63	0xbcb3e4ff	-0.02195978
64	0x3c9376bc	0.018000953
65	0xbd17ab5a	-0.037028648
66	0x3db05536	0.08610003
67	0x3def05fa	0.11671062
68	0xbe1af744	-0.15133387
69	0x3d67f4ef	0.05663007
70	0x3e89a66d	0.26884785
71	0xbdbaf7cb	-0.09129294
72	0x3d8fe111	0.0702535
73	0x3a3806b4	0.0007020042
74	0xbd828029	-0.06372101
75	0xbb03a9cf	-0.0020090227
76	0x3d5554df	0.052082893
77	0xbdf70f7f	-0.120635025
78	0xbda397fd	-0.07987974
79	0x3e3bfe1b	0.18358652
80	0x3df441c0	0.11926603
81	0x3d268146	0.04065063
82	0xbccc63e4	-0.024949975
83	0xbdd23d42	-0.1026559
84	0xbda0a887	-0.07844644
85	0x3df3370b	0.11875733
86	0x3df9a9c8	0.12190586
87	0x3d8ae732	0.06782378
88	0xbc9913f4	-0.018686272
89	0x3dc4804e	0.09594785
90	0x3c82ff93	0.015991008
91	0x3c79fda8	0.01525823
92	0xbe05852f	-0.13039087
93	0xbd0e3e5d	-0.034727443
94	0x3e815397	0.25259086
95	0xbe17de19	-0.14830817
96	0x3db41b64	0.08794287
97	0xbdea49f8	-0.1143989
98	0x3df1db76	0.11809437
99	0xbded4cc9	-0.11586911
100	0x3dbbb28b	0.09164914
101	0x3bf01810	0.007327087
102	0x3d4d9641	0.05019212
103	0x3e429d48	0.1900531
104	0x3dc7a0fa	0.09747501
105	0x3e3e8e1d	0.186089
106	0x3e0568c7	0.1302825
107	0x3de7416d	0.11291776
108	0x3e021461	0.12703086
109	0x3c89d4a9	0.016825037
110	0x3e01bfb1	0.1267078
111	0x3db2f6c9	0.08738477
112	0x3cd76cce	0.026297
113	0x3db8601c	0.090027064
114	0x3da50f46	0.08059554
115	0x3a26d07c	0.0006363464
116	0x3c4a1a04	0.012335304
117	0xbdcc449b	-0.09974023
118	0x3b9ec931	0.004845761
119	0x3cb55453	0.022134935
120	0xbe02c628	-0.12770903
121	0xbd4dd325	-0.05025019
122	0xbdec959a	-0.11551972
123	0xbd77b56b	-0.060475748
124	0x3d427afe	0.047480576
125	0xbabca61a	-0.0014392764
126	0x3c0481ab	0.008087556
127	0xbab89e98	-0.001408535
128	0x3d467331	0.0484497
129	0xbcd21f6e	-0.025649752
130	0x3da628ac	0.08113226
131	0x3d6b09ba	0.057382323
132	0xbd2857e4	-0.041099444
133	0xbdc5b3f2	-0.096534625
134	0xbd064aff	-0.032786366
135	0x3d584e94	0.052809313
136	0xbd902b4e	-0.0703951
137	0x3dd64411	0.104622014
138	0xbd31f82c	-0.043449566
139	0xbda1572d	-0.078779556
140	0x3d31d44a	0.043415345
141	0x3cb11cfc	0.021620266
142	0xbd36806b	-0.044556063
143	0x3cd61341	0.026132228
144	0xbd0d61d4	-0.034517124
145	0x3d589960	0.052880645
146	0xbcf666a0	-0.030078232
147	0x3ce25328	0.027627543
148	0xbd4a5830	-0.04940051
149	0xbc5a3676	-0.013318649
150	0xbd050406	-0.03247454
151	0xbd963d67	-0.0733593
152	0xbddc5d59	-0.10759992
153	0xbda08e7d	-0.078396775
154	0x3b31a523	0.0027106486
155	0x3d262409	0.04056171
156	0x3c9a5284	0.018838175
157	0x3d270974	0.0407805
158	0xbd5eb6f2	-0.05437369
159	0xbdc46c81	-0.09591008
160	0xbd7356d7	-0.05940899
161	0x3d1d927b	0.038469773
162	0x3b061e2d	0.0020464764
163	0x3d0c82b3	0.034304332
164	0x3cab78f6	0.020931702
165	0xbd1047a3	-0.035224568
166	0xbd80c0fb	-0.06286808
167	0x3d14be00	0.03631401
168	0x3d504873	0.050850343
169	0x3c9c7f9e	0.019103821
170	0xbe08dc35	-0.13365252
171	0x3ac104eb	0.0014726197
172	0x3db04700	0.08607292
173	0xbb1e3ffd	-0.0024147027
174	0x3ce94cb3	0.028478956
175	0xbd6bf068	-0.057602316
176	0x3d726633	0.059179496
177	0xba270699	-0.00063715276
178	0xbd34b710	-0.044119895
179	0x3c28d87d	0.010305521
180	0xbd151a61	-0.03640211
181	0x3dafb094	0.085786015
182	0xbd438a3d	-0.047739256
183	0x3d0bdce8	0.03414622
184	0x3cda94b0	0.026682228
185	0x3dfb6349	0.122747965
186	0xbd9c7795	-0.07639996
187	0x3d46adee	0.048505716
188	0xbcec7ab8	-0.02886711
189	0x3bc24346	0.00592843
190	0x3d2ee504	0.042698875
191	0x3d827872	0.06370629
192	0x3d2cba64	0.042169943
193	0xbd2a3a8f	-0.041559752
194	0xbc4da1b2	-0.012550758
195	0x3d0e964c	0.034811303
196	0x3d9e69cf	0.07735025
197	0xbd691370	-0.056903303
198	0xbd8779c3	-0.06615021
199	0xbd181936	-0.037133418
200	0x3c8345e4	0.016024537
201	0xbd52d004	-0.05146791
202	0xbd62367d	-0.055227745
203	0xba0d9b34	-0.000540185
204	0xbc007b01	-0.007841826
205	0x3df78265	0.12085418
206	0xbd878aa3	-0.0661824
207	0xbce76198	-0.028244779
208	0xbd2c2946	-0.04203155
209	0x3c7fbd11	0.015609042
210	0x3c818085	0.015808353
211	0xbcf52b61	-0.029927911
212	0xbd8c8cd8	-0.06862801
213	0xbde37c0b	-0.11107644
214	0xbd53de59	-0.05172572
215	0xbd157040	-0.036484003
216	0x3ce8290b	0.028339883
217	0xbe01ae11	-0.12664057
218	0x3cf444d1	0.02981797
219	0xbd4f667d	-0.05063485
220	0x3ca466ed	0.02006861
221	0x3dd67512	0.10471548
222	0xbe6e0977	-0.23245798
223	0x3da580ee	0.08081232
224	0xbd18f02e	-0.03733843
225	0xbd35aeb0	-0.044356048
226	0x3d0d256b	0.034459513
227	0xbd9a054a	-0.0752054
228	0xbe11258c	-0.14174479
229	0xbcb471cb	-0.022026917
230	0x3b2acfb7	0.002606375
231	0xbe3f3a71	-0.18674637
232	0xbdf6fdba	-0.12060113
233	0xbdf5b85a	-0.11998053
234	0xbdd74924	-0.10511997
235	0xbe14f1b5	-0.14545329
236	0xbe075e0f	-0.13219474
237	0x3bb2484a	0.0054407464
238	0xbe13345e	-0.14375445
239	0x3c866662	0.016406242
240	0x3dd4130e	0.10355197
241	0xbdd4a37c	-0.10382745
242	0xbd93cac2	-0.07216407
243	0x3d3a6831	0.04550952
244	0x3cad68cb	0.021168133
245	0xbb7a1233	-0.003815782
246	0xbdaf8720	-0.08570695
247	0x3cbf479f	0.023349581
248	0x3dc0cd77	0.09414189
249	0xbcfa4815	-0.03055195
250	0x3da05085	0.07827858
251	0xbd9ad676	-0.075604364
252	0xbd8c71ed	-0.06857667
253	0xbd0cb77f	-0.034354683
254	0xbdd0ae39	-0.1018948
255	0x3cb992e9	0.02265306

model.predict.predict.1.bias f4 [128]
0	0x3d4f97eb	0.05068199
1	0xbc93ee42	-0.018057946
2	0xbd861afa	-0.06548114
3	0x3c0f7838	0.00875669
4	0xbc225c5a	-0.009909714
5	0xbce9430e	-0.028474357
6	0x3c19fd77	0.00939881
7	0xbd2c8ab0	-0.04212445
8	0xbd1f84e3	-0.03894509
9	0x3d8a6c41	0.06758929
10	0xbd882903	-0.06648447
11	0x3c92ed7b	0.017935505
12	0x3d7761f9	0.06039617
13	0x3d6874fd	0.056752194
14	0xbc49288b	-0.012277733
15	0x3d7411c0	0.05958724
16	0xbccfd43b	-0.025369754
17	0x3c142d53	0.009044009
18	0xbda0eba3	-0.07857444
19	0xbd750a1a	-0.059824087
20	0xbd543aa3	-0.051813733
21	0xbe1e76be	-0.15474984
22	0xbd7d566e	-0.061850004
23	0xbdabf228	-0.08395797
24	0xbd190a5b	-0.03736339
25	0x3d0478f6	0.03234192
26	0x3c983396	0.018579286
27	0xbd5e51c5	-0.0542772
28	0x3ba54dc0	0.005044669
29	0xbdaa69f7	-0.083209924
30	0x3ba5c9fd	0.0050594793
31	0xbd5fe131	-0.05465812
32	0xbdb3da64	-0.08781889
33	0xbd8e7926	-0.06956701
34	0xbdbac0c4	-0.091187984
35	0x3d18debb	0.037321787
36	0xbc2d018e	-0.010559453
37	0x3d3f8c47	0.04676464
38	0xbd0be8a4	-0.03415741
39	0xbda729a1	-0.08162237
40	0x3dc54dc0	0.0963397
41	0x3d58d9ff	0.052942272
42	0xbc029534	-0.007970143
43	0x3d9aedd9	0.07564897
44	0x3cd40c0c	0.02588465
45	0xbd6abd3c	-0.057309374
46	0x3cc2be1f	0.023772297
47	0x3c039143	0.008030239
48	0xbc0a3df6	-0.008437624
49	0x3cedbc31	0.0290204
50	0x3c92bf15	0.01791338
51	0xbd82e655	-0.063915886
52	0x3d024d25	0.031811852
53	0x3d6dcd3a	0.058057047
54	0x3d32a0f2	0.04361052
55	0x3d622439	0.055210326
56	0x3deb10e2	0.114778295
57	0x3aa1cfdc	0.0012345272
58	0xbdadd8fa	-0.084886506
59	0xbdcbc6a3	-0.09949996
60	0x3cd5b418	0.026086852
61	0xbc039736	-0.008031657
62	0xbc3107e5	-0.010805105
63	0x3d5f7b7b	0.05456112
64	0xbd9a8834	-0.0754551
65	0xbd752aff	-0.059855457
66	0xbd3d63ea	-0.046237864
67	0xbd36565b	-0.04451595
68	0x3d3149f0	0.043283403
69	0xbd78d81d	-0.060752977
70	0xbcac2cec	-0.021017514
71	0xbd498a9e	-0.04920446
72	0xba8e2bbb	-0.0010846773
73	0x3d78286b	0.06058542
74	0xbcf93ca7	-0.03042443
75	0x3aec5bb7	0.0018032704
76	0xbd0d1eb6	-0.034453116
77	0xbdc286bc	-0.09498355
78	0x3d0662b3	0.03280897
79	0x3c2ebaf9	0.010664695
80	0x3d8ac0b4	0.067750365
81	0x3d624086	0.055237316
82	0xbcc53e94	-0.024077691
83	0xbd7c4a8e	-0.06159454
84	0xbc66afa7	-0.014079965
85	0xbdbd2c33	-0.09236946
86	0x3da53906	0.08067517
87	0x3d130b91	0.035899702
88	0x3cbdb969	0.0231597
89	0xbd4f7cbc	-0.050656065
90	0x3b8abc6b	0.004233887
91	0x3d8cdf95	0.068785824
92	0xbd9fa038	-0.07794231
93	0xbc20188e	-0.009771479
94	0x3c9e98f6	0.019360047
95	0xbd67ab2e	-0.056559734
96	0x3b84916e	0.004045657
97	0xbcf8c52a	-0.030367453
98	0xbd7661b1	-0.06015176
99	0xbb4ea5db	-0.0031531963
100	0x3d0614cf	0.03273469
101	0x3d88354f	0.06650793
102	0xbc811400	-0.015756607
103	0xbd3ad302	-0.04561139
104	0x3da5d312	0.08096899
105	0xbda94f58	-0.08267087
106	0x3d4237d4	0.047416523
107	0xbdc6621b	-0.09686681
108	0x3ddc61cd	0.107608415
109	0xbdea1325	-0.11429433
110	0x3e0e5a5d	0.13901658
111	0xbac685f8	-0.0015146127
112	0xbd6318ec	-0.05544369
113	0xbd2c05ab	-0.041997593
114	0xbd532a51	-0.051554028
115	0xbd3e9bd6	-0.046535335
116	0xbb61990b	-0.0034423496
117	0xbd4c8fa2	-0.049941666
118	0xbcf2c0ce	-0.029632952
119	0x3d8d1e7e	0.068905815
120	0x3bf63845	0.007514032
121	0xbd01fa6f	-0.031732973
122	0xbd33addc	-0.043866977
123	0xbd6e0b1c	-0.058116063
124	0xbdc09764	-0.094038755
125	0xbaca0e86	-0.0015415705
126	0xbd5354a2	-0.051594384
127	0xbc3e9a27	-0.0116334325

model.predict.predict.3.weight f4 [128]
0	0x3f96415a	1.1738694
1	0x3f81259e	1.0089605
2	0x3f842e0e	1.0326555
3	0x3f80c40c	1.0059829
4	0x3f7c8a09	0.98648125
5	0x3f8161b6	1.0107944
6	0x3f7b6de4	0.98214555
7	0x3f8b5b30	1.0887203
8	0x3f79634e	0.9741715
9	0x3f834dc2	1.0258105
10	0x3f7ebf47	0.99510616
11	0x3f852d23	1.04044
12	0x3f7cf265	0.98807365
13	0x3f88b424	1.0679975
14	0x3f7bd34a	0.98369277
15	0x3f7af9fb	0.9803769
16	0x3f825347	1.0181664
17	0x3f871299	1.055255
18	0x3f7eb0eb	0.99488705
19	0x3f7d6492	0.98981583
20	0x3f7fc54d	0.9991043
21	0x3f7ead37	0.99483055
22	0x3f73a11c	0.9516771
23	0x3f81599b	1.010547
24	0x3f84f23a	1.0386422
25	0x3f80c265	1.0059325
26	0x3f8ac738	1.0842047
27	0x3f7c83af	0.98638433
28	0x3f71f70a	0.94517577
29	0x3f80d708	1.0065622
30	0x3f7f21b4	0.996608
31	0x3f800000	1.0
32	0x3f7cfcab	0.9882304
33	0x3f825c98	1.0184507
34	0x3f7bfa9e	0.98429286
35	0x3f6bd3de	0.9212016
36	0x3f79d57c	0.97591376
37	0x3f85a782	1.0441744
38	0x3f851898	1.039813
39	0x3f8ee910	1.1164875
40	0x3f83870e	1.027559
41	0x3f8b37ad	1.0876366
42	0x3f8a1256	1.0786846
43	0x3f7e8352	0.9941913
44	0x3f7a7be1	0.97845274
45	0x3f897640	1.0739212
46	0x3f800000	1.0
47	0x3f800000	1.0
48	0x3f7eeb7a	0.9957806
49	0x3f81d284	1.0142369
50	0x3f877fa9	1.0585834
51	0x3f7e580e	0.9935311
52	0x3f82ba4c	1.0213103
53	0x3f8efa54	1.1170144
54	0x3f7d1723	0.9886343
55	0x3f7aa30b	0.97905034
56	0x3f85becc	1.0448852
57	0x3f7f1695	0.9964383
58	0x3f831986	1.0242164
59	0x3f82eb11	1.0227987
60	0x3f879d62	1.0594904
61	0x3f8076fa	1.0036309
62	0x3f746f39	0.9548221
63	0x3f69cf58	0.91332006
64	0x3f81468d	1.0099655
65	0x3f7d696a	0.98988974
66	0x3f800000	1.0
67	0x3f7e214a	0.99269545
68	0x3f801239	1.0005561
69	0x3f7ef81c	0.99597335
70	0x3f8473f1	1.0347883
71	0x3f8a4f0c	1.0805373
72	0x3f80d4d2	1.0064948
73	0x3f7fc848	0.9991498
74	0x3f845a87	1.0340127
75	0x3f7c3cd6	0.9853033
76	0x3f76cf8e	0.96410453
77	0x3f833f38	1.0253668
78	0x3f7d3e2e	0.98923004
79	0x3f7d9e1d	0.99069387
80	0x3f8bfa31	1.0935727
81	0x3f7ecd83	0.99532336
82	0x3f8cad2c	1.0990348
83	0x3f7e6286	0.99369085
84	0x3f821269	1.0161868
85	0x3f812ea8	1.0092363
86	0x3f804085	1.001969
87	0x3f8ef290	1.1167774
88	0x3f864017	1.0488309
89	0x3f815323	1.0103496
90	0x3f82d551	1.0221349
91	0x3f7cc580	0.9873886
92	0x3f800000	1.0
93	0x3f8aa7f5	1.0832506
94	0x3f83bba8	1.0291643
95	0x3f7c5d46	0.98579824
96	0x3f7eb439	0.9949375
97	0x3f72417d	0.9463118
98	0x3f8a32df	1.0796775
99	0x3f7dee7b	0.9919202
100	0x3f7eaeca	0.99485457
101	0x3f7bdde8	0.9838548
102	0x3f80346d	1.0015999
103	0x3f83b44f	1.0289401
104	0x3f7dd5a2	0.991541
105	0x3f7ea19b	0.9946534
106	0x3f7f5658	0.99741125
107	0x3f85b2ed	1.0445229
108	0x3f80fb36	1.0076663
109	0x3f80b2f4	1.0054612
110	0x3f82e2cb	1.0225462
111	0x3f878b89	1.0589458
112	0x3f7e10a2	0.9924413
113	0x3f80b344	1.0054708
114	0x3f76b922	0.9637624
115	0x3f80c4ca	1.0060055
116	0x3f7faa98	0.9986968
117	0x3f817935	1.0115114
118	0x3f84b218	1.036685
119	0x3f8077a1	1.0036508
120	0x3f8f8ba2	1.1214488
121	0x3f6eebf1	0.9332877
122	0x3f860b0b	1.047212
123	0x3f752b0a	0.957688
124	0x3f7fc99e	0.9991702
125	0x3f79ea4e	0.97623146
126	0x3f6e626d	0.93118936
127	0x3f81a7ea	1.0129368
