checkpoints/GCM_undersampled/best_recall_score/checkpoint1.pt (torch, 375109 bytes, 47 tensors)

model.gnn.gnn_layers.0.graph_conv.weight f4 [30, 64]
000000 28 be 05 be f5 56 56 3e 05 b1 2d 3e ba d1 62 3e
       -0.1306082 0.20931609 0.16962059 0.22150317
000010 a1 f3 1f bd 6b 10 2e be e5 d1 a6 3d 02 a9 50 3e
       -0.039050702 -0.1699845 0.08145503 0.20376971
000020 1b 1e a9 3d 60 11 4b be e6 71 83 3d f0 ee 24 bc
       0.08257695 -0.19830847 0.06418209 -0.010066733
000030 e9 50 26 3e 77 a0 a6 3d ac f2 dc ba 05 00 9f be
       0.16241802 0.08136075 -0.001685699 -0.31054702
000040 c1 74 cd 3d c9 5c 5a b9 2f 9e 63 be 3b c5 89 3d
       0.10032035 -0.00020824665 -0.22228311 0.06727072
000050 cc 91 fc bc 3f 9f bb 3d 3e 61 c7 bd f7 21 0e 3e
       -0.03083124 0.09161233 -0.09735344 0.13880144
000060 76 e0 19 3e 44 26 51 be e7 59 36 be 3e c7 23 be
       0.15027031 -0.20424753 -0.17807733 -0.15993974
000070 8f a8 27 3e e7 d1 48 3e 9e fe 57 3d a2 19 01 3e
       0.16372894 0.19611321 0.052733056 0.12607434
000080 68 c2 41 be 88 15 d9 bd a7 a6 c5 3d a5 80 36 be
       -0.18921816 -0.1059981 0.09650927 -0.17822511
000090 c1 64 c6 bd 0e 4d 39 3e 4b f4 11 3e fe 57 e9 3d
       -0.09687186 0.180958 0.14253347 0.11393736
0000a0 95 f6 65 3e ee 96 29 3e 1a 32 68 3e f0 61 19 3e
       0.22457345 0.16561481 0.22675362 0.14978766
0000b0 12 20 72 bc 4a db 36 bd db f5 61 3e 59 d9 af bd
       -0.014778154 -0.044642724 0.22066443 -0.08586378
0000c0 e6 cb 85 bd cb 93 af bd 47 a7 52 3e 8a e0 0a 3e
       -0.06533031 -0.08573111 0.20571624 0.13562217
0000d0 53 7f 83 3e 9c 1b 14 bc 31 d5 1b be 6c 08 5d 3e
       0.25683078 -0.009039786 -0.15218045 0.21585244
0000e0 4c 46 d5 3d 9a de 01 bd fd 44 b4 bd 22 1b 26 3e
       0.10413799 -0.03170643 -0.08802221 0.16221288
0000f0 39 b1 3c 3e 72 7d c2 bc 72 48 da 3d 59 2f 84 be
       0.1842698 -0.023741458 0.10658349 -0.25817373
000100 51 d6 6b 3d 58 76 fe 3d 81 19 b1 bc 95 0e ed bc
       0.057577435 0.12424916 -0.021618607 -0.028937617
000110 d0 54 54 3e 42 29 cf bc fb 43 22 be c7 a6 84 3e
       0.20735478 -0.025288228 -0.15846245 0.2590849
000120 6b 79 87 3e 2c fb 6f 3e 2c 47 fe bd 23 89 ea 3c
       0.26459822 0.23435658 -0.12415919 0.028629845
000130 ba 96 07 3e 72 8d 58 3e 64 15 8c 3e 51 ff 8a 3e
       0.13241091 0.21147707 0.2736007 0.27147916
000140 35 db e3 be 69 54 0e be 0a 76 1b 3d 47 56 c4 3d
       -0.4450318 -0.13899387 0.037954368 0.095867686
000150 8c f0 1b be 0c 60 0c be 63 ce de bd 5e 42 90 3d
       -0.1522848 -0.13708514 -0.10879209 0.070439085
000160 0c 01 0f 3b 1c 38 a7 3d 5b 96 84 3d 8a 83 2c 3e
       0.0021820692 0.08164999 0.064739905 0.16847053
000170 1d 7a 2d bd 53 1f 02 bf f9 8c 61 bd e4 3c ee 3c
       -0.042352784 -0.50829047 -0.055066083 0.02908177
000180 a6 27 84 be 11 75 39 3e db a9 80 be b9 de 98 be
       -0.258115 0.18111064 -0.2512959 -0.29857424
000190 d3 8e 03 be c4 d4 f8 3d 13 70 80 bd 75 83 44 3a
       -0.12847452 0.12149957 -0.062713765 0.0007496395
0001a0 5b 15 58 be 3f d8 3c 3e 3f 5d e9 bd 4c 2e ed 3d
       -0.21101896 0.18441866 -0.113947384 0.11581096
0001b0 6c 7d 3e be 07 47 61 bb d2 40 b0 3d 59 35 d3 bc
       -0.18602532 -0.003437461 0.086061135 -0.025782274
0001c0 8e c0 0f 3e f4 4e 8c be 61 d1 a0 3d 61 31 2d bd
       0.14038298 -0.27403986 0.07852436 -0.04228342
0001d0 6e a2 24 bc b7 74 17 3e ef e7 fe bc c1 32 25 3e
       -0.010048492 0.14790617 -0.031116454 0.16132642
0001e0 49 42 89 bd 7b 81 71 bd fb 82 36 3e 69 48 8b bd
       -0.06702096 -0.058961373 0.17823403 -0.068009205
0001f0 8e 5a 2f 3e 69 e2 64 3e 1a 99 28 3c 97 bc 49 3d
       0.17124388 0.22351994 0.0102904085 0.04925212
000200 a8 10 8c 3e 7e 23 11 be 67 16 84 3e 3d 27 d7 3d
       0.27356458 -0.14173695 0.25798342 0.10505531
000210 4b c6 31 3e 0e 2f 57 3e 34 29 35 bd 2f ca 87 bd
       0.17360799 0.21014044 -0.044228747 -0.0663036
000220 ad b9 55 be 78 3a 65 3d 18 57 52 be 84 40 75 be
       -0.20871611 0.055963963 -0.20541036 -0.23950392
000230 7a 23 7a 3e 52 11 fe bd 59 6c 0a be 3e f3 99 3c
       0.24427596 -0.12405647 -0.13517894 0.018792745
000240 9c b2 65 be a2 a5 62 bd 54 e3 b5 bd f0 77 5f 3d
       -0.22431415 -0.05533374 -0.0888125 0.05455774
000250 13 4b 33 3e d7 a0 67 be 69 66 be 3d ef de 93 be
       0.17509107 -0.2261995 0.09296877 -0.28881022
000260 56 01 b7 3d 42 25 2d 3d b1 2d b8 3d e0 a8 76 be
       0.08935802 0.04227186 0.0899309 -0.24087858
000270 99 58 fb 3d 01 22 87 3e dc 40 52 3e fd 2e a4 bd
       0.12272758 0.2639313 0.20532554 -0.08016775
000280 c3 a3 2d 3e 7e c2 a1 3d 58 f8 07 3e 34 7a c0 3d
       0.16957001 0.078984246 0.1327833 0.093983084
000290 40 2c 80 3e 1f fc 98 be df 45 ca bd a0 e1 a9 bd
       0.2503376 -0.29879853 -0.09876608 -0.08294988
0002a0 27 89 53 be 27 74 f1 3b b6 d0 02 3c b1 5c 90 3e
       -0.20657788 0.0073685828 0.007984331 0.28195718
0002b0 39 30 b3 3c 8a f6 46 be ab 6c 8a 3d 3d ce d0 bc
       0.02187358 -0.19429985 0.06759008 -0.025488967
0002c0 b9 77 42 be 2e fa a9 bc 41 e5 22 3e 5d c6 0a be
       -0.18990983 -0.020749178 0.15907766 -0.13552232
0002d0 45 b0 be 3c c1 3e d2 bd 37 41 f0 bb 29 3d 12 be
       0.023277411 -0.102658756 -0.007331993 -0.14281143
0002e0 23 08 d6 3d b0 51 c8 3d 83 72 39 be ce 19 7c 3e
       0.10450771 0.09781206 -0.18110089 0.24619219
0002f0 f5 8d c8 bd fd 32 ac bd 24 2c 8a 3d 97 d5 fd 3d
       -0.09792701 -0.08408163 0.067467004 0.12394255
000300 b0 aa 75 3e 8c b0 88 be 22 9d 87 be 11 28 e2 be
       0.23990893 -0.26697195 -0.2648707 -0.44171193
000310 c1 05 44 be 95 cb 82 3e 1a f4 0e be 3f 8a a9 bd
       -0.1914282 0.25545946 -0.13960305 -0.082783215
000320 3a 25 2a 3e db 6e e3 be 44 04 31 3e 26 b7 0d be
       0.16615763 -0.44420514 0.17286783 -0.13839397
000330 62 f8 1f be 0e d9 42 3d 18 c8 8c 3e 51 ca 57 be
       -0.15622094 0.04757028 0.2749641 -0.21073271
000340 d5 04 1b bb 2e 06 0f 3e 50 ac 28 3e 79 76 4a 3e
       -0.0023654003 0.13967201 0.16471982 0.19771756
000350 82 3c f2 bb 42 3f 3a 3e 7d 12 ed bc 5b 44 91 bd
       -0.007392467 0.18188193 -0.02893948 -0.07093116
000360 73 11 fd 3d 1a dd 2d 3e 78 d1 16 be fb d5 57 3e
       0.12356844 0.16978875 -0.14728343 0.21077721
000370 f1 de ef bd 5b 47 d0 be 08 ee 86 3c f4 43 6f be
       -0.117124446 -0.4067944 0.016470924 -0.23365766
000380 65 d1 2c 3d 0b f9 3e be 1a ca eb be 89 05 ca bd
       0.04219188 -0.1864969 -0.4605263 -0.09864337
000390 54 03 3e 3e 95 a4 86 3e d1 d9 cf bd 48 9f 09 3d
       0.18555957 0.2629744 -0.10148967 0.033599168
0003a0 a6 05 b9 bc 4b 15 1a be 4d a9 15 3d 27 ba 19 3e
       -0.022585701 -0.15047185 0.03653841 0.15012418
0003b0 d6 52 8c 3d 66 a6 58 be 93 70 db 3d 64 34 f7 bc
       0.06851737 -0.21157226 0.10714831 -0.030176349
0003c0 ea 5e 56 3e 74 7e a3 bd 0a 3d 01 bf 51 1e be bd
       0.20934644 -0.079831034 -0.50483763 -0.09283126
0003d0 0a ca 42 3e e4 65 66 3e e7 b1 15 3d 16 53 73 3e
       0.19022384 0.22499806 0.036546614 0.23762164
0003e0 a2 ce 34 3e 4b 44 a4 3c 4c 33 2c 3d 41 80 00 3e
       0.17656949 0.020052096 0.042041108 0.12548925
0003f0 bf f6 4b be 5f 56 a9 bd 63 3d a2 bd 5f b8 96 bd
       -0.19918345 -0.08268427 -0.07921865 -0.07359385

model.gnn.gnn_layers.0.graph_conv.bias f4 [64]
000000 da 22 80 3c 8f 35 3c bc 5d 35 85 bc 93 a5 b8 bc
       0.015641619 -0.011487379 -0.016260797 -0.02253989
000010 fb 34 bb 3b 39 3e 2a 3c 7e bd 2d bc 7c 2e 7f bc
       0.005713103 0.010390812 -0.0106042605 -0.015575048
000020 e2 00 5b bc 49 ff b4 bb ac 33 a5 3c 46 f1 02 bc
       -0.01336691 -0.0055235964 0.02016624 -0.007992094
000030 c0 1e b6 bb 96 50 8e bc 5d 09 19 bd 05 a6 2a 3d
       -0.005557865 -0.01737241 -0.037362445 0.041662235
000040 e9 b2 01 bd 18 37 9e bc fd e9 35 3b ba b4 b1 bc
       -0.031664763 -0.01931338 0.0027757876 -0.021692622
000050 86 20 5e bc a2 eb 12 bd dc bb f9 bb 7d 72 54 3b
       -0.013557559 -0.03586925 -0.0076212715 0.0032416873
000060 ea f6 35 bc 77 b1 75 3d 5a 4b 1e 3c 32 df 54 3b
       -0.011106232 0.059983697 0.00966152 0.0032481668
000070 9e 7e 11 bc f0 6b 03 3d 4f 76 5c bc 36 b4 5f bc
       -0.008880286 0.03208536 -0.013455941 -0.0136538055
000080 ff b3 d3 3a 20 c1 b0 3c f4 cb 87 3c b9 62 9f bb
       0.0016151665 0.021576464 0.016576745 -0.0048640636
000090 b2 ab 0c ba f1 97 b1 bc 85 82 3c bc 5d bb 29 bc
       -0.0005366161 -0.021678897 -0.011505728 -0.010359612
0000a0 1e cf 0f bd 5e 48 56 3b 4c 2e ad bb 44 7c cc 3c
       -0.03510963 0.0032696943 -0.00528506 0.024961598
0000b0 2a 48 6e bc 4a 88 67 bc 5d d0 33 bd ce 55 07 b8
       -0.014543572 -0.014131615 -0.043899883 -3.226642e-05
0000c0 97 97 06 3c 6d e1 1c bd 29 15 d5 3c 0e 1d d5 bc
       0.008214853 -0.03830092 0.026011067 -0.02601483
0000d0 16 02 d4 39 d6 db f0 bc 5a e2 f0 bb f3 15 3d bd
       0.00040437345 -0.029401701 -0.007351202 -0.04616351
0000e0 b9 6c bb bb d4 c0 2a bc 01 1c f1 3a c7 13 0d bc
       -0.005719748 -0.01042195 0.0018395187 -0.008610672
0000f0 19 41 39 bc 6a d6 f4 bb 39 60 9f bc b8 53 e2 bc
       -0.011307024 -0.007471849 -0.019455062 -0.02762781

model.gnn.gnn_layers.0.res_connection.weight f4 [64, 30]
000000 08 bb 23 3d ad 9c 4b bd e6 ef b6 3d 6c d6 24 3d
       0.03997329 -0.049709965 0.08932476 0.04024355
000010 b2 dd 84 be e7 28 85 3b c1 18 d8 3d 6e ca 8f 3c
       -0.2595039 0.004063714 0.105515964 0.01755258
000020 2b 48 73 3e f8 fb a0 bc 7a 9f 28 3e d1 a7 5c 3e
       0.23757999 -0.019651398 0.16467085 0.21548392
000030 ae 79 12 3e f2 7c b0 bc 14 9b d5 3b c0 5d d2 bd
       0.1430423 -0.021543954 0.006518731 -0.10271788
000040 3a 9a d3 bd ed 3e 25 3e ff fc 13 3e cc 3e 39 3e
       -0.10332151 0.16137286 0.14451979 0.18090361
000050 59 16 a0 3c b7 d2 88 3d d1 79 c4 bd 6d a1 20 3d
       0.019541906 0.06680816 -0.09593547 0.039216448
000060 7d 25 71 bc 0c fb 1e be 81 b8 7b be e0 46 20 3d
       -0.014718411 -0.15525454 -0.24582101 0.03913009
000070 0c ab b3 3c 09 e5 1d 3d 5d 53 91 bd 46 99 eb bd
       0.021932147 0.038548503 -0.070959784 -0.11503844
000080 ce 8f ab 3d 70 c7 4b be 3a 88 dd bd 4e c4 80 bd
       0.08377038 -0.19900298 -0.10816999 -0.06287442
000090 0e bf 9c 3d 7e ee 47 be bc 9b 5d 3e 9a a4 04 3e
       0.07653628 -0.19524571 0.21641439 0.12953416
0000a0 19 6d d5 3d 4d e8 97 bd e2 38 24 3e 3d d1 91 3d
       0.10421199 -0.07417355 0.16037324 0.07119987
0000b0 40 d8 eb bb a8 c7 86 3e 52 1e 8d 3e 58 9d 85 3e
       -0.00719741 0.263242 0.27562195 0.26096606
0000c0 8e f4 14 3d 0b 9d 1f 3e 7d 96 47 be d8 e4 54 bd
       0.036366038 0.15587251 -0.19491 -0.051976055
0000d0 2b 92 5c 3d d9 25 50 3e e9 1b cc bd 65 e3 b2 3d
       0.053850334 0.20326938 -0.09966261 0.08734778
0000e0 9a 84 30 bd 03 6d f6 3d c3 47 0d be eb 1c ea 3d
       -0.04309521 0.12032511 -0.13796906 0.11431297
0000f0 65 f1 e6 3d 91 8a 1d 3e 93 b9 ca 3d a4 9a 8a bd
       0.11276511 0.1538489 0.09898677 -0.067677766
000100 4f cc b6 3d 7c 23 be bc 25 70 51 bd 03 6e 98 bd
       0.089256875 -0.02321028 -0.05113234 -0.07442858
000110 c9 aa 7a be ff 6c 19 be 8d 30 da bd 22 f6 02 be
       -0.24479212 -0.14982985 -0.106537916 -0.12789205
000120 d4 8f 81 3c 56 e1 8d 3d aa 6e 11 3e dc 6a f2 3d
       0.015815653 0.06927745 0.14202371 0.11836788
000130 61 f0 57 be 3a 22 c2 3c 7c fb 0c 3e df 52 2b be
       -0.21087791 0.023697961 0.13767809 -0.16730832
000140 5d 5a 2a 3b 6b 60 48 3e ea 2f 4f be de 13 ed bd
       0.0025993802 0.1956803 -0.20233122 -0.11576055
000150 6a 48 1a be 92 66 bd 3d 84 ea d4 3b 8b c8 8a bd
       -0.15066686 0.09248079 0.006497683 -0.06776532
000160 e9 14 00 3d b2 e6 e2 bd 8e b8 ef bd 22 a0 a3 bd
       0.03126994 -0.11079158 -0.11705123 -0.07989527
000170 48 29 13 3e ae cd 88 3e 25 a5 1c 3e e7 06 21 b8
       0.14371216 0.2671942 0.15297373 -3.839182e-05
000180 06 ac 2a bd 3d 17 89 3d 8f d3 76 3e a3 c4 09 3e
       -0.04166796 0.066938855 0.2410414 0.13453917
000190 eb 72 0a 3e a1 63 b2 bd e9 fd 45 bd 8a 09 32 3c
       0.135204 -0.08710409 -0.04833785 0.010866532
0001a0 8f 3f 65 be 7d fd 04 be 19 0d 92 3d ae 99 81 bd
       -0.22387527 -0.12987323 0.071314044 -0.0632814
0001b0 e9 e0 7e bd d9 a0 78 bd 25 1d af 3c 02 9a a2 bd
       -0.06222621 -0.06070027 0.021376202 -0.07939531
0001c0 ae b8 68 3d f5 85 30 be 1a 3a 4f be d2 77 71 3d
       0.05681675 -0.172386 -0.20237008 0.05895216
0001d0 ae 0f 0f 3e 52 08 89 3d 98 fe 22 3e 9e 8c 06 be
       0.13970825 0.0669104 0.15917432 -0.13139579
0001e0 04 d3 29 be 01 c5 2f 3e 25 f5 50 be e1 2d f7 3d
       -0.16584402 0.17164995 -0.20406015 0.120692976
0001f0 f7 d5 30 3d 6b f7 b5 3b 2a d7 7c 3e c0 dc 3a 3d
       0.043172803 0.005553176 0.24691454 0.04562068
000200 f2 86 7d 3b 4e 21 c6 3d 39 e9 2b be c2 58 1b bc
       0.003868517 0.09674321 -0.16788186 -0.009481611
000210 ba fc 1f 3e 8c 38 1d bd 4b 0b 57 3d 26 3d 2f be
       0.15623751 -0.038384005 0.052501004 -0.1711317
000220 67 51 fc 3d 5f 05 12 bd 26 c9 61 3e b8 50 63 bd
       0.12320214 -0.035649654 0.22049388 -0.0554969
000230 8a e9 3f 3e b5 89 c9 3d 58 66 35 3e 1e 0f bd 3d
       0.18741432 0.09840719 0.17714822 0.09231399
000240 7e c5 00 be ba 3c ec 3d b1 82 32 3d 99 89 a2 3d
       -0.12575337 0.1153502 0.04358167 0.07936401
000250 e0 93 31 be 6b 5e 40 3d db 2c 9e bd c3 d2 31 be
       -0.17341566 0.046965044 -0.07723399 -0.17365555
000260 29 c2 86 3d 40 4d 15 3e 64 e1 80 3e 7a a9 77 3d
       0.06580002 0.1458025 0.2517196 0.06046436
000270 90 44 98 3d 20 29 02 3e 8c 47 d1 bc 79 32 b6 bd
       0.07434952 0.12711 -0.025546812 -0.08896346
000280 5a e3 03 3e b4 5f 35 be b6 c1 0a 3c 1f 17 25 3e
       0.12879696 -0.17712289 0.008469036 0.16122101
000290 f7 f9 24 be 6d 7c 17 be 65 5e 6b 3d 85 9e 5a bd
       -0.16110979 -0.14793558 0.05746307 -0.053373832
0002a0 a9 b2 7f 3d ed 77 28 3d 8c 96 96 3d 13 33 a5 be
       0.062426243 0.041129995 0.07352933 -0.3226553
0002b0 5f 12 08 be 0a 45 5f bd 24 8c 0f be a6 4e 9d bd
       -0.13288258 -0.0545092 -0.14018303 -0.076810166
0002c0 37 5f 27 3d b3 b0 16 be 08 37 2e be 2c d6 1b be
       0.04086229 -0.14715843 -0.1701318 -0.15218419
0002d0 5a 87 6f 3d e0 7f b1 bc 93 3b ba 3d 99 f5 2d bd
       0.05847869 -0.02166742 0.09093394 -0.04247055
0002e0 82 9b 68 be b1 84 a9 bd 3e b3 e0 bd f4 08 57 be
       -0.22715572 -0.08277262 -0.10971688 -0.20999509
0002f0 07 97 c8 bd 83 fa aa 3d fa 94 d8 bd 30 fa 50 3e
       -0.09794431 0.083485626 -0.1057529 0.20407939
000300 cd 06 ba bd 96 6c 1b 3e d2 97 fb 3d 45 cd db 3c
       -0.090833284 0.15178141 0.12284817 0.026831279
000310 37 9f 1d be 04 fe 08 3d 79 42 21 3e f5 4a 93 be
       -0.15392767 0.033445373 0.15748014 -0.28768125
000320 74 95 30 bd a3 ff d1 3d f9 9b b7 bd 07 74 6d be
       -0.04311128 0.10253837 -0.08965296 -0.23188792
000330 b4 78 29 3e f4 c0 37 be 41 e4 20 3e a9 05 7d bd
       0.16549951 -0.179447 0.15712072 -0.061772976
000340 8e 9b 2b be 82 3b e9 3d 28 79 08 be 8d 2b 09 3e
       -0.16758558 0.11388303 -0.13327467 0.1339552
000350 4a 07 07 3d ae 10 7b bd ec 89 28 be 13 a3 44 3e
       0.032965936 -0.061295204 -0.16458863 0.19202833
000360 59 d4 88 3a 9b 85 10 bc a2 3a 97 bd ec 2b 8a bd
       0.0010439261 -0.0088209165 -0.0738423 -0.06746659
000370 b4 22 b1 3a eb f9 ac 3c b9 dc bd bc 7f 97 32 3e
       0.0013514371 0.021115264 -0.023176538 0.17440604
000380 11 af 80 3e bb 3b 9d 3d 7d 36 d7 bd b3 f2 90 bd
       0.25133565 0.07677408 -0.1050844 -0.07077541
000390 17 5c 41 3e 7c 39 c4 bb 50 78 9d 3d 7f 68 8a be
       0.18882786 -0.005988298 0.076889634 -0.2703285
0003a0 ff e7 e9 bd 0c 69 25 be 3b 54 6c 3c 7c 0d 31 3e
       -0.11421203 -0.16153353 0.014424379 0.172903
0003b0 f9 31 00 bb 66 ff 01 be d8 67 b2 3b 80 bb 2f 3e
       -0.0019561036 -0.12695083 0.005444508 0.1716137
0003c0 9d 42 53 be 1f 9f 9f bd be b4 d6 3d a0 02 bf bd
       -0.2063088 -0.07794022 0.104836926 -0.093266726
0003d0 d6 03 58 3d 2e 7b d3 bb 16 8f 1e 3c 16 a1 88 bd
       0.052738033 -0.006453893 0.009677669 -0.0667135
0003e0 8e 0a 72 3b da ca 3f 3e 14 6d 1f 3e 0c 46 d8 bc
       0.003693256 0.18729725 0.15568954 -0.026400588
0003f0 13 af b8 bd c4 cd 07 3e a8 2d 15 be aa 94 36 be
       -0.09017768 0.13262087 -0.14568198 -0.17830148

model.gnn.gnn_layers.0.res_connection.bias f4 [64]
000000 05 4c 87 3d e7 44 47 bd 4a 0c b9 3b 69 1c ad 3d
       0.066062964 -0.048649695 0.005647217 0.084526844
000010 fe 90 8e bc 52 84 4c bd 30 12 20 be 3f 85 ed bd
       -0.017403122 -0.049930878 -0.15631938 -0.1159768
000020 af 40 1a be 56 ab 1f 3e aa 33 34 3d 64 54 0d 3e
       -0.15063737 0.15592703 0.043994583 0.13801724
000030 de f0 bb bb f3 d7 0f 3c 34 2b 0d be 6f 9d c1 3d
       -0.0057355007 0.008779514 -0.13786012 0.09453856
000040 f7 96 9f 3d bc 75 14 3e 5a a1 8d bd 43 02 de 3d
       0.07792466 0.14498037 -0.06915541 0.10840275
000050 d3 70 55 3d 19 eb 26 3c 2f 55 c5 3d 1a ec c7 bd
       0.05210955 0.010187888 0.09635388 -0.0976183
000060 9b c4 81 bd 7f a3 e0 bc 21 e6 a9 bd 4e a7 07 3e
       -0.06336328 -0.027421711 -0.08295847 0.13247415
000070 b8 11 a5 3c 37 8f e2 bd 69 75 11 be ba 3d 80 3d
       0.02015005 -0.11062472 -0.14204945 0.062617734
000080 73 6d ac bc e5 ee 20 be c0 db aa 3d 0e 02 39 bd
       -0.021048283 -0.15716131 0.08342695 -0.045167975
000090 01 97 98 bb c3 79 d7 bb 7e 0f 27 be 7d 6d c5 3d
       -0.004656673 -0.0065757944 -0.16314504 0.09640024
0000a0 a1 dc 0d 3e ce 44 30 bd 41 e5 ce bc e3 6d 1e 3d
       0.13853694 -0.043034367 -0.025255801 0.038679015
0000b0 e3 a2 41 3e 40 c8 8b 3c 48 e1 0c 3d b1 af ba 3c
       0.18909793 0.01706326 0.034394532 0.022788854
0000c0 8d 57 17 3e 62 a0 86 bd 83 88 7b bd d8 86 5c bd
       0.14779492 -0.06573559 -0.061409485 -0.053839535
0000d0 31 a1 23 3c 17 6d 0f 3e 65 4c 96 3d 88 66 e3 bd
       0.0099871615 0.14006458 0.0733879 -0.11103541
0000e0 f3 30 3e b9 9c ae 3b 3e 57 a9 2d 3e ae c4 57 bd
       -0.00018138047 0.18328327 0.1695913 -0.052677803
0000f0 11 ab e4 bd b9 fa 1d 3e ce fc b4 bc 57 5b 8e bd
       -0.11165441 0.15427674 -0.022093203 -0.069510154

model.gnn.gnn_layers.1.graph_conv.weight f4 [64, 64]
000000 70 f0 66 3e 4d d0 73 be 2c e4 8d 3d 83 48 94 3d
       0.22552657 -0.23809929 0.06928286 0.07240393
000010 5a 77 13 3e bd 56 d5 3d cf b0 14 3e 13 42 fe 3d
       0.14400998 0.10416935 0.14520572 0.124149464
000020 6c f3 14 be 24 b8 fe bd 21 27 bb 3d af 70 da bd
       -0.14545983 -0.12437466 0.091383226 -0.10666024
000030 d9 67 b8 3d a5 c7 d9 bd 54 2a 62 3d 37 41 85 3d
       0.09004182 -0.10633782 0.05521615 0.06506579
000040 ef 56 ae bc 8e d6 bd 3d 63 47 3b be 47 61 86 bc
       -0.021281688 0.09269439 -0.1828895 -0.016403807
000050 57 e1 2c be e9 12 4a 3d f1 61 f6 3d c4 a4 c9 3d
       -0.16882835 0.04933444 0.120303996 0.0984588
000060 09 ec 7f 3e 21 27 09 be 11 f9 2a be 53 35 4e be
       0.24992384 -0.13393833 -0.16696574 -0.20137529
000070 2e 2b 91 bd ed 71 69 3e 0e 2e 2a be 53 bb 03 be
       -0.07088314 0.22797365 -0.16619131 -0.12864427
000080 00 63 22 bd 37 ab 89 3e f6 fe 13 3e af 3f 01 be
       -0.039645195 0.2688844 0.14452729 -0.1262195
000090 b3 c9 60 3e 41 7e ad 3d e5 e5 04 bd 0f f5 28 be
       0.21951942 0.08471347 -0.032445807 -0.16499732
0000a0 76 fd b3 bd e3 76 12 be ec 8b f8 bd c0 35 86 bc
       -0.08788578 -0.14303164 -0.12136063 -0.016383052
0000b0 dd e1 5e be 55 1d c9 3d f4 4e 43 3e 5f 2f 71 3d
       -0.21765848 0.09820048 0.19073087 0.058883067
0000c0 4d c7 7c 3e 22 be 80 3e 39 eb a9 3c 48 ee 7a 3d
       0.24685402 0.2514506 0.020742046 0.0612624
0000d0 3d b3 b6 3c 51 4d 37 be a7 9d 8c 3d a5 cc 48 3e
       0.022302264 -0.17900588 0.06866007 0.19609316
0000e0 f3 c6 2c 3e 5f d1 e1 3d 0b 27 1b 3e 74 43 81 bd
       0.16872768 0.110262625 0.15151612 -0.06311694
0000f0 56 75 2b be 0f 8b 80 3e a7 d2 58 3d 91 63 04 be
       -0.16743979 0.25106093 0.05293527 -0.12928607
000100 95 bb 37 be ab d7 7a be 83 a7 b7 3d 32 d2 11 3d
       -0.1794265 -0.24496333 0.08967497 0.03560085
000110 dd f8 1f be 5a 4c 1d bd e0 dd 78 3e 6f f3 0c 3e
       -0.15622278 -0.038402893 0.24303389 0.13764738
000120 2a 9a 0e bd 80 81 39 bd 15 44 81 3d b5 1e b5 bd
       -0.03481499 -0.045289516 0.06311814 -0.088437475
000130 f3 e5 e1 3d ac a4 06 bd e1 d9 3b 3e 48 d1 a3 bd
       0.110301875 -0.032871887 0.18344833 -0.079989016
000140 3e 9e 5a bc 4b 5c c0 bd 00 1c 30 3e c1 e5 1a be
       -0.013343392 -0.093926035 0.17198181 -0.15126707
000150 91 9d 00 3e 7a 00 c1 bd 3a e1 3a be 9f f7 39 3e
       0.12560107 -0.09423919 -0.1824998 0.18160866
000160 8f 8a 54 be cb c7 ee 3d 92 c2 ae 3d 3e 63 fa 3d
       -0.20755981 0.11659201 0.08533205 0.1222596
000170 8d a0 c3 bd 09 08 12 be 17 d1 c3 3d b8 c7 8f 3c
       -0.09552107 -0.14260878 0.09561365 0.017551288
000180 9f a9 eb bd 8c 05 15 3e df 7f 3f be e1 4b 10 3c
       -0.11506962 0.14552897 -0.18701123 0.008807153
000190 9a 07 75 3e d3 47 88 3e 14 1d 37 3c 59 a6 92 bd
       0.23928681 0.26617298 0.011176366 -0.071606345
0001a0 68 fd 28 be ee df 1a 3c ac 94 83 3c b8 1e 5c be
       -0.16502917 0.009452803 0.016062103 -0.21496093
0001b0 f0 09 3c be ab 51 a2 bc 1f 78 26 3e 84 0c 1d 3e
       -0.18363166 -0.019814333 0.1625676 0.15336806
0001c0 ba a3 5f 3d 18 fe 68 be d2 33 5e 3e c4 99 8f bc
       0.0545995 -0.22753179 0.21699455 -0.017529376
0001d0 cd f5 50 3d 3c 40 35 3e 59 1c c1 bd 37 e9 01 3e
       0.051015664 0.17700285 -0.09429235 0.1268662
0001e0 45 4b 3c be 8f 42 f5 3d 02 e1 54 bd 62 e3 29 3e
       -0.18388088 0.11975586 -0.051972397 0.16590646
0001f0 e6 be f1 3d 63 00 f8 bd 99 41 e6 3d 14 16 6e bd
       0.11803989 -0.12109449 0.112429805 -0.058126524
000200 36 e7 15 be 6e cd 43 3e f9 9a bd bd 01 2c ed bc
       -0.14638981 0.19121334 -0.09258074 -0.028951647
000210 d8 22 fd bc f9 86 11 3e 7d 5b be bd cb 06 30 be
       -0.030900404 0.14211644 -0.09294794 -0.17190091
000220 9b ff 48 be 74 46 85 bd cc 7e f4 3c 54 1f 29 be
       -0.19628756 -0.065075785 0.029845618 -0.16515857
000230 1b 3c d7 ba 14 a0 fb bd a6 5b 10 3e 40 d7 4b bd
       -0.0016421111 -0.12286392 0.14097461 -0.049765825
000240 4a b4 37 bd 87 5f ea bd c5 6b 35 be 3e 5f 62 be
       -0.04484967 -0.11444002 -0.17716892 -0.22106645
000250 ea 9a f8 3b c1 1a 21 3e 86 b1 22 be 9c c6 40 3e
       0.0075868266 0.15732862 -0.15888032 0.18825763
000260 16 aa 90 bd 9f 24 10 bd 5d 0c 51 be 4f 93 da 3d
       -0.07063691 -0.035191175 -0.20414872 0.10672628
000270 45 6d 58 be 45 b3 f2 bd ff 82 b3 3d d4 28 1d bc
       -0.21135433 -0.11850599 0.0876522 -0.009592254
000280 54 47 08 3e 37 b8 80 bd 09 40 2c be 97 16 b4 bd
       0.1330846 -0.06285136 -0.16821302 -0.08793371
000290 0d 8a f4 3c 36 e0 55 3e 3d ba 37 3e 5a 92 7b 3d
       0.029850984 0.20886311 0.17942138 0.06141887
0002a0 64 bd a6 bd db 14 0e 3d a9 71 0d be 40 60 9f bd
       -0.08141592 0.034687858 -0.13812889 -0.0778203
0002b0 88 f5 02 be fa 3d f4 bd 5d 63 a7 3d 41 50 26 3e
       -0.12788975 -0.119258836 0.08173249 0.16241552
0002c0 ea 2b 26 3e 69 f6 1f 3e d5 c3 0c 3e 79 3b 8b be
       0.1622769 0.15621342 0.13746579 -0.27193812
0002d0 19 e4 55 be d8 d0 26 be 40 f7 64 be 4a f0 c1 3c
       -0.20887794 -0.16290605 -0.22359943 0.023674149
0002e0 4a 21 db 3d c4 e7 12 be 8d 16 39 3e 57 02 6f 3e
       0.10699709 -0.14346224 0.18075009 0.23340736
0002f0 2d 94 28 3d 20 6c 17 be b1 09 a8 bd 62 4d 85 bd
       0.041156936 -0.1478734 -0.082049735 -0.065089
000300 6b 09 07 be cf de 09 3e 7e 70 58 3d cb df 21 3d
       -0.13187186 0.13463901 0.052841656 0.039520066
000310 15 23 cb 3c de 69 c6 bd 1d fd e9 bc cf ce 3e 3e
       0.024797002 -0.09688161 -0.028563077 0.18633579
000320 42 44 45 be a5 86 30 be 94 4c e0 bd 29 ea a0 bd
       -0.1926432 -0.17238863 -0.10952106 -0.078571625
000330 c7 f4 74 bc 99 68 05 3e d0 af ce bc 87 50 60 be
       -0.014950938 0.13028182 -0.025230318 -0.21905719
000340 98 72 92 bc 16 00 d8 3d b2 47 36 3e c6 b8 af 39
       -0.017876908 0.105468914 0.17800787 0.00033516268
000350 8d 9b 08 3e 1f 27 de bd d8 ed 4b be 82 22 5f be
       0.13340588 -0.108473055 -0.19914949 -0.21790507
000360 10 81 e8 3d eb ab 2b 3e 9f c4 2e be 79 b1 5d be
       0.11352742 0.167648 -0.17067192 -0.21649732
000370 92 7b 84 bd dc f3 be bd 03 35 f3 bd 80 28 61 3d
       -0.06468882 -0.09323856 -0.118753456 0.054970264
000380 b3 49 3d be 7c db aa 3b 36 00 18 be b2 b4 10 be
       -0.18485145 0.005214153 -0.1484383 -0.1413143
000390 2c ec 1a bd fd a5 a5 3d 54 24 8b be a6 5b a6 bd
       -0.037822887 0.080883004 -0.27176154 -0.08122949
0003a0 06 8f 86 bd 1c 79 69 be 69 51 10 be 2b 72 a5 3d
       -0.06570248 -0.22800106 -0.14093556 0.080784164
0003b0 36 3c ee 3d ed 5d 9a 3d 70 fc 8d 3d 15 f4 29 be
       0.11632578 0.07537446 0.06932914 -0.16597016
0003c0 17 6a 13 3e 27 59 41 bc 9d 19 2d 3e 1b 27 f2 bd
       0.14395939 -0.011801041 0.16904302 -0.11823865
0003d0 6c f0 74 3d c1 13 39 be 3c a3 de bd 5d 9d 3d bc
       0.059799597 -0.18073942 -0.10870978 -0.011573163
0003e0 62 12 8e bd d9 56 27 be 8f 2d 2a 3e 24 74 57 be
       -0.069371 -0.16341724 0.16618942 -0.21040398
0003f0 8d 79 3a be 40 ae fe bd 5d 65 3a be a4 cd 42 3e
       -0.1821043 -0.12435579 -0.1820273 0.19023758

model.gnn.gnn_layers.1.graph_conv.bias f4 [64]
000000 25 12 cf 3c f9 15 d9 bc 6a fe 80 bc 41 60 19 3d
       0.025277207 -0.026499735 -0.015746314 0.03744531
000010 b5 9f dc b9 e6 34 8c bc 4f 85 b4 3b f9 a3 a7 ba
       -0.0004208066 -0.017115068 0.0055090557 -0.0012789957
000020 e9 b0 41 3c bb f5 fb 3b 94 f0 68 3c ab ee 12 3d
       0.011821964 0.0076892055 0.014217515 0.035872143
000030 1c 30 d6 bb d7 f4 98 bb bd 93 ee 3c 90 49 cb ba
       -0.006536497 -0.004667859 0.029123181 -0.0015509594
000040 16 77 c8 bb 9b 69 1c bb b8 ec ea 3b e9 3e f7 3b
       -0.006117712 -0.0023866657 0.0071693324 0.0075453413
000050 76 93 06 3d aa b6 18 3d 00 00 00 00 73 59 06 3a
       0.032855473 0.037283577 0.0 0.00051250233
000060 b6 71 1b bc a7 e2 cf bc 35 13 09 b9 b3 bb 4d bc
       -0.00948756 -0.025376631 -0.00013072493 -0.012556958
000070 21 7e f6 bb 8d bd a6 bb 2b ac 32 3d 15 f2 e7 bb
       -0.00752236 -0.005088514 0.043621223 -0.007078419
000080 c0 1a a1 bc 04 8e 17 3d f4 24 03 3c 00 00 00 00
       -0.019666076 0.03700067 0.008004416 0.0
000090 21 6a 0d 3d f9 27 9b 3c e3 90 ff bc 1b e3 92 bc
       0.03452504 0.018939959 -0.031197017 -0.017930558
0000a0 45 c9 a0 3b f1 75 a6 bb b0 93 88 bb 92 c0 f8 3b
       0.0049068057 -0.0050799777 -0.0041679963 0.0075913155
0000b0 0e 29 57 3d e0 67 0d 3d 88 89 38 bc 70 34 b0 3c
       0.052529387 0.03452289 -0.011263259 0.02150938
0000c0 82 4b ba 3c 1a ae c4 3c bd 22 e2 bc 46 1a d2 bc
       0.022741083 0.0240088 -0.027604455 -0.025647294
0000d0 e7 e9 5d 3b 2d 72 5d bb ff 1e 9f bb 28 2e 82 bc
       0.003386134 -0.0033789978 -0.00485599 -0.01589115
0000e0 77 a9 bb bc e6 33 02 3d 1e 96 42 3b 98 4e 39 3c
       -0.022907956 0.031787775 0.0029691528 0.011310242
0000f0 fd dd 93 bc d0 23 a3 3c 00 6f 9a bc 60 6a fc 3c
       -0.018050188 0.019914538 -0.018851757 0.030812442

model.gnn.gnn_layers.1.res_connection.weight f4 [64, 64]
000000 fd 5d f2 3c ce c2 af 3d b2 2d 52 bd f5 05 01 3d
       0.029585833 0.08582078 -0.05131311 0.03149982
000010 35 64 ac 3d 97 14 9e 3d 86 05 5e bc 67 fc ad 3d
       0.084175505 0.07718771 -0.013551122 0.084954076
000020 6b 5a bd bb bf 1a 1f be d4 4f 84 3c 17 8d 95 3c
       -0.005778601 -0.15537547 0.016151346 0.018255753
000030 60 7d c4 bd 9b 27 66 3c 4b c3 5c 3d 5b c3 ce bd
       -0.09594226 0.014047529 0.053897183 -0.10095855
000040 6c 81 dc 3d 3c ac e7 b9 a4 6f 62 3d bf 95 9f 3d
       0.10766873 -0.00044188078 0.05528225 0.07792234
000050 c1 16 e4 bc ee 89 15 bd a5 88 e9 3d 07 57 a5 3d
       -0.027842881 -0.036508493 0.11403016 0.0807324
000060 08 ca 88 bc ad 78 b8 3d ce e8 cb bc 8d 5e ec 3c
       -0.016697899 0.09007392 -0.024891283 0.02885368
000070 ae 1d ce 3d d8 ed c1 3d b8 b5 77 3d d4 84 b9 3c
       0.10064255 0.09469193 0.060476035 0.022646345
000080 a6 79 59 be 0f 75 9c 3d e0 b3 28 bd bd 8e a1 bd
       -0.21237811 0.07639515 -0.041187167 -0.07888553
000090 51 a8 89 bd f3 88 d9 3c f4 92 0d bd b8 e0 2d bd
       -0.06721557 0.02655456 -0.034563974 -0.042450637
0000a0 be b9 4c 3c 57 47 88 bd c4 21 e0 3d a5 9b 1c bd
       0.012495456 -0.06654232 0.1094394 -0.03823437
0000b0 8f e9 4c bc be 0a 02 3e 10 f5 81 bd 8d cf 96 bd
       -0.012506857 0.1269941 -0.0634557 -0.07363806
0000c0 e6 07 d2 3d ff 82 1e bd 3a 20 25 3e 66 a2 e0 bd
       0.10255413 -0.038699146 0.16125575 -0.10968475
0000d0 0c b6 12 bd cd 42 ca 3c 22 09 eb bd 39 7b 09 3d
       -0.035818145 0.024690056 -0.11476351 0.03356478
0000e0 5a 38 fc 3c 25 99 bb bd ad a0 1e 3c b7 b7 6e bd
       0.03078859 -0.091600694 0.009681863 -0.058280673
0000f0 d4 00 09 bd 88 d3 25 bd b8 58 88 bd 1f 65 d1 ba
       -0.033448055 -0.040484935 -0.06657547 -0.0015975571
000100 67 b4 82 3b 1a ea 99 3a 4f bc 87 3d d9 34 d0 3d
       0.003988791 0.0011742741 0.06627714 0.1016633
000110 6b 65 40 3d e4 39 04 be 8d bb 50 3d 19 c7 f5 3d
       0.04697172 -0.12912709 0.050960112 0.120008655
000120 6f 84 bc 3d fa 74 ca 3d 17 23 60 bd 29 a5 2a bd
       0.09204947 0.09885593 -0.054720964 -0.041661415
000130 95 83 9e bd 94 0a d5 bc f4 0e 04 3c c3 d0 27 3d
       -0.07739941 -0.02600602 0.008060206 0.040970575
000140 17 fc a8 3d 31 b3 8b bc b8 3c d5 bd 7c d7 11 bc
       0.08251207 -0.017053219 -0.10411972 -0.008901473
000150 5c 24 49 bc 55 85 50 bd 3f f4 91 bd 16 41 41 3e
       -0.012276735 -0.050908405 -0.07126664 0.18872485
000160 23 c5 1a bc 8d 4f a1 bd 40 d2 f7 3b 61 35 09 3e
       -0.009446415 -0.07876501 0.0075629056 0.13399269
000170 7d 4d 5b 3d 97 58 96 3c 5d 75 d2 3d 6f c1 c3 3b
       0.053540695 0.01835279 0.102762915 0.005973987
000180 39 90 9c 3d 7e 67 09 bc b4 44 ed bd b0 f7 2f 3d
       0.07644696 -0.008386491 -0.1158537 0.042960823
000190 70 e7 33 3d bb 8f db bd 63 48 12 3d 26 6b ff 3c
       0.043921888 -0.10720774 0.035713565 0.031179022
0001a0 b3 6a 0a 3e 14 8f 2d 3d 57 82 dd 3d 85 19 69 3d
       0.13517265 0.042372778 0.10815876 0.056909103
0001b0 d4 73 f9 bd 20 bb 44 bd 42 e1 33 bd 31 0e e8 bd
       -0.121802956 -0.04803002 -0.043915994 -0.11330832
0001c0 e2 0b 90 3d 4c 3b b0 3d 15 41 b3 ba f2 cb e5 3d
       0.070335165 0.0860506 -0.0013676012 0.1122054
0001d0 f2 01 0d bd c6 57 3b bd e6 54 b3 3c 05 6c 9f 3d
       -0.034425683 -0.045738004 0.021891069 0.07784275
0001e0 99 60 30 3d 05 97 f2 bd 9e fa 56 3e 22 57 90 3d
       0.043060873 -0.11845211 0.2099404 0.07047869
0001f0 8f 3e 21 3e 48 eb 2b bd 56 7e 7b bd 15 91 c2 bc
       0.1574652 -0.04197243 -0.06139978 -0.023750821
000200 cb 99 6b bd 12 61 3e 3d 2c bb 83 bd 6e 7c c9 bb
       -0.057519715 0.046479292 -0.064321846 -0.0061488664
000210 e3 b3 90 3d 39 fb c5 bc f9 c9 ba 3d b9 92 2b 3d
       0.07065561 -0.024167644 0.091205545 0.041887973
000220 7b 22 12 3e a0 1f 95 bd 9c 07 c0 bd 01 d3 61 bd
       0.14270966 -0.072814226 -0.093764514 -0.05513287
000230 a4 79 c5 3d a4 7f 1d 3b 75 09 19 3e 4d a6 f5 bd
       0.09642342 0.0024032379 0.14945014 -0.1199461
000240 ae 04 34 bd 8e 50 ad 3c 47 fd c2 3c 23 c5 eb bd
       -0.043949775 0.021156576 0.023802413 -0.1151221
000250 96 ba d9 3d 54 91 64 bb ae ff b3 bd 15 eb b2 3c
       0.106312916 -0.0034876661 -0.087890014 0.021840611
000260 36 1d 9b 3d 59 e5 61 3d d5 78 69 3d 89 35 9a bd
       0.07573931 0.055150364 0.057 -0.07529742
000270 5d 22 75 3c 45 22 38 3d c2 0b c5 3b d8 1b db bc
       0.014961806 0.044954557 0.0060133645 -0.026746675
000280 f8 40 2a be 43 18 18 be ac 46 11 3e 4c ad 9f bd
       -0.16626346 -0.14853005 0.14187115 -0.07796726
000290 92 87 b7 bd 78 7e 6e 3b 7f ef c5 3d 4b 56 1f be
       -0.08961405 0.00363913 0.09664821 -0.15560262
0002a0 85 67 82 bd b8 6b a9 bc 99 86 91 bd 01 dd be bd
       -0.06367401 -0.020681247 -0.071057506 -0.09319497
0002b0 83 fa 81 3c 77 a7 d7 bd 66 69 83 bc 5d 23 4b 3c
       0.015866524 -0.10529988 -0.016041469 0.012398568
0002c0 9f f7 dd bc 23 a8 f0 3c 7f 69 45 bd 9b b0 f2 3d
       -0.027095614 0.029377049 -0.048196312 0.11850091
0002d0 69 92 ad 3d 56 c5 08 3e cf 6a 40 3b db ce 43 bd
       0.08475191 0.13356528 0.0029360538 -0.047804695
0002e0 d3 0d 7a 3d f8 61 94 bd 30 d3 13 be b1 c0 9c 3d
       0.06104834 -0.072452486 -0.1443603 0.076539405
0002f0 9d 23 60 bd 07 e9 86 3b 71 26 ce 3d aa 36 75 3d
       -0.054721463 0.0041171345 0.10065926 0.059866585
000300 59 25 36 bd 8d 12 02 3e 35 81 56 be bc a1 ad 3d
       -0.04446921 0.12702389 -0.20947726 0.08478114
000310 ed a8 c5 bd 4a 30 47 3e f5 95 a3 3b cc 23 69 ba
       -0.09651361 0.19452015 0.0049922415 -0.0008893579
000320 3d 11 2b 3e 29 34 f0 bd 15 5d 16 3e 4f f7 c3 3d
       0.16705795 -0.11728699 0.14683945 0.09568655
000330 73 4b 8e bd ac 62 80 bb 6d f6 f9 3d 6a 89 94 bd
       -0.069479845 -0.0039180126 0.12205205 -0.07252772
000340 7e 09 bf bd cb 90 02 3e dc 9b 23 be c1 0a 68 3c
       -0.09327982 0.12750547 -0.15977424 0.01416272
000350 3e 73 4d 3e 04 4b 42 ba 57 42 ab 3d a5 7e c9 bb
       0.20063493 -0.0007411691 0.08362263 -0.0061491304
000360 10 1e 03 be f5 7a e2 bc 1d 5e 26 bd 27 77 36 bd
       -0.12804437 -0.027646521 -0.040617097 -0.044547226
000370 df 9a 03 be cf 3f 28 be 95 97 a7 3d 68 19 37 bd
       -0.12852047 -0.16430591 0.08183209 -0.044701964
000380 49 43 28 bd 16 fd 63 ba e0 fa b1 3d ed 7a 54 3d
       -0.041079793 -0.00086970755 0.08690429 0.051875044
000390 32 5a 4e 3e f3 aa 19 3d d5 76 4e 3d 0e 36 ab 3d
       0.20151594 0.037516546 0.050406296 0.083599195
0003a0 e2 27 93 3d 35 3e 09 bd e6 9b b9 bd f5 cf b0 bd
       0.071853414 -0.03350659 -0.090629384 -0.08633415
0003b0 9e bd d7 bc 3e 95 45 3d 54 47 92 3d 06 84 63 3d
       -0.026335534 0.04823803 0.07142511 0.05554583
0003c0 b0 fc ae 3d 4e 24 13 3c 33 cc de bd 6e 3a c9 3d
       0.0854429 0.008980824 -0.10878792 0.09825598
0003d0 f5 6f 5c 3d af 9e b3 3d 8e a1 a0 bc 1f dc 07 be
       0.053817708 0.08770501 -0.019608285 -0.13267563
0003e0 15 ee c4 bd 08 90 59 bd 87 40 d0 3b 21 0c 43 3d
       -0.09615723 -0.053115875 0.0063553485 0.04761899
0003f0 f4 c2 e7 bd da b0 0a 3d 85 d4 77 3d b4 1e 53 3e
       -0.11316481 0.033860065 0.06050541 0.20617181

model.gnn.gnn_layers.1.res_connection.bias f4 [64]
000000 f9 f1 d4 3d df 41 97 bd 70 bc b6 bd f2 fe d2 3d
       0.10397715 -0.07385611 -0.0892266 0.10302533
000010 f2 08 a1 bd 14 2c 39 3d 6b 71 df 3d dd 61 94 bd
       -0.07863034 0.04520805 0.10910305 -0.072452284
000020 ae 40 d7 bd ea 44 6c bd a5 98 e5 ba 81 3c a0 bd
       -0.105103835 -0.05768291 -0.0017516805 -0.0782404
000030 50 d9 9a bd a5 fc b3 3d 2c 23 0a 3d 21 2b a5 3d
       -0.0756098 0.087884225 0.03372495 0.08064867
000040 ca 9c ff bd fb d0 7f 3d 8d 8c 9c bd c8 3c 04 3e
       -0.12481077 0.06245516 -0.076439954 0.12913811
000050 6b c9 83 3d b4 ac bd 3c a0 86 85 3d 18 57 31 3d
       0.06434902 0.02315364 0.06519818 0.04329595
000060 3d 2b ce 3d f7 a6 58 3d d8 19 29 bd 4a 38 d3 bd
       0.10066841 0.052893605 -0.041284412 -0.10313471
000070 cf e1 ae 3d e8 6a 34 bd bd 6f a4 3d 83 f9 60 bd
       0.08539163 -0.044047266 0.08029125 -0.054925453
000080 ce 1f 04 be a0 d9 8f bc 33 b5 c4 3c 4c aa 4a 3d
       -0.12902758 -0.017559826 0.024012184 0.049478814
000090 c6 76 39 3a da 2d a9 3d cd 85 02 be 60 32 b6 bd
       0.00070748886 0.082606986 -0.12746353 -0.08896327
0000a0 3c 66 b7 3c 72 e3 03 3d 03 1e f1 bd 87 89 aa 3d
       0.022387616 0.03219933 -0.117733024 0.083270125
0000b0 93 a0 26 bd fb c6 b7 bc e4 13 e7 3d 3b a5 21 3c
       -0.04068048 -0.022433748 0.11283091 0.009866054
0000c0 63 0b f6 3d 35 0b 3b 3d df 6e a9 bc 38 25 de 3d
       0.120138906 0.045664985 -0.02068275 0.10846943
0000d0 29 d0 03 3d d1 e4 be 3c 34 21 41 3d f3 ee fe bd
       0.03218094 0.023302468 0.047150806 -0.1244792
0000e0 7f 2f b3 3c f8 5d 9a bc 4f f5 46 3d 09 ff ec bd
       0.021873234 -0.018843636 0.04857379 -0.115720816
0000f0 2f ce 68 bd 6e 22 51 bd ec ad 8e bd ed 10 a1 bd
       -0.056837257 -0.051058225 -0.06966767 -0.078645565

model.readout.weight_and_sum.atom_weighting.0.weight f4 [1, 64]
000000 0d d8 cf bd dd e8 d6 3c 2e 73 75 bd 15 5d 8c 3d
       -0.1014863 0.026234085 -0.059924297 0.068536915
000010 10 3d c0 bd f7 ca 69 bc 06 c2 fc 3c 53 2f ac 3d
       -0.09386647 -0.014269582 0.030854236 0.08407464
000020 3f 81 90 3d 8a 9a f3 bd 88 64 0f be 50 9d b8 bc
       0.07055902 -0.1189471 -0.14003193 -0.02253595
000030 6c fd f4 3c 1c 5d d0 bc 46 09 d1 bc 69 2b 9b 3d
       0.029905997 -0.025435023 -0.025517117 0.07576639
000040 57 5f b9 bd a0 41 ce bd 60 83 80 bd f1 df 00 be
       -0.09051388 -0.10071111 -0.06275058 -0.12585427
000050 91 ab e3 bd 39 6f 2a bd 5a 5d c4 bd ac 49 0f be
       -0.11116708 -0.041609976 -0.09588118 -0.13992947
000060 a0 86 7a 3d 6c 1a cb 3d d4 09 5b bd 16 86 f2 bc
       0.061163545 0.09917149 -0.05347617 -0.029604953
000070 ef fe 75 bd 0f 0c 12 3c 0e e0 9d 3d 1e de c9 bd
       -0.060057577 0.008914008 0.07708751 -0.098568186
000080 88 42 25 bd 13 b1 8b bd 31 4d 05 ba 43 f2 a5 3d
       -0.040346652 -0.068208836 -0.000508505 0.081028484
000090 e2 0b 0b be bd 86 2d be ef 25 3a bd 19 56 50 bd
       -0.13578752 -0.1694593 -0.045446333 -0.05086336
0000a0 11 d2 fd bd 8a 67 5f be 80 c4 4f 3c ea a1 0c be
       -0.123935826 -0.21816841 0.012681127 -0.1373364
0000b0 40 d8 2d be 49 bd 08 bd 08 e5 ee 3a 9c 55 c0 bd
       -0.16977024 -0.03338364 0.0018226216 -0.09391329
0000c0 8d 81 2b be 51 98 5f bc 6d cb 80 bb aa b4 bb 3d
       -0.16748638 -0.013647155 -0.0039305002 0.09165318
0000d0 5e a5 80 bc 36 59 91 3d ca b3 98 bc 50 80 12 3e
       -0.015703853 0.07097094 -0.018640418 0.1430676
0000e0 66 8d dc 3d 4f 91 b0 bd 16 cb be bc ca 0f 3d bd
       0.10769157 -0.086214654 -0.023290198 -0.046157636
0000f0 76 7b 0a 3d bc 91 ff bd 28 71 9c 3d 97 99 2a be
       0.033809148 -0.124789685 0.0763877 -0.16660152

model.predict.predict.1.weight f4 [128, 128]
000000 42 a3 1f bd 5b 6d d1 3c 22 5e 98 bd b2 f8 b2 bd
       -0.038974054 0.02556484 -0.074398294 -0.08738841
000010 69 49 a3 bd 66 42 d1 bd 3d e9 fc bd f6 63 02 3b
       -0.07972986 -0.102177426 -0.12349174 0.0019896007
000020 89 36 aa bc 12 cc 1d be 71 90 81 3d 16 0a 4a bd
       -0.020777958 -0.15409878 0.06326378 -0.049326025
000030 46 b3 4f bc e7 4a e3 bd ce cb eb 39 5e 39 0b bc
       -0.012677019 -0.11098271 0.0004497454 -0.008497564
000040 2d 26 29 bd 79 6f cc bd d3 8c 7b bd 0d 7f 46 bd
       -0.041296173 -0.09982199 -0.061413597 -0.04846101
000050 86 16 9e bc 8b 62 06 bd 34 5a 86 bd d7 5a 7a 3d
       -0.01929785 -0.03280882 -0.06560174 0.061121788
000060 6e 9d 6c 3d 9c 6e a6 3d 0a 5a 19 3c d1 b2 ce bc
       0.057767324 0.08126566 0.009359846 -0.02523175
000070 86 b8 92 bd a5 40 7a 3b 09 32 27 bc 3a 0c 0f 3d
       -0.07164101 0.0038185504 -0.0102048 0.03492377
000080 e7 d9 a9 bd 96 3c 65 3d ad e3 5a bb af b3 ac bd
       -0.08293515 0.055965982 -0.0033399865 -0.084327094
000090 f2 11 17 ba 8f 49 a6 3c d3 b7 99 3d 6a 95 ef bc
       -0.0005762867 0.020298747 0.07505765 -0.02924605
0000a0 58 aa 57 bd 44 9a 4b bb 43 1a 0c 3e 58 22 8b 3b
       -0.052652687 -0.0031067291 0.13681893 0.0042460375
0000b0 5e 70 71 bc 2a 59 eb bc 33 ce a1 bd ec 1e 1a 3d
       -0.014736263 -0.02872904 -0.079006575 0.037627146
0000c0 35 d5 ee bd 33 14 2c 3c 3d 96 8e bd 65 b4 31 bd
       -0.1166176 0.010502863 -0.069622494 -0.04338493
0000d0 a2 31 0f 3d 6c 38 d0 3b e2 0f 90 3c 47 d0 7a bd
       0.034959443 0.0063543823 0.017585699 -0.061233785
0000e0 b1 5d 89 3d ea a2 06 3c c3 fb 3d 3d c5 3b 11 3b
       0.06707323 0.008217553 0.046382677 0.002216087
0000f0 20 99 d0 bc e2 4a 0c 3d 2b 92 9c 3c 69 99 d1 bc
       -0.02546364 0.0342511 0.019112667 -0.025585847
000100 1d 84 49 3c ea 31 13 bd bc f2 a8 3d bf 72 e3 3d
       0.012299565 -0.035936274 0.08249423 0.111058705
000110 df 7b 1d be 08 f9 1f 3d e2 36 84 3e 89 1c b7 bd
       -0.15379284 0.039055854 0.25823122 -0.089409895
000120 34 c3 73 3d 8f c6 be 3a c8 31 8d bd 36 fc 74 bb
       0.059512332 0.0014555025 -0.06894261 -0.0037381775
000130 92 1d 3c 3d fb 26 f5 bd b4 a1 a5 bd da f0 2e 3e
       0.045926638 -0.119703256 -0.08087483 0.17084065
000140 79 16 f5 3d bd 21 19 3d 3d 1f 89 bc b9 c1 d4 bd
       0.11967177 0.03738569 -0.016738528 -0.10388512
000150 b7 24 a5 bd 2a 9d f6 3d df 65 e4 3d c0 f3 84 3d
       -0.080636434 0.120416954 0.11152243 0.06491804
000160 cf b7 c4 bc 93 e8 da 3d b2 80 ed 3b 03 9a fb 3b
       -0.024013428 0.10688891 0.0072480077 0.0076782717
000170 76 56 f6 bd 87 d3 fc bc cc 7f 79 3e cf 12 11 be
       -0.1202821 -0.030862583 0.24365157 -0.14167331
000180 ee 1f c3 3d 89 1b f5 bd 6a 0d d2 3d d2 0e d7 bd
       0.095275745 -0.119681425 0.10256465 -0.105008736
000190 9b 91 ac 3d 2e bb f7 ba 98 23 6e 3d 2a 03 35 3e
       0.084262095 -0.0018900388 0.058139414 0.17676988
0001a0 92 83 bb 3d ce 89 3b 3e bb 0e 03 3e 8e 3a da 3d
       0.091559544 0.18314287 0.12798588 0.106557
0001b0 3e 1f e9 3d 58 25 e4 3b 5f c6 ed 3d 61 57 b2 3d
       0.11382912 0.0069624595 0.11610102 0.087080725
0001c0 3c d1 de 3c eb 47 c1 3d e2 3d a5 3d d2 1d 9f 3b
       0.02719938 0.094375454 0.08068444 0.00485585
0001d0 2b 1a 8f 3c f8 45 ab bd a3 6d 9e b9 45 43 bb 3c
       0.017468533 -0.08362955 -0.00030217794 0.022859225
0001e0 0e 01 00 be 7a 51 63 bd ed be f1 bd 4e 2e 65 bd
       -0.12500402 -0.055497624 -0.11803994 -0.055952363
0001f0 f0 e4 2c 3d 17 e0 3a 3b 32 48 d2 3b c1 03 30 3a
       0.04221052 0.0028514916 0.0064172978 0.00067144266
000200 31 73 46 3d 6e 1f d2 bc ac 28 a6 3d ba 09 6b 3d
       0.0484497 -0.025649752 0.08113226 0.057382323
000210 e4 57 28 bd f2 b3 c5 bd ff 4a 06 bd 94 4e 58 3d
       -0.041099444 -0.096534625 -0.032786366 0.052809313
000220 4e 2b 90 bd 11 44 d6 3d 2c f8 31 bd 2d 57 a1 bd
       -0.0703951 0.104622014 -0.043449566 -0.078779556
000230 4a d4 31 3d fc 1c b1 3c 6b 80 36 bd 41 13 d6 3c
       0.043415345 0.021620266 -0.044556063 0.026132228
000240 d4 61 0d bd 60 99 58 3d a0 66 f6 bc 28 53 e2 3c
       -0.034517124 0.052880645 -0.030078232 0.027627543
000250 30 58 4a bd 76 36 5a bc 06 04 05 bd 67 3d 96 bd
       -0.04940051 -0.013318649 -0.03247454 -0.0733593
000260 59 5d dc bd 7d 8e a0 bd 23 a5 31 3b 09 24 26 3d
       -0.10759992 -0.078396775 0.0027106486 0.04056171
000270 84 52 9a 3c 74 09 27 3d f2 b6 5e bd 81 6c c4 bd
       0.018838175 0.0407805 -0.05437369 -0.09591008
000280 d7 56 73 bd 7b 92 1d 3d 2d 1e 06 3b b3 82 0c 3d
       -0.05940899 0.038469773 0.0020464764 0.034304332
000290 f6 78 ab 3c a3 47 10 bd fb c0 80 bd 00 be 14 3d
       0.020931702 -0.035224568 -0.06286808 0.03631401
0002a0 73 48 50 3d 9e 7f 9c 3c 35 dc 08 be eb 04 c1 3a
       0.050850343 0.019103821 -0.13365252 0.0014726197
0002b0 00 47 b0 3d fd 3f 1e bb b3 4c e9 3c 68 f0 6b bd
       0.08607292 -0.0024147027 0.028478956 -0.057602316
0002c0 33 66 72 3d 99 06 27 ba 10 b7 34 bd 7d d8 28 3c
       0.059179496 -0.00063715276 -0.044119895 0.010305521
0002d0 61 1a 15 bd 94 b0 af 3d 3d 8a 43 bd e8 dc 0b 3d
       -0.03640211 0.085786015 -0.047739256 0.03414622
0002e0 b0 94 da 3c 49 63 fb 3d 95 77 9c bd ee ad 46 3d
       0.026682228 0.122747965 -0.07639996 0.048505716
0002f0 b8 7a ec bc 46 43 c2 3b 04 e5 2e 3d 72 78 82 3d
       -0.02886711 0.00592843 0.042698875 0.06370629
000300 64 ba 2c 3d 8f 3a 2a bd b2 a1 4d bc 4c 96 0e 3d
       0.042169943 -0.041559752 -0.012550758 0.034811303
000310 cf 69 9e 3d 70 13 69 bd c3 79 87 bd 36 19 18 bd
       0.07735025 -0.056903303 -0.06615021 -0.037133418
000320 e4 45 83 3c 04 d0 52 bd 7d 36 62 bd 34 9b 0d ba
       0.016024537 -0.05146791 -0.055227745 -0.000540185
000330 01 7b 00 bc 65 82 f7 3d a3 8a 87 bd 98 61 e7 bc
       -0.007841826 0.12085418 -0.0661824 -0.028244779
000340 46 29 2c bd 11 bd 7f 3c 85 80 81 3c 61 2b f5 bc
       -0.04203155 0.015609042 0.015808353 -0.029927911
000350 d8 8c 8c bd 0b 7c e3 bd 59 de 53 bd 40 70 15 bd
       -0.06862801 -0.11107644 -0.05172572 -0.036484003
000360 0b 29 e8 3c 11 ae 01 be d1 44 f4 3c 7d 66 4f bd
       0.028339883 -0.12664057 0.02981797 -0.05063485
000370 ed 66 a4 3c 12 75 d6 3d 77 09 6e be ee 80 a5 3d
       0.02006861 0.10471548 -0.23245798 0.08081232
000380 2e f0 18 bd b0 ae 35 bd 6b 25 0d 3d 4a 05 9a bd
       -0.03733843 -0.044356048 0.034459513 -0.0752054
000390 8c 25 11 be cb 71 b4 bc b7 cf 2a 3b 71 3a 3f be
       -0.14174479 -0.022026917 0.002606375 -0.18674637
0003a0 ba fd f6 bd 5a b8 f5 bd 24 49 d7 bd b5 f1 14 be
       -0.12060113 -0.11998053 -0.10511997 -0.14545329
0003b0 0f 5e 07 be 4a 48 b2 3b 5e 34 13 be 62 66 86 3c
       -0.13219474 0.0054407464 -0.14375445 0.016406242
0003c0 0e 13 d4 3d 7c a3 d4 bd c2 ca 93 bd 31 68 3a 3d
       0.10355197 -0.10382745 -0.07216407 0.04550952
0003d0 cb 68 ad 3c 33 12 7a bb 20 87 af bd 9f 47 bf 3c
       0.021168133 -0.003815782 -0.08570695 0.023349581
0003e0 77 cd c0 3d 15 48 fa bc 85 50 a0 3d 76 d6 9a bd
       0.09414189 -0.03055195 0.07827858 -0.075604364
0003f0 ed 71 8c bd 7f b7 0c bd 39 ae d0 bd e9 92 b9 3c
       -0.06857667 -0.034354683 -0.1018948 0.02265306

model.predict.predict.1.bias f4 [128]
000000 20 b2 1a 3d 42 ee 93 bc fa 1a 86 bd 38 78 0f 3c
       0.03776753 -0.018057946 -0.06548114 0.00875669
000010 5a 5c 22 bc 0e 43 e9 bc 77 fd 19 3c 91 9c 0c bd
       -0.009909714 -0.028474357 0.00939881 -0.034329
000020 e3 84 1f bd 41 6c 8a 3d 03 29 88 bd 8b e7 92 3c
       -0.03894509 0.06758929 -0.06648447 0.017932674
000030 f9 61 77 3d 60 8f 54 3d 8b 28 49 bc c0 11 74 3d
       0.06039617 0.051894546 -0.012277733 0.05958724
000040 3b d4 cf bc cc a4 24 3c a3 eb a0 bd 1a 0a 75 bd
       -0.025369754 0.010049056 -0.07857444 -0.059824087
000050 a3 3a 54 bd be 76 1e be bc a4 72 bd 28 f2 ab bd
       -0.051813733 -0.15474984 -0.059239134 -0.08395797
000060 6a a6 3c bd f6 78 04 3d d5 1a a2 3c c5 51 5e bd
       -0.046057142 0.03234192 0.019788185 -0.0542772
000070 c0 4d a5 3b f7 69 aa bd fd c9 a5 3b 31 e1 5f bd
       0.005044669 -0.083209924 0.0050594793 -0.05465812
000080 64 da b3 bd 26 79 8e bd c4 c0 ba bd a0 21 19 3d
       -0.08781889 -0.06956701 -0.091187984 0.037385583
000090 b1 66 2a bc 53 78 42 3d d9 04 0d bd 92 8d a2 bd
       -0.01040046 0.04747803 -0.03442845 -0.07937159
0000a0 c0 4d c5 3d 1b 44 54 3d 1c 8b 02 bc 2b f8 7b 3d
       0.0963397 0.051822763 -0.007967737 0.06151597
0000b0 b5 f1 cd 3c 18 dd 03 bd 1f be c2 3c 43 91 03 3c
       0.025139669 -0.032193273 0.023772297 0.008030239
0000c0 16 05 0b bb 31 bc ed 3c 21 d5 91 3c 55 e6 82 bd
       -0.0021212748 0.0290204 0.017801823 -0.063915886
0000d0 25 4d 02 3d 37 ac 55 3d f2 a0 32 3d 24 46 a1 3d
       0.031811852 0.05216619 0.04361052 0.078747064
0000e0 ee 91 cf 3d dc cf a1 3a fa d8 ad bd a3 c6 cb bd
       0.10135256 0.0012345272 -0.084886506 -0.09949996
0000f0 bf ae e3 3c c0 5a d9 3b 7f 85 34 bc 7b 7b 5f 3d
       0.027793286 0.0066331327 -0.011018156 0.05456112
000100 e0 85 9a bd ff 2a 75 bd ea 63 3d bd 5b 56 36 bd
       -0.07545066 -0.059855457 -0.046237864 -0.04451595
000110 f0 49 31 3d 1d d8 78 bd ec 2c ac bc 6d a7 30 bd
       0.043283403 -0.060752977 -0.021017514 -0.04312842
000120 bb 2b 8e ba 6b 28 78 3d 91 8c f3 bc f1 ef ed 3a
       -0.0010846773 0.06058542 -0.029730113 0.0018153173
000130 b6 1e 0d bd bc 86 c2 bd b3 62 06 3d f9 ba 2e 3c
       -0.034453116 -0.09498355 0.03280897 0.010664695
000140 8b 6e a1 3d 89 40 62 3d 26 bf 1b bd 8e 4a 7c bd
       0.078824125 0.055237327 -0.03802409 -0.06159454
000150 f1 83 0a bc 33 2c bd bd 06 39 a5 3d 33 43 78 3d
       -0.008454309 -0.09236946 0.08067517 0.06061096
000160 05 10 cf 3c bc 7c 4f bd 6b bc 8a 3b 59 8e 96 3d
       0.025276193 -0.050656065 0.004233887 0.073513694
000170 38 a0 9f bd a3 aa 1f bc 12 bf a5 3c 2e ab 67 bd
       -0.07794231 -0.009745273 0.020232711 -0.056559734
000180 6e 91 84 3b 00 75 f7 bc c1 ed 82 bd db a5 4e bb
       0.004045657 -0.030207157 -0.06393004 -0.0031531963
000190 cf 14 06 3d 4f 35 88 3d 00 14 81 bc 02 d3 3a bd
       0.03273469 0.06650793 -0.015756607 -0.04561139
0001a0 12 d3 a5 3d 58 4f a9 bd d4 37 42 3d 10 aa bc bd
       0.08096899 -0.08267087 0.047416523 -0.09212124
0001b0 f3 35 dd 3d 25 13 ea bd c7 ad 08 3e f8 85 c6 ba
       0.108013056 -0.11429433 0.13347541 -0.0015146127
0001c0 ec 18 63 bd 06 ce 53 bd 51 2a 53 bd d6 9b 3e bd
       -0.05544369 -0.05171015 -0.051554028 -0.046535335
0001d0 81 93 57 bb a2 8f 4c bd 97 e7 34 bd 7e 1e 8d 3d
       -0.0032894316 -0.049941666 -0.044166174 0.068905815
0001e0 e4 51 25 3c 78 75 02 bd dc ad 33 bd 1c 0b 6e bd
       0.010090325 -0.03185031 -0.043866977 -0.058116063
0001f0 64 97 c0 bd ca 9f c9 ba a2 54 53 bd 27 9a 3e bc
       -0.094038755 -0.0015382704 -0.051594384 -0.0116334325
