checkpoints/GAT/best_f1_score/checkpoint1.pt (torch, 156441 bytes, 50 tensors)

model.gnn.gnn_layers.0.gat_conv.attn_l f4 [1, 8, 8]
0.0152911935 0.017357605 0.28439534 0.25251597 -0.041997444 -0.21861187 0.010222047 -0.170536
0.13604078 0.017718608 0.15979178 -0.16704531 -0.18635926 0.1014003 -0.24033691 -0.33119124
-0.22736417 -0.14455172 0.06573612 -0.3191114 -0.18901104 0.0410775 0.17108543 0.022705212
-0.029992294 0.1252761 0.3651412 0.2986121 0.035162937 0.09852407 0.19884515 -0.11476028
-0.046175808 0.3284455 -0.3599285 -0.15661883 0.3660516 -0.06688005 -0.0701261 -0.35693452
0.117603995 0.3987073 0.48907116 -0.762279 0.18916768 0.12441146 0.1672519 -0.53018254
0.15245444 -0.22766112 0.25950673 0.07151469 0.13479447 -0.6114248 0.5124477 -0.22918296
0.08011456 -0.19935091 0.22225498 0.27934673 -0.04200234 -0.22747616 0.3467476 -0.23918226
00000000: ea87 7a3c 8931 8e3c 449c 913e c649 813e
00000010: 8305 2cbd cadb 5fbe 5f7a 273c fda0 2ebe
00000020: 464e 0b3e 9d26 913c 75a0 233e ed0d 2bbe
00000030: f6d4 3ebe f6aa cf3d e11a 76be e691 a9be
00000040: 27d2 68be 5e05 14be a9a0 863d 9262 a3be
00000050: 1c8c 41be e140 283d 0531 2f3e 4800 ba3c
00000060: 66b2 f5bc 6148 003e caf3 ba3e afe3 983e
00000070: 0307 103d fdc6 c93d 109e 4b3e 7007 ebbd
00000080: d822 3dbd 022a a83e 8c48 b8be b060 20be
00000090: 1e6b bb3e 68f8 88bd 469e 8fbd 1fc0 b6be
000000a0: 5dda f03d 5d23 cc3e 8967 fa3e b724 43bf
000000b0: 2cb5 413e 6fcb fe3d 1544 2b3e 0bba 07bf
000000c0: 041d 1c3e ff1f 69be 11de 843e 4b76 923d
000000d0: 9007 0a3e 5686 1cbf c62f 033f f0ae 6abe
000000e0: 1a13 a43d a522 4cbe cf96 633e 8906 8f3e
000000f0: a50a 2cbd 83ef 68be e788 b13e 32ec 74be

model.gnn.gnn_layers.0.gat_conv.attn_r f4 [1, 8, 8]
-0.01232909 0.06884584 -0.14034623 0.22974716 0.53206605 0.35596028 0.16435729 -0.11530327
-0.02783948 -0.016436556 0.26928145 -0.35382065 0.2916969 -0.21235913 -0.08985692 -0.03237297
-0.7592022 -0.41336185 0.50077206 0.060918514 -0.24218713 0.33216155 -0.007622115 -0.116867416
-0.02367227 -0.34471884 -0.3315983 0.29550177 -0.03858059 -0.1470858 0.032494657 -0.0306301
-0.18126744 -0.12887183 -0.12972239 -0.52594906 -0.16548972 0.13174048 -0.33824334 0.091977455
0.33978954 -0.48689446 -0.08624143 -0.35362178 0.073150344 0.009306739 0.14844908 0.10116006
0.07042723 -0.04357964 0.28971145 -0.30525446 0.5620391 0.17587422 -0.027794078 0.0029667055
-0.096926965 -0.6400775 0.19591528 0.0794974 0.46176144 0.049282804 0.18378186 0.355585
00000000: f4ff 49bc 0cff 8c3d ecb6 0fbe d742 6b3e
00000010: 7b35 083f 6d40 b63e 474d 283e 1f24 ecbd
00000020: 9f0f e4bc f5a5 86bc 42df 893e fb27 b5be
00000030: 4c59 953e ac74 59be e806 b8bd 8599 04bd
00000040: 135b 42bf 2aa4 d3be 9932 003f b185 793d
00000050: e7ff 77be 1411 aa3e efc2 f9bb 2f58 efbd
00000060: 59ec c1bc fd7e b0be 41c7 a9be 024c 973e
00000070: ae06 1ebd a99d 16be 1e19 053d faeb fabc
00000080: 2c9e 39be faf6 03be f2d5 04be 99a4 06bf
00000090: 2376 29be fae6 063e 3b2e adbe ad5e bc3d
000000a0: e5f8 ad3e 3b4a f9be 599f b0bd ea0d b5be
000000b0: d9cf 953d 4b7b 183c 0903 183e 012d cf3d
000000c0: 273c 903d 9180 32bd 0f55 943e 504a 9cbe
000000d0: cbe1 0f3f 5f18 343e 68b0 e3bc 0f6d 423b
000000e0: a581 c6bd 1edc 23bf 049e 483e 88cf a23d
000000f0: ff6b ec3e c4dc 493d 5031 3c3e 3d0f b63e

model.gnn.gnn_layers.0.gat_conv.fc.weight f4 [64, 30]
0.024205726 -0.48410305 -0.23317656 -0.39632604 0.33611226 -0.25878975 0.35035202 0.13411403
0.19188052 -0.10885931 0.20507717 -0.010819437 -0.047126286 -0.08213173 0.055862185 -0.0021032745
0.08753761 0.11734369 0.0739662 -0.2697859 -0.03990476 0.61116827 0.1134485 0.0074670403
0.09485666 0.07151474 -0.0038225267 -0.48611596 -0.18677038 -0.16585942 -0.1744277 0.30857822
0.24769562 -0.30592394 0.5297453 0.19297266 0.18665865 -0.05232638 -0.45969608 0.005282956
-0.1232431 -0.2531172 -0.33595428 -0.32723096 0.015170185 -0.0782314 -0.255025 0.21673852
0.19793381 0.15430412 -0.3412475 -0.22463854 -0.01987598 0.4053494 0.35300535 -0.05634895
-0.21976002 -0.114935234 0.025428867 0.3167895 0.1166385 -0.08119894 -0.5599381 -0.22930577
-0.18787059 -0.08436662 -0.1871301 0.16938046 -0.10609959 0.0077360994 -0.31283876 -0.24589644
0.01682476 -0.051149417 -0.17845877 0.048015628 0.28798413 -0.04754382 -0.16958675 0.31314498
-0.13394529 0.18717153 -0.021958461 -0.09392459 0.3892917 0.11025686 0.14309496 -0.074788205
0.076012425 0.045352377 0.2254128 0.14582734 -0.26932845 -0.10162337 0.28103334 -0.36762172
0.06885177 -0.2292678 0.27200165 -0.111127585 0.30718508 0.23936929 -0.3057669 -0.43454948
-0.2568265 0.044333387 -0.11615697 0.14818147 -0.16134168 0.068010844 0.02505057 0.16977282
0.37884316 0.1299182 0.024833098 0.35529703 -0.10840508 -0.16962558 -0.46382135 -0.3985643
0.12872124 -0.046298455 0.12535767 -0.17908613 -0.23594669 -0.06440886 -0.20244488 -0.0152273765
0.28541693 0.06526024 -0.48917416 0.01514844 0.24242309 -0.6061564 0.31866267 -0.18303578
-0.13469347 -0.15157789 -0.46640736 -0.060204078 0.016597714 0.25214934 -0.05482692 -0.12857457
0.23200312 0.03376322 -0.04923484 -0.07903526 -0.054130003 -0.10535926 -0.088553146 0.4887606
-0.12248642 -0.236869 -0.0752217 -0.029055249 -0.074216515 -0.12061124 -0.19428101 -0.14035739
0.07487476 0.3075912 -0.1106634 -0.24745041 0.015700843 0.029099468 0.1446559 -0.18010998
-0.18287978 -0.14451435 -0.14434311 -0.36847627 -0.031533517 0.41591072 -0.195734 0.15639743
0.27393872 -0.29402062 0.10566529 -0.49252748 0.4205383 0.19177985 -0.044220705 -0.29056895
-0.0052787196 -0.03023159 -0.06300251 -0.23668788 0.5621616 -0.00991347 -0.12573087 0.21721166
0.051180813 -0.14879206 -0.06258232 0.18306366 -0.17088696 -0.2810843 -0.3322178 -0.06810346
-0.01888474 0.34542727 -0.05974617 -0.17434731 -0.22874226 -0.08220148 -0.049272437 0.032527003
-0.06217935 -0.001695666 0.38726887 0.2057687 -0.117660925 0.015266829 -0.12745914 -0.28261572
-0.088600986 -0.100147456 -0.52520776 0.044251256 -0.4009348 0.03808825 -0.17897317 0.1700749
-0.39837208 0.32946837 -0.14309768 0.054407608 -0.0058596297 -0.1478141 -0.25750902 -0.31078306
0.053283073 -0.29021755 -0.03851373 0.4259899 -0.06331057 -0.268949 0.020786636 0.05191471
0.035812862 0.15585873 0.26743597 0.024501523 0.08159722 0.13204668 0.054059856 0.26187015
-0.3953901 -0.23490836 0.18233508 0.0020363098 0.22582754 0.32399228 0.039438613 0.025242686
00000000: 164b c63c 5bdc f7be d6c5 6ebe 3feb cabe
00000010: e816 ac3e 1780 84be 5761 b33e 3055 093e
00000020: 547c 443e a1f1 debd c0ff 513e 0244 31bc
00000030: 7e07 41bd ae34 a8bd bfcf 643d 17d7 09bb
00000040: eb46 b33d e351 f03d 977b 973d 6121 8abe
00000050: 2c73 23bd 8675 1c3f b057 e83d 13ae f43b
00000060: 3544 c23d 5276 923d 5b83 7abb 31e4 f8be
00000070: bc40 3fbe 0dd7 29be 2d9d 32be f7fd 9d3e
00000080: eca3 7d3e 10a2 9cbe 639d 073f a09a 453e
00000090: 7223 3f3e 3054 56bd 495d ebbe a61c ad3b
000000a0: e166 fcbd 9498 81be 3302 acbe d18a a7be
000000b0: 5e8c 783c c937 a0bd a392 82be b4f0 5d3e
000000c0: 29af 4a3e e601 1e3e feb7 aebe a507 66be
000000d0: f4d2 a2bc f589 cf3e 1ebd b43e 28ce 66bd
000000e0: c508 61be 2a63 ebbd 3350 d03c 3c32 a23e
000000f0: 2ae0 ee3d a14b a6bd 1a58 0fbf 22cf 6abe
00000100: 2661 40be 68c8 acbd 089f 3fbe 1272 2d3e
00000110: be4a d9bd 1b7f fd3b 672c a0be 47cc 7bbe
00000120: 14d4 893c 0d82 51bd e5bd 36be 09ac 443d
00000130: a872 933e 4fbd 42bd 26a8 2dbe 8a54 a03e
00000140: f428 09be e5a9 3f3e 3be2 b3bc 895b c0bd
00000150: 3e51 c73e 59ce e13d 7c87 123e 8f2a 99bd
00000160: 67ac 9b3d 6ac3 393d 9dd2 663e c353 153e
00000170: 6be5 89be ea1f d0bd 9ae3 8f3e ea38 bcbe
00000180: 2802 8d3d 2ec5 6abe cd43 8b3e dc96 e3bd
00000190: 5d47 9d3e 391d 753e 7b8d 9cbe 457d debe
000001a0: c37e 83be ed96 353d b5e3 edbd e2bc 173e
000001b0: c136 25be 4549 8b3d da36 cd3c edd8 2d3e
000001c0: bbf7 c13e 4709 053e c86e cb3c 7ee9 b53e
000001d0: 7c03 debd 54b2 2dbe fe79 edbe 9f10 ccbe
000001e0: 80cf 033e 73a3 3dbd c35d 003e 5b62 37be
000001f0: 029c 71be cbe8 83bd b64d 4fbe 3f7c 79bc
00000200: 2b22 923e 29a7 853d 0975 fabe 2a31 783c
00000210: c23d 783e 112d 1bbf c127 a33e bb6d 3bbe
00000220: 16ed 09be 3c37 1bbe f2cc eebe 8d98 76bd
00000230: eef7 873c b819 813e 3192 60bd 0da9 03be
00000240: 3a92 6d3e 4d4b 0a3d 79aa 49bd 3ddd a1bd
00000250: 6cb7 5dbd 99c6 d7bd 5a5b b5bd d43e fa3e
00000260: 29da fabd ca8d 72be d60d 9abd 4605 eebc
00000270: d4fe 97bd 0703 f7bd 9af1 46be d9b9 0fbe
00000280: f057 993d 987c 9d3e 7ea3 e2bd a463 7dbe
00000290: 0e9f 803c 0262 ee3c ad20 143e c06e 38be
000002a0: d644 3bbe 92fb 13be aece 13be eca8 bcbe
000002b0: 4a29 01bd 40f2 d43e 7e6e 48be a626 203e
000002c0: b241 8c3e df89 96be 0b67 d83d 902c fcbe
000002d0: cc50 d73e f061 443e c520 35bd 74c5 94be
000002e0: 1cf9 acbb 3da8 f7bc 7607 81bd 4f5e 72be
000002f0: d3e9 0f3f 1b6c 22bc 98bf 00be bc6c 5e3e
00000300: f9a2 513d f25c 18be 292b 80bd 0a75 3b3e
00000310: fefc 2ebe 48ea 8fbe 7418 aabe d479 8bbd
00000320: 2cb4 9abc d8db b03e 66b8 74bd 1a88 32be
00000330: 693b 6abe 4059 a8bd e5d1 49bd 093b 053d
00000340: c6af 7ebd 1c41 deba 1b48 c63e 08b5 523e
00000350: 36f8 f0bd b921 7a3c a684 02be 02b3 90be
00000360: 6f74 b5bd 1c1a cdbd 0474 06bf ce40 353d
00000370: 5347 cdbe 6d02 1c3d be44 37be 1d28 2e3e
00000380: 6df7 cbbe 14b0 a83e 3388 12be 83da 5e3d
00000390: 2302 c0bb 945c 17be 39d8 83be f51e 9fbe
000003a0: 5a3f 5a3d 6597 94be 93c0 1dbd 591b da3e
000003b0: f9a8 81bd afb3 89be bc48 aa3c 85a4 543d
000003c0: 82b0 123d 6e99 1f3e 5eed 883e 6bb7 c83c
000003d0: 711c a73d 3f37 073e de6d 5d3d d813 863e
000003e0: 9270 cabe d18b 70be 0cb6 3a3e 9c73 053b
000003f0: 563f 673e 51e2 a53e 628a 213d c0c9 ce3c

model.gnn.gnn_layers.0.gat_conv.res_fc.weight f4 [64, 30]
-0.019269528 0.29464212 0.32413656 -0.41030735 0.16997848 0.027938886 -0.2166356 0.19589068
0.068640426 0.30851662 0.044639684 0.025578216 0.35654637 -0.042404138 -0.1491425 0.11812045
-0.097822145 -0.13433819 0.0154628195 0.4514536 -0.11377633 -0.29203132 -0.23573871 -0.16861854
0.47219875 0.12366059 -0.041656602 0.015454895 -0.3625312 0.24252157 0.12778577 0.0478407
0.42096472 -0.13372926 0.16502403 0.32212943 -0.057273373 -0.02609737 -0.39981142 0.1220428
-0.013881836 -0.35510948 -0.12755752 -0.028133925 -0.13921845 -0.4985814 -0.039925445 0.27015987
0.20300817 0.2306917 -0.1926983 0.31546953 0.18314272 -0.47353405 0.13356449 0.08877378
0.07370561 0.085573584 -0.112409614 -0.010447035 0.13611439 -0.21750338 -0.2264579 -0.32466522
0.06868678 0.19209723 0.14809644 -0.29531854 -0.3036344 -0.114072986 -0.21066174 -0.09771853
-0.34336814 -0.083636805 0.39507622 -0.23005596 0.2386652 -0.09694221 -0.25900832 -0.22532254
-0.30798537 -0.103508994 -0.08559065 0.047269158 0.055591777 -0.038707074 0.20355383 -0.06547621
-0.19812067 0.011712117 -0.042406686 0.008058386 0.09577561 0.39344016 -0.24732397 -0.013449481
-0.071331516 -0.10895703 -0.3307135 0.05100336 0.16279282 -0.03561875 0.14552316 0.15947224
-0.23832613 -0.04911725 -0.0025510571 -0.09309059 -0.49253908 -0.44221863 0.03839063 0.102094255
-0.015077587 0.42665 -0.33518326 0.0017989652 0.32881856 -0.10657689 -0.06024973 0.3765853
-0.16140255 -0.052608334 -0.22047621 0.10364719 -0.2944707 0.19035262 0.3147218 -0.003429377
-0.08463536 0.16045545 -0.0035089068 -0.29465067 0.34755242 0.10006283 -0.018153543 0.3632432
-0.3741827 -0.15941726 -0.4001419 0.11734372 0.07151856 0.160747 -0.4228936 0.15222025
-0.061344657 0.29506582 -0.17241359 0.045569863 -0.09649732 -0.0018030019 -0.014219363 0.09374763
-0.05854084 -0.17394938 -0.041854557 -0.41599652 0.060853742 0.025366649 -0.009189898 -0.27688354
-0.45245034 -0.3059 -0.10126503 0.35890847 0.03471561 -0.29469594 0.28770855 0.09496334
0.104856476 -0.3112973 0.4375955 0.08524549 -0.17756566 0.22456859 -0.037544925 0.012206168
-0.008038379 0.23973294 -0.18786849 0.4307273 -0.2671712 -0.17663473 0.16365501 0.28515825
-0.44748658 0.103553936 -0.33653197 -0.080288336 0.28422928 -0.15211329 0.18865852 0.1448914
0.03119377 0.21228369 0.20416738 0.2898825 -0.12876579 0.06545371 -0.055963412 -0.18628818
-0.107309274 -0.2839202 -0.015004212 0.34103787 0.36389178 0.010110857 0.57261884 -0.12994225
0.27916464 0.03843349 0.08049643 0.05039213 -0.35613725 -0.33464342 -0.035176415 0.19622484
-0.20073381 -0.09154035 -0.010110387 -0.012484894 -0.013936878 0.15053721 -0.15445812 -0.018641619
-0.092309415 0.20135075 -0.1155997 0.14820021 0.07930171 0.13557775 -0.23445565 -0.07936436
-0.162462 -0.1719877 -0.18748061 0.111960545 0.16887748 -0.09734086 0.23795237 -0.17709257
0.39221397 0.0015922445 0.018272134 -0.09510008 -0.049268037 0.026822718 -0.059545863 -0.024545992
-0.20298004 -0.11532416 -0.056557976 0.0996551 0.20674922 -0.15849522 -0.2936982 0.23711702
00000000: 21db 9dbc 55db 963e 3af5 a53e ce13 d2be
00000010: d70e 2e3e 17e0 e43c b9d5 5dbe 9197 483e
00000020: 5a93 8c3d e4f5 9d3e 1ad8 363d 6889 d13c
00000030: 3f8d b63e f6af 2dbd d0b8 18be 22e9 f13d
00000040: fa56 c8bd f38f 09be c457 7d3c ed24 e73e
00000050: 9103 e9bd 2185 95be 7d65 71be 57aa 2cbe
00000060: 09c4 f13e c341 fd3d 1da0 2abd 8736 7d3c
00000070: b09d b9be 9357 783e 46da 023e 9cf4 433d
00000080: b088 d73e 53f0 08be 0ffc 283e 26ee a43e
00000090: 7c97 6abd 27ca d5bc 15b4 ccbe 93f1 f93d
000000a0: a470 63bc e9d0 b5be 709e 02be 1e79 e6bc
000000b0: 488f 0ebe 1046 ffbe dd88 23bd 6552 8a3e
000000c0: 60e1 4f3e 723a 6c3e b452 45be 3985 a13e
000000d0: c489 3b3e 0e73 f2be 21c5 083e 07cf b53d
000000e0: f8f2 963d 3441 af3d 0337 e6bd 0a2a 2bbc
000000f0: 9261 0b3e 35b9 5ebe 94e4 67be 853a a6be
00000100: a8ab 8c3d 23b5 443e 98a6 173e fe33 97be
00000110: f875 9bbe 199f e9bd b6b7 57be a720 c8bd
00000120: f3cd afbe c649 abbd 6e47 ca3e ca93 6bbe
00000130: a664 743e a389 c6bd bd9c 84be f4ba 66be
00000140: 42b0 9dbe 86fc d3bd 274a afbd 4e9d 413d
00000150: 34b4 633d 4f8b 1ebd 6a70 503e 6418 86bd
00000160: 25e0 4abe 2ee4 3f3c a2b2 2dbd 5207 043c
00000170: 0126 c43d fd70 c93e 7f42 7dbe 365b 5cbc
00000180: 4216 92bd dd24 dfbd 4853 a9be e6e8 503d
00000190: 29b3 263e f7e4 11bd 0604 153e b14c 233e
000001a0: c40b 74be 2b2f 49bd a32f 27bb 47a6 bebd
000001b0: 152e fcbe 7b6a e2be 7e3f 1d3d cb16 d13d
000001c0: fc07 77bc de71 da3e 249d abbe 41cb eb3a
000001d0: e85a a83e fc44 dabd 6cc8 76bd cacf c03e
000001e0: b646 25be d67b 57bd 84c4 61be fa44 d43d
000001f0: ddc4 96be cceb 423e 3723 a13e 66bf 60bb
00000200: 4e55 adbd 6f4e 243e b0f5 65bb 74dc 96be
00000210: 64f2 b13e beed cc3d bdb6 94bc 03fb b93e
00000220: e094 bfbe 473e 23be 66df ccbe e751 f03d
00000230: 5378 923d dd9a 243e 8385 d8be a0df 1b3e
00000240: 8944 7bbd de12 973e 308d 30be 77a7 3a3d
00000250: 63a0 c5bd b452 ecba 55f8 68bc c2fe bf3d
00000260: 85c8 6fbd c91f 32be af6f 2bbd 7ffd d4be
00000270: c641 793d b8cd cf3c 3a91 16bc aec3 8dbe
00000280: 92a7 e7be ed9e 9cbe 0a64 cfbd dac2 b73e
00000290: f531 0e3d 63e2 96be 894e 933e 247c c23d
000002a0: febe d63d 5c62 9fbe 840c e03e 3095 ae3d
000002b0: c6d3 35be 4ff5 653e b5c8 19bd 61fc 473c
000002c0: 68b3 03bc 8d7c 753e 9960 40be 4a88 dc3e
000002d0: aaca 88be bcdf 34be 2e95 273e 4300 923e
000002e0: f61c e5be 1614 d43d eb4d acbe 366e a4bd
000002f0: 8086 913e 96c3 1bbe b32f 413e 695e 143e
00000300: 148a ff3c e560 593e 4111 513e 7b6b 943e
00000310: 2edb 03be 980c 863d e439 65bd 54c2 3ebe
00000320: f7c4 dbbd fd5d 91be 3ad4 75bc 849c ae3e
00000330: 0650 ba3e 02a8 253c 2697 123f 950f 05be
00000340: abee 8e3e 6f6c 1d3d 50db a43d fa67 4e3d
00000350: 9f57 b6be 6256 abbe 2515 10bd 2aef 483e
00000360: 2a8d 4dbe 8279 bbbd 09a6 25bc 718d 4cbc
00000370: 8157 64bc 6d26 1a3e 452a 1ebe 4fb6 98bc
00000380: b80c bdbd e42e 4e3e 89bf ecbd ccc1 173e
00000390: ef68 a23d e5d4 0a3e 2415 70be c889 a2bd
000003a0: 705c 26be 8b1d 30be ebfa 3fbe 924b e53d
000003b0: 38ee 2c3e a55a c7bd c9a9 733e c157 35be
000003c0: 45d0 c83e dcb2 d03a 71af 953c d5c3 c2bd
000003d0: 48cd 49bd 51bb db3c 5de6 73bd ad14 c9bc
000003e0: 00da 4fbe 132f ecbd 56a9 67bd f917 cc3d
000003f0: 11b6 533e 924c 22be 9c5f 96be cece 723e

model.gnn.gnn_layers.0.gat_conv.res_fc.bias f4 [64]
0.0189319 0.016222725 0.01941644 -0.027107915 -0.008388338 -0.034890026 -0.031923067 0.008741237
0.01721208 -0.021703985 0.012358025 0.0141369775 -0.010092899 -0.01841892 -0.048506595 0.021902781
0.017363416 -0.015195966 -0.0058787493 0.08193853 -0.006278922 0.004411553 0.013565875 -0.042541195
0.050251003 0.010248374 0.011347764 -0.023202566 0.031567015 0.0025613608 -0.023750251 0.015317309
0.028319297 -0.030949838 -0.016097384 0.030529568 0.016105361 -0.010099513 -0.009496944 0.008776533
0.03783017 -0.023937395 0.027351785 0.009590331 0.030903956 0.027847748 0.026647959 -0.0051677297
0.014862927 -0.039513662 -0.028329998 -0.03034401 -0.03165073 0.02390782 0.021376954 -0.041572977
0.05709486 0.03437276 0.025209099 -0.010233462 0.013280425 0.023730068 -0.015894994 0.025381517
00000000: 1217 9b3c 85e5 843c 3a0f 9f3c 6b11 debc
00000010: 3d6f 09bc d8e8 0ebd c3c1 02bd 6837 0f3c
00000020: 5900 8d3c 8ecc b1bc 5079 4a3c c89e 673c
00000030: b05c 25bc 46e3 96bc daae 46bd 766d b33c
00000040: b93d 8e3c 80f8 78bc 86a2 c0bb 63cf a73d
00000050: 6abf cdbb ca8e 903b 6743 5e3c ad3f 2ebd
00000060: ffd3 4d3d cce8 273c f9eb 393c 4f13 bebc
00000070: 6a4c 013d 81dc 273b e38f c2bc 73f5 7a3c
00000080: dffd e73c 848a fdbc a9de 83bc 2519 fa3c
00000090: 64ef 833c 6e78 25bc 1299 1bbc 73cb 0f3c
000000a0: cff3 1a3d 5b18 c4bc da10 e03c c420 1d3c
000000b0: 4b2a fd3c f620 e43c d24c da3c 0f56 a9bb
000000c0: a283 733c 14d9 21bd 5014 e8bc 0094 f8bc
000000d0: 32a4 01bd 55da c33c b91e af3c 6d48 2abd
000000e0: 4ddc 693d 74ca 0c3d 5083 ce3c 40aa 27bc
000000f0: 2496 593c 8f65 c23c 3836 82bc e6ec cf3c

model.gnn.gnn_layers.1.gat_conv.attn_l f4 [1, 8, 8]
0.050121456 -0.62681323 0.40289423 0.47386545 0.14415888 0.19712462 0.54848063 0.17733593
0.29214445 0.2348388 -0.38985667 0.23687112 0.5583575 -0.19061308 0.45139155 0.14458409
-0.0337759 0.10864882 -0.20530868 -0.25130764 -0.052324943 0.009258156 -0.30236736 -0.64911014
0.14226699 0.49244004 -0.38673592 -0.29288346 -0.05320219 -0.24115317 -0.25101447 0.33224538
0.2703855 0.049542326 0.25689378 -0.17541976 0.27986237 0.050197445 0.21557812 0.18671376
0.12900987 -0.21139345 0.0015068101 0.028883636 -0.23772927 0.22715324 0.082213745 0.09295312
0.30407855 0.32208169 0.18656224 0.30620098 0.14789276 -0.1752155 -0.2055139 -0.7774068
-0.1949441 -0.19129023 -0.0060005197 -0.29243973 -0.15341818 -0.36937976 -0.05529016 0.44919145
00000000: 284c 4d3d d576 20bf 2748 ce3e 7e9e f23e
00000010: 639e 133e 09db 493e 3a69 0c3f 8d97 353e
00000020: f593 953e 9579 703e 4b9b c7be 588e 723e
00000030: 84f0 0e3f 1330 43be cb1c e73e da0d 143e
00000040: 9958 0abd 4683 de3d 703c 52be 65ab 80be
00000050: ae52 56bd 85af 173c e5cf 9abe 152c 26bf
00000060: 70ae 113e 1a21 fc3e 4002 c6be d2f4 95be
00000070: 8aea 59bd dbf0 76be f884 80be 111c aa3e
00000080: f86f 8a3e e5ec 4a3d 9587 833e 3da1 33be
00000090: 1f4a 8f3e d69b 4d3d 83c0 5c3e e431 3f3e
000000a0: 2a1b 043e 8677 58be 2880 c53a 609d ec3c
000000b0: 4d6f 73be dc9a 683e ae5f a83d 355e be3d
000000c0: 2fb0 9b3e e4e7 a43e 2c0a 3f3e 60c6 9c3e
000000d0: 3371 173e b16b 33be 3c72 52be 2204 47bf
000000e0: 6d9f 47be 96e1 43be 02a0 c4bb a9ba 95be
000000f0: a819 1dbe 581f bdbe ef77 62bd 6cfc e53e

model.gnn.gnn_layers.1.gat_conv.attn_r f4 [1, 8, 8]
-0.03015942 -0.6480003 0.02311835 0.24143332 -0.17348285 -0.10399701 0.052149326 -0.0022228402
-0.27139783 -0.38087457 0.14481185 0.2321105 -0.21696189 -0.5581363 -0.26945695 0.17949596
0.23048386 -0.30997765 0.029840766 -0.14404742 -0.063453995 -0.04912825 0.5528265 0.19073097
-0.20182653 -0.20504944 -0.22750482 -0.11926768 0.22016525 -0.101559885 0.28856042 -0.076654024
-0.07387754 -0.13920814 -0.688762 0.17346607 0.37757877 0.25422665 -0.44087672 -0.17752284
-0.120543376 -0.18485361 0.5323016 0.21212147 0.011070931 -0.1152523 0.16842292 0.16151088
0.049968865 0.17501861 -0.17292647 -0.4516912 0.33611107 -0.050857056 -0.02601603 -0.046541676
-0.37081027 0.35342988 0.2963048 0.16428415 0.073300496 0.030562826 0.026144179 0.40318343
00000000: e310 f7bc 59e3 25bf b262 bd3c 4c3a 773e
00000010: 7da5 31be 62fc d4bd 889a 553d 12ad 11bb
00000020: a8f4 8abe fe01 c3be 8f49 143e 60ae 6d3e
00000030: 422b 5ebe 05e2 0ebf 43f6 89be cacd 373e
00000040: f603 6c3e 64b5 9ebe 9f74 f43c 2b81 13be
00000050: 2bf4 81bd b43a 49bd 0a86 0d3f fb4e 433e
00000060: 9dab 4ebe 7bf8 51be 06f7 68be 9d42 f4bd
00000070: 0073 613e a1fe cfbd 31be 933e c9fc 9cbd
00000080: 1c4d 97bd 948c 0ebe b552 30bf 17a1 313e
00000090: 0152 c13e ff29 823e 98ba e1be 8cc8 35be
000000a0: 72df f6bd 444a 3dbe eb44 083f 5f36 593e
000000b0: da62 353c 6609 ecbd 0f77 2c3e 1c63 253e
000000c0: 27ac 4c3d 1438 333e a313 31be 1244 e7be
000000d0: c016 ac3e 7d4f 50bd 921f d5bc 7ca2 3ebd
000000e0: d8da bdbe c3f4 b43e 43b5 973e 1b3a 283e
000000f0: 921e 963d e45e fa3c 512c d63c 0f6e ce3e

model.gnn.gnn_layers.1.gat_conv.bias f4 [64]
0.046871368 -0.026423004 -0.0027825388 -0.0035285922 0.01777591 -0.029743038 -0.015765967 0.00021954627
0.046871368 -0.026423004 -0.0027825388 -0.0035285922 0.01777591 -0.029743038 -0.015765967 0.00021954627
0.046871368 -0.026423004 -0.0027825388 -0.0035285922 0.01777591 -0.029743038 -0.015765967 0.00021954627
0.046871368 -0.026423004 -0.0027825388 -0.0035285922 0.01777591 -0.029743038 -0.015765967 0.00021954627
0.046871368 -0.026423004 -0.0027825388 -0.0035285922 0.01777591 -0.029743038 -0.015765967 0.00021954627
0.046871368 -0.026423004 -0.0027825388 -0.0035285922 0.01777591 -0.029743038 -0.015765967 0.00021954627
0.046871368 -0.026423004 -0.0027825388 -0.0035285922 0.01777591 -0.029743038 -0.015765967 0.00021954627
0.046871368 -0.026423004 -0.0027825388 -0.0035285922 0.01777591 -0.029743038 -0.015765967 0.00021954627
00000000: 31fc 3f3d 0e75 d8bc 415b 36bb f43f 67bb
00000010: c99e 913c aca7 f3bc a127 81bc 0136 6639
00000020: 31fc 3f3d 0e75 d8bc 415b 36bb f43f 67bb
00000030: c99e 913c aca7 f3bc a127 81bc 0136 6639
00000040: 31fc 3f3d 0e75 d8bc 415b 36bb f43f 67bb
00000050: c99e 913c aca7 f3bc a127 81bc 0136 6639
00000060: 31fc 3f3d 0e75 d8bc 415b 36bb f43f 67bb
00000070: c99e 913c aca7 f3bc a127 81bc 0136 6639
00000080: 31fc 3f3d 0e75 d8bc 415b 36bb f43f 67bb
00000090: c99e 913c aca7 f3bc a127 81bc 0136 6639
000000a0: 31fc 3f3d 0e75 d8bc 415b 36bb f43f 67bb
000000b0: c99e 913c aca7 f3bc a127 81bc 0136 6639
000000c0: 31fc 3f3d 0e75 d8bc 415b 36bb f43f 67bb
000000d0: c99e 913c aca7 f3bc a127 81bc 0136 6639
000000e0: 31fc 3f3d 0e75 d8bc 415b 36bb f43f 67bb
000000f0: c99e 913c aca7 f3bc a127 81bc 0136 6639

model.gnn.gnn_layers.1.gat_conv.fc.weight f4 [64, 64]
-0.05642416 -0.10048789 -0.0433324 -0.3386788 -0.05333002 -0.09393195 -0.34943485 -0.029901125
-0.019515622 0.14175974 0.2332789 -0.3486232 -0.024483457 -0.18975261 -0.08465684 0.6125479
0.006311618 -0.3797421 0.066141374 0.014874925 0.33264625 -0.089815475 -0.072931446 0.0052803345
0.04564474 -0.39345375 0.22063757 -0.10012997 -0.3121945 0.20786227 0.14787333 -0.0041237026
-0.12910464 -0.2647063 -0.27708519 0.33913454 -0.2215732 -0.13631034 0.0712126 0.020502288
0.36508223 0.0025432939 0.11431087 -0.24751584 0.16575983 0.15274219 0.21712036 0.15989608
0.2914178 -0.1547423 -0.422064 0.06113385 -0.30022135 0.0022328263 0.25297377 -0.10792374
0.15600887 -0.09529013 0.1827184 -0.050531507 -0.065498464 0.35941952 0.015492041 0.04449754
-0.034557745 0.07274464 0.0651526 0.20454721 -0.074403435 -0.1774963 -0.16930313 0.09276625
0.14259559 0.058691233 0.26159132 -0.17005624 0.018126933 -0.22273092 0.22506848 -0.052404873
-0.020849632 0.039783936 0.058306206 0.050829343 -0.24700703 0.05740986 0.0861871 0.005347717
-0.011602723 0.15724224 -0.40035143 0.114459924 -0.037290998 -0.14592066 -0.04634957 0.56433666
-0.1251664 0.24740054 0.5040411 -0.19971326 -0.15784177 0.019479422 -0.18481326 -0.13252437
-0.401227 0.21896999 0.110066004 -0.043700483 -0.2674445 0.17216662 0.1271472 0.24579906
0.17421381 0.16238905 0.19913965 -0.30251777 0.15152252 0.22744972 -0.034758795 0.33213764
-0.07485625 -0.017365076 -0.348522 -0.1593719 -0.1611068 0.1045701 0.47687697 0.053118005
0.25949717 0.12637714 0.15551314 0.14331676 0.08538815 0.12823184 0.099548906 -0.023001522
0.09499613 -0.023943646 0.08336892 0.12084575 -0.34759337 0.017758813 -0.042460468 -0.21500449
-0.2761487 -0.032871895 -0.017857958 -0.017975044 -0.04587563 0.07577703 0.15625632 -0.0598166
0.19922724 0.019943602 -0.07400116 -0.043141488 0.0334914 0.26890236 -0.1785171 -0.29703704
0.11138401 -0.044328675 -0.0975208 0.039462283 -0.085505806 0.054264847 0.21250707 0.17163038
0.30774808 0.11869268 -0.08856393 -0.1538292 0.04647168 -0.036242124 -0.029598728 0.04078328
0.30541947 0.067663 -0.18143784 0.27138337 -0.13354969 -0.16212547 0.16784136 -0.09750009
0.22904761 -0.13563803 0.1511759 -0.16625588 -0.03992522 -0.0047796182 -0.1068746 -0.15318784
-0.2547864 -0.030518759 -0.08284002 -0.22179104 0.12540132 0.16601731 -0.12036334 -0.047044378
0.21362178 -0.05257978 -0.49439746 -0.0874366 0.1993123 -0.17854193 0.15551573 -0.12615244
0.010073612 -0.05302103 0.04610425 -0.28118548 -0.03637164 -0.3154213 0.3585634 -0.26409078
-0.1284744 0.0831544 0.15242834 -0.10400965 0.004641179 0.057579674 -0.10445468 -0.14687796
-0.08604738 0.10493866 0.038314715 0.14532779 -0.11406577 -0.38735828 0.09870016 0.03067047
0.013602518 0.10478388 -0.14045247 -0.10642767 -0.3945459 0.11640175 0.059403084 0.062056765
0.055532794 0.12152275 -0.04603474 0.13907057 0.14684516 0.023591647 -0.46683383 -0.33810908
-0.16320945 0.047597826 -0.071671456 0.088557154 0.124091394 -0.11969296 -0.28823054 0.0654924
00000000: 051d 67bd 98cc cdbd 517d 31bd 4f67 adbe
00000010: 9470 5abd 655f c0bd 20e9 b2be 34f3 f4bc
00000020: 3adf 9fbc 7729 113e aae0 6e3e bd7e b2be
00000030: 8891 c8bc 824e 42be 9160 adbd f0cf 1c3f
00000040: b0d1 ce3b 8e6d c2be 2175 873d f5b5 733c
00000050: 9c50 aa3e 2df1 b7bd 155d 95bd a806 ad3b
00000060: fbf5 3a3d c572 c9be d1ee 613e f110 cdbd
00000070: f5d7 9fbe d9d9 543e 1b6c 173e 2020 87bb
00000080: 0234 04be 9687 87be 1cde 8dbe 0ba3 ad3e
00000090: 16e4 62be f094 0bbe e9d7 913d 6af4 a73c
000000a0: 0fec ba3e 64ad 263b d11b ea3d cb74 7dbe
000000b0: f2bc 293e 7368 1c3e cd54 5e3e ccbb 233e
000000c0: b734 953e c474 1ebe c618 d8be 7d67 7a3d
000000d0: 9db6 99be 9c54 123b c785 813e 1f07 ddbd
000000e0: cac0 1f3e 7927 c3bd 881a 3b3e 20fa 4ebd
000000f0: 0f24 86bd d605 b83e 54d2 7d3c 0d43 363d
00000100: 6c8c 0dbd 24fb 943d ba6e 853d d374 513e
00000110: d460 98bd 97c1 35be cd5d 2dbe 3bfc bd3d
00000120: 9404 123e 3866 703d 4cef 853e 3923 2ebe
00000130: ef7e 943c 9313 64be 5a78 663e 7ea6 56bd
00000140: d9cc aabc 7bf4 223d 7dd2 6e3d 6e32 503d
00000150: 69ef 7cbe 9a26 6b3d dd82 b03d e73b af3b
00000160: 5919 3ebc 1c04 213e ddfa ccbe f769 ea3d
00000170: 72be 18bd 3a6c 15be 0cd9 3dbd 5e78 103f
00000180: 9f2b 00be 9156 7d3e d608 013f a281 4cbe
00000190: 46a1 21be 4f93 9f3c b03f 3dbe 78b4 07be
000001a0: a06d cdbe ab39 603e 496a e13d 47ff 32bd
000001b0: 7cee 88be 724c 303e e032 023e c0b2 7b3e
000001c0: 1b65 323e 5149 263e 44eb 4b3e 9ce3 9abe
000001d0: b828 1b3e 94e8 683e 3d5f 0ebd f20d aa3e
000001e0: 3c4e 99bd 3441 8ebc 7a71 b2be 6332 23be
000001f0: 2ef9 24be d928 d63d 3829 f43e 4492 593d
00000200: d0dc 843e 0269 013e d63e 1f3e a1c1 123e
00000210: fbdf ae3d 354f 033e 4ce0 cb3d b06d bcbc
00000220: 558d c23d 7725 c4bc 53bd aa3d fa7d f73d
00000230: c2f7 b1be ee7a 913c 07eb 2dbd 232a 5cbe
00000240: 5d63 8dbe aea4 06bd da4a 92bc 6640 93bc
00000250: 16e8 3bbd fd30 9b3d a801 203e 4002 75bd
00000260: 3a02 4c3e c460 a33c ec8d 97bd 21b5 30bd
00000270: 472e 093d 92ad 893e 30cd 36be 3d15 98be
00000280: 4d1d e43d fc91 35bd fcb8 c7bd 34a3 213d
00000290: ab1d afbd d144 5e3d 749b 593e e0bf 2f3e
000002a0: 2891 9d3e 2615 f33d 0161 b5bd 6785 1dbe
000002b0: 1759 3e3d 9f72 14bd 0879 f2bc 5e0c 273d
000002c0: f15f 9c3e e692 8a3d d7ca 39be c3f2 8a3e
000002d0: 40c1 08be 3804 26be 9bde 2b3e 21ae c7bd
000002e0: 758b 6a3e b2e4 0abe dbcd 1a3e fb3e 2abe
000002f0: a188 23bd 589e 9cbb 12e1 dabd 46dd 1cbe
00000300: 5d73 82be 7a02 fabc 07a8 a9bd 311d 63be
00000310: 3469 003e 7100 2a3e 0e81 f6bd 9bb1 40bd
00000320: abbf 5a3e e55d 57bd aa21 fdbe f611 b3bd
00000330: 8618 4c3e b2d3 36be 843f 1f3e 1b2e 01be
00000340: cb0b 253c 942c 59bd cfd7 3c3d 8bf7 8fbe
00000350: 6efa 14bd e77e a1be 9f95 b73e e836 87be
00000360: cb8e 03be db4c aa3d 2d16 1c3e 0303 d5bd
00000370: 0815 983b aad8 6b3d 56ec d5bd 2d67 16be
00000380: 9c39 b0bd 15ea d63d e4ef 1c3d cfd0 143e
00000390: 509b e9bd d353 c6be 4f23 ca3d a340 fb3c
000003a0: 18dd 5e3c ee98 d63d c6d2 0fbe c0f6 d9bd
000003b0: ec01 cabe 0a64 ee3d a650 733d 3c2f 7e3d
000003c0: 5b76 633d ebe0 f83d ec8e 3cbd 8468 0e3e
000003d0: 945e 163e 4543 c13c d804 efbe a21c adbe
000003e0: 6120 27be f0f5 423d 7cc8 92bd 745d b53d
000003f0: a123 fe3d 9521 f5bd f492 93be e120 863d

model.readout.weight_and_sum.atom_weighting.0.weight f4 [1, 8]
-0.010421704 0.34423423 -0.21653771 0.27270466 0.007188429 0.2627735 0.21592414 0.15771839
00000000: cbbf 2abc 783f b03e 10bc 5dbe f29f 8b3e
00000010: ea8c eb3b 408a 863e 381b 5d3e ee80 213e

model.predict.predict.1.weight f4 [128, 16]
-0.17025845 0.07467504 -0.13258761 0.24073333 -0.0021788331 -0.28982145 0.028824788 0.13456878
0.120957114 -0.3728621 0.27528906 -0.016822832 -0.15416324 0.16038354 0.37859428 0.14275344
0.0111216325 0.28621817 -0.06990691 -0.0112302005 0.1253443 0.25194973 0.046868082 -0.10150472
-0.14417493 -0.018568518 -0.005088394 0.15792523 -0.19626357 -0.18885924 -0.15499288 0.2004518
-0.117940575 0.06258604 -0.11962963 0.011546368 -0.08642059 0.012770357 0.16098835 -0.013713535
0.118355855 -0.0025659045 -0.11207618 -0.044646863 -0.010137375 -0.12628148 0.045892335 -0.0503731
-0.11154026 0.20572239 0.16606192 0.12224295 -0.06942759 -0.021216828 0.13888733 0.18208332
-0.26573908 0.0028196918 -0.20692143 -0.05786135 -0.17938092 0.046306852 0.2380947 0.08594265
-0.050680906 -0.08848244 0.077066906 0.06876995 0.21041122 -0.040137846 -0.11519022 0.14488243
0.16493702 0.058626126 -0.25586244 0.63174707 0.32899076 0.07482211 -0.36097282 0.2197087
0.18301456 -0.04687445 0.122183755 -0.09194771 -0.05445497 -0.11790519 0.019793043 -0.18932685
-0.18005551 -0.29260597 0.13504417 -0.30958197 -0.17255534 0.021800805 -0.034668844 -0.0972701
0.23348875 -0.24071324 0.100347504 0.045645665 0.011444796 0.089590274 -0.04829143 -0.0918462
0.054669265 0.09832169 0.09749908 0.111118056 0.0018258367 -0.06293288 0.17846757 -0.053735714
-0.08386966 -0.076108664 0.13445719 0.089945816 -0.030136812 0.22065194 0.15889268 0.09370464
-0.23649433 -0.060006984 -0.24931239 -0.016729677 0.22620063 0.28975633 -0.073501915 -0.2684719
-0.041663695 -0.1406598 -0.08714164 -0.21952559 0.07952929 0.02266454 -0.059886757 -0.053241827
0.38433203 0.27586144 -0.31617212 0.50999004 0.4585091 -0.16660896 -0.47096264 -0.0040508546
0.17447665 0.20435096 0.12426781 0.19785364 0.22977987 0.17595367 0.10927253 0.28750956
0.2397253 0.085203394 -0.19439033 0.07896088 0.061518174 -0.0812145 -0.19001596 0.1140219
0.13842605 0.05531183 0.21183795 -0.14676912 -0.055251848 0.1513171 0.049694065 -0.14617465
-0.19223067 0.055497512 -0.19499806 0.35522956 0.16159655 -0.2802358 -0.13450715 -0.2103352
-0.014138169 -0.058672786 -0.22260942 -0.06695643 0.1500736 0.2571509 0.1678129 -0.1712975
0.3866294 0.14431383 -0.17281261 0.38251692 0.23263957 -0.17675208 0.17221457 0.073891774
-0.105062954 -0.106414296 -0.081501424 -0.11451982 0.12547174 0.05607033 -0.020866804 -0.08716619
0.209629 0.4494433 -0.15103842 0.77544576 0.2664497 -0.31877992 0.005247797 0.092979394
-0.122356065 0.20687439 0.15158816 0.093106 -0.13261084 -0.037937734 -0.25542054 -0.25614926
0.20013691 0.017147047 -0.090442955 -0.07050966 0.009182313 0.032092646 -0.0649493 0.07505062
-0.23017283 0.13918293 -0.012735072 -0.08521597 -0.10481053 0.040527295 -0.094575 -0.19681409
-0.13247758 0.047644336 -0.21899222 0.017852385 -0.047998913 0.24625553 -0.07875433 -0.07314815
0.008134901 0.112985745 -0.22665307 -0.18129395 0.029744275 0.12992264 0.04026514 -0.19211146
0.22060736 -0.08928877 -0.10124324 0.009062013 0.01778068 0.047769357 -0.10917594 0.16720755
00000000: 3b58 2ebe 3aef 983d 0cc5 07be cc82 763e
00000010: c1ca 0ebb 7a63 94be f621 ec3c 66cc 093e
00000020: 5db8 f73d c8e7 bebe b0f2 8c3e 09d0 89bc
00000030: f8dc 1dbe 953b 243e 1cd7 c13e f52d 123e
00000040: 8237 363c 308b 923e 5b2b 8fbd e0fe 37bc
00000050: 425a 003e 8eff 803e bff8 3f3d b5e1 cfbd
00000060: 98a2 13be 011d 98bc 8bbc a6bb 27b7 213e
00000070: 51f9 48be 5164 41be 74b6 1ebe 3d43 4d3e
00000080: d48a f1bd 1c2d 803d 6100 f5bd fa2c 3d3c
00000090: 47fd b0bd c23a 513c 21da 243e bcae 60bc
000000a0: 8e64 f23d bc28 28bb 3288 e5bd a1df 36bd
000000b0: 3c17 26bc ef4f 01be 9af9 3b3d 0654 4ebd
000000c0: 386f e4bd e4a8 523e 230c 2a3e 835a fa3d
000000d0: 0d30 8ebd eace adbc 7b38 0e3e 0d74 3a3e
000000e0: f40e 88be 94ca 383b 36e3 53be 0600 6dbd
000000f0: a2af 37be 41ac 3d3d 19cf 733e b302 b03d
00000100: c896 4fbd 4836 b5bd 41d5 9d3d 42d7 8c3d
00000110: 0a76 573e 9567 24bd dae8 ebbd 0f5c 143e
00000120: 40e5 283e f321 703d 6700 83be 2dba 213f
00000130: 7a71 a83e 563c 993d 6ed1 b8be 51fb 603e
00000140: 2b68 3b3e 6cff 3fbd 7a3b fa3d 154f bcbd
00000150: 2d0c 5fbd 4778 f1bd 0525 a23c e6de 41be
00000160: 7960 38be 73d0 95be 0549 0a3e 8781 9ebe
00000170: 59b2 30be 9a97 b23c eb00 0ebd 8c35 c7bd
00000180: ad17 6f3e 887d 76be fe82 cd3d f3f6 3a3d
00000190: f482 3b3c 1b7b b73d 3ccd 45bd dc19 bcbd
000001a0: e1ec 5f3d e25c c93d 99ad c73d dd91 e33d
000001b0: ea50 ef3a f4e2 80bd 34c0 363e fb19 5cbd
000001c0: dbc3 abbd dcde 9bbd 25af 093e 8335 b83d
000001d0: 7ae1 f6bc 95f2 613e c3b4 223e 38e8 bf3d
000001e0: 922b 72be e2c9 75bd bf4b 7fbe ad0c 89bc
000001f0: 23a1 673e f15a 943e 2c88 96bd 2675 89be
00000200: 8da7 2abd 1f09 10be 5177 b2bd 51cb 60be
00000210: 41e0 a23d fcaa b93c d14b 75bd 1a14 5abd
00000220: 2bc7 c43e b63d 8d3e 50e1 a1be b58e 023f
00000230: b4c1 ea3e 8a9b 2abe 0422 f1be 08bd 84bb
00000240: 02aa 323e 6141 513e 1f80 fe3d 259a 4a3e
00000250: 6a4b 6b3e 332d 343e 47ca df3d 7434 933e
00000260: 8d7a 753e 1e7f ae3d 420e 47be 3eb6 a13d
00000270: 7bfa 7b3d ca53 a6bd 8b93 42be 5084 e93d
00000280: 8fbf 0d3e a88e 623d 0cec 583e a54a 16be
00000290: c34f 62bd dff2 1a3e 018c 4b3d cfae 15be
000002a0: 1ed8 44be 5c51 633d 92ad 47be a6e0 b53e
000002b0: 9179 253e 117b 8fbe 3ebc 09be 1c62 57be
000002c0: c7a3 67bc e052 70bd b9f3 63be 7420 89bd
000002d0: e5ac 193e 48a9 833e 25d7 2b3e 9d68 2fbe
000002e0: 4af4 c53e 01c7 133e caf5 30be 42d9 c33e
000002f0: 1139 6e3e 7ffe 34be 0459 303e 9254 973d
00000300: 3f2b d7bd bdef d9bd 38ea a6bd 5e89 eabd
00000310: aa7b 003e 01aa 653d dcf0 aabc 3084 b2bd
00000320: fca8 563e 6f1d e63e d1a9 1abe 9d83 463f
00000330: 186c 883e 1f37 a3be b6f5 ab3b fb6b be3d
00000340: d195 fabd e1d6 533e ed39 1b3e 5cae be3d
00000350: 23cb 07be 9964 1bbd 7bc6 82be ff25 83be
00000360: b1f0 4c3e f777 8c3c 283a b9bd 5e67 90bd
00000370: 6a71 163c 9473 033d 2304 85bd 24b4 993d
00000380: 6db2 6bbe f885 0e3e c3a6 50bc b685 aebd
00000390: e7a6 d6bd f3ff 253d 8ab0 c1bd a289 49be
000003a0: 34a8 07be b526 433d 7f3f 60be 2a3f 923c
000003b0: 829a 44bd 692a 7c3e f349 a1bd b3ce 95bd
000003c0: 3f48 053c 1265 e73d be17 68be 1fa5 39be
000003d0: 44aa f33c 710a 053e 0fed 243d deb8 44be
000003e0: e5e6 613e 08dd b6bd 9e58 cfbd d678 143c
000003f0: caa8 913c cda9 433d a397 dfbd 7538 2b3e

model.predict.predict.1.bias f4 [128]
0.35607743 -0.14618625 -0.08305578 0.12223312 0.038896378 -0.0024611691 0.07668518 -0.17981201
-0.07018141 0.009678449 0.01243974 0.11995593 0.15667798 -0.18610415 0.035992272 -0.017511956
0.20880038 -0.2320249 -0.06629609 0.108100176 -0.03041015 -0.23603046 -0.042543292 -0.148883
0.112723686 0.27601454 -0.07417885 -0.0818712 0.11120531 0.23278831 0.0077995304 -0.25935295
0.11589825 -0.03448398 -0.24358842 0.29472005 -0.03271809 0.11577831 0.060112555 0.03551115
0.083948545 -0.06854442 -0.112602994 -0.1798725 -0.17201419 -0.06735709 0.049019545 -0.1415759
0.03468511 -0.073918 0.22408721 0.024189271 0.026092002 0.096812405 0.010536679 0.26244387
0.062261213 -0.17234102 -0.0015632415 -0.06189528 0.1795347 -0.2009873 0.17713366 -0.2751072
0.12889203 -0.041032314 -0.0077002286 0.25434482 0.1919755 -0.1297285 0.14349668 -0.28900725
-0.27836695 -0.0240536 -0.16436803 -0.14894474 -0.04350091 -0.2585339 0.19021283 -0.16336067
0.081664436 -0.14694922 -0.24070108 -0.18458407 -0.13372555 0.34354046 -0.16105138 -0.26198778
-0.25537562 -0.071991794 0.13342714 -0.027840778 -0.10694367 -0.06858785 0.20677492 0.073513515
0.2543977 -0.22778578 -0.17207666 0.08208151 -0.24771331 0.04015194 -0.13951726 0.022291105
0.042451903 -0.20242688 -0.115394406 0.26237565 0.021298228 -0.14333135 0.007177323 0.220641
0.050688118 -0.18931983 -0.21584117 -0.008403392 0.30464512 -0.072368115 0.010507114 0.022410214
-0.029764747 -0.101819575 0.1051153 0.082433805 -0.0074082585 -0.032444578 -0.009547368 0.30555645
00000000: c84f b63e d9b1 15be 2619 aabd 5c55 fa3d
00000010: cf51 1f3d 914b 21bb 1f0d 9d3d a420 38be
00000020: 45bb 8fbd 5b92 1e3c 0dd0 4b3c 74ab f53d
00000030: 3170 203e 1692 3ebe a26c 133d 3c75 8fbc
00000040: c4cf 553e ef97 6dbe 3fc6 87bd a063 dd3d
00000050: b51e f9bc f8b1 71be e041 2ebd c974 18be
00000060: addb e63d c751 8d3e 15eb 97bd 16ac a7bd
00000070: 9cbf e33d 0f60 6e3e 3493 ff3b e9c9 84be
00000080: 105c ed3d 133f 0dbd 3e6f 79be 8ce5 963e
00000090: 6703 06bd 2e1d ed3d 9538 763d 2474 113d
000000a0: 37ed ab3d 0461 8cbd 669c e6bd 7f30 38be
000000b0: 7d24 30be 84f2 89bd b8c8 483d 46f9 10be
000000c0: f911 0e3d 5262 97bd 1e77 653e 9428 c63c
000000d0: e5be d53c 9545 c63d 09a2 2c3c 0b5f 863e
000000e0: 9d05 7f3d 2a7a 30be aee5 ccba e885 7dbd
000000f0: f2d7 373e 9dcf 4dbe 8762 353e dada 8cbe
00000100: 46fc 033e 8011 28bd 3352 fcbb 7c39 823e
00000110: 3a95 443e 8cd7 04be cbf0 123e c2f8 93be
00000120: 1d86 8ebe 0e0c c5bc 1850 28be f884 18be
00000130: 032e 32bd 8e5e 84be 27c7 423e 0548 27be
00000140: af3f a73d db79 16be 587a 76be 9b03 3dbe
00000150: 5aef 08be 89e4 af3e a7ea 24be 4323 86be
00000160: 98c0 82be 6f70 93bd 20a1 083e 5812 e4bc
00000170: 4805 dbbd c977 8cbd cebc 533e 418e 963d
00000180: 6a40 823e ad40 69be dd34 30be 5a1a a83d
00000190: 8fa8 7dbe 5c76 243d 9ddd 0ebe d69b b63c
000001a0: 0ce2 2d3d fe48 4fbe e753 ecbd 1a56 863e
000001b0: 9f79 ae3c 74c5 12be c02f eb3b b7ef 613e
000001c0: 589e 4f3d 0fdd 41be 7805 5dbe 61ae 09bc
000001d0: 72fa 9b3e bc35 94bd 0826 2c3c a095 b73c
000001e0: 33d5 f3bc c886 d0bd b146 d73d 0ed3 a83d
000001f0: fac0 f2bb 9be4 04bd 906c 1cbc e571 9c3e

model.predict.predict.3.weight f4 [128]
0.95639354 0.9989319 0.9872105 0.9761723 0.9823121 0.95720494 0.8254199 0.97863793
1.0350063 1.0046251 1.0170255 0.99140567 1.002503 0.94278526 0.9629162 0.93333644
0.9413828 0.9115585 0.9430959 0.977717 0.9439981 0.7323712 0.94597185 0.86153847
0.9488293 0.847281 0.9864805 0.99102205 0.94608456 0.94230604 0.97683364 0.9951501
0.8609274 0.945151 0.8836667 0.9431544 0.9892047 0.98110265 0.92402947 1.0185947
0.9370232 0.9407833 0.93514824 0.92555046 0.92294896 0.98614866 0.9711785 1.0
0.74756664 0.96763325 1.0245804 0.8695805 0.9696376 0.7975176 0.93382025 1.0195756
1.0048195 0.8664524 0.88407207 0.9778145 0.9827337 0.96277773 0.9514928 0.96884465
0.86349463 0.9651116 0.99329036 0.9510489 0.9742244 0.9606357 0.94519824 0.9756325
0.9947265 0.7673159 0.907798 1.0 0.9921492 0.98699164 0.81298876 0.94643563
1.0000703 0.87226963 1.0363321 0.9852991 0.94292486 0.9323349 0.91966534 0.94386244
0.9782268 0.97317076 0.89873713 0.9874505 0.9762693 0.972836 0.81544846 0.7242144
0.9621516 0.8162229 0.9346123 0.91356915 0.9884252 1.0012834 0.97391695 0.9672146
0.8214939 0.78083843 1.0031374 0.9499204 0.95381206 1.0162624 1.0 1.0199422
0.95659 0.94845057 0.860206 0.9520006 0.969873 0.96773356 0.9708634 0.86028284
0.91113293 0.92143434 0.9726757 0.9418007 0.957979 0.85824114 0.97705084 0.70146465
00000000: 35d6 743f 00ba 7f3f d4b9 7c3f 6ee6 793f
00000010: ce78 7b3f 620b 753f b84e 533f 0488 7a3f
00000020: 167b 843f 8e97 803f e42d 823f c3cc 7d3f
00000030: 0552 803f 605a 713f ad81 763f 23ef 6e3f
00000040: 77fe 703f e65b 693f bc6e 713f a94b 7a3f
00000050: dca9 713f ae7c 3b3f 362b 723f c98d 5c3f
00000060: 7ae6 723f 68e7 583f fc89 7c3f 9fb3 7d3f
00000070: 9932 723f f83a 713f c511 7a3f 28c2 7e3f
00000080: bd65 5c3f 6af5 713f fb37 623f 9172 713f
00000090: 853c 7d3f 8b29 7b3f 328d 6c3f 5061 823f
000000a0: c1e0 6f3f 2dd7 703f e065 6f3f e0f0 6c3f
000000b0: 6246 6c3f 3d74 7c3f 279f 783f 0000 803f
000000c0: 8760 3f3f d0b6 773f 7325 833f d49c 5e3f
000000d0: 2b3a 783f 1d2a 4c3f d80e 6f3f 7481 823f
000000e0: ed9d 803f d3cf 5d3f 8c52 623f 0d52 7a3f
000000f0: 7094 7b3f 9a78 763f 0895 733f 3406 783f
00000100: fc0d 5d3f 8e11 773f 4748 7e3f f177 733f
00000110: c566 793f 39ec 753f 83f8 713f 0dc3 793f
00000120: 65a6 7e3f d16e 443f 7365 683f 0000 803f
00000130: 7dfd 7d3f 7cab 7c3f 0820 503f 9b49 723f
00000140: 4e02 803f 104d 5f3f 88a6 843f 903c 7c3f
00000150: 8663 713f 80ad 6e3f 306f 6b3f f8a0 713f
00000160: 126d 7a3f b821 793f a313 663f 8ec9 7c3f
00000170: c9ec 793f c80b 793f 3bc1 503f 1d66 393f
00000180: 914f 763f fcf3 503f c042 6f3f abdf 693f
00000190: 6f09 7d3f 0e2a 803f 9f52 793f 609b 773f
000001a0: 6d4d 523f 07e5 473f ce66 803f fc2d 733f
000001b0: 072d 743f e314 823f 0000 803f 778d 823f
000001c0: 15e3 743f a8cd 723f 7636 5c3f 50b6 733f
000001d0: 9949 783f 63bd 773f 818a 783f 7f3b 5c3f
000001e0: 0240 693f 1fe3 6b3f 4601 793f da19 713f
000001f0: 1d3e 753f b1b5 5b3f 0120 7a3f 3093 333f

model.predict.predict.3.bias f4 [128]
0.0650346 -0.06253523 -0.061026357 -0.022473224 -0.073719226 0.046844527 -0.07935775 -0.05148352
-0.07398324 -0.078875236 -0.038264204 -0.072522976 -0.072626464 0.059324715 0.03292966 -0.053431697
0.06313327 -0.029652014 -0.053082246 -0.069118015 -0.0752492 -0.06269567 0.055688586 -0.0033397512
0.06650636 0.009766956 -0.06145439 0.066166796 -0.008697018 -0.020017315 -0.03506568 -0.030287482
-0.027316095 0.057593666 0.038684536 0.058030866 -0.076874785 0.066150665 0.04544886 0.022143532
0.057413697 0.007181058 0.036058996 0.054113418 0.027860248 -0.07241549 -0.052923854 0.031251818
-0.086299166 -0.08032833 0.07123618 -0.08978359 0.034826882 -0.016230715 0.050149195 -0.07557642
0.002097972 -0.07824965 -0.043011446 -0.06521285 -0.07603047 -0.00043546432 -0.059877235 0.036255892
-0.07025604 -0.069060124 0.061420377 0.042772707 0.062185504 0.060857225 0.06585436 -0.06944755
-0.080440536 -0.043374978 0.01732204 -0.032897975 0.008628082 -0.0703644 -0.022095935 0.039188985
0.06741639 -0.06488981 -0.075216554 -0.041594207 0.05654271 -0.08750396 0.0077542025 -0.07807256
-1.6740572e-07 -0.055369742 0.018347634 0.060682386 -0.029605953 -0.09116005 0.024526235 -0.08980838
0.06231295 -0.00551439 -0.07702948 0.0463154 -0.07888744 -0.07284956 0.06298712 -0.060058057
-0.11049756 -0.08089311 0.06424065 0.053421617 0.044676363 -0.073036246 0.021766653 -0.080269076
-0.0110333115 0.05231867 -0.045803457 0.06511989 -0.06988766 0.064934164 -0.060971208 -0.030131336
-0.07714719 0.04762809 0.06884879 -0.011163326 -0.053705443 0.04014471 0.05906433 -0.06339677
00000000: dc30 853d 7812 80bd c6f6 79bd c419 b8bc
00000010: 1bfa 96bd 0ce0 3f3d 5186 a2bd 62e0 52bd
00000020: 8684 97bd 5789 a1bd edba 1cbd ed86 94bd
00000030: 2fbd 94bd 79fe 723d 40e1 063d 32db 5abd
00000040: 044c 813d c8e8 f2bc c56c 59bd bf8d 8dbd
00000050: 411c 9abd 9666 80bd b719 643d badf 5abb
00000060: 7d34 883d 9505 203c 99b7 7bbd 7582 873d
00000070: f07d 0ebc 5afb a3bc 08a1 0fbd 741d f8bc
00000080: 01c6 dfbc 56e7 6b3d ad73 1e3d c6b1 6d3d
00000090: 8770 9dbd 007a 873d 9528 3a3d 5a66 b53c
000000a0: a02a 6b3d 154f eb3b 99b2 133d 08a6 5d3d
000000b0: 2d3b e43c 934e 94bd afc6 58bd e801 003d
000000c0: 9ebd b0bd 2e83 a4bd 46e4 913d 75e0 b7bd
000000d0: a2a6 0e3d 47f6 84bc 3e69 4d3d cfc7 9abd
000000e0: 217e 093b 5a41 a0bd c52c 30bd 518e 85bd
000000f0: ddb5 9bbd 084f e4b9 d541 75bd 0f81 143d
00000100: 66e2 8fbd 656f 8dbd ef93 7b3d 6f32 2f3d
00000110: 3ab6 7e3d 6d45 793d a7de 863d 843a 8ebd
00000120: 02be a4bd f6a9 31bd f3e6 8d3c 07c0 06bd
00000130: cd5c 0d3c 361b 90bd 8902 b5bc a184 203d
00000140: 9b11 8a3d f3e4 84bd 230b 9abd b05e 2abd
00000150: 5499 673d 4735 b3bd f716 fe3b 82e4 9fbd
00000160: 22c0 33b4 62cb 62bd c74d 963c 188e 783d
00000170: 2f88 f2bc 1fb2 babd 3eeb c83c 75ed b7bd
00000180: dd3b 7f3d 0eb2 b4bb a2c1 9dbd 38b5 3d3d
00000190: bd8f a1bd 2632 95bd 64ff 803d 70ff 75bd
000001a0: 8b4c e2bd 49ab a5bd 9a90 833d a0d0 5a3d
000001b0: 90fe 363d 0794 95bd fb4f b23c 1d64 a4bd
000001c0: 10c5 34bc 1a4c 563d 689c 3bbd 945d 853d
000001d0: 4321 8fbd 34fc 843d f2bc 79bd fed5 f6bc
000001e0: 59ff 9dbd ac15 433d 9800 8d3d 62e6 36bc
000001f0: 3dfa 5bbd c86e 243d 70ed 713d 2ad6 81bd

model.predict.predict.3.running_mean f4 [128]
0.6678098 6.2333744e-22 1.4409105e-23 6e-45 3.099729 1.2698388 3.5720577 6e-45
1.7596129 2.9162498 0.17052883 1.380205 1.4080355 3.6e-44 6e-45 0.03374711
0.015792334 6e-45 6.1379346e-10 0.0004678227 1.8976438 1.6281822 1.5914681 0.00061460264
0.020758893 2.7396913 4.500787e-18 0.75554174 3.7715853e-09 0.54490316 5.097708e-05 2.9135014e-09
0.00033528008 3.1787977 1.4167978 0.9151763 2.6698716 0.45897263 0.36129087 6e-45
0.69502383 1.1338383e-21 0.002678976 1.3119253 0.5965405 3.5763893 0.7651045 0.0
1.7699538 2.8443623 2.0431985e-13 2.6897018 0.37841758 1.6950079 2.215852 1.8423234
6e-45 1.1958979 1.3254964e-07 0.39339697 2.3651817 6e-45 1.7004139e-07 6e-45
6.521588e-16 4.92299 6e-45 2.167995e-07 0.64466876 2.3387666 5.8887865e-05 6.2811618e-34
1.2335385 1.970907 1.9211291 0.0 6e-45 0.296306 5.421347e-14 1.931106
0.9866703 1.2518353 2.7569947 6e-45 3.0933921 4.0378118 2.1855536 2.206812
6e-45 6e-45 2.2784343 1.5031793 6e-45 1.8497264 0.8350764 3.2586882
2.192313 1.2458587e-14 5.6908197 2.805169 1.5851384e-11 2.209475 2.359355 7.5896947e-16
3.6827886 4.5482783 2.9798088 1.300227 1.0077991e-09 1.5247763e-06 0.0 2.47254
0.49074382 2.7249563 7.0486244e-06 0.40249595 3.8574734 0.0015943042 9.152556e-11 0.73410094
1.4997061 0.7034872 0.017041774 0.4158111 6e-45 1.4861497 6e-45 2.4005308
00000000: 95f5 2a3f 6664 3c1c 375b 8b19 0400 0000
00000010: f661 4640 148a a23f 989c 6440 0400 0000
00000020: ff3a e13f d6a3 3a40 1c9f 2e3e 8faa b03f
00000030: 823a b43f 1a00 0000 0400 0000 693a 0a3d
00000040: ed5e 813c 0400 0000 e0b7 2830 1a46 f539
00000050: fee5 f23f 4668 d03f 3ab5 cb3f 491d 213a
00000060: 8e0e aa3c 1a57 2f40 bb0c a622 2f6b 413f
00000070: 3797 8131 c67e 0b3f 39d0 5538 dc36 4831
00000080: 88c8 af39 6c71 4b40 a159 b53f fe48 6a3f
00000090: 2ddf 2a40 76fe ea3e 1efb b83e 0400 0000
000000a0: 15ed 313f 3f57 ab1c c291 2f3b 2bed a73f
000000b0: e1b6 183f 90e3 6440 e3dd 433f 0000 0000
000000c0: d98d e23f 080a 3640 300b 662a 1324 2c40
000000d0: f3bf c13e 05f6 d83f 85d0 0d40 41d1 eb3f
000000e0: 0400 0000 2f13 993f f852 0e34 546b c93e
000000f0: 235f 1740 0400 0000 9f94 3634 0400 0000
00000100: d3f8 3b26 2289 9d40 0400 0000 65c9 6834
00000110: 0309 253f 5aae 1540 5dfe 7638 37ba 5008
00000120: 97e4 9d3f ae46 fc3f 8fe7 f53f 0000 0000
00000130: 0400 0000 6cb5 973e e027 7429 7b2e f73f
00000140: 6d96 7c3f 243c a03f 9a72 3040 0400 0000
00000150: 23fa 4540 c135 8140 1ce0 0b40 683c 0d40
00000160: 0400 0000 0400 0000 ded1 1140 2e68 c03f
00000170: 0400 0000 d6c3 ec3f 91c7 553f 598e 5040
00000180: db4e 0c40 176f 6028 321b b640 e487 3340
00000190: 256e 8b2d 0a68 0d40 acff 1640 10c2 5a26
000001a0: cfb2 6b40 7f8b 9140 30b5 3e40 d76d a63f
000001b0: c782 8a30 eaa6 cc35 0000 0000 183e 1e40
000001c0: c642 fb3e af65 2e40 3983 ec36 f313 ce3e
000001d0: d8e0 7640 f9f7 d03a 4f44 c92e 0aee 3b3f
000001e0: 5ff6 bf3f bd17 343f 319b 8b3c 31e5 d43e
000001f0: 0400 0000 273a be3f 0400 0000 4ca2 1940

model.predict.predict.3.running_var f4 [128]
0.34936994 1.9113421e-22 1.07889035e-24 6e-45 1.836396 1.1348364 1.9414657 6e-45
0.25354326 1.6006854 0.19167101 0.2163254 0.1001099 2e-44 6e-45 0.01497044
0.010117666 6e-45 6.318272e-12 0.0001318476 1.0221386 0.8226226 0.9039269 0.00035917104
0.012649793 1.2800988 5.7448986e-19 0.4842919 1.0266991e-09 0.19028012 2.145789e-06 5.8817223e-10
8.306724e-05 3.3072793 0.8322909 0.45331857 0.75756025 0.4939587 0.18200602 6e-45
0.64326906 4.8744836e-23 0.0015686331 0.80354536 0.5638078 1.9293035 0.17756453 6e-45
0.67848563 0.9066207 1.9215539e-14 0.4670188 0.2061065 0.36602113 1.0206424 0.15327586
6e-45 0.4511976 2.8606255e-09 0.19694827 0.66430455 6e-45 9.143566e-09 6e-45
8.674176e-17 4.547421 6e-45 1.7272528e-08 0.33824125 1.9517162 2.8975554e-05 2.222552e-34
0.45205745 0.86721736 1.2549663 6e-45 6e-45 0.20063798 5.5427083e-15 0.783702
0.54277104 1.012449 0.81052923 6e-45 2.8882842 1.7078283 1.877158 1.3602326
6e-45 6e-45 1.4608848 0.9914083 6e-45 0.26751274 0.1931755 2.0433722
0.9899846 2.5296414e-16 5.622104 2.0131485 2.136904e-13 0.89509445 1.5901573 2.2440332e-15
1.1938481 2.8975306 2.0612621 0.70742685 1.7033413e-11 6.4310393e-07 6e-45 0.29165885
0.29337007 1.8162335 7.316881e-07 0.43457925 2.1188915 0.0007588454 8.164018e-12 0.4300379
0.33917373 0.43357915 0.012981313 0.18318807 6e-45 0.6443947 6e-45 0.64446753
00000000: 9ee0 b23e 2c11 671b 40f3 a617 0400 0000
00000010: 060f eb3f 5242 913f f381 f83f 0400 0000
00000020: 6cd0 813e 42e3 cc3f 6845 443e 6884 5d3e
00000030: 6b06 cd3d 0e00 0000 0400 0000 9446 753c
00000040: 91c4 253c 0400 0000 ef4d de2c 9240 0a39
00000050: 70d5 823f 6597 523f c167 673f 1f4f bc39
00000060: 1441 4f3c 47da a33f 3a8f 2921 1cf5 f73e
00000070: c31b 8d30 cbd8 423e 6000 1036 f1ac 2130
00000080: 6334 ae38 77aa 5340 0411 553f 5f19 e83e
00000090: 78ef 413f 28e8 fc3e c95f 3a3e 0400 0000
000000a0: 48ad 243f 2fb7 6b1a 989a cd3a 26b5 4d3f
000000b0: b555 103f 6bf3 f63f 7ad3 353e 0400 0000
000000c0: 3cb1 2d3f 4b18 683f 0414 ad28 171d ef3e
000000d0: 950d 533e 1f67 bb3e 69a4 823f 59f4 1c3e
000000e0: 0400 0000 5f03 e73e a894 4431 cfac 493e
000000f0: dd0f 2a3f 0400 0000 d415 1d32 0400 0000
00000100: 4c03 c824 7984 9140 0400 0000 b15e 9432
00000110: f52d ad3e d6d1 f93f 8710 f337 c3b6 9307
00000120: 1374 e73e f501 5e3f bca2 a03f 0400 0000
00000130: 0400 0000 0b74 4d3e 76b2 c727 b2a0 483f
00000140: 0bf3 0a3f ee97 813f d87e 4f3f 0400 0000
00000150: a6d9 3840 1e9a da3f b746 f03f 1a1c ae3f
00000160: 0400 0000 0400 0000 46fe ba3f efcc 7d3f
00000170: 0400 0000 6ef7 883e cccf 453e 9cc6 0240
00000180: a16f 7d3f ebd2 9125 47e8 b340 6dd7 0040
00000190: 1098 702a e924 653f 468a cb3f 1bb3 2127
000001a0: 04d0 983f 2471 3940 b8eb 0340 ed19 353f
000001b0: d6d3 952d c4a1 2c35 0400 0000 4f54 953e
000001c0: 9a34 963e 577a e83f 3969 4435 2c81 de3e
000001d0: eb9b 0740 41ed 463a 789f 0f2d ed2d dc3e
000001e0: 2ea8 ad3e 16fe dd3e 93af 543c a795 3b3e
000001f0: 0400 0000 0df7 243f 0400 0000 d3fb 243f
