checkpoints/GAT/best_f1_score/checkpoint1.pt (torch, 156441 bytes, 50 tensors)

model.gnn.gnn_layers.0.gat_conv.attn_l f4 [1, 8, 8]
0	0xbe8fb2a5	-0.28065982
1	0x3f50746e	0.8142766
2	0x3eb9520c	0.3619541
3	0x3cf2f444	0.02965749
4	0x3e6025e7	0.21889459
5	0xbe9e119f	-0.3087282
6	0xbd47d8a0	-0.048790574
7	0x3da5e944	0.081011325
8	0xbe9d9ba6	-0.30782813
9	0x3dfa20ce	0.12213288
10	0x3e1efeca	0.15526882
11	0xbe1ec0cc	-0.15503234
12	0xbeef8de2	-0.46787935
13	0x3df71cf6	0.12066071
14	0x3f1f9dca	0.6235014
15	0x3f3d66e6	0.73985136
16	0xbf0b3e76	-0.5439218
17	0xbec37a4e	-0.3817925
18	0x3e7e7335	0.24848635
19	0xbea93fd2	-0.33056504
20	0x3f376075	0.71631557
21	0xbe854811	-0.26031545
22	0x3dad2602	0.08454515
23	0x3debe108	0.11517531
24	0xbe012c61	-0.12614585
25	0xbdfdb3af	-0.123877876
26	0xbf19180f	-0.59802336
27	0x3ea08438	0.31350875
28	0x3e0b346e	0.13594219
29	0xbf11bea1	-0.569315
30	0xbedd1661	-0.43181136
31	0x3e2339ae	0.15939972
32	0x3eda3bec	0.42623842
33	0xbc632bfa	-0.013865465
34	0xbce31966	-0.027722072
35	0x3eea6095	0.4577681
36	0x3e2987cb	0.16555707
37	0x3e8e9f4a	0.27855903
38	0x3b7f49f6	0.0038953996
39	0x3eb99b60	0.36251354
40	0x3e51eca2	0.20500425
41	0xbe0cd421	-0.13752796
42	0xbefe8205	-0.49708572
43	0x3edc6d01	0.43051913
44	0xbf070a72	-0.52750313
45	0x3f1abe66	0.60446775
46	0xbea1f38c	-0.31631124
47	0xbee03a81	-0.43794635
48	0xbe2b3b7f	-0.16721915
49	0x3ed851b5	0.42249838
50	0xbdb9837a	-0.0905828
51	0x3e94041c	0.28909385
52	0x3b7f6985	0.0038972807
53	0xbe37f097	-0.17962871
54	0x3c160cdf	0.009158342
55	0x3e87a6f7	0.26494572
56	0xbf2156a5	-0.63022834
57	0x3ded8394	0.11597362
58	0x3e8eb90b	0.27875552
59	0xbe0bba9e	-0.13645408
60	0x3e0f3891	0.13986422
61	0x3e414cb5	0.18876918
62	0x3ede53e9	0.43423393
63	0xbd839e0f	-0.06426632

model.gnn.gnn_layers.0.gat_conv.attn_r f4 [1, 8, 8]
0	0x3e806ab9	0.25081423
1	0xbd1ff1dd	-0.03904902
2	0xba1e43cb	-0.00060373236
3	0xbeb8547e	-0.36001962
4	0xbd62f8de	-0.05541312
5	0x3e7b424c	0.24537009
6	0x3e85f41b	0.261628
7	0xbe3b0276	-0.18262658
8	0x3f07e474	0.53082967
9	0xbdb67b33	-0.08910217
10	0x3dd907c0	0.10597181
11	0xbe5670e5	-0.20941503
12	0x3efb662a	0.49101382
13	0xbe0a1c7c	-0.13487428
14	0xbf46f810	-0.77722263
15	0xbdf4f7b3	-0.119613074
16	0x3c89aca3	0.016805952
17	0x3d618319	0.055056665
18	0xbeb7e0bc	-0.35913646
19	0xbe1ef4cc	-0.1552307
20	0xbd09a379	-0.033603165
21	0x3eee73e2	0.46572787
22	0x3df7d5c8	0.121013224
23	0xbed69ad9	-0.41915014
24	0xbdf8fabc	-0.12157199
25	0xbe8c74e6	-0.27432936
26	0x3f1e01dc	0.6172159
27	0x3eea1049	0.4571555
28	0x3f0e03b1	0.5547438
29	0xbed1d588	-0.40983224
30	0xbee126df	-0.4397497
31	0xbcfd4eb2	-0.030921314
32	0x3e400f86	0.18755922
33	0x3ce97073	0.028496003
34	0x3f01348f	0.50470823
35	0xbe5fd8af	-0.21860002
36	0x3dc115e3	0.09428003
37	0x3d73781e	0.059440725
38	0xbeb0b111	-0.3451009
39	0x3e31b340	0.17353535
40	0xbef29702	-0.47380835
41	0x3f333bf0	0.7001333
42	0xbecd9f70	-0.40160704
43	0xbcc09f46	-0.023513447
44	0x3e413b27	0.18870221
45	0xbe7281d5	-0.2368234
46	0xbed23e05	-0.41062942
47	0x3ea02e71	0.31285432
48	0xbe9e38cc	-0.30902708
49	0xbee12d76	-0.43979996
50	0x3f0fdf22	0.5619985
51	0x3f14d3b9	0.58135563
52	0xbe851330	-0.259912
53	0xbd943159	-0.07235975
54	0xbf018d22	-0.50605977
55	0x3ed1b9a1	0.40961936
56	0xbec68323	-0.38771924
57	0xbcb5685d	-0.02214449
58	0x3f0db49e	0.55353725
59	0xbea6cf53	-0.3258005
60	0xbde980ff	-0.11401557
61	0x3e3bd7c9	0.18344034
62	0x3f36ae51	0.71359736
63	0xbcee1fcf	-0.029067902

model.gnn.gnn_layers.0.gat_conv.fc.weight f4 [64, 30]
0	0x3eb5dfad	0.35522214
1	0x3e888c6b	0.2666963
2	0xbea10a5e	-0.31453222
3	0x3e01e35a	0.12684384
4	0xbe0e7300	-0.13911057
5	0x3e26ff2e	0.16308281
6	0xbd74d290	-0.05977112
7	0x3c48dd87	0.0122598475
8	0xbd01ddfc	-0.03170584
9	0xbad35f2b	-0.0016126385
10	0xbd656cdc	-0.05601202
11	0x3dcb7f4f	0.099363916
12	0x3d59d68e	0.05318313
13	0x3e771003	0.24127202
14	0xbe30bcc2	-0.17259505
15	0xbf4ff687	-0.81235546
16	0x3e21bfcd	0.15795822
17	0xbde9f994	-0.114245564
18	0xbeb363cc	-0.35037076
19	0x3eebcd42	0.46055037
20	0x3e906cb0	0.28207922
21	0x3f1cbc82	0.6122514
22	0x3d132e83	0.03593303
23	0x3eafec35	0.343599
24	0x3d896c79	0.06710143
25	0xbe1254cf	-0.14290164
26	0x3ec0730b	0.3758777
27	0xbe29f7bd	-0.16598411
28	0xbeee56a6	-0.46550483
29	0x3e2870a3	0.16449217
30	0xbe3919d8	-0.18076265
31	0xbe083e50	-0.1330502
32	0xbd888755	-0.066664375
33	0xbe8909f5	-0.2676541
34	0xbe81e325	-0.2536861
35	0xbe3ef091	-0.18646456
36	0x3d5ec613	0.054388117
37	0x3ec30550	0.3808999
38	0xbe450a09	-0.1924211
39	0xbee68988	-0.45026803
40	0x3f3a11cd	0.7268341
41	0xbedd8264	-0.43263543
42	0x3cea9553	0.028635656
43	0xbe5af9c6	-0.21384344
44	0x3c79b6de	0.015241353
45	0x3e4a2f0c	0.1974451
46	0xbdd6f003	-0.10494997
47	0xbe8f77c6	-0.28021067
48	0x3edbd1f6	0.42933625
49	0xbf08bc3c	-0.5341222
50	0xbe9fd2b8	-0.31215453
51	0x3cdb7eb3	0.026793813
52	0xbe824e18	-0.25450206
53	0x3c87c349	0.016572611
54	0x3e430940	0.19046497
55	0x3e17cf6c	0.14825219
56	0xbd832dc1	-0.06405211
57	0xbe9c9f25	-0.30590168
58	0xbf1dcc94	-0.61640286
59	0x3da03bff	0.07823943
60	0xbd6e3e43	-0.058164846
61	0x3e8b549d	0.27212992
62	0xbda56168	-0.080752194
63	0xbd8e28c4	-0.06941369
64	0xbe86227b	-0.26198182
65	0xbe377d6f	-0.17918943
66	0x3d5882ee	0.05285924
67	0xbe97e113	-0.29663906
68	0xbe7278ec	-0.2367894
69	0xbbf6d6db	-0.007532937
70	0xbe25e6c4	-0.16201311
71	0x3d53ed0f	0.05173975
72	0xbea36227	-0.31910822
73	0x3ca97a2f	0.020688144
74	0xbc19a432	-0.009377526
75	0x3ea92dc5	0.33042732
76	0xbdc122aa	-0.0943044
77	0x3e3f82fb	0.18702309
78	0x3ebdc5fa	0.37065107
79	0x3d1c4019	0.038147066
80	0x3b78b40f	0.003794912
81	0xbdf42d96	-0.11922757
82	0x3e5a4d16	0.21318468
83	0x3e2a6e35	0.16643603
84	0x3e908992	0.28229958
85	0xbe3cc82c	-0.18435735
86	0x3dcaebe3	0.09908273
87	0x3eb563a9	0.35427597
88	0x3e55108c	0.20807093
89	0xbc03373e	-0.008008776
90	0x3c9e2c27	0.019308163
91	0x3d364180	0.04449606
92	0x3d417051	0.047226254
93	0x3ea27c9d	0.31735697
94	0xbdd5ee3f	-0.104458325
95	0xbe2779da	-0.16355076
96	0xbe29d06f	-0.16583417
97	0x3e652a5c	0.2237944
98	0x3e238c93	0.15971594
99	0xbed75314	-0.4205557
100	0x3cffcd0e	0.031225707
101	0x3cc81d20	0.02442795
102	0xbd7b42c7	-0.06134298
103	0x3d8f5624	0.06998852
104	0x3eb4034f	0.35158774
105	0x3db10f38	0.08645481
106	0x3d88f962	0.06688191
107	0xbe63b0fd	-0.22235484
108	0x3e8eb452	0.27871948
109	0x3d021e0c	0.031766936
110	0xbe6679b7	-0.22507368
111	0x3d942233	0.072330855
112	0x3e859bd6	0.26095456
113	0xbec81ab1	-0.39082864
114	0x3e503f77	0.2033671
115	0x3dd96e21	0.106167085
116	0xbdd60ec2	-0.104520336
117	0xbef5ef35	-0.48034063
118	0x3d51d656	0.051229797
119	0xbd9d0c9a	-0.07668419
120	0xbe12a780	-0.14321709
121	0x3d57c47d	0.05267762
122	0x3ddb94b2	0.10721721
123	0x3db8eef8	0.09029955
124	0xbcbb37ee	-0.022853818
125	0xbed5427c	-0.41652286
126	0xbe268eba	-0.16265383
127	0x3e69e435	0.2284096
128	0xbd000844	-0.031257883
129	0x3e492ccc	0.19645995
130	0x3e432d80	0.19060326
131	0xbe80deab	-0.25169882
132	0x3f138925	0.5763114
133	0x3e557f21	0.20849277
134	0xbe9bc74c	-0.3042549
135	0xbe0022c0	-0.12513256
136	0x3e3d12bf	0.18464182
137	0x3d7a88f8	0.06116578
138	0xbe1f62bb	-0.15565006
139	0x3d135e4f	0.03597861
140	0x3e53ba37	0.20676504
141	0x3e815611	0.25260976
142	0xbe1140ed	-0.14184923
143	0xbd17ace6	-0.037030123
144	0xbed7f9e5	-0.42182842
145	0x3eeb9613	0.46012935
146	0x3e86ed1e	0.2635278
147	0xbe54ad91	-0.20769335
148	0xbd63b464	-0.055591956
149	0x3eeac679	0.45854548
150	0x3e3510b1	0.17682149
151	0xbe736e3c	-0.2377252
152	0x3cdd5cfc	0.027021877
153	0xbed8ee2f	-0.4236922
154	0x3e6bdf77	0.23034464
155	0x3e843fbc	0.25829875
156	0x3d2d43e0	0.04230106
157	0xbe912957	-0.28351852
158	0xbdde1a26	-0.10844831
159	0xbd1d395e	-0.038384788
160	0x3d2fed8f	0.042951163
161	0x3de63402	0.112403885
162	0x3e4b7a48	0.19870865
163	0x3dcfb71c	0.10142347
164	0x3e82b32e	0.25527328
165	0x3da0655b	0.07831832
166	0x3e1d7e63	0.15380244
167	0x3e0a171d	0.1348538
168	0x3dee869b	0.11646768
169	0xbea0bd12	-0.3139425
170	0x3d546de0	0.051862597
171	0x3c2e1b60	0.010626644
172	0x3e2ebf98	0.17065275
173	0x3d8dcb7b	0.069235764
174	0xbd6fb604	-0.058523193
175	0xbd4e278e	-0.05033069
176	0xbee45e92	-0.446034
177	0xbdaf9584	-0.0857344
178	0xbdab2e2b	-0.08358415
179	0xbd988db9	-0.074489065
180	0xbe280dba	-0.16411486
181	0xbe9e4a5b	-0.30916104
182	0xbd57874c	-0.052619264
183	0x3d1a2c65	0.037639994
184	0xbf120ba8	-0.57049036
185	0x3d4658d5	0.04842456
186	0xbe605a27	-0.2190939
187	0xbdeaefad	-0.11471496
188	0xbeb9cb90	-0.36288118
189	0x3d9db2bf	0.07700109
190	0xbd89cf55	-0.067289986
191	0xbe5e792e	-0.21725914
192	0x3e7da664	0.24770504
193	0x3c117a3e	0.008879242
194	0x3eae0d62	0.33994585
195	0xbeb097e6	-0.3449089
196	0x3e14b7b7	0.14523207
197	0xbe00153c	-0.125081
198	0x3df727c4	0.120681316
199	0xbea405e7	-0.32035753
200	0x3d6118f1	0.054955427
201	0x3db57e35	0.08861963
202	0x3ebe3cba	0.37155706
203	0x3d384c8e	0.044994883
204	0x3ca0fb41	0.019651057
205	0xbee85ae7	-0.45381853
206	0x3d33fc12	0.043941565
207	0xbc84b16e	-0.016197886
208	0x3eb83273	0.3597599
209	0x3d310a43	0.043222677
210	0xbeaf659b	-0.34257206
211	0x3d6e7c02	0.05822373
212	0x3d2e8cae	0.04261463
213	0xbe9532b5	-0.2914025
214	0x3d7fdcac	0.06246631
215	0xbe41f2db	-0.18940298
216	0x3de87ad3	0.11351552
217	0x3e15f787	0.14645205
218	0x3ed58a2b	0.41706976
219	0xbc9cb29c	-0.019128136
220	0x3eac1c97	0.33615562
221	0x3e5a81a0	0.2133851
222	0xbe627bce	-0.2211754
223	0x3d942f72	0.07235612
224	0xbf07ab59	-0.5299583
225	0xbe50856e	-0.203634
226	0xbe53c148	-0.206792
227	0xbe4b9b3b	-0.19883434
228	0xbe8cfe82	-0.27537924
229	0xbdd4949a	-0.10379906
230	0xbd7a26a2	-0.061072
231	0xbc30f452	-0.010800438
232	0xbdd4d3c6	-0.10391955
233	0x3e3ca23a	0.1842126
234	0xbc912766	-0.017718982
235	0xbe3cf997	-0.18454586
236	0xbdbd66eb	-0.09248146
237	0x3ebd64f7	0.36991093
238	0xbc5770fa	-0.013149494
239	0x3d77491e	0.060372464
240	0x3ec3f0b3	0.38269576
241	0x3e32f438	0.17475975
242	0x3e96cffe	0.2945556
243	0x3f22fa15	0.63662845
244	0xbe9996ba	-0.29997808
245	0x3e509b6f	0.20371793
246	0xbe555fa5	-0.20837267
247	0xbe21f43e	-0.15815827
248	0x3da9ed96	0.08297269
249	0xbcf1073a	-0.029422391
250	0x3eea11f5	0.45716825
251	0x3f386924	0.7203543
252	0x3eaf0e14	0.34190428
253	0x3cc48a66	0.023991775
254	0xbe2ede7e	-0.17077062
255	0x3e47f2ea	0.19526258

model.gnn.gnn_layers.0.gat_conv.res_fc.weight f4 [64, 30]
0	0x3e6095cf	0.21932147
1	0xbe68d4aa	-0.22737375
2	0x3eeb8738	0.460016
3	0x3cf1555d	0.02945965
4	0x3ecdf3c9	0.40225056
5	0xbe72797d	-0.23679157
6	0xbe7c04d0	-0.24611211
7	0xbd357b76	-0.044307195
8	0x3edb8f54	0.42882788
9	0xbf0e2938	-0.55531645
10	0x3c0dcce6	0.008654809
11	0x3e3d144d	0.18464775
12	0x3ddc1509	0.107462
13	0xbb68ed87	-0.0035541968
14	0x3db576c2	0.08860542
15	0x3ed629c5	0.41828743
16	0x3e0c21f3	0.13684826
17	0x3e1afcdd	0.15135522
18	0x3e005ba2	0.12534955
19	0x3d241f0b	0.040068667
20	0x3accf3f4	0.0015636669
21	0xbe3e0331	-0.18555905
22	0xbe3cc33c	-0.18433851
23	0x3d842871	0.06453026
24	0xbd1721c4	-0.036897436
25	0x3eafb74c	0.34319532
26	0xbc84a034	-0.016189672
27	0xbe97a95b	-0.29621395
28	0xbe8d7261	-0.27626327
29	0xbdfa56d5	-0.12223593
30	0xbea06367	-0.31325838
31	0xbe5e6f1e	-0.21722075
32	0x3e5034f3	0.20332699
33	0x3e0cee6f	0.1376283
34	0xbed9df91	-0.4255338
35	0x3e4fd9b3	0.2029789
36	0x3e388396	0.18018946
37	0x3e71378c	0.23556346
38	0x3f02b926	0.51063764
39	0xbd3d3b42	-0.04619909
40	0xbe2cf858	-0.1689161
41	0xbcdac5b5	-0.026705602
42	0x3e60173d	0.21883865
43	0x3d3ff714	0.04686649
44	0x3e47131c	0.19440883
45	0x3e7f6789	0.2494184
46	0xbe576209	-0.21033491
47	0x3e989be4	0.29806435
48	0xbeaf9bdd	-0.34298602
49	0x3d5ff16e	0.054673605
50	0xbe3dfd52	-0.18553665
51	0xbb8c51f5	-0.004282231
52	0xbca75604	-0.020426758
53	0x3d58335e	0.052783363
54	0x3ec3c864	0.38238823
55	0xbe02c8f2	-0.12771967
56	0x3d1dcf10	0.03852755
57	0xbeca4674	-0.39506876
58	0x3e09498f	0.13406967
59	0xbe7a25eb	-0.24428527
60	0xbe00de57	-0.12584816
61	0x3f1c399f	0.6102542
62	0xbdde8b70	-0.10866439
63	0xbc06c4ed	-0.008225662
64	0xbea2499a	-0.3169678
65	0x3d63c7e3	0.05561055
66	0x3df6ece1	0.120569
67	0xbe98c31d	-0.2983636
68	0xbd221b0a	-0.039576568
69	0x3e76c44a	0.24098316
70	0x3e1512d7	0.14557968
71	0x3eb0188e	0.34393734
72	0x3d06acd8	0.03287968
73	0x3c4938e4	0.01228163
74	0x3ed2cf6e	0.4117388
75	0x3e76d432	0.24104384
76	0xbe48749b	-0.19575731
77	0xbc12ba34	-0.008955527
78	0x3e1192fe	0.1421623
79	0xbd823358	-0.06357449
80	0x3d1b17ce	0.0378645
81	0xbe84ebb2	-0.2596107
82	0x3e5048a1	0.20340206
83	0x3e4e1bd4	0.20127803
84	0x3de28ba7	0.11061793
85	0xbe5cb26b	-0.21552436
86	0xbe09bbc5	-0.13450535
87	0xbcc6b272	-0.024255011
88	0xbe0aca09	-0.13553633
89	0xbded9f0b	-0.11602601
90	0x3d4671ec	0.048448488
91	0xbd2ae1b9	-0.041719172
92	0xbe2e988f	-0.17050384
93	0xbe3f3dd9	-0.18675937
94	0xbcdf2841	-0.027240874
95	0xbd529d37	-0.051419463
96	0xbea8791c	-0.329049
97	0x3dd4223f	0.103580944
98	0x3ca3c7aa	0.019992668
99	0x3da8a63c	0.08234832
100	0x3d61618b	0.055024665
101	0xbe46d3f8	-0.19416797
102	0xbe32645b	-0.17421095
103	0x3d7054c2	0.05867458
104	0xbec865b8	-0.39140105
105	0x3dc7bb93	0.09752574
106	0x3e94bf7f	0.2905235
107	0xbed205a6	-0.41019934
108	0x3d52d49e	0.0514723
109	0x3d10be35	0.035337646
110	0xbd9c5f4c	-0.07635364
111	0x3ccab6e7	0.024745418
112	0xbe3c09e5	-0.1836315
113	0x3ed43dda	0.4145344
114	0x3ee5be46	0.4487173
115	0xbee76f52	-0.45202118
116	0x3e0be983	0.13663296
117	0xbdd0f7a5	-0.102034844
118	0x3d491d29	0.049100075
119	0xbdedd989	-0.11613757
120	0xbdafe899	-0.08589286
121	0xbe13f3d1	-0.14448477
122	0xbe30b477	-0.17256342
123	0xbe0fd3d2	-0.14045647
124	0x3e67c2ea	0.22632948
125	0xbec52f4c	-0.38512647
126	0xbe23b418	-0.15986669
127	0x3de491ae	0.11160599
128	0x3e8eed86	0.2791559
129	0x3db6374b	0.08897265
130	0x3dde0139	0.10840077
131	0xbecb7a2a	-0.3974164
132	0x3e8308eb	0.2559274
133	0xbe3591ed	-0.17731448
134	0x3be73ab4	0.0070565585
135	0x3d620036	0.055175982
136	0xbce5f5dc	-0.028071336
137	0x3c50390c	0.012708914
138	0xbdb1c0e5	-0.0867937
139	0x3dfbcc0a	0.12294777
140	0xbd76b51c	-0.060231313
141	0x3e4e5c50	0.20152402
142	0xbe24ef31	-0.1610687
143	0x3e3433d4	0.17597896
144	0x3c55ef9e	0.0130576175
145	0xbd17b190	-0.03703457
146	0xbdd69658	-0.104778945
147	0xbe19f3e6	-0.15034446
148	0x3ea55dcc	0.32298124
149	0x3d8c99f7	0.06865304
150	0xbd3974d2	-0.045277424
151	0x3d5a2d73	0.053266
152	0xbdf12783	-0.117751144
153	0x3dc61c79	0.096733995
154	0xbe61a0d1	-0.22034003
155	0x3e0aecfe	0.13566968
156	0xbdd3b478	-0.10337156
157	0xbe281c36	-0.16417012
158	0x3e0f86f1	0.1401632
159	0x3eb206e5	0.34770885
160	0x3e2a4360	0.16627264
161	0xbe919003	-0.28430185
162	0xbdc3e079	-0.09564299
163	0xbe5ba3bd	-0.2144918
164	0x3e263502	0.16231158
165	0x3e1545ca	0.14577404
166	0x3d5c74e7	0.053822424
167	0x3eb19b33	0.3468872
168	0xbe090ebe	-0.1338453
169	0xbe942602	-0.28935248
170	0xbe649812	-0.22323635
171	0xbddc3c35	-0.10753671
172	0x3de14ca5	0.11000947
173	0xbde8bccd	-0.11364136
174	0x3e0f416f	0.13989805
175	0xbf2d9c78	-0.6781688
176	0xbcd80659	-0.026370214
177	0x3e3beb2f	0.18351434
178	0xbe15e917	-0.14639698
179	0xbd50251d	-0.050816644
180	0x3d20fef7	0.039305653
181	0xbe534d9c	-0.20635074
182	0xbec2d42e	-0.38052505
183	0x3ed2da67	0.41182253
184	0xbe909e76	-0.28245896
185	0x3be1d64c	0.0068920013
186	0xbb93ece6	-0.0045143245
187	0xbe27505e	-0.16339251
188	0xbdd415b1	-0.103557
189	0x3cf3dc3f	0.029768107
190	0x3e82e21e	0.2556314
191	0x3ec79afe	0.38985437
192	0xbe634f68	-0.2219826
193	0xbe2d01d6	-0.16895232
194	0xbdd8eff5	-0.10592643
195	0x3eb970df	0.36218926
196	0xbd4ffb69	-0.050776873
197	0xbf01a4b6	-0.50641954
198	0x3e66613a	0.22498026
199	0x3e0c7bf0	0.13719153
200	0xbe8cf61a	-0.2753151
201	0x3e0b5910	0.13608193
202	0x3dc0a8c2	0.09407188
203	0xbe8e5291	-0.27797368
204	0x3d1d4900	0.038399696
205	0xbccb6456	-0.024828117
206	0xbec8b8fd	-0.39203635
207	0x3e4fe448	0.20301926
208	0xbe891761	-0.2677565
209	0x3cce4de7	0.025183631
210	0x3d3e8e17	0.046522226
211	0xbf17faac	-0.5936687
212	0x3d85bd01	0.0653019
213	0x3e0c820d	0.13721485
214	0x3ebf090e	0.37311596
215	0x3d8fdc83	0.07024481
216	0xbe0e9121	-0.1392255
217	0xbd9dc9a5	-0.07704476
218	0xbcf5dd0b	-0.030012628
219	0x3f018aec	0.506026
220	0xbdba72a6	-0.09103899
221	0x3e74005c	0.23828262
222	0xbd9225f1	-0.07136143
223	0x3ebb573a	0.36589986
224	0x3e001057	0.12506233
225	0x3e1af6fa	0.15133277
226	0x3e139e52	0.14415863
227	0x3ecc8eb9	0.3995264
228	0x3d58903f	0.05287194
229	0x3ee959cf	0.4557633
230	0x3dc64024	0.096802026
231	0x3e802554	0.2502848
232	0x3bfd4cf6	0.0077301217
233	0x3d4227ac	0.047401115
234	0x3ed3df10	0.4138112
235	0xbe101561	-0.14070655
236	0x3dc52ff9	0.09628291
237	0x3e457f7b	0.19286911
238	0x3e371edf	0.1788287
239	0x3d904d79	0.07046027
240	0xbd567451	-0.05235702
241	0xbde20682	-0.110363975
242	0x3efee0f5	0.49781004
243	0x3e381a41	0.17978765
244	0x3dedd838	0.11613506
245	0xbe1b6b66	-0.15177688
246	0xbe4a17b6	-0.19735608
247	0xbd570ea8	-0.05250421
248	0xbe6f3f43	-0.23363976
249	0xbd845811	-0.0646211
250	0xbe11d954	-0.1424306
251	0x3d12fa68	0.035883337
252	0xbeb6b396	-0.35683888
253	0x3e36faa1	0.17869045
254	0xbeca12cf	-0.39467475
255	0x3d72848d	0.05920844

model.gnn.gnn_layers.0.gat_conv.res_fc.bias f4 [64]
0	0x3d4ef884	0.05052997
1	0xbc07a80f	-0.008279814
2	0x3d1ffcc1	0.039059404
3	0xbd3cb282	-0.046068676
4	0x3d6c2f69	0.0576624
5	0xbd3aecc3	-0.04563595
6	0x3da0a469	0.07843859
7	0xbb52ddcd	-0.003217566
8	0x3bc6429d	0.0060504214
9	0x3ce2d938	0.027691469
10	0x3c2a80d3	0.010406691
11	0x3bd326dc	0.0064438414
12	0x3d4d3869	0.050102625
13	0xbc420def	-0.011844142
14	0x3cc1e4c8	0.023668662
15	0x3c1d5060	0.009601682
16	0xbc4ef6b6	-0.012632063
17	0x3c00836a	0.007843832
18	0xbb773c2a	-0.003772507
19	0xbcc25615	-0.023722688
20	0x3cb40789	0.02197625
21	0xbd006edd	-0.031355727
22	0x3d081c61	0.03323019
23	0x3cb1c872	0.021702025
24	0xbd477a26	-0.048700474
25	0x3bd186b7	0.006394233
26	0xbd3e59fb	-0.04647253
27	0xbd3b052f	-0.04565924
28	0x39c1ab91	0.00036939656
29	0xbdcb4ec8	-0.09927136
30	0x3b19cd10	0.0023468174
31	0x3cc99f00	0.02461195
32	0xbcdb24ac	-0.026750885
33	0x3cb390bc	0.0219196
34	0x3cfac85d	0.030613119
35	0x3c852851	0.016254576
36	0x3d519171	0.051164094
37	0x3b7a5478	0.003819732
38	0x3d82fec9	0.06396253
39	0x3d44ad8c	0.04801707
40	0xbccd0352	-0.025025997
41	0xbaecec8f	-0.0018075871
42	0x3d0caecb	0.034346383
43	0xbd1bc9a8	-0.03803411
44	0x3c832f45	0.01601375
45	0x3c348137	0.011017135
46	0x3d731ead	0.059355427
47	0xbc95f044	-0.018303044
48	0x3c22b740	0.0099313855
49	0x3d7451df	0.05964839
50	0x3d10f057	0.035385456
51	0xbd450d32	-0.048108287
52	0x3d106daa	0.035260834
53	0xbd8f24d3	-0.069894455
54	0x3d55fdd8	0.052244037
55	0x3d9be78f	0.07612526
56	0xbd0a0f78	-0.03370616
57	0x3c94c070	0.018158168
58	0xbd552716	-0.05203923
59	0xbcfea14a	-0.031082768
60	0x3d95a125	0.073061265
61	0x3d9e2b26	0.07723074
62	0xbc350de9	-0.01105068
63	0x3cc124fc	0.023577206

model.gnn.gnn_layers.1.gat_conv.attn_l f4 [1, 8, 8]
0	0xbe86c0c7	-0.26318952
1	0xbe9bad83	-0.30405816
2	0x3caa4063	0.020782655
3	0xbe09a92a	-0.13443437
4	0xbe8c57b7	-0.2741067
5	0xbd6ed2ba	-0.058306433
6	0x3e85ca38	0.26130843
7	0xbf605306	-0.87626684
8	0xbf28b7f0	-0.65905666
9	0xbf24cae5	-0.6437209
10	0x3e305f53	0.17223863
11	0xbccb8b0d	-0.024846578
12	0x3f050074	0.51953816
13	0x3f199ebf	0.6000785
14	0x3e7ba098	0.2457298
15	0xbd806e61	-0.06271053
16	0x3ecd179d	0.40057078
17	0xbf39f728	-0.72642756
18	0xbe4ca499	-0.19984664
19	0xbecf8d5f	-0.40537545
20	0x3e4ae9e6	0.19815788
21	0x3cd5fd0b	0.026121637
22	0x3f07a61c	0.5298784
23	0xbf0fe66a	-0.5621096
24	0xbe8d298e	-0.27570766
25	0x3ef5824e	0.47950977
26	0xbed137e2	-0.40862948
27	0xbb9df9bc	-0.0048210304
28	0x3f13a245	0.5766948
29	0xbef47b0c	-0.47750127
30	0x3f57125d	0.84012395
31	0x3950bfd1	0.00019907883
32	0xbe8eacbf	-0.2786617
33	0x3e85db94	0.26144087
34	0xbee23d32	-0.44187313
35	0x3eb818c6	0.359564
36	0x3e1b0dd1	0.1514199
37	0xbf3ce49a	-0.7378632
38	0x3e41b090	0.1891501
39	0xbcc17872	-0.023617003
40	0x3eb3a97b	0.3509024
41	0x3f07ef1a	0.53099215
42	0xbee15ac9	-0.44014576
43	0xbef970c1	-0.48718837
44	0x3de70e12	0.112819806
45	0x3e5d8099	0.21631087
46	0xbeab354b	-0.33439097
47	0xbea2a7c5	-0.31768623
48	0x3e6031e4	0.21894032
49	0x3ee63dab	0.44968924
50	0xbe8d2fa3	-0.27575406
51	0xbd3d952b	-0.046284836
52	0xbecec4bf	-0.4038448
53	0x3eb7bc05	0.35885635
54	0xbbe1d392	-0.006891676
55	0xbd8eb337	-0.06967776
56	0x3de14726	0.109998986
57	0xbe79e521	-0.24403812
58	0x3ea99115	0.331185
59	0x3e81c0cc	0.25342405
60	0x3d99794a	0.07493837
61	0x3e083494	0.13301307
62	0x3e85d671	0.26140168
63	0x3f90b124	1.1304059

model.gnn.gnn_layers.1.gat_conv.attn_r f4 [1, 8, 8]
0	0x3ed631cb	0.41834864
1	0xbc980bca	-0.018560309
2	0xbe8cffd7	-0.2753894
3	0x3e266861	0.16250755
4	0xbed533ff	-0.41641232
5	0x3ee28a0c	0.44245946
6	0x3e88657e	0.26639932
7	0xbe8c70bd	-0.27429762
8	0xbebedfbb	-0.37280068
9	0x3f469d4d	0.7758377
10	0xbd8cc26f	-0.06873023
11	0xbd9861bc	-0.07440516
12	0xbf0389cc	-0.51382136
13	0xbe1e597d	-0.15463825
14	0x3cdf2cc7	0.027243031
15	0xbdfebeb9	-0.12438721
16	0xbeb6a658	-0.35673785
17	0x3a67bfec	0.0008840549
18	0xbeab1acc	-0.33418882
19	0x3ecfe8b0	0.40607214
20	0x3e48a43e	0.19593903
21	0xbee214b3	-0.44156417
22	0x3e565191	0.20929553
23	0x3e9f476d	0.3110918
24	0xbec49b48	-0.3839972
25	0xbe155089	-0.14581503
26	0x3dec94c0	0.11551809
27	0x3d5e3b50	0.054255784
28	0xbce0fb4c	-0.027463578
29	0x3e6cd7c4	0.23129183
30	0x3e86e067	0.2634308
31	0xbcf556a3	-0.029948538
32	0xbec6c2d6	-0.38820523
33	0xbf0b83dc	-0.54498076
34	0xba84a233	-0.001011914
35	0x3f11769e	0.5682162
36	0xbe21f621	-0.15816547
37	0xbec6c7ad	-0.38824216
38	0xbe9e27dd	-0.30889788
39	0x3cd02330	0.025407404
40	0x3cfc688f	0.030811576
41	0x3e1784f8	0.14796817
42	0xbe82292f	-0.25422046
43	0x3f0a1bbe	0.5394858
44	0x3e3ff1db	0.18744604
45	0xbe4594cf	-0.19295047
46	0x3de2b8bd	0.11070392
47	0x3c4a1f3e	0.01233655
48	0x3e11cf0b	0.14239137
49	0xbf0e43a7	-0.5557198
50	0x3e3f51a6	0.1868349
51	0xbd832ea6	-0.06405382
52	0x3c94ec80	0.018179178
53	0xbe071e5b	-0.13195173
54	0xbf16267c	-0.5865247
55	0x3bff72f3	0.0077956854
56	0x3e3c581e	0.18392989
57	0x3e57a07d	0.21057315
58	0xbc78a8f1	-0.0151769975
59	0xbe168aa4	-0.14701325
60	0x3f0d3abe	0.5516776
61	0xbe7bfeff	-0.24608992
62	0x3e168d3b	0.14702313
63	0xbec1fdc2	-0.37888914

model.gnn.gnn_layers.1.gat_conv.bias f4 [64]
0	0x3ce86aca	0.028371233
1	0x3d0e5afb	0.034754734
2	0x3c6940b6	0.01423662
3	0xbcc24c32	-0.023717973
4	0x3e065936	0.13119969
5	0xbd3d9ea2	-0.046293862
6	0xbb71cbaf	-0.0036895087
7	0x3beb2d51	0.007177033
8	0x3ce86aca	0.028371233
9	0x3d0e5afb	0.034754734
10	0x3c6940b6	0.01423662
11	0xbcc24c32	-0.023717973
12	0x3e065936	0.13119969
13	0xbd3d9ea2	-0.046293862
14	0xbb71cbaf	-0.0036895087
15	0x3beb2d51	0.007177033
16	0x3ce86aca	0.028371233
17	0x3d0e5afb	0.034754734
18	0x3c6940b6	0.01423662
19	0xbcc24c32	-0.023717973
20	0x3e065936	0.13119969
21	0xbd3d9ea2	-0.046293862
22	0xbb71cbaf	-0.0036895087
23	0x3beb2d51	0.007177033
24	0x3ce86aca	0.028371233
25	0x3d0e5afb	0.034754734
26	0x3c6940b6	0.01423662
27	0xbcc24c32	-0.023717973
28	0x3e065936	0.13119969
29	0xbd3d9ea2	-0.046293862
30	0xbb71cbaf	-0.0036895087
31	0x3beb2d51	0.007177033
32	0x3ce86aca	0.028371233
33	0x3d0e5afb	0.034754734
34	0x3c6940b6	0.01423662
35	0xbcc24c32	-0.023717973
36	0x3e065936	0.13119969
37	0xbd3d9ea2	-0.046293862
38	0xbb71cbaf	-0.0036895087
39	0x3beb2d51	0.007177033
40	0x3ce86aca	0.028371233
41	0x3d0e5afb	0.034754734
42	0x3c6940b6	0.01423662
43	0xbcc24c32	-0.023717973
44	0x3e065936	0.13119969
45	0xbd3d9ea2	-0.046293862
46	0xbb71cbaf	-0.0036895087
47	0x3beb2d51	0.007177033
48	0x3ce86aca	0.028371233
49	0x3d0e5afb	0.034754734
50	0x3c6940b6	0.01423662
51	0xbcc24c32	-0.023717973
52	0x3e065936	0.13119969
53	0xbd3d9ea2	-0.046293862
54	0xbb71cbaf	-0.0036895087
55	0x3beb2d51	0.007177033
56	0x3ce86aca	0.028371233
57	0x3d0e5afb	0.034754734
58	0x3c6940b6	0.01423662
59	0xbcc24c32	-0.023717973
60	0x3e065936	0.13119969
61	0xbd3d9ea2	-0.046293862
62	0xbb71cbaf	-0.0036895087
63	0x3beb2d51	0.007177033

model.gnn.gnn_layers.1.gat_conv.fc.weight f4 [64, 64]
0	0xbea2d709	-0.31804684
1	0x3d910b2a	0.070822075
2	0xbe44b0aa	-0.19208017
3	0xbe276180	-0.16345787
4	0xbade7d04	-0.0016974513
5	0xbb6bb09c	-0.0035963422
6	0x3e78fd32	0.24315336
7	0xbdb62bed	-0.08895097
8	0xbdde565a	-0.10856314
9	0xbddab4a7	-0.10678988
10	0x3c8df6a1	0.017329516
11	0xbe6c7fbe	-0.23095605
12	0xbd9177e5	-0.07102946
13	0x3d95e40a	0.073188856
14	0xbc25c335	-0.010117342
15	0xbd19be4d	-0.037535
16	0x3dea0172	0.11426057
17	0x3e3aeef2	0.18255213
18	0x3dd7cc0a	0.10536964
19	0x3e968c1a	0.29403764
20	0xbe4c484d	-0.19949456
21	0xbded12c4	-0.11575845
22	0xbebb120b	-0.36537203
23	0xbda53774	-0.080672175
24	0xbdb64850	-0.08900511
25	0x3d49791f	0.049187776
26	0xbe5969d1	-0.21231772
27	0x3d55a1f0	0.05215639
28	0xbe8d1e9d	-0.2756242
29	0xbee0e68a	-0.43925887
30	0x3e37e579	0.1795863
31	0xbe2d48c0	-0.16922283
32	0x3e583b05	0.21116264
33	0x3b520937	0.003204895
34	0x3d91a61f	0.07111763
35	0xbd9f8ccd	-0.077905275
36	0x3ccb2a6d	0.024800504
37	0xbddeb517	-0.10874384
38	0xbe3d4e2c	-0.18486851
39	0xbe24c810	-0.16091943
40	0x3e53e8ab	0.20694225
41	0x3de6f6e2	0.11277558
42	0x3d54d2f6	0.051959
43	0x3b18e737	0.0023331174
44	0xbc8c2553	-0.017107641
45	0xbebea835	-0.37237707
46	0x3c8bd074	0.017067172
47	0x3e8601c8	0.26173234
48	0x3e051c6d	0.12999125
49	0xbe0a9fa3	-0.13537459
50	0x3e38058a	0.17970863
51	0x3db996e7	0.090619855
52	0xbe6faa85	-0.23404892
53	0x3cf1cdf8	0.029517159
54	0xbe810fab	-0.25207266
55	0xbcf1e4da	-0.02952807
56	0xbd67d21f	-0.05659687
57	0x3e02a1d7	0.1275705
58	0x3e4279e3	0.18991809
59	0x3d2a47b4	0.041572288
60	0xbd7459be	-0.059655897
61	0x3d67de47	0.056608465
62	0x3d9bea0a	0.07612999
63	0xbdc17d05	-0.09447674
64	0xbdf3b97d	-0.119006135
65	0xbdb17464	-0.08664778
66	0xbdd5ffc6	-0.104491755
67	0xbc060694	-0.008180279
68	0xbdf5ce82	-0.12002279
69	0xbdbdb9dc	-0.092639655
70	0x3dfe11c7	0.124057345
71	0x3d496a04	0.04917337
72	0xbe1b8754	-0.15188342
73	0xbd30bbc9	-0.043147836
74	0x3eb4f54c	0.35343397
75	0x3dd9ef4e	0.10641347
76	0x3cdbdaae	0.026837673
77	0x3ec38d00	0.38193512
78	0xbc4b0871	-0.012392149
79	0x3e6851a8	0.226874
80	0xbc522958	-0.01282724
81	0xbd1877fa	-0.037223794
82	0x3db4fbea	0.08837111
83	0x3e09a54f	0.13441966
84	0x3debaad3	0.115071915
85	0x3da4d4e2	0.08048417
86	0x3d73de8d	0.059538413
87	0xbda598e5	-0.08085803
88	0xbb8ac233	-0.004234576
89	0x3e1a7531	0.15083767
90	0x3b854324	0.0040668417
91	0xbe543a38	-0.20725334
92	0xbd04024e	-0.03222876
93	0x3e118325	0.14210184
94	0x3d90d83a	0.07072492
95	0xbd1761d2	-0.036958523
96	0xbe351a31	-0.17685772
97	0xbdc49711	-0.09599126
98	0x3ec12315	0.37722078
99	0x3e9a4288	0.30128884
100	0xbe8fe320	-0.2810297
101	0xbef024a6	-0.4690296
102	0x3e25790a	0.16159454
103	0x3d948590	0.072520375
104	0xbece8c06	-0.40341204
105	0xbe2a732d	-0.16645499
106	0xbe45b307	-0.19306575
107	0xbd00ca69	-0.031443033
108	0x3e066c79	0.13127317
109	0x3e0e81c8	0.13916695
110	0x3df55c81	0.11980534
111	0x3dfcece0	0.12349868
112	0x3d516c78	0.051128834
113	0xbe38ce0e	-0.18047354
114	0x3ec6ad00	0.38803864
115	0xbee1cb87	-0.44100592
116	0xbe6e293e	-0.2325792
117	0x3c69b84e	0.014265133
118	0x3e37a552	0.17934158
119	0xbd55fff0	-0.052246034
120	0xbea21d68	-0.3166306
121	0x3e7919d6	0.24326262
122	0x3dc6d70a	0.09708984
123	0x3e54460e	0.20729849
124	0x3cc670e6	0.024223756
125	0x3e55fc6c	0.20897073
126	0x3d4a49f9	0.049386952
127	0x3e2aab44	0.16666895
128	0xbca0be6b	-0.019622048
129	0x3e378952	0.17923477
130	0xbe516116	-0.20447192
131	0xbe42c974	-0.19022161
132	0x3d362d6e	0.04447692
133	0xbd2a4bd6	-0.04157623
134	0xbe038c17	-0.12846409
135	0x3bbab7cc	0.00569818
136	0x3d95d96b	0.0731686
137	0xbe433cd3	-0.19066171
138	0x3dfd1a35	0.12358514
139	0xbddacf2a	-0.10684045
140	0x3d5c330e	0.053759627
141	0xbe6a8624	-0.22902733
142	0x3d93874b	0.072035395
143	0xbd9a29ef	-0.075275294
144	0xbd6c47fc	-0.057685837
145	0x3e1c9eef	0.15295003
146	0xbed4af24	-0.41539872
147	0x3e8d5aa4	0.27608216
148	0x3e540b2f	0.20707391
149	0xbc85f108	-0.016350284
150	0xbd95e06a	-0.07318194
151	0xbd422284	-0.047396198
152	0x3bc4fd75	0.0060116597
153	0x3e85e66c	0.2615236
154	0xbe1df84e	-0.15426752
155	0xbe1606b7	-0.14650999
156	0xbc674e78	-0.0141178295
157	0xbe22f43e	-0.15913484
158	0xbc378408	-0.011200912
159	0xbe87b4f6	-0.2650525
160	0xbc97a064	-0.018509097
161	0xbdbb52f8	-0.091466844
162	0x3b669ddd	0.0035189309
163	0xbe180ee4	-0.1484943
164	0xbdcd4d89	-0.10024554
165	0x3de6a264	0.11261442
166	0x3e2bf4b5	0.16792567
167	0x3da3731f	0.07980942
168	0xbe0bb2c4	-0.13642412
169	0x3dbc7137	0.092012815
170	0x3c846188	0.016159788
171	0xbe19a05c	-0.15002578
172	0x3e30e14f	0.17273448
173	0x3bdfa4eb	0.0068250797
174	0x3becf3ae	0.0072311973
175	0x3e69c7f2	0.2283018
176	0x3e28e332	0.16492918
177	0xbb70f95a	-0.003676972
178	0x3a09718e	0.0005243056
179	0x3df3b15e	0.118990645
180	0x3dea3cf4	0.11437407
181	0x3f0d42bc	0.55179954
182	0x3d84d0e3	0.064851545
183	0xbe64bc93	-0.2233756
184	0x3e9fee62	0.3123656
185	0xbe3fa840	-0.18716526
186	0xbded56df	-0.11588835
187	0x3dd3c4d0	0.103402734
188	0x3e846bd8	0.25863528
189	0x3e20759a	0.15669861
190	0xbea69f53	-0.3254343
191	0x3e2f54cd	0.17122193
192	0x3e6531eb	0.22382323
193	0x3de85235	0.11343805
194	0xbe907b6f	-0.28219172
195	0xbda580ae	-0.08081184
196	0x3dbe2685	0.09284691
197	0xbc346562	-0.0110105
198	0xbcba0795	-0.022708694
199	0x3dc247b9	0.09486336
200	0xbda6169e	-0.08109783
201	0xbe1184e8	-0.14210856
202	0x3df0c29b	0.11755868
203	0xbdbc545d	-0.091957785
204	0x3c5b3a68	0.013380624
205	0xbe90b2b3	-0.28261337
206	0x3d8c58a2	0.06852843
207	0xbeadd3ef	-0.33950755
208	0xbd9543d1	-0.072883256
209	0x3db5136c	0.08841595
210	0xbe0310fc	-0.12799448
211	0xbe368103	-0.17822652
212	0x3e437ec4	0.19091326
213	0x3e742e33	0.23845749
214	0x3e3e128d	0.18561764
215	0xbeec1bfb	-0.46115097
216	0xbcfb5912	-0.03068212
217	0x3cb9ff96	0.02270488
218	0xbd233e6e	-0.03985446
219	0x3ce64510	0.028109103
220	0xbd90b41e	-0.070656046
221	0xbe9568e7	-0.29181597
222	0x3c0bfc93	0.008544105
223	0xbda11568	-0.07865411
224	0x3b078eea	0.0020684549
225	0xbeb8cbe9	-0.3609307
226	0x3d55845e	0.05212819
227	0xbe22178e	-0.15829298
228	0xbe8a7642	-0.2704335
229	0xbd44c2ce	-0.048037343
230	0xbde5e861	-0.112259634
231	0x3e03872b	0.12844531
232	0xbcd45820	-0.025920928
233	0xbdba6520	-0.09101319
234	0xbcb29326	-0.021798681
235	0xbda75a0e	-0.081714734
236	0xbe1f321f	-0.15546463
237	0xbe52a15a	-0.20569363
238	0x3df6c4be	0.12049244
239	0x3b0f51b5	0.002186877
240	0x3e272eef	0.16326497
241	0x3df71aa5	0.12065629
242	0x3e8889bb	0.2666758
243	0x3ea58e8a	0.3233531
244	0x3de1defb	0.11028858
245	0x3edc8a44	0.43074238
246	0x3cfb542a	0.030679781
247	0x3d61b055	0.055099804
248	0xbe290a9c	-0.16507953
249	0x3e6f8582	0.23390773
250	0x3dd4695c	0.10371658
251	0x3e29b80b	0.16574113
252	0x3dbeabe2	0.09310128
253	0x3da8bdb2	0.082393065
254	0x3e9f4ae7	0.31111833
255	0xbe3202bb	-0.17383854

model.readout.weight_and_sum.atom_weighting.0.weight f4 [1, 8]
0	0xbdd1dc3f	-0.10247087
1	0xbec1a2f9	-0.3781965
2	0xbf058ba7	-0.5216622
3	0xbe5f1921	-0.2178693
4	0xbe9cb20e	-0.30604595
5	0x3ea1f978	0.31635642
6	0x3e3beaec	0.18351334
7	0xbe6dbfb9	-0.23217668

model.predict.predict.1.weight f4 [128, 16]
0	0xbe4dc26b	-0.20093696
1	0xbd976440	-0.07392168
2	0x3dc2d917	0.09514063
3	0x3e3994b3	0.1812313
4	0xbe88ce89	-0.26720074
5	0xbe4e3fd3	-0.20141535
6	0xbdcf48ff	-0.10121345
7	0xbdf656e0	-0.12028289
8	0x3e2dea66	0.16983947
9	0x3e232489	0.15931906
10	0xbdbe432e	-0.09290157
11	0xbe20ddc0	-0.15709591
12	0xbe591fe8	-0.21203578
13	0x3e83cc1f	0.2574167
14	0xbda1b7d4	-0.078963906
15	0x3e3a1c38	0.18174827
16	0x3deb88f0	0.11500728
17	0x3d8f6b2c	0.07002863
18	0x3e321dfc	0.1739425
19	0x3e07ebad	0.13273497
20	0xbe213d99	-0.15746154
21	0x3de4a7c4	0.11164811
22	0x3e8f3062	0.279666
23	0x3cfab190	0.030602247
24	0xbdcc8e0d	-0.099880315
25	0x3d3502e0	0.044192195
26	0xbe3c5c0c	-0.18394488
27	0xbd5625bf	-0.05228209
28	0xbd16b041	-0.036789183
29	0xbd823d46	-0.06359343
30	0x3d35a05d	0.044342387
31	0xbe98abc7	-0.29818556
32	0x3e54650c	0.20741671
33	0xbd404b5c	-0.04694687
34	0xbdddf825	-0.108383454
35	0xbd3d0c20	-0.04615414
36	0xbe416285	-0.18885238
37	0x3d1a4e2a	0.0376722
38	0x3ce4ce78	0.027930483
39	0x3d326f05	0.043562908
40	0x3e7bbf11	0.24584605
41	0x3e3ee703	0.18642811
42	0xbd832ea1	-0.06405378
43	0xbe1b64f0	-0.15175223
44	0x3e6fd17d	0.23419757
45	0x3d735523	0.059407365
46	0xbe82ce3b	-0.25547966
47	0x3e11511e	0.141911
48	0x3e280214	0.16407043
49	0xbe7c6cbf	-0.24650858
50	0xbe380456	-0.17970404
51	0x3d392150	0.045197785
52	0xbe61a889	-0.22036947
53	0xbe4fe77a	-0.20303145
54	0x3d73a7d1	0.059486214
55	0xbe6d4eeb	-0.23174636
56	0xbd14795c	-0.03624855
57	0xbc699278	-0.014256112
58	0x3e3e3550	0.18575025
59	0xbe4c6004	-0.19958502
60	0x3e4b765d	0.19869371
61	0xbcfcde42	-0.0308677
62	0x3c09164c	0.008367132
63	0xbdb567fb	-0.08857723
64	0xbd42ed52	-0.047589608
65	0xbe27d1d4	-0.16388637
66	0xbcb145de	-0.02163976
67	0x3c971429	0.01844223
68	0x3e8c7f3c	0.27440822
69	0xbe626f38	-0.22112739
70	0x3e5a66b4	0.2132824
71	0xbe14a60c	-0.14516467
72	0xbde48a2b	-0.11159166
73	0x3e7b24b9	0.24525727
74	0xbe6f1151	-0.2334645
75	0xbd14be40	-0.03631425
76	0x3d8a9dbb	0.06768366
77	0x3daebf6d	0.08532605
78	0x3e2078b8	0.1567105
79	0xbd7532d3	-0.059862923
80	0x3cba670c	0.022754215
81	0x3d6b0a4c	0.057382867
82	0x3da42fce	0.080169305
83	0xbe13f810	-0.14450097
84	0xbe7e48a7	-0.24832402
85	0x3e25b62b	0.16182773
86	0x3b63ec57	0.003477832
87	0x3dbdb600	0.09263229
88	0xbe23cf42	-0.15997031
89	0x3db33618	0.08750552
90	0xbe89140d	-0.2677311
91	0xbd8ebbe4	-0.06969431
92	0xbd9f6b5b	-0.07784148
93	0x3e546151	0.20740248
94	0x3d62df11	0.055388514
95	0x3e1e0662	0.15432122
96	0x3e49e27b	0.19715302
97	0xbe741685	-0.23836716
98	0xbd8f142b	-0.069862686
99	0xbdb6ba5d	-0.08922265
100	0xbe154254	-0.14576083
101	0xbd96c272	-0.07361306
102	0xbe437030	-0.19085765
103	0xbdcae67b	-0.09907242
104	0xbe18103c	-0.14849943
105	0xbe3c1463	-0.18367152
106	0xbc9005cc	-0.01758089
107	0xbe68ed91	-0.22746874
108	0x3cc83ac1	0.024442079
109	0x3e6da91a	0.23209038
110	0x3e5f9b11	0.21836497
111	0x3d6dabf7	0.058025327
112	0x3c90fc17	0.01769833
113	0x3e65ed81	0.22453882
114	0x3dfe21fa	0.12408824
115	0x3deb43d4	0.114875466
116	0x3e01f26b	0.12690131
117	0xbda4a329	-0.08038933
118	0xbe71c509	-0.23610319
119	0x3c1bf57d	0.009518978
120	0x3db5d9be	0.08879422
121	0xbda58fe3	-0.08084085
122	0x3e91f2ad	0.2850546
123	0x3d9dfd8d	0.077143766
124	0x3e8cd34b	0.27504954
125	0xbd9383e2	-0.07202889
126	0xbe999df6	-0.30003327
127	0xbdc3dda4	-0.09563759
128	0x3ea86bd4	0.32894766
129	0xbcc6fee0	-0.024291456
130	0xbe11f12c	-0.14252156
131	0xbe5e29ab	-0.21695583
132	0xbc0e9fe2	-0.008705111
133	0x3e4f0d25	0.20219858
134	0xbdf8f5c6	-0.121562526
135	0xbdd47687	-0.1037417
136	0xbd590ee6	-0.052992724
137	0x3e4c9549	0.19978823
138	0x3e643bcb	0.22288434
139	0xbdbdc094	-0.09265247
140	0x3e310cf9	0.17290105
141	0xbd29cce6	-0.041455172
142	0x3e66666b	0.22500007
143	0xbe37f289	-0.17963614
144	0xbcd1e35e	-0.025621112
145	0x3e51b5ba	0.2047948
146	0xbd3e4a07	-0.046457317
147	0x3e634b6d	0.22196741
148	0x3e800d2b	0.25010046
149	0x3e7dc3c2	0.24781707
150	0xbe4eb423	-0.20185904
151	0xbe50ed64	-0.20403057
152	0x3e5a998b	0.21347634
153	0xbd88f731	-0.06687773
154	0x3dea0526	0.11426763
155	0x3ee64e74	0.4498173
156	0xbc94a2a0	-0.018143952
157	0x3e8d5ccd	0.27609864
158	0x3e17a234	0.1480797
159	0x3d5713fb	0.05250929
160	0xbe4f2347	-0.20228301
161	0xbe6d82ec	-0.23194474
162	0xbdbd58e3	-0.092454694
163	0x3d8f7630	0.07004964
164	0xbe9a81a9	-0.30177048
165	0xbe1eb337	-0.15498053
166	0xbe19d7df	-0.15023755
167	0xbe13748e	-0.14399931
168	0xbdf9f97d	-0.12205789
169	0xbe90c54c	-0.28275526
170	0xbdfd12f7	-0.12357133
171	0xbd8d6f7f	-0.06906032
172	0xbc58b4a1	-0.013226659
173	0xbd98274f	-0.074293725
174	0xbe774069	-0.24145664
175	0xbd18be10	-0.037290633
176	0x3e52f241	0.20600225
177	0x3e50e16d	0.20398493
178	0xbda8bf1c	-0.08239576
179	0x3e2320dc	0.15930504
180	0xbe42a3ac	-0.19007748
181	0xbd95577f	-0.07292079
182	0x3e594285	0.21216781
183	0x3d0ac102	0.033875473
184	0x3e0482a9	0.12940468
185	0xbc9ffe48	-0.01953043
186	0x3ca10ae2	0.01965851
187	0x3dba89d0	0.09108317
188	0x3e43cd6b	0.1912133
189	0xbe291320	-0.16511202
190	0x3dd6fb44	0.10497144
191	0xbd488a90	-0.04896027
192	0x3d7f793f	0.06237149
193	0xbeca8102	-0.3955155
194	0x3e811be1	0.25216582
195	0xbd8779e8	-0.06615049
196	0x3c35078c	0.011049163
197	0x3e32aa2d	0.1744773
198	0x3e172f30	0.14764094
199	0x3d84ac27	0.06478148
200	0xbda5f700	-0.08103752
201	0x3bbe4e37	0.005807664
202	0x3e29158f	0.1651213
203	0xbd25d39e	-0.040485017
204	0xbe72b6c6	-0.23702535
205	0x3dbab09e	0.09115718
206	0xbe1d7666	-0.15377197
207	0xbe285c4d	-0.1644146
208	0xbdd12e2f	-0.10213887
209	0xbe124da5	-0.14287432
210	0x3dad27ea	0.08454879
211	0xbe8af580	-0.27140427
212	0x3e3092c8	0.17243493
213	0x3e87a152	0.26490265
214	0xbdf4e815	-0.11958329
215	0xbc5e410f	-0.013565316
216	0x3d79e7c9	0.061012063
217	0x3b463f00	0.0030249953
218	0xbdbc0b1d	-0.09181807
219	0xbe011f81	-0.12609674
220	0x3e027e88	0.1274358
221	0x3cc7e2e0	0.024400175
222	0xbe93db06	-0.2887804
223	0x3ce6c5ba	0.028170455
224	0x3dbe57f2	0.09294118
225	0xbce7f501	-0.02831507
226	0xbe0ed7c5	-0.13949497
227	0xbde207b5	-0.11036626
228	0x3e0ad2d5	0.13556989
229	0x3c4f0491	0.012635366
230	0x3e264747	0.16238128
231	0xbe2d1bbf	-0.16905116
232	0xbe30b36a	-0.17255941
233	0x3e75ec53	0.24015932
234	0x3c391886	0.011297351
235	0xbd5debb2	-0.054179855
236	0xbe32356c	-0.17403191
237	0x3dd1c496	0.10242574
238	0xbdc3fbd3	-0.09569516
239	0x3d8e4f32	0.06948699
240	0x3e53af72	0.20672396
241	0x3e175914	0.14780074
242	0x3e2e4ec3	0.17022233
243	0xbe7edb32	-0.24888304
244	0x3da1ee73	0.07906809
245	0xbd33b539	-0.043874
246	0x3d9f6be2	0.07784249
247	0xbde8f11f	-0.11374115
248	0x3d6c6215	0.057710726
249	0x3e16dec8	0.14733422
250	0x3cfad6d0	0.030620009
251	0xbe7c0638	-0.24611747
252	0x3e50396c	0.20334405
253	0xbe8f502b	-0.2799085
254	0x3d4c2558	0.0498403
255	0x3cda5715	0.026652852

model.predict.predict.1.bias f4 [128]
0	0xbd077a8f	-0.033075865
1	0xbd8d1873	-0.06889429
2	0x3e5b4340	0.21412373
3	0x3badaddc	0.0053002667
4	0xbd6d5970	-0.057946622
5	0x3dc970c7	0.09835964
6	0xbe52f264	-0.20600277
7	0x3e085146	0.13312253
8	0xbdce5f84	-0.10076812
9	0x3e092dee	0.13396427
10	0xbe878739	-0.26470354
11	0x3dd4435b	0.103644095
12	0xbe31fc07	-0.17381297
13	0xbe23fc26	-0.16014156
14	0x3cb0e883	0.021595245
15	0x3e575d71	0.21031739
16	0xbe82c56c	-0.25541246
17	0xbe818a14	-0.25300658
18	0xbe41fb8a	-0.18943611
19	0x3e199d02	0.150013
20	0xbd342078	-0.043976277
21	0x3e5119e1	0.20420028
22	0xbe069ddc	-0.13146156
23	0xbd964755	-0.07337824
24	0x3e0a0ae0	0.13480711
25	0x3e35399a	0.17697755
26	0x3cb2cf3c	0.021827333
27	0xbeb3b3f8	-0.35098243
28	0xbd8ec78e	-0.06971656
29	0x3da613ca	0.08109243
30	0x3ccba485	0.024858722
31	0x3d241ad9	0.040064666
32	0x3e2f6f35	0.17132266
33	0x3e1349f6	0.14383683
34	0xbe5e5652	-0.21712616
35	0xbd29f399	-0.04149208
36	0x3dd1b093	0.10238757
37	0xbd3a3ef5	-0.045470197
38	0xbdb40ed4	-0.08791891
39	0x3d449dc9	0.04800204
40	0xbe445c0e	-0.19175741
41	0x3d96b3fc	0.07358548
42	0x3e189e5f	0.14904164
43	0xbd5da3cd	-0.05411129
44	0xbdf2efee	-0.11862169
45	0xbe55a23b	-0.20862667
46	0xbc082e6c	-0.008311849
47	0xbdc34dbe	-0.095363125
48	0x3e1fd58f	0.1560881
49	0xbcc13242	-0.023583535
50	0xbc7ef6da	-0.015561784
51	0xbe6e7216	-0.23285708
52	0x3e66613c	0.2249803
53	0xbec9e405	-0.39431778
54	0x3ddf5757	0.10905331
55	0x3d5e1943	0.05422331
56	0xbd32be92	-0.043638773
57	0x3cc06ca3	0.023489302
58	0xbe500ea8	-0.20318091
59	0x3dbe12dc	0.09280941
60	0xbe82313b	-0.25428185
61	0x3d575926	0.052575253
62	0x3dd5f8fc	0.104478806
63	0x3a98b3f9	0.0011650316
64	0x3e9a184d	0.30096665
65	0xbe05ae3d	-0.13054748
66	0x3c48a61d	0.012246636
67	0x3ea22206	0.31666583
68	0xbe56e013	-0.20983915
69	0xbd54ce98	-0.051954836
70	0x3e7746fd	0.24148174
71	0xbe0a3264	-0.13495785
72	0x3e133576	0.14375862
73	0x3ddf9d30	0.10918653
74	0xbdb5566a	-0.08854373
75	0xbc9753cd	-0.018472577
76	0x3cb6bfdf	0.022308288
77	0x3d8c49e0	0.06850028
78	0xbe080fb1	-0.13287236
79	0x3dff2443	0.12458088
80	0xbe5827e6	-0.2110897
81	0xbc4062ba	-0.011742288
82	0xbe23f13b	-0.16009991
83	0x3e352fac	0.17693967
84	0x3d896c8d	0.067101575
85	0x3d4aaf08	0.04948333
86	0x3e1ca84c	0.15298575
87	0xbe581c2b	-0.21104495
88	0xbe35d1d1	-0.1775582
89	0xbbc2c694	-0.0059440825
90	0xbc0c41b5	-0.008560588
91	0x3ea44452	0.32083374
92	0x3e6e5f64	0.23278576
93	0xbb5833d8	-0.0032989886
94	0xbce698e5	-0.028149078
95	0xbd8c2d1e	-0.06844543
96	0x3e1606f4	0.1465109
97	0xbe46bc68	-0.19407809
98	0x3e5b512a	0.2141768
99	0xbd8fe99a	-0.07026978
100	0x3e42a498	0.190081
101	0x3e42a29a	0.1900734
102	0x3e14825f	0.14502858
103	0xbdbe2828	-0.09285003
104	0x3e2d2acd	0.16910858
105	0x3e017db7	0.12645613
106	0x3de89ae1	0.11357666
107	0x3d89560c	0.06705865
108	0x3e952006	0.29125994
109	0xbd690610	-0.056890547
110	0x3e58110d	0.21100254
111	0x3e8c82ca	0.27443534
112	0xbd5272cd	-0.051379014
113	0xbed48e10	-0.41514635
114	0x3e340e62	0.17583612
115	0xbe0523eb	-0.13001983
116	0xbdbceeac	-0.092252105
117	0x3d93c6b8	0.07215637
118	0xbe045824	-0.12924248
119	0xbdee8edb	-0.11648341
120	0xbdde998b	-0.1086913
121	0xbe467be5	-0.193832
122	0xbe27a84a	-0.16372791
123	0xbeddabdb	-0.43295178
124	0xbe20d00a	-0.1570436
125	0x3e639f3e	0.22228715
126	0xbca22541	-0.019793155
127	0x3e537df6	0.20653519

model.predict.predict.3.weight f4 [128]
0	0x3f7888f8	0.97084
1	0x3f5db706	0.86607397
2	0x3f816905	1.0110174
3	0x3f808509	1.0040599
4	0x3f5d84ee	0.8653096
5	0x3f536444	0.8257487
6	0x3f7a2d84	0.977257
7	0x3eecd9e9	0.46260002
8	0x3f749d89	0.9555288
9	0x3f6f24b1	0.9341536
10	0x3f7b5022	0.9816915
11	0x3f5925ae	0.8482312
12	0x3f7ae57e	0.9800643
13	0x3f69e266	0.9136108
14	0x3f69441e	0.91119564
15	0x3f63c708	0.8897557
16	0x3f77833f	0.9668464
17	0x3f76b425	0.9636863
18	0x3f7c2533	0.9849426
19	0x3f7f6660	0.99765587
20	0x3f7540d9	0.95802075
21	0x3f28f3c3	0.6599695
22	0x3f6b4c18	0.91912985
23	0x3f4b018d	0.7929924
24	0x3f906744	1.1281514
25	0x3f7ff7ab	0.99987286
26	0x3f6df70f	0.92955106
27	0x3f786350	0.9702654
28	0x3f8ed97e	1.1160123
29	0x3eb5a4a7	0.35477182
30	0x3f813b62	1.0096247
31	0x3f65da3c	0.89786124
32	0x3f6d9c03	0.9281618
33	0x3f06b297	0.52616256
34	0x3f77b7db	0.96764916
35	0x3f7e5c51	0.99359614
36	0x3f57016f	0.8398656
37	0x3f5b8c9f	0.85761446
38	0x3f6568e7	0.89613193
39	0x3f3c7fb6	0.7363237
40	0x3f3d84f8	0.7403102
41	0x3f7ab49b	0.9793183
42	0x3f74ff7c	0.9570234
43	0x3f72a68b	0.94785374
44	0x3f6ec912	0.9327556
45	0x3f70bdfe	0.94039905
46	0x3f068ed6	0.525617
47	0x3f7a54c1	0.97785574
48	0x3f8131bb	1.0093302
49	0x3f7c758f	0.9861688
50	0x3f6d448d	0.92682725
51	0x3f79a25c	0.97513366
52	0x3ea4765a	0.32121545
53	0x3f800a7e	1.0003202
54	0x3f80da07	1.0066537
55	0x3f7186ab	0.9434611
56	0x3f6ddfc8	0.9291959
57	0x3f782011	0.9692393
58	0x3f83dfd5	1.0302683
59	0x3f836e56	1.0268047
60	0x3f724bfb	0.94647187
61	0x3f8438c2	1.0329821
62	0x3f7a62c9	0.97806984
63	0x3f5e7866	0.86902463
64	0x3f45bff5	0.7724603
65	0x3f6cd63d	0.925144
66	0x3eed5c4c	0.4635948
67	0x3f6c0405	0.92193633
68	0x3f435e87	0.7631611
69	0x3f6ab8e9	0.916884
70	0x3f603340	0.875782
71	0x3f76192d	0.96132165
72	0x3f582022	0.8442403
73	0x3f852d12	1.0404379
74	0x3f7f7c69	0.9979921
75	0x3f6fdbf1	0.9369498
76	0x3f7ad33f	0.97978586
77	0x3f6badc5	0.92062026
78	0x3f70d938	0.9408145
79	0x3f85d52f	1.0455683
80	0x3f7ee46a	0.9956728
81	0x3ece3cdd	0.4028081
82	0x3efc4d81	0.4927788
83	0x3f6c53e1	0.9231549
84	0x3f1c5228	0.6106286
85	0x3f61a932	0.88148797
86	0x3f6d3af0	0.92668056
87	0x3f66a4ea	0.9009539
88	0x3f826306	1.018647
89	0x3f839c2c	1.0282035
90	0x3f501d86	0.8129505
91	0x3f84866a	1.035352
92	0x3f3d53b7	0.73955864
93	0x3f72e845	0.94885665
94	0x3f664179	0.89943653
95	0x3f6849ac	0.90737414
96	0x3f51d18d	0.81960374
97	0x3f7a34d4	0.9773686
98	0x3f617a4a	0.88077223
99	0x3f7df4b7	0.9920153
100	0x3f82457b	1.0177454
101	0x3f860b07	1.0472115
102	0x3ee19cb1	0.4406486
103	0x3f681206	0.906525
104	0x3f2a2ffc	0.6647947
105	0x3f691b52	0.9105731
106	0x3f6d22bb	0.9263112
107	0x3f5fd527	0.8743462
108	0x3f521a9c	0.8207185
109	0x3f6fa2cb	0.9360778
110	0x3f6edcbc	0.93305564
111	0x3f43f9f9	0.76553303
112	0x3f8689a5	1.0510756
113	0x3f46d949	0.776753
114	0x3f843899	1.0329772
115	0x3f5e5278	0.8684459
116	0x3f72da72	0.9486457
117	0x3f893977	1.0720662
118	0x3ea8f605	0.33000198
119	0x3f105b65	0.56389457
120	0x3f60de34	0.87839055
121	0x3f79624c	0.97415614
122	0x3f6c5dbd	0.92330533
123	0x3f4d31d7	0.80154175
124	0x3f721b25	0.9457267
125	0x3f4fd7fd	0.81188947
126	0x3f7f61fc	0.9975889
127	0x3f5cf778	0.8631511

model.predict.predict.3.bias f4 [128]
0	0xbcc6f32b	-0.024285873
1	0x3cba59f1	0.022747966
2	0x3d665b37	0.056239333
3	0x3d286d9c	0.041120157
4	0x3b83cdcc	0.0040223356
5	0x3a7d18f3	0.0009654902
6	0xbc4b48e6	-0.012407517
7	0xbd707f2b	-0.058715027
8	0x3cf43c36	0.029813867
9	0xbd92d425	-0.071693696
10	0x3c52db60	0.012869686
11	0xbd81b9b2	-0.06334247
12	0x3c271f4e	0.010200335
13	0x3d478378	0.048709363
14	0x3d385d66	0.045010947
15	0x3d310825	0.043220658
16	0xbd59fca4	-0.053219453
17	0xbd57515c	-0.052567825
18	0xbc683948	-0.014173813
19	0xbd79e1ae	-0.06100624
20	0xbc0ea6da	-0.008706773
21	0xbd32cf8f	-0.043654975
22	0x3bbf9d23	0.0058475896
23	0xbcc14b02	-0.023595337
24	0x3c5ea64c	0.013589453
25	0x3c013b84	0.007887725
26	0xbd95f792	-0.07322611
27	0xbd919983	-0.07109358
28	0x3d57d7a4	0.052695885
29	0xbdd32000	-0.10308838
30	0xba4ebd37	-0.00078864716
31	0xbd8c31f9	-0.06845469
32	0x3cedaf5d	0.029014284
33	0xbd6b937d	-0.057513703
34	0xbd959451	-0.0730368
35	0x3cc9cc07	0.02463342
36	0x3d437a35	0.047723968
37	0x3c56c3c8	0.013108201
38	0xbd8892bb	-0.066686116
39	0xbb35c559	-0.0027736037
40	0xbce000a4	-0.027344055
41	0x3d81f5fc	0.06345746
42	0xbd8e82db	-0.069585524
43	0x3c1a4189	0.009415039
44	0x3d6ebb27	0.05828395
45	0x3d803fca	0.06262167
46	0xbdaf7332	-0.08566894
47	0x3d8a1fd4	0.06744352
48	0x3d82adc6	0.06380801
49	0x3cc5b20c	0.02413275
50	0x3d5f8604	0.054571167
51	0xbcd1f6a4	-0.025630303
52	0xbd7c70dd	-0.061631072
53	0xbd8b00e8	-0.06787282
54	0xbd94f581	-0.07273389
55	0x3ce81e11	0.02833465
56	0x3c62b691	0.013837473
57	0x3bffa587	0.007801715
58	0x3c294daf	0.010333463
59	0x3d946e86	0.07247643
60	0x3d022c4e	0.031780533
61	0xbda8a57d	-0.082346894
62	0x3d47bf17	0.04876622
63	0x3ce40c5a	0.027837921
64	0xbdabf5f8	-0.08396524
65	0xbd8deca7	-0.069299035
66	0xbd7c24c8	-0.061558515
67	0x3d830ea1	0.063992746
68	0xbba40851	-0.005005874
69	0x3d4c3173	0.049851846
70	0x3d78b22d	0.060716797
71	0x3d792105	0.060822506
72	0x3d1af991	0.03783566
73	0xbd978bb0	-0.0739969
74	0xbd90f41c	-0.0707781
75	0x3ca6cbcc	0.02036085
76	0x3d9bb220	0.07602334
77	0xbdac170e	-0.08402835
78	0xbb994aa8	-0.004678089
79	0x3d24f949	0.0402768
80	0x3d781003	0.060562145
81	0xbd1757f5	-0.036949117
82	0xbda476cd	-0.08030472
83	0xbd73bc63	-0.05950583
84	0xbd8107ba	-0.06300302
85	0x3c442daf	0.011973782
86	0x3cd1e20e	0.025620487
87	0x3d61ee6c	0.055159017
88	0xbd89fe44	-0.067379504
89	0x3d74ff05	0.059813518
90	0xbccd9c39	-0.025098907
91	0x3d93ad1f	0.072107546
92	0xbd9b38b5	-0.075791754
93	0xbda72ae4	-0.081624776
94	0x3b34843c	0.0027544638
95	0x3d42c53d	0.047551382
96	0x3d380b6d	0.04493277
97	0xbd3d2b5e	-0.046183936
98	0x3d4f3fa1	0.05059779
99	0x3d3195a8	0.043355614
100	0x3d3eb19a	0.046556093
101	0x3cc66a1f	0.024220524
102	0xbd99e0d8	-0.07513589
103	0x3d4dcc53	0.050243687
104	0xbdb79c56	-0.089653656
105	0x3d591f86	0.05300858
106	0x3d698303	0.057009708
107	0xbd81e3b1	-0.06342257
108	0x3d597da1	0.053098325
109	0x3c084e00	0.008319378
110	0x3d5da172	0.054109044
111	0x3d3e51e4	0.046464816
112	0x3d8400ec	0.06445488
113	0x3c98a14c	0.0186316
114	0x3d165cb0	0.036709487
115	0xba91e5da	-0.0011131123
116	0x3bcae45b	0.006191773
117	0x3c26add2	0.010173278
118	0xbd8ab12b	-0.06772073
119	0x3b623a83	0.003451974
120	0xbc8736a3	-0.016505545
121	0xbccbf6c0	-0.024897933
122	0x3d685d18	0.056729406
123	0xbd1c3660	-0.038137794
124	0xbbd5b913	-0.0065223067
125	0x3d1c4d08	0.0381594
126	0xbd978948	-0.07399231
127	0xbd016534	-0.031590655

model.predict.predict.3.running_mean f4 [128]
0	0x00000004	6e-45
1	0x32a98d58	1.9738465e-08
2	0x3e01e640	0.1268549
3	0x3a762235	0.00093892525
4	0x40084d3c	2.129714
5	0x38c9258a	9.591419e-05
6	0x3aa76c43	0.0012773353
7	0x406f766e	3.7416034
8	0x3f060c65	0.5236266
9	0x405d00d2	3.453175
10	0x00000004	6e-45
11	0x3ea10ea4	0.31456482
12	0x3b30f7fa	0.0027003274
13	0x3f4306c6	0.7618221
14	0x3f1f3d59	0.62202984
15	0x404593e1	3.0871508
16	0x30c4ff0d	1.4333367e-09
17	0x05c99bf8	1.8959243e-35
18	0x389ed50f	7.573712e-05
19	0x3258b934	1.2614965e-08
20	0x3a956a28	0.0011399435
21	0x3fbccf07	1.475068
22	0x3da0ab23	0.07845142
23	0x318ff4a2	4.1896593e-09
24	0x37c91d2f	2.3974657e-05
25	0x39b32c45	0.00034174524
26	0x3462e45d	2.1130968e-07
27	0x232b1f86	9.276604e-18
28	0x3e988d6c	0.29795396
29	0x3f8c8c78	1.0980368
30	0x39e45529	0.00043550998
31	0x3fdc28f2	1.7199996
32	0x3fa9d009	1.3266612
33	0x407d770a	3.9603906
34	0x3e8459dc	0.25849807
35	0x3088f98f	9.966231e-10
36	0x3e51e104	0.20495993
37	0x386a90d8	5.5924844e-05
38	0x3e5869ad	0.21134062
39	0x31bd148f	5.502961e-09
40	0x3fd947b2	1.6975005
41	0x3e591225	0.21198328
42	0x3f6f2521	0.9341603
43	0x3f1bf2ae	0.60917175
44	0x3f17455e	0.5909022
45	0x404d8fe4	3.2119074
46	0x4009482b	2.1450298
47	0x3f55dfdb	0.835447
48	0x3f7ba441	0.98297507
49	0x00000004	6e-45
50	0x401fa2ad	2.494304
51	0x35bbbecd	1.3988116e-06
52	0x400c8eb6	2.1962104
53	0x04505c4a	2.449266e-36
54	0x3f0d1485	0.55109435
55	0x3c58820f	0.013214602
56	0x3136e623	2.6615303e-09
57	0x3a09950a	0.0005248344
58	0x38818825	6.176558e-05
59	0x3f672102	0.9028474
60	0x3985f4ed	0.0002555022
61	0x3fdaefe8	1.7104464
62	0x3b74a994	0.0037332522
63	0x3b573878	0.0032840054
64	0x3ffd9ce1	1.9813501
65	0x3f7076cf	0.9393129
66	0x3fbca127	1.473668
67	0x401cc945	2.4497845
68	0x40348701	2.82074
69	0x3ea649b7	0.32478115
70	0x3f9b47d0	1.213129
71	0x3ec97bda	0.39352304
72	0x3f9ff48f	1.2496508
73	0x3f46b568	0.77620554
74	0x405e531e	3.473823
75	0x3ebb262a	0.36552554
76	0x38f33d96	0.00011598614
77	0x400fe7ec	2.2485304
78	0x3eacbad0	0.33736277
79	0x3a567cd7	0.0008182055
80	0x3f8e6a1f	1.1126136
81	0x3fc0ace9	1.5052768
82	0x3fe47003	1.7846683
83	0x3399f9b8	7.170041e-08
84	0x3fda1a34	1.7039247
85	0x3937067d	0.00017454657
86	0x3e84acb2	0.25913006
87	0x40541acf	3.3141363
88	0x3ef38bd8	0.4756763
89	0x3836b1ce	4.3557775e-05
90	0x3b0438bc	0.0020175418
91	0x40265a02	2.5992436
92	0x40116b3e	2.2721705
93	0x4014aecf	2.3231695
94	0x3a8ee845	0.0010902962
95	0x401b138e	2.4230685
96	0x3bfab68c	0.007651156
97	0x3814f74a	3.5516256e-05
98	0x4024fea8	2.578043
99	0x3989ea5b	0.00026305285
100	0x3fa806ce	1.3127077
101	0x3d8d054f	0.06885778
102	0x4057e42b	3.3733013
103	0x3f2072fa	0.6267544
104	0x4059149d	3.3918831
105	0x4010ca19	2.262335
106	0x4024bc7e	2.5740047
107	0x3fd2b54c	1.6461577
108	0x403c57e1	2.9428637
109	0x3af91794	0.0019004219
110	0x40087b93	2.1325424
111	0x3fd01ed3	1.6259407
112	0x3a002385	0.00048881053
113	0x4060155b	3.5013034
114	0x22811ac5	3.4993863e-18
115	0x3fb42483	1.4073642
116	0x23706b6b	1.3033173e-17
117	0x3831b0c6	4.236472e-05
118	0x400b9617	2.1810358
119	0x40005db8	2.0057201
120	0x229334cf	3.9900343e-18
121	0x00000004	6e-45
122	0x40352de3	2.8309257
123	0x319419c0	4.3102943e-09
124	0x38345a9a	4.2999724e-05
125	0x3f1e76c1	0.61899954
126	0x3eefbc55	0.46823373
127	0x3f826e74	1.0189958
