checkpoints/GAT_undersampled/best_recall_score/checkpoint1.pt (torch, 156441 bytes, 50 tensors)

model.gnn.gnn_layers.0.gat_conv.attn_l f4 [1, 8, 8]
000000 5e 62 1e bf 70 40 d8 be 85 6f 8c bd 49 88 9e 3d
       -0.61868846 -0.42236662 -0.06857208 0.07740838
000010 58 73 f3 be 32 09 03 3f e8 4e 71 be 13 de c1 3d
       -0.47548938 0.51185906 -0.23565257 0.094661854
000020 95 01 81 3f c2 6b 7e 3d 5a 91 f1 3e 9e 8e 7f be
       1.0078608 0.062114485 0.47181207 -0.24956748
000030 dc 24 04 3f c5 38 45 3d 93 ec f0 bd 0c b0 19 be
       0.5161874 0.048149843 -0.11763873 -0.15008563
000040 f2 91 fc be 46 86 8e be 81 6e 7b 3e 9a 2f d6 3c
       -0.49330097 -0.27836818 0.24553873 0.026145745
000050 e5 51 ed be 07 bb cb be 89 e3 38 be e6 16 11 3e
       -0.46351543 -0.39791128 -0.18055548 0.14168891
000060 79 cf 72 be a1 f9 19 3f d8 8f 9b 3d 87 62 86 bc
       -0.23711957 0.6014653 0.075957954 -0.016404403
000070 8a 31 30 3c 13 83 39 be 26 2d a1 3e 1d 4f 14 3f
       0.0107539985 -0.18116407 0.31479758 0.5793322
000080 e9 07 3b bc 8a 93 ac be 3e ca 98 3e 45 b9 4b 3f
       -0.01141546 -0.33706313 0.298418 0.79579574
000090 78 67 ab bd 31 a3 09 bf f3 9b 9d be 2c cb 83 3e
       -0.083693445 -0.53764635 -0.30783042 0.25740945
0000a0 cd 2f 10 be a5 3d e0 be 9f 8a 36 be fc f2 64 3e
       -0.14080735 -0.4379703 -0.17826317 0.22358316
0000b0 1f 6e 76 bd 36 29 04 3f 3a 2b 8a be 4d b9 f5 bd
       -0.060163613 0.5162538 -0.26986104 -0.11998234
0000c0 4c 97 f3 be 04 f4 b5 3c 11 68 e1 be 55 a7 1a be
       -0.47576368 0.022211082 -0.4402471 -0.15102895
0000d0 e5 1d 29 3d 38 c3 84 bd 0c c7 54 3c b7 e4 98 be
       0.041288275 -0.064825475 0.01298691 -0.29861996
0000e0 1b 6f 49 3f 3e e8 ba 3d ae da 3c 3e e4 f5 4c be
       0.7868516 0.09126328 0.18442795 -0.20015675
0000f0 94 68 e2 3d a4 a9 1c 3e 34 d1 e3 3e 83 7a 00 bf
       0.11055103 0.15299088 0.44495547 -0.5018694

model.gnn.gnn_layers.0.gat_conv.attn_r f4 [1, 8, 8]
000000 1e 0f a1 3d 34 a7 b8 be 0e c3 32 3e 8d f8 b4 be
       0.078642115 -0.36065066 0.1745722 -0.3534588
000010 ce e9 65 3e eb ee 8d 3e 04 06 0f 3f 37 9e 00 3e
       0.2245247 0.27721342 0.55868554 0.12560354
000020 23 8d 0c be 11 a1 e2 bd 4d 39 c0 be 81 c2 d8 3e
       -0.13725714 -0.11065877 -0.37543717 0.42335895
000030 ce b7 fa be c5 44 fd be 2a 27 b6 3e 56 d6 b9 3e
       -0.48968357 -0.4946653 0.35576755 0.36296338
000040 80 fc 9c 3d af 13 b7 3e d2 20 26 3f 92 f3 90 3d
       0.07665348 0.35757205 0.6489383 0.07077707
000050 b5 7f be be a7 80 8b be 1c e8 42 3e f3 d2 03 3f
       -0.37206808 -0.2724659 0.19033855 0.5149376
000060 1c 93 2b bc d3 5b 96 3e 19 75 44 be 55 c8 a7 bb
       -0.010472085 0.2936693 -0.19185294 -0.005120317
000070 fd ec f8 3e 6e 9d 96 3d 13 b5 81 3f a6 02 13 3f
       0.48618308 0.07354246 1.0133384 0.57425916
000080 a3 d6 21 bf 7d d9 3a 3c 8b 37 9d be 6e c4 6b 3e
       -0.63218135 0.011404392 -0.30706438 0.2302415
000090 79 04 96 be 65 ef 50 be 7a eb 41 3d db 9a 3d 3e
       -0.29300287 -0.20403822 0.04734371 0.18516104
0000a0 ca f5 f7 3e a4 a3 71 bc fc 4a 00 3f da 03 62 bd
       0.4842971 -0.014748488 0.5011442 -0.055179454
0000b0 3e 6c 81 3e e7 11 6f 3e d9 c2 0a be c1 1e 01 bf
       0.25277895 0.23346673 -0.13550891 -0.5043755
0000c0 90 eb 95 3e 02 9b 9f be b7 c3 2a be 61 cf 8b 3e
       0.29281282 -0.3117295 -0.16676222 0.27306655
0000d0 61 91 0c 3e f9 a2 28 be b7 4a 4d 3e 2c 17 5b bc
       0.13727333 -0.16468419 0.20048033 -0.013372224
0000e0 a8 c2 7c 3e 42 f7 1b 3f 20 06 8e 3d 9c 8b 34 be
       0.2468363 0.6092416 0.06934762 -0.17631382
0000f0 e8 c6 6f 3e 0c 7a 5b be a2 41 56 3e 9f 4e 0d 3e
       0.2341572 -0.21433276 0.20923474 0.13799523

model.gnn.gnn_layers.0.gat_conv.fc.weight f4 [64, 30]
000000 e8 7f e4 3d 5e fd b1 bd 4b 3d d7 be 33 ab 4a 3e
       0.11157209 -0.08690904 -0.4203895 0.1979187
000010 30 cf f5 bd bc 9a 52 bd e1 bc f8 bd 80 2d 13 3e
       -0.120024085 -0.051417097 -0.12145401 0.14372826
000020 7c 01 81 bd da ef 84 be ac b3 81 ba 1f 65 c7 3e
       -0.06299111 -0.25964242 -0.0009895465 0.38944337
000030 6e e0 08 be 0d 1a 9d bd 27 7d 2d be 5d a7 1d be
       -0.13366863 -0.076709844 -0.16942273 -0.15395875
000040 a1 8a 52 be d1 05 4d bc f6 b8 3a bd fc e8 22 be
       -0.20560695 -0.012513594 -0.04558655 -0.15909189
000050 96 b9 91 bc 1e 92 a3 3d 69 85 bd bd 18 4a 7a 3c
       -0.01778869 0.07986854 -0.092539616 0.015276454
000060 46 29 9a bd 62 c0 af bc 34 aa ba 3e 77 56 15 be
       -0.075274035 -0.02145404 0.3645798 -0.14583765
000070 9a 09 86 bd 9d 41 8b 3e 16 9e 02 be ae ec 05 3e
       -0.065448 0.27198496 -0.12755617 0.13078567
000080 0d 97 e3 bd f0 a9 0b 3d 3d f5 4f be 4b cd e6 bd
       -0.11112795 0.034097612 -0.20308395 -0.11269625
000090 59 86 69 3d 2b 5f 44 3e ea a1 ce bc 17 b6 66 3e
       0.05701289 0.19176929 -0.025223691 0.225304
0000a0 3e aa 80 be bb 67 4b 3e 46 a0 14 bd 29 68 d1 be
       -0.25129884 0.19863789 -0.03628566 -0.4089978
0000b0 e0 21 a5 be 57 1f 89 bd 43 d4 78 be 07 7d f6 3e
       -0.32252407 -0.06695431 -0.24299721 0.48142263
0000c0 8a 8e c2 bd fc 0e 8b 3c 61 2c ca 3d 0a f1 1f 3e
       -0.094998434 0.016974919 0.09871746 0.15619293
0000d0 58 cd 84 bd 11 68 82 3a e0 bd 9f be 74 0b 99 3b
       -0.06484479 0.0009949227 -0.3119955 0.004670555
0000e0 bb 04 57 3e 06 ab 18 3d 96 fe f0 3e 84 20 48 be
       0.20997898 0.037272476 0.47069234 -0.19543654
0000f0 3a 27 a8 3d 6c cc d8 be af 95 54 be 57 4b 9e 3e
       0.08210607 -0.42343462 -0.20760225 0.30916855
000100 52 dc 46 3e ae f4 59 be db 7d 0a bf 0b 75 4b be
       0.19419983 -0.21284744 -0.5409829 -0.19868867
000110 a5 db 70 3e ae 5c 23 3e 3d 59 65 3d 13 30 1a be
       0.23521288 0.15953323 0.055993307 -0.15057401
000120 c2 2c 67 3e bc 5f 77 be cc f9 45 be 06 89 4d be
       0.22575668 -0.24157614 -0.19333571 -0.20071802
000130 06 65 3e 3e 12 a2 99 bd 91 44 a6 bd 50 3a 9e bc
       0.18593225 -0.075016156 -0.08118547 -0.019314915
000140 4a 56 30 bc ae 1e 7f 3e 06 14 3b 3b 50 73 f0 bd
       -0.01076276 0.24914047 0.002854587 -0.11740744
000150 cb 5c 8d be 80 51 a4 bd 33 31 91 bd aa 6a 88 3e
       -0.27609858 -0.080233574 -0.07089462 0.26643878
000160 0f 55 2e 3f 97 c2 1b 3d 36 1d 5a bc c2 68 ac be
       0.6809854 0.038027372 -0.0133126285 -0.33673674
000170 3b 15 62 be fb 50 b4 3e 47 b0 a0 3b 47 14 5c 3d
       -0.22078411 0.35218033 0.0049038264 0.053730275
000180 46 b6 14 3e 0b 87 89 3e f8 da c8 3e 57 83 d6 3e
       0.14522657 0.26860842 0.3922956 0.4189708
000190 f7 96 1c bc b1 23 be be 0c b2 4f be 43 8f c8 bd
       -0.009557477 -0.37136605 -0.20282763 -0.0979295
0001a0 14 44 f8 be 3e bd 1c 3f b2 6c 88 3c 7e 63 cf 3e
       -0.4848944 0.6122626 0.016653392 0.40505594
0001b0 f5 17 3a 3e e4 d6 c3 3c e1 e8 97 bd 8b 4e 1d be
       0.18173201 0.023906179 -0.07417465 -0.15361993
0001c0 f7 7c c8 bd e0 8f 96 3e 7e 13 f0 bd 67 8e df bd
       -0.0978946 0.29406643 -0.11722468 -0.10915833
0001d0 a6 16 8f bd 85 79 75 3e 8f 2c e0 3e 69 6a 1a be
       -0.06986742 0.23972137 0.43783996 -0.15079655
0001e0 be 96 02 3e b1 e1 93 bd 3b 8c 8a 3d f9 68 91 3b
       0.12752816 -0.072207816 0.06765028 0.0044375625
0001f0 64 83 73 3d 3e dd 31 bd 31 45 ac be 8b eb cd be
       0.059451476 -0.043423884 -0.3364654 -0.40218768
000200 df 14 69 3e e6 61 ed bc d4 fd e3 3d 8b 60 34 be
       0.22761868 -0.028977346 0.11132398 -0.17614953
000210 0f 5c 9a bd 9c 97 2d bd a2 04 05 bd e6 82 c0 3c
       -0.0753709 -0.042380914 -0.03247512 0.023499917
000220 fe f8 46 be 86 45 c0 3d 34 da 06 3e dd 17 74 be
       -0.1943092 0.093882605 0.13169175 -0.23837228
000230 10 d7 fd be b1 42 c7 3e c8 04 89 3d a5 fa 64 be
       -0.49578142 0.3891807 0.06690365 -0.22361238
000240 0a 8e 79 be 3c 05 35 be df aa 10 ba 7e 77 1f be
       -0.2437059 -0.17677778 -0.0005518626 -0.15572926
000250 5b 86 20 3d 5c 72 0e 3e 7b b8 3a 3d b9 79 b9 be
       0.03919063 0.13910812 0.04558609 -0.3622568
000260 c5 74 54 3e d6 72 37 bf 70 13 c2 be 46 2b 16 3e
       0.20747669 -0.716596 -0.37905455 0.14664945
000270 78 3b 9d 3e d1 9b 46 3d 8d 4d 3e bd 62 16 b2 be
       0.30709434 0.04848844 -0.046460677 -0.34782702
000280 dc 5a b8 bb 7b 9b a7 be 7c c2 5f 3d 44 2a 29 3d
       -0.0056260657 -0.3273581 0.054628834 0.041300073
000290 b8 a1 ce 3e a9 38 08 3e aa 53 ae 3e f2 17 01 3e
       0.40357757 0.13302864 0.34048206 0.1260679
0002a0 1a 75 e1 3d c6 7f 84 3d d0 ae f8 3e b5 5e 51 be
       0.110086635 0.06469683 0.4857087 -0.20446284
0002b0 55 00 79 3e ef 02 47 be 35 1b cb bb e9 57 c7 bd
       0.24316533 -0.19434713 -0.0061983117 -0.097335644
0002c0 c8 3c 14 3e b0 78 7c bd 9f b3 96 3c 0d 39 9c be
       0.14476311 -0.061638534 0.018396197 -0.30512276
0002d0 bd c0 84 be aa 1f 86 3e a9 fc c2 3d c1 13 52 3e
       -0.25928298 0.26196033 0.09520847 0.20515348
0002e0 3f b3 2c 3e 37 ab 38 be 57 ce 0f 3e 43 a6 b9 bd
       0.16865252 -0.18034063 0.14043556 -0.09064915
0002f0 79 30 80 3d 13 23 42 3d e6 84 6b be 4b 0d 60 be
       0.062592454 0.04739673 -0.22999915 -0.21880071
000300 62 87 a2 bd 92 eb bc bc 94 15 06 be b6 36 98 bc
       -0.079359785 -0.023061547 -0.13094169 -0.018580776
000310 f3 ea 90 3e 65 4b be be c1 68 af bd c8 a9 00 3f
       0.28304252 -0.37166896 -0.08564902 0.50259066
000320 2e 6e de bd e0 e4 40 3e b3 b9 98 bc e9 84 99 3d
       -0.10860859 0.18837309 -0.018643236 0.07496054
000330 c9 e9 de 3d b2 5f 80 3d 8d f1 5a 3e 68 72 67 be
       0.10884435 0.062682524 0.21381207 -0.22602236
000340 8a 7b 1f be 69 63 bd 3d 89 cf 9a 3d ea 7b 37 be
       -0.1557447 0.092474766 0.075591154 -0.17918363
000350 e3 53 d3 3e fd e9 7a bd f2 f3 72 3e 41 15 d7 3e
       0.41274938 -0.061258305 0.2372587 0.42008403
000360 1f 5e 43 3e bd 0c 7c 3e d4 0a 21 3e fd 31 28 be
       0.19078873 0.24614234 0.15726787 -0.16425319
000370 5c a3 a2 be 13 1d 9d be 64 84 9e bd 77 e6 8f bd
       -0.31765258 -0.30686244 -0.07740095 -0.070263796
000380 f0 8a f4 be 9f b4 07 be 4d 9d e9 bc f9 65 82 3e
       -0.4776225 -0.13252495 -0.02851739 0.25468424
000390 ce 3c b6 bd 71 20 20 3f b3 2c cb bc 75 30 93 3e
       -0.08898316 0.625495 -0.024801588 0.28747907
0003a0 9b 77 eb bc a2 17 97 be db 6c 35 be a7 27 54 be
       -0.028743556 -0.29510218 -0.17717306 -0.20718251
0003b0 ff 57 23 3e c0 b9 80 be 4f e8 ef 3d ae 87 a9 3d
       0.15951537 -0.25141716 0.11714231 0.08277832
0003c0 b5 8a a3 be f3 ef 88 3e 6e b8 43 be 66 12 af be
       -0.31941763 0.26745567 -0.19113323 -0.34193724
0003d0 11 22 55 3e c6 ce 53 be 5e 69 6a be 17 74 4c be
       0.20813777 -0.20684347 -0.22891757 -0.1996616
0003e0 94 de d9 3d 0b c5 32 be 11 bf 29 3e 60 3a b1 3c
       0.106381565 -0.17457978 0.16576792 0.02163428
0003f0 f7 c1 a4 3e 19 1d 97 be 92 be 45 be 3f 7c 23 3d
       0.32179233 -0.29514387 -0.19310978 0.039913412

model.gnn.gnn_layers.0.gat_conv.res_fc.weight f4 [64, 30]
000000 09 5a cb 3d de 84 fe 3d c9 6a 73 bd b7 98 8c be
       0.09929282 0.12427686 -0.05942801 -0.27460262
000010 06 d2 e7 3d 72 d3 49 be 3d b2 88 bd f8 f8 8d be
       0.11319356 -0.19709566 -0.06674621 -0.2772901
000020 86 a1 ab 3e c1 15 0f be d1 ee 80 be eb 99 11 bd
       0.3352167 -0.13973142 -0.25182202 -0.03554718
000030 9e d6 f0 3e ce 6e 0b bd 2b c4 37 3c cd 8e 76 3e
       0.4703874 -0.03404122 0.011216204 0.24077912
000040 4f c8 f2 be 29 1d 31 3e 7b e9 94 be 9d 4a 2e be
       -0.47418448 0.1729628 -0.2908438 -0.1702065
000050 63 5c 11 3e 18 f5 a5 bd c0 80 17 3d f9 3a 9d 3d
       0.14195399 -0.081033885 0.03698802 0.07677264
000060 75 a7 bf be 0a f3 0c bd fc 3d 78 3d 14 61 8d 3d
       -0.37432447 -0.034411468 0.060605988 0.06903282
000070 46 e6 a6 bd bc 48 ea 3e 97 32 a3 bd 23 ec c2 3e
       -0.0814939 0.45758617 -0.079686336 0.38070783
000080 df 2f b3 3d f6 19 34 be 65 5c d2 3c e9 d1 5f 3e
       0.08749365 -0.17588028 0.025678823 0.21857418
000090 17 75 18 be ad 1a e4 bb 07 0f 06 3e 58 3a c3 3d
       -0.14888416 -0.006961188 0.1309167 0.095326126
0000a0 ed 63 1a 3e 54 ed c5 3e 36 58 c7 3d cf 0f 55 be
       0.15077181 0.3865763 0.09733622 -0.20806812
0000b0 58 5e e2 3c 56 29 93 be 60 60 11 3d 34 2b 88 bd
       0.027632877 -0.28742474 0.0354923 -0.06648865
0000c0 9b 10 73 be 0e 2e 81 be 3b ac 1d be 2c ed fd 3c
       -0.23736803 -0.2523045 -0.15397732 0.030996881
0000d0 56 b5 26 be f8 bf b4 3e 4e 2a 80 bd 9f a8 f8 3b
       -0.16280112 0.3530271 -0.06258069 0.0075884606
0000e0 49 4b b2 be 40 15 9b bc ab 6a e0 3d 28 33 86 3d
       -0.34823063 -0.018931031 0.10957845 0.06552726
0000f0 6e d7 0c 3e 0a 62 44 3e 65 4e b9 bd 10 90 db 3d
       0.13754055 0.19178024 -0.09048156 0.10720837
000100 7c f5 2b 3e f1 bb 82 be 9f 93 0c 3e 3d bc 73 bd
       0.16792864 -0.25534013 0.13728188 -0.05950569
000110 7d 66 14 3e 41 e1 c4 3d 1c 89 6b 3e f6 3c ca bc
       0.14492221 0.09613276 0.23001522 -0.024687272
000120 e3 05 2d be cf 73 8d 3e 57 6c 82 be d4 52 ea 3d
       -0.16896777 0.27627417 -0.25473282 0.114415795
000130 6c 21 94 bb 60 28 a5 be d1 25 48 3e 3e c0 07 be
       -0.0045205858 -0.32257366 0.19545676 -0.13256928
000140 56 16 5a 3e b2 bc 22 bc 63 68 3a bf 7f f1 fb 3e
       0.21297583 -0.009932684 -0.7281553 0.49207684
000150 85 35 90 3d 8c d0 e1 3c 81 1d b7 3c a5 43 0d 3e
       0.07041458 0.027565263 0.022352936 0.13795336
000160 0e b4 87 3e 20 5f ce bd a3 2a 4e 3d ea 2d 71 be
       0.26504558 -0.100767374 0.05033363 -0.23552671
000170 9f 5d e8 bd 6b 37 d9 bd ab 6c 04 bd 2e 4d 79 3d
       -0.11345982 -0.10606273 -0.032330196 0.06086462
000180 fc 6b a0 be 5e 62 a6 3d 9c 69 be bd ed 5c 67 bd
       -0.31332386 0.08124231 -0.09297487 -0.056485105
000190 55 69 14 3e 48 bc 04 be 22 f4 d4 be da dc 14 be
       0.14493306 -0.12962449 -0.4159251 -0.14537373
0001a0 24 eb 95 be e9 ae 79 3e a8 c3 8d 3e 04 b5 69 be
       -0.2928096 0.24383129 0.27688336 -0.22822958
0001b0 e1 40 3d be 46 f4 9c be 7d 8c d1 bd de 71 84 3e
       -0.1848178 -0.30655116 -0.10231874 0.25868124
0001c0 b1 47 6e 3e c7 3e 30 3d b7 54 28 3d 9e ab c5 bd
       0.23269536 0.04302862 0.041096415 -0.09651874
0001d0 82 ae 03 be 6a d7 6b be 5d 64 47 bd 97 32 b3 3e
       -0.12859538 -0.23031393 -0.0486797 0.34999534
0001e0 3e 84 ed 3e 2e 73 f9 bd ed 43 87 3e 5d 61 2c be
       0.46389955 -0.12180172 0.2641901 -0.16834016
0001f0 3e 9f f6 bd d9 68 a0 bd 44 03 9b be 92 e8 d3 3c
       -0.12042092 -0.07832498 -0.3027593 0.025867734
000200 f5 14 ef bd 3a 25 03 3e 33 f9 88 3e 69 3e b2 be
       -0.11673919 0.1280717 0.26752624 -0.3481324
000210 e7 68 6a 3e 45 77 f7 bd cd 6e 46 3e 49 61 bc 3e
       0.2289158 -0.12083296 0.19378205 0.36792973
000220 81 22 d3 3e 35 72 95 be 22 03 e1 3e fd 62 a4 bd
       0.41237262 -0.29188696 0.43947703 -0.08026693
000230 6c 91 4c 3e df 13 63 be be 36 ab 3e d6 a0 5f 3d
       0.19977349 -0.22175549 0.33440202 0.054596744
000240 70 ec a8 3e 66 a0 b7 be a4 e0 e7 bd 74 ce 3b bf
       0.32992887 -0.35864562 -0.11322144 -0.733619
000250 91 84 c2 be 9a c8 07 3f dd 84 39 be 9b ff 88 3e
       -0.37991765 0.5304047 -0.1811709 0.26757511
000260 24 8b 65 3e 96 02 93 3d 74 9b 61 bc db fe e5 3c
       0.22416359 0.071782276 -0.013769973 0.028075626
000270 68 48 86 3e 78 ea 1e 3c 95 7e 85 be 28 be 80 3e
       0.26227117 0.009699456 -0.26073137 0.25145078
000280 cb b1 40 3e 0f f3 c1 3c b0 d0 dd 3e 67 1d 8c 3e
       0.18817823 0.02367547 0.43323278 0.27366182
000290 db ca ac 3e 60 bd b5 3c ba 8a 21 3c 6b 74 bd 3e
       0.33748516 0.022185028 0.009859735 0.37002882
0002a0 1a 14 66 bd 99 24 17 be a2 80 fe bd 45 2c ce 3c
       -0.056171514 -0.14760055 -0.124268785 0.025167594
0002b0 60 01 96 3e fa 67 a8 3e 4e d4 89 be d8 ba 03 be
       0.29297924 0.32891828 -0.26919788 -0.12864244
0002c0 3c 0f ea be 43 2a 9a be e7 ee 81 bd ba 95 f6 bc
       -0.45714748 -0.30110368 -0.06344395 -0.030100692
0002d0 3e 3f 5b 3b 7d 8f ba be 7d f1 24 bd b9 f4 89 3e
       0.0033454443 -0.36437598 -0.040269364 0.2694452
0002e0 2f 07 0c bd 0f 5b 98 3d 84 54 5d 3c 60 88 a5 3e
       -0.03418654 0.07439243 0.01350892 0.32330608
0002f0 c7 ca 92 bd 35 44 a8 3c 14 08 8d 3e c5 6d 58 3e
       -0.07167583 0.020540336 0.27545226 0.21135624
000300 cc 63 92 bd 00 3c 8c 3c 6a e3 62 3d 59 d2 35 bd
       -0.07147941 0.017118454 0.05539266 -0.044390056
000310 65 b6 fd bd 34 3b 48 be 82 b4 f2 3c ec 14 68 3e
       -0.123883046 -0.19553834 0.029627088 0.22664231
000320 ae df 60 be be 19 2e 3d 14 e9 a5 3c 01 4c 5a 3e
       -0.21960327 0.04250502 0.020252742 0.21318056
000330 81 9d 79 3e b2 8c 0b be 46 17 cd bd e6 68 22 3e
       0.24376489 -0.1362789 -0.10014205 0.15860328
000340 da 97 06 be 2b f0 9d 3c 11 61 b7 3e 98 b1 05 bf
       -0.13143864 0.01927956 0.35816243 -0.5222411
000350 2e c8 90 3c a5 12 05 be f1 f1 1f be e4 91 4c 3e
       0.017673578 -0.12995394 -0.15619637 0.19977528
000360 b0 8e d7 bc 14 0b 5e 3e b4 73 8f be ce cd 14 bf
       -0.026313156 0.21683913 -0.28017962 -0.58126533
000370 d1 fa 2b be 2a 48 56 3d 89 a4 7b be 5f 1e cb be
       -0.16794898 0.052314915 -0.24574484 -0.3967161
000380 be 74 36 3d c5 cc 0b bd e2 30 97 3e e2 d9 48 3e
       0.044544928 -0.03413083 0.29529482 0.19614366
000390 d1 bc 1e be f9 d3 ea 3d c3 9f 8b 3d be 49 8b be
       -0.15501715 0.11466212 0.068175815 -0.27204698
0003a0 21 8b b8 3e 56 7c af be 38 4c 9b 3d ea 2e 26 3e
       0.36043647 -0.34274548 0.07582897 0.16228834
0003b0 b0 ef cb 3e 57 25 b1 bd 39 b8 6d 3e 51 95 39 be
       0.39831305 -0.086497 0.23214807 -0.18123366
0003c0 fb b4 28 bc 4a f0 da bd 8e da 90 be fc 26 b4 be
       -0.010297055 -0.10690363 -0.28291744 -0.35185993
0003d0 43 35 f2 bd c5 af b0 bc d2 03 62 3e 0c bf b7 bc
       -0.11826565 -0.021568188 0.2207177 -0.022429965
0003e0 8c d2 19 3e a5 a9 63 3e da 21 17 3e 75 08 b2 3d
       0.15021724 0.22232683 0.14759007 0.08693019
0003f0 01 64 d7 3d d7 c4 9a bd 7b 8d e0 3d f8 81 c3 3e
       0.10517121 -0.075570755 0.10964485 0.38185096

model.gnn.gnn_layers.0.gat_conv.res_fc.bias f4 [64]
000000 77 ab b5 3c 4a 6c 7f bb 1b be 2d bc e9 2b ce 3c
       0.022176487 -0.0038974457 -0.010604407 0.025167422
000010 17 4f 19 ba be 15 43 bc be 86 0e 3d 1c 34 e0 3b
       -0.0005848272 -0.011907039 0.03479647 0.0068421494
000020 18 75 c3 3c b3 7b 9d bc bc 8a 81 3c a2 28 e5 bb
       0.023859546 -0.019224023 0.015813224 -0.006993369
000030 8f 16 1f bd 20 ed 85 bc ac 5e ce bb 50 fd 35 bb
       -0.038839873 -0.016348422 -0.006297907 -0.0027769394
000040 d4 a7 ca bc cb ee 91 bc 9e cb b2 ba 86 b8 d7 bc
       -0.02473823 -0.01781406 -0.0013641005 -0.026333105
000050 0e 33 3b 3c ea cb ba bb b2 5f 22 3c ea ca a4 3b
       0.011425747 -0.005700578 0.009910511 0.005029072
000060 0f a9 0c 3d 4a 21 85 3c 29 4f b0 b9 0b 94 0c 3d
       0.034340914 0.016251225 -0.00033628315 0.034320872
000070 f5 50 21 bc f0 25 5c 3b 72 f1 b2 bc 83 10 08 3c
       -0.009845962 0.0033591948 -0.021843646 0.008304718
000080 de 1d de 3c 07 06 82 b9 7d 0c 37 3c 13 f5 8a 3c
       0.027113851 -0.00024800023 0.011172411 0.016962564
000090 5e 77 4b bc 34 5b c3 3c e3 ba b1 bb 1f 86 b9 bb
       -0.012418596 0.0238472 -0.00542389 -0.0056617404
0000a0 b9 c7 e2 3c b8 1d 20 bc be 17 88 3c d2 e0 93 3c
       0.027683126 -0.0097727105 0.016612884 0.018051539
0000b0 1e 37 89 ba ea 00 33 3c ee f0 12 ba 63 c4 16 3d
       -0.0010468697 0.010925511 -0.00056053593 0.036808383
0000c0 2b 5f d5 ba bd 6d ee bc 67 da c2 3c 72 81 78 3c
       -0.0016278973 -0.029105062 0.023785783 0.015167581
0000d0 39 6d ac 3c f3 95 ef bb 51 17 ec ba 45 ea c9 3c
       0.021048175 -0.0073115765 -0.001801232 0.024647841
0000e0 33 e8 a4 bc 5d 68 ba bc e0 7f 4f bc 28 01 28 3c
       -0.020130252 -0.022754842 -0.012664765 0.010254182
0000f0 30 64 fd bc 0f 66 1f 3c c1 a6 f0 bc 0b 86 c1 bc
       -0.030931562 0.0097289225 -0.02937639 -0.023623487

model.gnn.gnn_layers.1.gat_conv.attn_l f4 [1, 8, 8]
000000 84 b1 e6 3e d4 94 c1 be f6 d0 52 3f 30 fe 60 3e
       0.4505731 -0.3780886 0.823501 0.21971965
000010 0b 4b 25 be 82 a9 64 3e 55 f3 e4 3d 85 80 c8 3e
       -0.16141908 0.22330287 0.111792244 0.39160553
000020 36 72 47 be a5 be 71 be 79 22 27 bf 54 ee a6 3e
       -0.19477162 -0.23607881 -0.65286976 0.32603705
000030 8a ad 2b be 01 9b bd be 61 4d df 3a c2 ca 9c 3e
       -0.16765419 -0.3703232 0.001703661 0.30623442
000040 c8 72 cf 3e 94 a2 e8 3e 75 50 90 3d 84 00 64 be
       0.4051726 0.45436537 0.07046596 -0.22265822
000050 89 80 21 bf aa c0 c7 3d 75 ab 8a be 3a 5e a4 be
       -0.63086754 0.09753545 -0.27083936 -0.3210314
000060 8f 23 0b 3d 05 83 8d 3e 42 ae 1e be 2c f3 d6 3e
       0.03396946 0.27639022 -0.15496162 0.419824
000070 08 33 98 3e 64 7b ed be 56 68 8d 3e a4 bd bb bc
       0.29726434 -0.46383202 0.27618665 -0.022917576
000080 6f 0e 9a 3e 1f 6b aa 3e db 15 5b 3d 16 4b 6e 3e
       0.30089137 0.33284852 0.05348764 0.2327083
000090 1e a7 52 3e 16 ef 37 3d fb ed 03 be 28 b6 ca 3d
       0.20571563 0.044905744 -0.12883751 0.09898025
0000a0 4f 1a 17 3e 2e f0 e5 be 2b 46 16 3d a5 b9 c4 3e
       0.1475613 -0.44909805 0.03668801 0.38422886
0000b0 da 46 e3 3e e0 11 5c be b9 f3 22 3f 3e af 1f 3f
       0.44389993 -0.21491194 0.6365314 0.62376773
0000c0 0e 18 de 3e aa 87 5d be 45 78 22 3e 6d 8a 03 3f
       0.43377727 -0.21633783 0.15866192 0.51383096
0000d0 83 b0 e6 3e ba b1 0e 3d 9e 0c 18 3d 47 1f bc be
       0.45056543 0.034837462 0.037121408 -0.36742613
0000e0 ad 3c 2a 3f 7e 16 aa 3e ad 74 91 be 8b 9a 32 3e
       0.66498834 0.33220285 -0.2840933 0.17441766
0000f0 9a 9f 13 3e aa 7c 25 3e 57 33 50 be b4 f9 98 be
       0.14416352 0.16160837 -0.20332085 -0.29878008

model.gnn.gnn_layers.1.gat_conv.attn_r f4 [1, 8, 8]
000000 cf 93 14 bf 1d 9e c5 3c bf 1d de bc 4d 83 96 3e
       -0.5803804 0.024123246 -0.027113793 0.2939705
000010 cc 35 e1 bd 58 0d 63 3c f1 f0 88 3e 0d cb 07 be
       -0.10996589 0.013858162 0.26746324 -0.13261051
000020 9d 29 b8 3e 74 3a 18 be 17 00 46 be c9 c6 95 be
       0.35969248 -0.14866048 -0.19335972 -0.29253224
000030 49 52 38 3d c6 24 d5 be 26 29 f5 3c 9c 81 10 3f
       0.04500035 -0.41629618 0.029926848 0.5644777
000040 2a ad 62 3d 7f 77 0e bf 33 d7 27 3e 4d 96 73 3e
       0.055340923 -0.55651087 0.16390686 0.23787804
000050 28 09 02 be fd 35 03 3e 33 e3 e6 be 22 25 92 3d
       -0.12698805 0.12813564 -0.45095214 0.07135989
000060 82 44 95 be 4e 84 8f be 6a 7d 86 be dd ec fc bb
       -0.2915383 -0.28030628 -0.26267558 -0.007718666
000070 18 cf a1 3e 4a 88 f1 3d 13 eb 04 be 9c 3e f1 3e
       0.31603312 0.11793573 -0.12980299 0.4711808
000080 8b ec a3 3d 9e 11 5f 3e b2 1e fc be f1 7b 21 be
       0.08004101 0.21784064 -0.4924217 -0.15769936
000090 35 83 29 3d 0a a1 9d 3d 0d e3 40 3d 5f 3e dd be
       0.041384894 0.076967314 0.047091532 -0.43211648
0000a0 36 a5 ca bc 88 c3 14 3f 8d b9 07 3f 9f 1d 6c be
       -0.024736982 0.58110857 0.53017503 -0.23058175
0000b0 e8 6b 8f 3e 27 6b 65 3e 4d 9c 45 bc 6d 0b 05 3d
       0.28012013 0.22404157 -0.012061191 0.0324816
0000c0 32 85 ba 3e e0 08 f8 3d c3 36 1b bd a4 08 09 3e
       0.36429745 0.12111068 -0.03789402 0.13382202
0000d0 22 b6 cb 3d 5f 81 30 3f b0 ed 24 be 78 12 47 be
       0.099468485 0.68947405 -0.16106296 -0.19440639
0000e0 12 8a 93 be 4d 3a c6 3d f8 76 0a bf a6 36 92 3e
       -0.28816277 0.09679089 -0.5408778 0.28557318
0000f0 92 c9 18 3e 2c 06 94 3e 4a 32 ec bd ed 40 4e be
       0.14920643 0.2891096 -0.115330294 -0.20141955

model.gnn.gnn_layers.1.gat_conv.bias f4 [64]
000000 63 f8 6b bc bf a3 fd bb bc 2f 66 3c 40 1d 9b 3b
       -0.014402482 -0.0077404673 0.014049467 0.0047337115
000010 b0 4a 2d bc 30 a7 ee ba 9f c7 ea 3b a2 31 8c 3c
       -0.010576889 -0.0018207785 0.00716491 0.01711351
000020 63 f8 6b bc bf a3 fd bb bc 2f 66 3c 40 1d 9b 3b
       -0.014402482 -0.0077404673 0.014049467 0.0047337115
000030 b0 4a 2d bc 30 a7 ee ba 9f c7 ea 3b a2 31 8c 3c
       -0.010576889 -0.0018207785 0.00716491 0.01711351
000040 63 f8 6b bc bf a3 fd bb bc 2f 66 3c 40 1d 9b 3b
       -0.014402482 -0.0077404673 0.014049467 0.0047337115
000050 b0 4a 2d bc 30 a7 ee ba 9f c7 ea 3b a2 31 8c 3c
       -0.010576889 -0.0018207785 0.00716491 0.01711351
000060 63 f8 6b bc bf a3 fd bb bc 2f 66 3c 40 1d 9b 3b
       -0.014402482 -0.0077404673 0.014049467 0.0047337115
000070 b0 4a 2d bc 30 a7 ee ba 9f c7 ea 3b a2 31 8c 3c
       -0.010576889 -0.0018207785 0.00716491 0.01711351
000080 63 f8 6b bc bf a3 fd bb bc 2f 66 3c 40 1d 9b 3b
       -0.014402482 -0.0077404673 0.014049467 0.0047337115
000090 b0 4a 2d bc 30 a7 ee ba 9f c7 ea 3b a2 31 8c 3c
       -0.010576889 -0.0018207785 0.00716491 0.01711351
0000a0 63 f8 6b bc bf a3 fd bb bc 2f 66 3c 40 1d 9b 3b
       -0.014402482 -0.0077404673 0.014049467 0.0047337115
0000b0 b0 4a 2d bc 30 a7 ee ba 9f c7 ea 3b a2 31 8c 3c
       -0.010576889 -0.0018207785 0.00716491 0.01711351
0000c0 63 f8 6b bc bf a3 fd bb bc 2f 66 3c 40 1d 9b 3b
       -0.014402482 -0.0077404673 0.014049467 0.0047337115
0000d0 b0 4a 2d bc 30 a7 ee ba 9f c7 ea 3b a2 31 8c 3c
       -0.010576889 -0.0018207785 0.00716491 0.01711351
0000e0 63 f8 6b bc bf a3 fd bb bc 2f 66 3c 40 1d 9b 3b
       -0.014402482 -0.0077404673 0.014049467 0.0047337115
0000f0 b0 4a 2d bc 30 a7 ee ba 9f c7 ea 3b a2 31 8c 3c
       -0.010576889 -0.0018207785 0.00716491 0.01711351

model.gnn.gnn_layers.1.gat_conv.fc.weight f4 [64, 64]
000000 43 7c db 3d d1 d4 bd 3d c7 72 af bd 4b 35 06 be
       0.107170604 0.09269107 -0.08566814 -0.13106267
000010 de 15 68 be 72 e3 1c bc df a5 a7 3d 0f eb 93 bd
       -0.22664592 -0.009575712 0.08185934 -0.07222568
000020 ae b0 2a 3e be f4 11 3e a3 18 22 3e e1 9e a2 bb
       0.1666896 0.14253518 0.1582971 -0.0049627875
000030 b9 6d 99 3d af d3 11 3e d3 16 6a bd 17 77 56 be
       0.07491631 0.14240907 -0.057150673 -0.20943867
000040 d7 bd 2c be 95 04 26 be 9a 60 9f be 3e 78 49 3d
       -0.16869293 -0.16212685 -0.3112839 0.049186938
000050 0d 26 da bd 48 84 b7 3d 0e 76 93 3e 94 6d d9 be
       -0.10651789 0.089607775 0.28801006 -0.42466414
000060 87 a9 fe 3d 4f 48 4b 3d 18 c0 16 3e 84 d3 85 bd
       0.124346785 0.049629506 0.14721715 -0.06534484
000070 e6 52 0f 3c 72 f5 00 3e 4e 37 df bc 50 f7 73 be
       0.008747792 0.1259363 -0.027248051 -0.23824811
000080 88 46 c2 be 3d bd 14 bf 06 5d 39 3e 25 5d a8 3d
       -0.37944436 -0.58101255 0.18101892 0.08220891
000090 93 ab 9e bc b1 39 38 be ba d6 28 3d 8a e2 25 3e
       -0.019368922 -0.17990758 0.041220404 0.16199699
0000a0 4c 6e eb 3b a3 d0 ca be 35 3b b5 be fd 2e 3a be
       0.0071847793 -0.39612302 -0.35396734 -0.18181987
0000b0 34 3d 31 be df 27 4f 3d 48 4c 29 3e ee 83 7e bd
       -0.17308503 0.050575133 0.16533005 -0.062137537
0000c0 ad 85 8b be 19 00 92 bb 3b 94 02 3f d9 1e 51 be
       -0.27250424 -0.004455578 0.5100743 -0.20421924
0000d0 22 95 ad bd 66 ba 1f 3e 90 3f fa bc 40 6c 86 3e
       -0.084757105 0.15598449 -0.030547887 0.26254463
0000e0 c1 2f f7 3b 40 35 72 3e 86 41 a7 3d 6e f8 de bd
       0.0075435345 0.23653126 0.081667945 -0.10887228
0000f0 43 8a b0 3e a7 77 29 be ac 5e b5 3e 15 a6 0f 3e
       0.34480485 -0.1654955 0.3542379 0.14028199
000100 95 ac ca bd fe 2c 2f be d4 a9 5d be 39 73 d2 bd
       -0.09896199 -0.17107007 -0.21646816 -0.10275883
000110 a1 29 67 bd 43 16 90 be 83 42 4f 3e 00 8b 84 3e
       -0.056436185 -0.28141984 0.20240216 0.258873
000120 74 99 83 3d 77 06 d7 bd 41 a9 b6 bd 0b 0a aa 3e
       0.06425753 -0.1049928 -0.08919001 0.33210787
000130 d7 91 0b 3e 44 fa 3a bd 15 59 2c 3d 56 6b 5f be
       0.13629852 -0.04564883 0.042077143 -0.21818289
000140 b3 e7 17 3e cf 07 94 3e f0 97 9a be 18 50 be 3d
       0.1483448 0.28912207 -0.30194044 0.092926204
000150 62 b8 fa 3c 13 b7 62 be 57 e2 2f bd 95 64 b1 3d
       0.030605499 -0.2214015 -0.042940464 0.086617626
000160 d0 8b 4f bc a5 0d 03 3c 26 7b af 3e 2d 73 84 3e
       -0.012667611 0.007998859 0.34273642 0.25869122
000170 45 1d 8e 3e 55 19 8b 3d 6c a1 34 3e 35 4c 95 3e
       0.27756706 0.06791941 0.17639703 0.29159704
000180 f7 65 91 3e a0 13 2e be 94 e3 cb bd 4f 3f 64 bd
       0.28398106 -0.16999674 -0.099555165 -0.05572444
000190 c0 f4 d4 bd 91 2a c3 3d 29 37 48 3c 81 71 8d 3d
       -0.10398245 0.09529603 0.012220182 0.06906415
0001a0 69 08 ec bd 7c fc f4 3d 82 17 72 be 5e 8f 6a 3e
       -0.115250416 0.1196222 -0.2364178 0.22906253
0001b0 8b e3 ad 3e 9d 86 2c bc 8c e2 6b be b7 93 24 3d
       0.33962664 -0.010530141 -0.2303564 0.040179934
0001c0 6a e4 f7 3c e1 0c 88 bd 9b 56 99 be 35 8f 03 3e
       0.030260283 -0.066430815 -0.29948887 0.12847598
0001d0 8f d6 1a 3e f7 ac 64 be e6 ea a0 bd fb a8 c1 bd
       0.1512091 -0.22331606 -0.07857303 -0.094560586
0001e0 c1 60 54 be e1 d5 46 bd 64 51 96 3e 43 e7 f7 3c
       -0.20740034 -0.048543815 0.2935897 0.030261641
0001f0 a9 bf b2 3d 3f e6 13 be 63 21 98 3e 6f 54 8b be
       0.087279625 -0.144433 0.29712972 -0.27212855
000200 f8 1b 0d 3f c8 55 2d be 31 38 bd 3d 8e 7f 06 be
       0.551208 -0.16927254 0.09239233 -0.13134596
000210 64 8b e0 bd e4 cc db bd 2e 1f 9d be 1b 5a f1 3d
       -0.10964087 -0.10732439 -0.3068785 0.117847644
000220 fe 7f 94 3e 53 dd 9f 3e e4 b1 05 3e 7b d2 33 3e
       0.290039 0.31223544 0.13056141 0.1756076
000230 49 75 a1 bd 19 ad 20 bd 8e 5d 06 bd ff ab 2d 3e
       -0.078836985 -0.03922758 -0.032804064 0.16960143
000240 46 12 30 be 2c 5d 4e 3e 24 68 3c 3e 37 a2 e5 bd
       -0.17194471 0.2015273 0.18399101 -0.11212581
000250 62 59 d5 3d a0 5b 3e be 3e 78 29 3d f0 75 d0 bd
       0.10417439 -0.1858964 0.041374438 -0.10178745
000260 ca f1 4d bd d5 19 f0 3d 41 ff 79 3b 86 89 91 bd
       -0.050279416 0.11723677 0.0038146528 -0.07106309
000270 aa a4 f5 3b 75 a8 de bc f0 a2 cf bc 68 d9 c8 3d
       0.007496436 -0.027179936 -0.02534625 0.09807092
000280 11 ab 07 be aa 21 77 3d 16 c8 20 3e da 54 5d 3e
       -0.1324885 0.06033484 0.15701327 0.216144
000290 f4 2d ac bd 12 00 5e be 09 3d d8 3d e6 c7 19 3e
       -0.08407202 -0.21679714 0.105585165 0.15017661
0002a0 6d bc c9 3c 21 53 c6 3e 83 a2 40 be cf e5 a5 bd
       0.024625981 0.38735297 -0.18811993 -0.08100473
0002b0 52 fb 9b 3e e1 51 41 bd 99 1b 29 3d 19 5f 85 3e
       0.3046518 -0.047197226 0.041286085 0.26049116
0002c0 51 44 f6 3d c7 e4 35 be 8c bc 97 3d 4a 66 7e bd
       0.12024749 -0.17763053 0.07409009 -0.06210927
0002d0 7e 9f 2b be 37 2b 33 be 84 00 86 3e bf ae 57 3e
       -0.1676006 -0.17496954 0.26172268 0.21062754
0002e0 3b 44 bc bd 3e bb f6 bd db 4a 59 bd 66 08 7b bd
       -0.091927014 -0.12047432 -0.053049903 -0.061287306
0002f0 8b 41 c2 bd 85 73 35 be f5 4c 1b be 5b aa 27 be
       -0.094851576 -0.17719848 -0.15166076 -0.16373579
000300 06 ab 20 be 07 94 02 bf e2 c0 3b 3e dd e4 09 be
       -0.1569024 -0.5100712 0.18335298 -0.1346621
000310 3e 67 e9 3d e2 a0 b0 bd 44 b9 2f 3d 37 49 17 bc
       0.11396645 -0.08624436 0.042901292 -0.009233764
000320 f6 fb 98 bd a0 dc 0f 3d e3 b2 63 be 28 ac dd be
       -0.07469933 0.035122514 -0.22236209 -0.43295407
000330 32 df 4d be 9a 4b 39 3e 03 80 b1 bd de 11 2e be
       -0.20104674 0.18095246 -0.086669944 -0.16999003
000340 dd 73 28 be d3 c0 87 3d fd 6b 0b be fa 3f aa 3e
       -0.16450448 0.06628575 -0.13615413 0.33251935
000350 f4 11 0c bd d5 2b 99 be e9 10 af bd 92 74 a4 3d
       -0.03419681 -0.29916254 -0.08548147 0.080300465
000360 51 48 0c 3d 5e 2c 8c be 8a 02 0d bc 1e bb d4 bc
       0.034248654 -0.273776 -0.008606562 -0.02596813
000370 a3 fd 43 3e 5e d2 d0 3e be 1e d3 3d a5 29 36 be
       0.19139723 0.40785497 0.10308598 -0.17789324
000380 34 6e a2 3c 81 6e 54 bc ef ec 2e be d6 28 8f bd
       0.01982794 -0.012965799 -0.1708257 -0.06990211
000390 ff 57 36 3e b1 98 c6 3d 32 3b 04 bd 08 ab 3c be
       0.17807005 0.09697092 -0.032283016 -0.18424618
0003a0 eb cd c2 3d 58 6d c6 3d b2 be 58 3d 13 c9 49 3d
       0.09511932 0.096888244 0.052916236 0.049264025
0003b0 a5 0a 30 bb b7 ee 58 bd a0 cf fa 3c 35 79 b1 3c
       -0.0026861813 -0.05296203 0.030616581 0.021664241
0003c0 07 cb 7f 3b 9e 51 bf be da 5f a7 bc e0 00 71 be
       0.0039030926 -0.37366956 -0.020431448 -0.2353549
0003d0 2e c2 a4 3e 36 9a 2e be 5c a8 45 3c cf ac 95 3a
       0.32179397 -0.17051014 0.012064066 0.0011419299
0003e0 e2 8a 8a be f6 b7 e6 bd e8 44 26 bd 7f 42 56 bd
       -0.27059084 -0.112655565 -0.040593058 -0.05230951
0003f0 58 7a b5 bd d5 77 1f 3c 53 f5 2c bd bb eb 3b 3e
       -0.08861226 0.00973316 -0.042226147 0.18351643

model.readout.weight_and_sum.atom_weighting.0.weight f4 [1, 8]
000000 de 93 79 3e fb 24 72 be de 89 ac 3c f9 2c 95 3d
       0.24372813 -0.2364692 0.021061834 0.072839685
000010 50 96 4f be 50 22 e8 be 55 68 b7 be f3 28 c7 be
       -0.20272183 -0.45338678 -0.35821787 -0.3889843

model.predict.predict.1.weight f4 [128, 16]
000000 31 71 a1 3c f6 ff 19 bd 0d ed 13 3c a2 65 41 be
       0.019707294 -0.03759762 0.009028685 -0.18886426
000010 59 50 e6 bd 85 96 8f 3d 7f 75 84 bd da af 6e be
       -0.11245794 0.07011131 -0.06467723 -0.2330927
000020 95 ce 22 3e 2d 58 a3 3d 73 25 31 3f 27 ad 9c 3e
       0.15899117 0.079758026 0.6919777 0.30600855
000030 d5 0e e8 3d 4c 53 e4 3e 79 c4 a2 be 8d b6 9d bd
       0.11330954 0.445948 -0.31790522 -0.077008344
000040 eb 0e 8e 3e 71 61 83 be 68 63 a3 bd 5a 0e d1 3d
       0.27745757 -0.2566028 -0.079779446 0.102078155
000050 aa 7b 48 3e b0 36 ce 3d d4 a5 65 3d 2d b4 1a 3e
       0.19578424 0.100690246 0.05606635 0.15107794
000060 13 26 cd 3e e5 c9 55 be 88 60 b9 3c a7 76 82 be
       0.4006811 -0.20877798 0.022629037 -0.2548115
000070 5d 4c 7d be 2d 15 a6 3d a4 ab 86 be 1f 73 03 3e
       -0.24736162 0.08109508 -0.26302826 0.12836884
000080 fe 58 57 be a9 0e 33 be 95 ba 2d bc 07 ee 95 bd
       -0.21030042 -0.17486061 -0.010603567 -0.07320791
000090 da 61 72 3e f8 ad 25 be fa d8 5f be 7e f4 7e be
       0.2367014 -0.16179645 -0.21860114 -0.24897954
0000a0 48 a4 f5 bd f4 a6 19 3d 50 f1 4e be 9e 33 91 3d
       -0.11994225 0.037512735 -0.20209241 0.07089923
0000b0 80 0e 8e bd 24 8d 5e 3e 06 4e 00 be 34 2b 52 be
       -0.069363594 0.21733528 -0.12529764 -0.20524293
0000c0 52 b5 30 3b 9b 21 33 3e be 07 bc 3c 96 e3 84 3d
       0.0026963544 0.17493288 0.02295291 0.06488721
0000d0 89 85 2a 3e 03 c9 0d be ff 5e 81 3d 66 40 c3 b9
       0.16652502 -0.13846211 0.06316947 -0.0003724128
0000e0 f9 f8 36 be 48 3b 84 3d c7 b1 8c 3e 16 c0 84 3e
       -0.17868413 0.064566195 0.27479383 0.259278
0000f0 1b f9 1c 3e dc b7 dd 3e 1a b9 33 be c8 e1 cf bd
       0.15329401 0.43304336 -0.1755108 -0.10150486
000100 14 3c 5e be 59 90 e0 3d 1f 84 08 3e 05 c9 e7 3d
       -0.21702605 0.10965032 0.1333165 0.11317638
000110 63 d4 99 3e 31 eb 7b be 85 f3 f1 3d 48 02 1a be
       0.3004485 -0.24601437 0.11814026 -0.15039933
000120 28 c0 82 3d 25 4a 2a 3e 0c 57 c4 3e e5 f5 e3 3e
       0.06384307 0.16629846 0.38347661 0.4452354
000130 f0 33 c7 bd f5 1d ed 3e 99 6d 11 3e b8 d9 c8 3d
       -0.09726703 0.46311918 0.14201964 0.098071516
000140 88 f4 8a bc 9a 1e 40 bd f5 ea ca bc 09 2e b3 bd
       -0.016962305 -0.046904184 -0.02477024 -0.08749015
000150 3d b9 38 bd 97 56 a5 bd b3 67 58 be 7a d6 68 3e
       -0.045098532 -0.08073156 -0.21133308 0.22738066
000160 71 0f 24 be 6d 63 0d 3d e7 98 50 bd f6 9e 8a be
       -0.16021515 0.034518648 -0.05092707 -0.27074403
000170 ae 82 43 3e 4c 7c 20 be 4f b0 87 bb d4 4a 9b bd
       0.19092819 -0.15672415 -0.0041408907 -0.07582632
000180 d6 03 55 be 3f 22 4f be 37 7e 29 3e 00 d6 d4 3d
       -0.20802245 -0.20227908 0.16552053 0.1039238
000190 f2 76 d0 3d 92 22 53 be 5f 69 0d 3e 2e 36 33 be
       0.10178937 -0.20618656 0.13809727 -0.17501137
0001a0 0b af d5 3d 42 bd fc 3d 3b 81 06 3f 7c 00 20 3e
       0.104337774 0.123407856 0.5254094 0.15625185
0001b0 09 0a de 3d b1 f7 a2 3e 56 27 c1 3b 57 d6 b1 be
       0.10841758 0.318296 0.005894582 -0.3473384
0001c0 b7 a7 8b 3d 10 9a 9f 3d 60 9e 20 3e 0f b6 9a 3d
       0.068190984 0.07793057 0.15685415 0.07554256
0001d0 d6 70 7c be 5b fe 1f 3e c8 ff cd bd 54 fd 8b 3d
       -0.24652418 0.15624373 -0.10058552 0.06835428
0001e0 c9 35 61 be c5 55 5f 3e 98 29 90 bc 6e 15 bd bc
       -0.21993174 0.21810062 -0.017597958 -0.023081508
0001f0 7e 2c 49 bc 41 57 67 3d 0b 56 40 be cc 90 d6 3d
       -0.012278674 0.056479696 -0.18782823 0.104768366
000200 b8 6c 0d 3e 59 e7 22 3e b0 af 25 bc c8 36 12 3e
       0.13811004 0.15908565 -0.010112688 0.1427871
000210 4d e6 87 3d 86 d5 1f 3e 7b 98 52 be d4 73 76 be
       0.06635723 0.15608796 -0.20565979 -0.24067622
000220 24 a7 39 3e f1 8d 8c 3e 44 75 10 3e 55 d3 0c 3e
       0.18130165 0.27452043 0.14107233 0.13752492
000230 9f 2e 49 be c7 b7 4f be 83 ad e1 bd fd 59 eb 3c
       -0.19646691 -0.20284949 -0.11019423 0.028729433
000240 79 39 7c 3d 04 ce 7b 3d af 61 44 bd 08 03 95 bd
       0.061578248 0.06147577 -0.04794472 -0.07275969
000250 9e 81 4a bd bd e0 e7 bc 11 b9 59 3e 9c 26 2e 3e
       -0.04944002 -0.028305406 0.21262003 0.17006916
000260 d2 f8 40 be 86 0f cd 3c 94 a7 64 be 43 5f 4f be
       -0.18844917 0.025031816 -0.22329551 -0.20251183
000270 81 9b 15 bd 0e 1a 76 bd fa c4 96 bd 25 e3 26 be
       -0.036525253 -0.06008344 -0.07361789 -0.16297586
000280 00 91 6f be 27 a8 48 3c a4 d4 89 be 2a 0f 94 bd
       -0.23395157 0.012247122 -0.26920044 -0.07229455
000290 a6 17 25 3e da ae f2 bd 81 e5 0b 3e 53 56 3b be
       0.16122302 -0.118497565 0.13661768 -0.18294649
0002a0 20 15 81 be 22 8a 36 bd 8e 9b 97 be 6f e6 4d be
       -0.2521143 -0.044565327 -0.29610866 -0.20107435
0002b0 31 b3 e8 3c a9 b9 f1 3d b0 38 91 bc 07 4d 80 be
       0.028405758 0.1180299 -0.017727226 -0.25058767
0002c0 89 d9 d7 3d 7c 59 46 bc c6 cc b2 bd 79 20 3e 3e
       0.105395384 -0.012106296 -0.08730464 0.18567075
0002d0 41 17 b7 bc e8 6f 14 3e e3 7c 86 3d 2a 35 ad 3c
       -0.022349956 0.14495814 0.06566789 0.021143515
0002e0 5d 52 81 3d f5 1c ab 3d 3a 34 13 3f f2 ad a8 3e
       0.06314538 0.083551325 0.57501566 0.3294521
0002f0 29 0b b8 bd f5 55 fa 3e de 6b d0 bc 53 69 ec bd
       -0.08986504 0.48893705 -0.02544206 -0.115435265
000300 e6 b6 98 3d be ad 52 3e 54 8a 3b 3e fa 19 31 bc
       0.0745676 0.2057409 0.18314487 -0.010809416
000310 f4 f1 80 3e 50 24 5e be a2 05 d7 bb 78 bd e9 3d
       0.25184596 -0.2169354 -0.006561951 0.114130914
000320 25 9f 3b 3e c7 ac 7f 3e 4a 20 c8 3d a2 a9 9d 3d
       0.18322428 0.24968253 0.09771784 0.076983705
000330 ab 2e b9 3e 7a ae c1 3e 15 54 52 3d d0 f6 5a be
       0.36168417 0.37828428 0.051349718 -0.21383214
000340 65 96 eb bd f8 ca 52 be 65 31 2a 3e 26 7d 59 3e
       -0.11503295 -0.20585239 0.16620405 0.21239147
000350 27 66 4f 3e dc 06 f9 bd d6 7e ef 3c 5e 61 88 3e
       0.20253812 -0.121595114 0.029235285 0.26636785
000360 6e 53 22 be 91 e5 73 be c6 ac 8a 3e fb 78 95 3e
       -0.15852138 -0.23818041 0.2708494 0.29193863
000370 73 0d 43 be d4 73 ad 3d c1 de 89 3d e2 08 50 be
       -0.19048099 0.08469358 0.0673194 -0.20315889
000380 89 a7 82 3c 5f a3 f2 bd 7c 24 9c bb 00 4b b8 3d
       0.015949028 -0.11847567 -0.0047650915 0.0899868
000390 8e 08 6f be 0d 96 87 3d 0b 26 98 bc 2c 24 46 bd
       -0.23343107 0.06620417 -0.018572828 -0.04837434
0003a0 8c 74 78 3e af 88 09 3c 30 39 df bc ed d1 0b be
       0.24263209 0.008394404 -0.027248949 -0.13654299
0003b0 b8 5c 43 be d1 24 2c be 4c 45 d6 bd 0c 3c fe 3d
       -0.19078338 -0.1681092 -0.10462436 0.12413797
0003c0 f5 9f 94 3d a7 1f 43 3e cc 30 56 be 6a 53 02 be
       0.07257072 0.19055043 -0.20917052 -0.12727132
0003d0 c4 8d 17 bd b7 ad b9 bd c9 4f 06 3e a3 8a 51 3c
       -0.037000433 -0.090663366 0.13116373 0.012789401
0003e0 f1 35 be bd 4b e7 c3 3d da 49 4b be 8f 1d 2d bd
       -0.09287632 0.095656 -0.19852391 -0.042264517
0003f0 a5 0c 5b be 3d 27 63 bd c1 3e 9a bd 8c c6 12 3d
       -0.21391542 -0.055457342 -0.075315006 0.03583388

model.predict.predict.1.bias f4 [128]
000000 71 6b f9 bc 99 8a 1a 3e e6 b8 59 be 6c 08 77 be
       -0.03044674 0.15091933 -0.2126194 -0.24124306
000010 06 42 62 3e b7 e7 fc 3d 8e 32 61 3d 06 e3 10 3e
       0.22095498 0.123488836 0.054979853 0.14149103
000020 0f 0a 8d 3d d4 b4 6d 3e c2 12 5c be 0b 4a 7f 3d
       0.06886684 0.23213512 -0.2149153 0.062326472
000030 9e 98 45 3e 31 a5 e6 3c b7 0a 68 be de 70 86 3d
       0.192965 0.028154941 -0.22660337 0.065644965
000040 eb 5c 48 3e d8 c8 eb bb 7c f4 ce bd 57 4b 54 3e
       0.19566695 -0.0071955733 -0.101052254 0.20731865
000050 b8 7f b0 bd 97 74 85 3e 0c 29 e7 3d 43 5b a8 bd
       -0.086181104 0.26065513 0.11287126 -0.08220532
000060 5e 6b e6 3d 5d e4 81 3e 07 5e 29 be 71 fb a3 3d
       0.112509474 0.2536954 -0.16539775 0.08006943
000070 68 38 0b be d3 30 9b bd 27 c6 af bc 5b 1d 13 3c
       -0.13595736 -0.07577672 -0.021456791 0.008979167
000080 82 80 24 3c b4 67 f8 bd 70 2a cc bd 28 ac e0 bd
       0.010040404 -0.12129155 -0.09969032 -0.10970336
000090 7a 3e f7 3d 49 d4 99 bd ba d4 98 be b5 3b 62 bd
       0.12072463 -0.07511193 -0.29849797 -0.055232722
0000a0 51 2d 61 be 22 9a 8b be f8 a0 3f 3e 93 63 97 3d
       -0.21989943 -0.27266032 0.18713748 0.07392039
0000b0 d4 c0 84 3e 2f 91 ea bd 8b 95 41 be cc 34 46 be
       0.25928366 -0.11453473 -0.18904702 -0.19356078
0000c0 80 5d cf bd c0 cd 06 bd dd c2 51 be 26 49 06 3d
       -0.101252556 -0.032911062 -0.2048449 0.032784604
0000d0 68 e1 50 3c 3a c2 c7 bc da 9a f6 bd 61 73 42 be
       0.012749054 -0.024384607 -0.12041254 -0.18989326
0000e0 fb 6f 1b 3e 10 d3 52 3d c2 86 32 3e 2e d0 50 be
       0.15179436 0.051470816 0.17434219 -0.20391914
0000f0 fd 20 66 3e c5 c2 97 3c 90 0e b7 3d 7b ad 21 3e
       0.22473522 0.01852549 0.089383245 0.15788834
000100 db 9d fa bd a4 d8 d3 bd 0c c8 48 3e 5b cb 91 3e
       -0.1223714 -0.10344055 0.19607562 0.2847546
000110 d6 9a 4f be 5c 38 d2 bd 2b b8 50 3e 6f 16 b9 bd
       -0.20273909 -0.10264656 0.20382755 -0.09037482
000120 f1 46 aa 3d ad c7 41 be 65 c9 7d bd d4 0f 8a 3e
       0.08314312 -0.18923827 -0.061959643 0.269652
000130 da ed 0b be f3 4a 1b 3e 31 5e 1c 3e 4a 51 62 be
       -0.13664952 0.1516531 0.15270306 -0.22101322
000140 7d b7 64 be 0a 46 a9 bd 83 3e 2e 3d 3d ae 05 3e
       -0.2233562 -0.08265312 0.042540085 0.13054748
000150 73 f9 45 be 62 1a 1b bd 50 2f 55 3e 5e 3e 37 bc
       -0.19333439 -0.037866957 0.2081883 -0.011184303
000160 e8 83 01 be 3c 41 dd bd 67 07 bc 3d a7 17 20 bd
       -0.12647974 -0.10803458 0.091810994 -0.039085057
000170 8c 27 73 3e ba 96 27 3e f8 58 6e bd af a6 84 3e
       0.23745555 0.16366091 -0.058190316 0.2590842
000180 bd 65 a4 3d 2a fb 17 3e b0 8d ce 3d d0 a5 c0 3d
       0.080272175 0.14841905 0.100856185 0.09406626
000190 67 33 1a 3e ea 90 89 be 9c 3f 17 3e a0 8a 94 bd
       0.15058671 -0.26868373 0.14770359 -0.07253003
0001a0 4b 70 5e be 23 2d 13 be 53 ae 25 be ab e3 ab bc
       -0.21722524 -0.14372687 -0.1617978 -0.020982584
0001b0 77 a7 bc bd 4d 7a 1f be 3d fe 42 be 14 34 2d 3d
       -0.09211629 -0.15573998 -0.19042297 0.042285994
0001c0 e6 0b 66 be 43 43 87 be fb 4d 09 be b4 89 87 be
       -0.22465476 -0.26418504 -0.13408653 -0.26472247
0001d0 65 aa 38 3e 26 d7 4a bd b3 81 16 3e 89 41 1b be
       0.1803375 -0.049521588 0.14697914 -0.15161718
0001e0 a9 09 06 bd 74 9b 20 3e 3a b8 1e be 91 2a 53 3e
       -0.032724056 0.156843 -0.15499964 0.20621707
0001f0 d1 7e b5 bd fc 04 bd bd b2 e7 9c bd 2d 0c ff bc
       -0.08862079 -0.09229466 -0.0766138 -0.031133736

model.predict.predict.3.weight f4 [128]
000000 9a 66 88 3f f2 6d 93 3f 3d 39 8f 3f ed ce 84 3f
       1.0656312 1.1517928 1.1189343 1.0375649
000010 0c 97 81 3f 69 35 73 3f 77 b6 7e 3f 95 c3 77 3f
       1.0124221 0.9500337 0.9949717 0.9678281
000020 69 2a 84 3f 5a e7 75 3f 6c 7a 83 3f a2 54 84 3f
       1.0325443 0.9605614 1.0271735 1.0338328
000030 48 bc 88 3f ce 2f 80 3f 4a ed 7e 3f 6f 53 86 3f
       1.0682459 1.0014589 0.99580824 1.0494212
000040 18 9c 80 3f b4 6b 8f 3f 73 5d 84 3f 42 81 95 3f
       1.0047636 1.1204743 1.0341018 1.1680071
000050 d1 24 83 3f 4a 47 81 3f 83 60 89 3f da 24 71 3f
       1.024561 1.0099881 1.0732578 0.94196856
000060 d4 2f 7c 3f 63 a2 86 3f 3f 46 89 3f b8 13 7b 3f
       0.9851048 1.0518306 1.0724562 0.98076963
000070 64 0b 89 3f 2a c4 7d 3f 92 3e 70 3f 49 54 85 3f
       1.0706601 0.9912745 0.93845475 1.0416347
000080 17 31 7e 3f 1c f7 80 3f 94 11 7d 3f 91 6a 7c 3f
       0.99293655 1.0075412 0.9885495 0.9860011
000090 3b 94 80 3f 34 49 7c 3f ee b6 5b 3f 72 41 92 3f
       1.0045236 0.985492 0.85826004 1.1426222
0000a0 05 41 84 3f 93 27 81 3f 66 5b 85 3f 77 ee 8d 3f
       1.0332342 1.0090202 1.0418518 1.1088399
0000b0 1f 15 76 3f 87 ae 83 3f 29 2e 77 3f 9d 3c 83 3f
       0.9612598 1.0287637 0.9655481 1.0252873
0000c0 71 6c 7b 3f 07 49 7c 3f 32 13 79 3f 03 02 83 3f
       0.98212343 0.9854893 0.97294915 1.0234989
0000d0 d1 26 80 3f 95 e2 7a 3f d6 c4 87 3f e6 03 83 3f
       1.0011846 0.98001987 1.0606945 1.0235565
0000e0 ee b4 5b 3f 9c a1 7d 3f be 68 80 3f 13 15 7f 3f
       0.8582295 0.9907472 1.0031965 0.9964153
0000f0 d4 42 4e 3f e3 c0 7d 3f 07 5b 8b 3f 5e f3 80 3f
       0.8057072 0.99122447 1.0887154 1.007427
000100 0e b4 70 3f 73 4d 7c 3f 33 3a 91 3f f9 a5 87 3f
       0.9402474 0.9855568 1.1345886 1.0597526
000110 a7 bc 80 3f 1a c7 70 3f a8 1c 86 3f e1 da 7e 3f
       1.0057572 0.94053805 1.0477495 0.9955273
000120 ea 8f 75 3f 3f 31 7d 3f 66 20 86 3f 0e 56 8c 3f
       0.9592272 0.9890327 1.0478637 1.0963762
000130 b9 ec 8b 3f fb b2 7a 3f 2a f4 81 3f dc 8b 80 3f
       1.0931617 0.9792935 1.0152638 1.0042682
000140 e6 d1 84 3f 01 7f 82 3f 42 62 71 3f 69 de 80 3f
       1.0376556 1.0195009 0.94290555 1.0067874
000150 69 84 7d 3f 47 59 86 3f 67 63 68 3f 0b ca 86 3f
       0.99030167 1.0495995 0.90776676 1.0530409
000160 4f 00 79 3f 94 dd 85 3f 92 68 7f 3f 68 87 81 3f
       0.97266096 1.0458245 0.99768937 1.0119448
000170 59 5f 85 3f 20 2f 70 3f 5f 63 7c 3f e5 c0 8c 3f
       1.0419723 0.9382191 0.9858913 1.0996367
000180 7e 7d 79 3f 31 aa 7c 3f f6 25 7b 3f 32 43 76 3f
       0.9745711 0.9869719 0.981048 0.9619628
000190 cd 5f 87 3f f0 a6 80 3f ed ed 65 3f 30 5e 82 3f
       1.0576111 1.0050945 0.8981617 1.0184994
0001a0 05 01 79 3f 5d 2f 82 3f 58 44 81 3f f0 a7 8c 3f
       0.9726718 1.0170704 1.0098982 1.098875
0001b0 2c e3 82 3f 63 e9 83 3f 51 b5 81 3f 84 2c 96 3f
       1.0225577 1.0305599 1.0133458 1.1732335
0001c0 09 5d 8c 3f 78 ef 82 3f cc 76 82 3f a6 49 7b 3f
       1.0965892 1.022933 1.0192504 0.98159254
0001d0 4f 06 83 3f 26 3c 82 3f d5 bf 80 3f 64 9e 85 3f
       1.02363 1.0174606 1.0058542 1.0438962
0001e0 9b 22 7d 3f 5b 65 70 3f 3a 95 7e 3f 64 bc 86 3f
       0.9888093 0.93904656 0.9944645 1.0526242
0001f0 d6 1c 78 3f a7 98 74 3f d8 f9 79 3f 67 1f 80 3f
       0.96919 0.9554543 0.97646856 1.0009583

model.predict.predict.3.bias f4 [128]
000000 3d dc 74 3c c8 c6 6b 3b ec cf c5 3c 4e e3 a8 3c
       0.014945087 0.0035976637 0.024146996 0.0206162
000010 fa 15 a4 3c 86 cb b7 3c 4a 1b c1 3c c5 f2 a3 bc
       0.02003001 0.022435915 0.023572583 -0.020013222
000020 e7 50 9c bc c1 67 87 bc ac 23 b6 bc a3 ef c4 3c
       -0.019081546 -0.016528966 -0.022233807 0.024040049
000030 6e 14 a7 3c e1 41 63 3c c8 25 b4 bc 1c 20 af bc
       0.020395484 0.013870687 -0.021990672 -0.021377616
000040 bf c5 a9 bc 9a 30 ec 3b d6 59 72 bc c6 a5 d4 bc
       -0.020724175 0.007207942 -0.014791926 -0.025957953
000050 37 9f 96 3c 45 06 b1 3c 48 0c ad 3c 72 70 af 3c
       0.018386466 0.021609435 0.02112402 0.021415923
000060 c5 d8 a6 bc 16 86 ad 3c 03 c8 c8 3c 86 48 93 3b
       -0.020367036 0.021182101 0.024509436 0.0044947295
000070 8a 76 9b 3b 99 1e a7 bc 7c b1 07 3d b5 1a a0 bc
       0.0047443556 -0.020400332 0.033128247 -0.019543985
000080 e1 df b1 3c a4 f9 8b 3c ed ad 9d 3c 16 9f ad bc
       0.0217132 0.017086811 0.019247973 -0.021194022
000090 f9 0f 9e bc d3 56 46 3c 2d 46 ff 3c 2e de b1 bc
       -0.019294726 0.012105661 0.031161392 -0.021712389
0000a0 b4 1c b2 bc 10 ac 11 3c b3 b3 ad 3c c0 59 9d 3c
       -0.021742202 0.008891121 0.021203851 0.019207835
0000b0 de b3 c2 3c c5 9c 94 bc da 37 93 bc 12 40 ae bc
       0.023767408 -0.01814116 -0.017970968 -0.021270785
0000c0 fb 01 be 3c 90 1a c9 3c 54 b0 06 bc 41 3f a7 bc
       0.023194304 0.024548799 -0.008220751 -0.020415904
0000d0 d6 a9 cd 3c 3a f5 9e bc 6f d1 b5 bc e6 b9 b0 bc
       0.025105398 -0.019404043 -0.022194592 -0.021573018
0000e0 3e ee 74 3c 6d 97 83 bc f5 59 a1 bc 13 ca c4 3c
       0.0149493795 -0.016063416 -0.019696215 0.024022138
0000f0 56 a5 24 3d dc 37 b0 bc 71 fd a5 3c 43 16 c8 3c
       0.04019674 -0.02151101 0.020262452 0.024424678
000100 4e eb 87 bc ed be a5 bc 6f d0 b5 3c ec 23 b1 3c
       -0.016591694 -0.020232642 0.022194115 0.021623574
000110 5d cc ac bc c7 96 4a bc 1e 1c ac bc 35 f5 b6 3c
       -0.021093542 -0.01236505 -0.021009501 0.02233372
000120 8c fb 92 bc d9 e0 ba bc 0b f6 91 bc f7 91 b0 bc
       -0.017942213 -0.022812294 -0.017817518 -0.021553976
000130 20 0e a7 3c 07 87 c3 3c 6a 59 2b bc b1 9c ba 3c
       0.020392478 0.023868097 -0.01045833 0.022779794
000140 75 83 ad 3c 5d 3b c8 3c 2d d0 92 bc f7 01 ab 3c
       0.021180848 0.02444237 -0.017921532 0.02087496
000150 8a b8 09 3c ce 52 bc 3c 41 9c 28 3b 77 8a a7 bc
       0.008405814 0.022988703 0.00257279 -0.020451767
000160 e5 ad 7d bb 0c 9f b0 3c a5 b1 b6 3c 7d c6 a8 ba
       -0.0038708386 0.021560214 0.022301504 -0.0012876537
000170 fb 60 ad bc ff f5 a1 3c 70 6a ab 3c dd 53 b4 bc
       -0.021164408 0.01977062 0.020924777 -0.022012645
000180 2a d6 0c bc f8 58 0f 3c 97 5f a3 bc 81 79 d8 3c
       -0.008595983 0.008749239 -0.019943042 0.026425125
000190 8b 98 d6 bc 8a 7d c4 3c 67 c4 32 bb 73 25 c2 3c
       -0.026195785 0.023985643 -0.002727771 0.023699498
0001a0 e6 ed c9 3c a3 5e bb bc 10 ba 9a bc 0f d4 bf 3c
       0.024649572 -0.022872275 -0.01888755 0.023416547
0001b0 ea 8a b7 3c 3f 89 8f bc bc 08 a5 bc cc 66 89 bb
       0.022405107 -0.017521499 -0.020145766 -0.0041931625
0001c0 21 93 9d bc 14 db a9 bc db 95 a8 3c 5c 25 94 bc
       -0.019235196 -0.020734347 0.02057927 -0.01808422
0001d0 e8 ba a8 bc 1a 40 ce 3c 2e 7b a9 3c 30 00 bc 3c
       -0.020596936 0.02517705 0.02068862 0.022949308
0001e0 75 d2 d3 3c 7e de 78 3c e8 b3 bd 3c 6c 60 9c 3c
       0.02585719 0.015189765 0.023157075 0.019088946
0001f0 b8 a2 a2 bc b3 3c cd 3c 5d 54 54 3c 5a d8 a6 bc
       -0.019852981 0.025053358 0.012959567 -0.020366836
